discriminator_gan_br_lstm.pth (torch, 295868 bytes, 5 tensors)

model.0.weight f4 [256, 156]
00000000: 2e4b 4bc1 20bf 1740 c092 d93f 4562 0f3f
00000010: 71c5 143d d311 80be 8c38 b3be 5cc9 2ebe
00000020: 8b5e db3d 67cf ff3e 21e8 393f 5957 153f
00000030: d413 c53e 5b8a 033e 4e9f b63c 6297 c63c
00000040: 0c42 c93d 1f28 2a3c 3da1 72be becb 2abf
00000050: d2b4 6ebf ed27 79bf 400c 5bbf 7559 39bf
00000060: 40a1 13bf c8a0 efbe fab5 cdbe c32f d3be
00000070: 76e5 07bf e3f2 bbbe 6854 aabe 2531 54be
00000080: ab4b 26be 7449 66be de35 2ebe 5901 9cbd
00000090: cf7d b93d dcb3 6a3d ff0a 113e 331f cd3d
000000a0: 93e7 693e d575 0b3e f4f8 753e c9bb 413e
000000b0: 5035 1c3e b003 773e 510a 213e f189 743e
000000c0: 4a97 583e 76b5 793e dec4 3f3e 383b 6f3e
000000d0: a653 9d3e c42e 703e d73c a73e fd86 9d3e
000000e0: 8993 6c3e 734d 3a3e 8f6e 933e 0f76 873e
000000f0: 1b34 393e 1ef0 8f3e e1e9 8e3e 0998 973e
00000100: 4b04 323e 0a63 4e3e d3a0 4b3e 6def 483e
00000110: b356 ee3d b817 ee3d 1c83 593e d751 193e
00000120: 628d 543e ad9f 2b3e aeb9 353e 045c 2a3e
00000130: c61e 393e 141e 453e 95af 8e3d ad18 393e
00000140: e1d6 a13d d016 773d 73e5 d83d a05f 9c3d
00000150: dc24 fc3d f873 7f3c 0dcb 34bc f211 e63d
00000160: ef5c 2d3d 0eaa c73d 40e0 9f3d be70 0fbc
00000170: c140 953d b899 9b3d e881 cabb 5a0d 19bb
00000180: 7081 6e3d 6ce2 383d fdfe c0bb dcb3 16bb
00000190: dc1f b63d 9407 28bc 4e3a 243d 69c5 913c
000001a0: 387f 95bd eb2c cebd 330f 383d e7e6 ddbc
000001b0: 3d91 993c aa77 fbbc d1aa eabc 6bc3 3db9
000001c0: 9416 533c 30e6 01be 1e19 98bd 8fb3 1dbd
000001d0: cb49 39bd e4ed 55bd aedf 1ebe b880 29be
000001e0: 1f85 23be d462 cdbd 1d7b e4bc e6cb 2fbe
000001f0: b8d0 9cbd c7ef 29be 9f2e 4dbe 4ed4 14be
00000200: bf9a b2bd d999 8fbd a89c 4bbe 1483 11be
00000210: 453e cabd 8726 ffbd 9dd5 03be 0ab3 f3bd
00000220: 6476 e9bd 76cf 0dbe 7a00 5dbe b454 76be
00000230: 08e5 62be 1a54 51be 0cfa 73be 9a27 16be
00000240: aa00 13be 1a34 41be c34e 11be f027 2dbe
00000250: fbf8 25be f6d8 28be a8a0 82be 198f 1ebe
00000260: da90 76be 3971 6fbe 1387 99be 831f 3fbb
00000270: 1ba2 a541 c332 193f 89a1 263f a5fc 413f
00000280: a93f 313d c8a2 23bf d8b0 0dbf c10c a4bf
00000290: 2bfa 65bf 29bb a0bd fa6b e1be 1eec 87bf
000002a0: 5d52 95be d5fb d03e ebfc 3fbe bc81 383f
000002b0: 3479 963f a3b2 d93f b02c b43f 8404 883e
000002c0: cd94 dabe 7408 18bf c7b8 0fbf 9452 c9be
000002d0: 60f4 eabe c7c7 cdbe 746a c0be a0f6 70be
000002e0: 856d 43be 2b0e ecbc 1ed5 2abe 0b92 06be
000002f0: 384a 083b b412 193d 5cbb 3e3e b854 4a3e
00000300: 8103 6b3e e2a2 973e d4db c13e b2a9 903e
00000310: 44b3 ce3e 2063 e23e b7d1 f33e 8966 b53e
00000320: 813c e53e aeac c43e 3f3c 063f f814 de3e
00000330: 9154 003f 849b e33e f9e6 da3e c668 d73e
00000340: d963 df3e c9b0 ed3e b4fe dc3e 5de2 e33e
00000350: 2e8c b03e e744 e53e 3943 e23e 95dc db3e
00000360: 71ef cd3e bebd 8c3e 0749 973e 759c bd3e
00000370: ec2e 5e3e 1834 ab3e 1eeb 313e 8cbe 303e
00000380: cce8 883e 0af3 1d3e 30e4 3c3e d844 833e
00000390: 40d9 6f3e 0179 693e 9626 013e 10a4 7f3d
000003a0: bb83 453e f8e8 bf3d c1ec 843d e947 d93d
000003b0: c7c0 ba3c 05f3 e33d a6e6 c33d 8a95 b8bc
000003c0: 64b3 06bd 6b29 843c ed6a 383d 59e7 01bc
000003d0: 490e 88bd f729 19bd 369f 06be 6f0c fbbd
000003e0: d363 edbd ef95 d8ba 3d2a 473a d35f d2bd
000003f0: 3457 a3bd 26dd 34bd e783 88bd 856d 00be
-12.705854 2.3710403 1.699791 0.5600932 0.036321107 -0.250136 -0.3500408 -0.17069
0.10711392 0.49962923 0.72619826 0.58336407 0.3849169 0.12845747 0.02229276 0.024242107
0.098270506 0.010385542 -0.2369432 -0.66717136 -0.9324466 -0.97326547 -0.85565567 -0.72402126
-0.5766792 -0.46802354 -0.401779 -0.41247377 -0.53084505 -0.36708745 -0.33267522 -0.20721872
-0.16239803 -0.22488958 -0.17012736 -0.076174445 0.09057199 0.057300434 0.14164351 0.100157164
0.22842245 0.13619168 0.2402075 0.1891929 0.15254712 0.241225 0.15726592 0.23880745
0.21151462 0.24385628 0.18727443 0.23362434 0.3072788 0.2345534 0.32663605 0.3076705
0.23103155 0.18193607 0.28795287 0.2645726 0.18086283 0.28112882 0.2791281 0.2960818
0.1738445 0.20154968 0.19885568 0.19622584 0.1163763 0.11625618 0.2124142 0.14972626
0.20757058 0.1676013 0.17746612 0.16636664 0.18078145 0.19249755 0.06967083 0.1807582
0.07902313 0.06032449 0.10590639 0.076354265 0.12311718 0.015591614 -0.011034739 0.112338915
0.042324957 0.09749232 0.07806444 -0.008754907 0.072877415 0.07597679 -0.006180037 -0.0023353905
0.05822891 0.045137808 -0.005889772 -0.0022995388 0.088927954 -0.010255713 0.040094666 0.017794328
-0.07299656 -0.10067161 0.04493637 -0.027087642 0.018746013 -0.030696709 -0.028645905 -0.00018097243
0.012883801 -0.12685466 -0.07426666 -0.03850132 -0.04523639 -0.052228823 -0.15515015 -0.16553009
-0.1596875 -0.100286156 -0.027890736 -0.17167625 -0.076569974 -0.16595374 -0.20037316 -0.14534113
-0.08720922 -0.07011766 -0.19883978 -0.14210159 -0.09875158 -0.124585204 -0.12874456 -0.11899383
-0.11399534 -0.13848671 -0.21582213 -0.24055749 -0.22157681 -0.20442238 -0.23825854 -0.14663544
-0.14355722 -0.18867531 -0.14190201 -0.16909766 -0.1620826 -0.16489014 -0.25513196 -0.15484275
-0.24078694 -0.23383035 -0.29985866 -0.002916307 20.704153 0.5984308 0.65090233 0.7577613
0.0432736 -0.6392026 -0.5534797 -1.2816392 -0.8983485 -0.07848198 -0.44027692 -1.0618932
-0.291644 0.40817133 -0.18748824 0.7207296 1.1755738 1.7007641 1.4076138 0.26565945
-0.4269165 -0.593879 -0.5614132 -0.39320815 -0.45889568 -0.4019148 -0.37581217 -0.2353158
-0.19084747 -0.02881535 -0.1668286 -0.13141648 0.002079619 0.037371352 0.1862616 0.1975888
0.22950555 0.29616457 0.37863028 0.28254467 0.40371144 0.4421625 0.47620937 0.3542979
0.44772723 0.38412994 0.5243568 0.43375373 0.5012904 0.44454587 0.42754343 0.42072123
0.43630865 0.4642394 0.43163073 0.4450864 0.3448195 0.4477913 0.44191912 0.42941728
0.40221742 0.27488512 0.29547903 0.3703343 0.21697587 0.33438182 0.17374846 0.17260188
0.2674011 0.15424743 0.18446422 0.2563846 0.23422718 0.22800066 0.12612376 0.06241232
0.19288532 0.09370607 0.0649047 0.10609419 0.022797002 0.11130337 0.09565477 -0.022532243
-0.032885924 0.01613303 0.045023847 -0.007928693 -0.0664335 -0.037393536 -0.13146672 -0.12258231
-0.115913056 -0.0016524176 0.00075975416 -0.10272183 -0.07975617 -0.044156216 -0.066657834 -0.12541778

model.0.bias f4 [256]
00000000: 7fe9 b1be e40f 723c 6ed9 2b3e 285e 35be
00000010: 13fa 1cbe 539e 6c3d aff6 463e f3a3 653e
00000020: a22f 903e 15ff 8f3c 27d7 cebe 1ae3 423e
00000030: 3951 04be e076 d8bf 25e9 e3bb c31b 59be
00000040: 58c3 663e caa3 05bf 7c25 c83e a25e 0dbe
00000050: 9d08 acbe 7806 633b 4270 ea3d a1e4 553d
00000060: 5c3c 193d 85b9 3d3e 294e 7abd f7ed 15be
00000070: 95d2 0ebd f412 42be c29a 813d e9b8 c0be
00000080: 3ca8 aabf 10e2 00bd d46e 03be 7e05 293e
00000090: 6fbc 02be 0520 0a3e 38e8 513e d89a c03e
000000a0: db83 9bbf 6220 b83e 9a8b 2e3e 3665 9e3e
000000b0: 7d7a 50c0 28c6 94be 0267 1a3d 6593 32bf
000000c0: 9338 8d3e 4390 a03d cba9 60be adc6 b53e
000000d0: c1fb 99be a2ab 6ebe e5da e33d 716f c2ba
000000e0: 8782 17c0 ab4d 8dbe b51d db3d 5e7e a83e
000000f0: 0f10 953e ff18 453d 43b0 a03d 7a12 cbbd
00000100: 3bf9 75be 58a1 4a3e ceae 823e 2a8b cbbe
00000110: e682 a93e 3503 d4bd 99f5 153d 2fbe 983e
00000120: 4bed 023f 7268 123d 29cd 46bf b2ab 8a3f
00000130: 63db c1be e7e8 b9bc 590d d43c 04f5 333f
00000140: 3bcf 3bbe a407 033d 9dd8 d4be b53f 0cbe
00000150: 8cf0 d93d 0dc4 123e d312 11be 8c60 453d
00000160: 15ce 253e 37d8 1bbf 5acd 37be 751a cfbe
00000170: 9022 813e b7cf 2ebf cde4 dcbc b0dd b33d
00000180: 24ea a13e 6e2e c43d 3532 eebc a33e 8a3e
00000190: 01ed 6a3e 1a03 1c3e 81b6 1f3f fe91 1f3e
000001a0: 047d 553f 9d44 87bd 4cab a23e cdf1 883e
000001b0: 9e73 fabd 1961 873d 300f a53c dc65 a1bd
000001c0: c98a 3abe 2087 62be 9b13 f93c bc52 313e
000001d0: d6cb 54be 00bb 88bd 6acd 0fbe 5b45 d93e
000001e0: facd 7b3f 010a ae3b 7d7e 01be b445 0abe
000001f0: 25d8 b33d db29 f9bd b2fa 42bf a4f2 b13d
00000200: 3b0f 2a3c e7a5 c03e 34ab 84be 500f 363e
00000210: 815f 6ebf 3ea2 c73e cf66 0b3e 0964 6ebf
00000220: b8aa 673f 60bd 133d bf2e 983e 687d 2fbe
00000230: d6be 9abe 2027 9e3d c9d3 f7bd b71e 2dbd
00000240: 1a7a e33d a61f 213d d02b f33e b842 c9be
00000250: ad02 8abe e11e d23c 9ba5 42be 0b7a 49bf
00000260: 7459 d4be ad69 29bd 2fcf 9fbe 969c d13c
00000270: 5df6 3f3d d4e9 6c3e d44a 21bf fc2c e1be
00000280: 63ce 93be 8192 d9bd bec9 8b3e 58e6 e7bd
00000290: 5f36 9d3e 0b74 5fbd 73d0 7b3e a9db fc3d
000002a0: 0df0 c8bc 3875 473d f4e3 903e 1fdc 013e
000002b0: ee14 013d 45e9 c7bd 3dfb 673e a6c9 2c3e
000002c0: 7a38 913e ddf5 8b3e e95b 98bf e5f0 b03e
000002d0: 8991 083e 9be3 363e a750 223f b553 4a3e
000002e0: 2260 853e db54 fc3d e3c0 e1be e1b7 4ebf
000002f0: 6300 2a3e e548 003f 58d6 dabd 8423 d9bf
00000300: 5de5 cc3e 90e8 a3bf 2f56 393e bc4a 933e
00000310: 009d 74bb 1a40 40bf 9d01 d33d b9e8 e4bd
00000320: 912b 3e3d de4f 6d3d 6a88 aa3e 5835 48be
00000330: 75d9 083e 0924 c7be 6d68 4bbd 0940 96bd
00000340: f873 3bbf 876d 20be bc50 603d 2e48 98be
00000350: a584 913d c620 153e a787 42bf f180 b23d
00000360: f60b 38be 5beb 23c0 d2da 5d3d 0e95 74bf
00000370: 0486 893e 855b 9e3e f185 09bf 0d28 ebbe
00000380: d2bb b3bc 17fe aebe 852b 4b3e 747f 2dbe
00000390: 2df6 18bf 1f6f f23d a1c1 a83d 99a3 133e
000003a0: b8de 0c3e f41e 103e d91d 093f 9b3b ba3d
000003b0: 8045 963e c548 293e 7d6e 523d 297a cebe
000003c0: f1b9 193e d569 883f 327f 00bf 9928 e9be
000003d0: 18aa 30be f7bb ba3c cb5a 0cbe 3576 e0bd
000003e0: c07e 4d3e 409e d33d 2d49 a53e e1fc 303e
000003f0: 62ae e43e 3efe 03be 5472 c73d 6935 bebe
-0.34748456 0.014774296 0.16782162 -0.17711699 -0.1532977 0.057768177 0.1943004 0.22425823
0.2816134 0.017577687 -0.40398523 0.19031945 -0.12921609 -1.6911278 -0.006955283 -0.21201997
0.22535455 -0.5220305 0.39091098 -0.13805631 -0.3360032 0.0034641307 0.11447193 0.05221999
0.03741108 0.18527801 -0.061109696 -0.14641558 -0.034868795 -0.18952543 0.06328346 -0.37641075
-1.3332591 -0.03146559 -0.12835246 0.16506001 -0.12767194 0.13488777 0.2049874 0.37618136
-1.2149614 0.35962206 0.17045441 0.30936593 -3.257476 -0.2905743 0.037695892 -0.69756156
0.27582225 0.07840016 -0.21939771 0.3550314 -0.30074885 -0.2330766 0.11125735 -0.0014834238
-2.3673418 -0.27598318 0.106990255 0.3290891 0.29113814 0.04811954 0.07846119 -0.099156335
-0.24020855 0.1978811 0.2552399 -0.3975461 0.3310768 -0.10352174 0.036611173 0.298326
0.5114333 0.035744138 -0.776568 1.0833647 -0.3786269 -0.022694064 0.02588527 0.7029574
-0.18340771 0.03198971 -0.41571513 -0.13696177 0.10641584 0.143326 -0.14167337 0.048187777
0.16191895 -0.6087679 -0.17949429 -0.40449873 0.25221682 -0.682857 -0.02696457 0.08782518
0.31623948 0.09579168 -0.029076675 0.27000913 0.22941972 0.15235558 0.62387854 0.15583035
0.83393884 -0.06604884 0.31771314 0.2674698 -0.122290835 0.06610317 0.020148844 -0.07880756
-0.18217005 -0.22121859 0.030404856 0.17316717 -0.20780882 -0.066762924 -0.14043203 0.42435727
0.9836117 0.005311251 -0.12645908 -0.13503152 0.08781461 -0.121661864 -0.7616378 0.08688858
0.010379608 0.37626573 -0.25911868 0.17779279 -0.9311448 0.38990968 0.13613437 -0.9312139
0.9049487 0.036069274 0.29723164 -0.17137682 -0.3022372 0.07722306 -0.12100942 -0.04226562
0.111072734 0.039336823 0.47494364 -0.39308715 -0.26955166 0.02564949 -0.19008486 -0.7870185
-0.41474497 -0.041360546 -0.31212756 0.025587361 0.04686581 0.23136073 -0.63004804 -0.43979633
-0.28868398 -0.106236465 0.27302355 -0.113232315 0.30705544 -0.054554027 0.24591236 0.12346584
-0.024528528 0.048695773 0.28298914 0.12681626 0.0315141 -0.097612895 0.22654434 0.16873798
0.283634 0.27336016 -1.1903049 0.34558788 0.13336767 0.17860262 0.63404316 0.19758494
0.26049906 0.123208724 -0.44092473 -0.80749327 0.1660171 0.5011123 -0.10685414 -1.6963964
0.4001874 -1.2805347 0.18099283 0.28767955 -0.0037325025 -0.7509781 0.10303042 -0.11177201
0.046428267 0.057937495 0.333072 -0.19551599 0.13364203 -0.3889468 -0.049660135 -0.073364325
-0.7322383 -0.15666781 0.054764494 -0.2974257 0.07105378 0.14563283 -0.7598824 0.08716
-0.17973313 -2.56124 0.05416376 -0.9553994 0.26860058 0.309292 -0.53720003 -0.45928994
-0.021940146 -0.3417823 0.1984082 -0.16943151 -0.59750634 0.11837601 0.08240057 0.14417876
0.13756835 0.14074308 0.5356117 0.090934 0.293499 0.16531666 0.0513749 -0.40327576
0.15012337 1.0657297 -0.50194085 -0.45538786 -0.17252386 0.022794707 -0.1370651 -0.10960046
0.20067883 0.10332918 0.3228239 0.17283966 0.44664294 -0.12889954 0.09738603 -0.37150124

model.2.weight f4 [128, 256]
00000000: d356 2ebe 733e f53e a8ec cd3d e711 62bc
00000010: 724e 573c dbb0 9d3d bb62 7e3e eac6 04bd
00000020: 1026 8d3d e2cf a43d a6fa 60bd 553c b73d
00000030: 3a46 60bd 5e1a 3abe 80b9 cd3d 3a5d 6fbe
00000040: 54a6 7f3e 615b 5cbe 1754 a2be 2601 54bf
00000050: d6b4 c13c c8cd 9b3e abbe a6bd 7f84 17bc
00000060: fd9f a03d 97a1 24be 8c71 213c 638a a1bc
00000070: adf5 263e 56c3 e13c 2342 1fbd 252c 4a3c
00000080: bceb b63d 352a 03be 3110 a03c c96f 29bd
00000090: 37c2 7d3c 38cc 99bc 0eaa ef3d 3f00 bcbd
000000a0: 78fa 873c 37e2 b4be c9fa ddbc e1ef 7bbe
000000b0: e40e 473e 567a bcbc 32c2 143d 1794 c53d
000000c0: 3ea2 0bbe b62e 1dbc 591c ae3c 4f78 a13d
000000d0: 5eb9 b1bd 8096 b93d 67be 2fbe 9ec8 3bbf
000000e0: 538c 1a3e cf47 ebbd 77f7 4f3b 684c 553e
000000f0: 4d33 803e 3f34 033f 29e5 383e 0c44 133c
00000100: bee5 70be 4769 e83d 501c 13be a83a ecbd
00000110: 86fe e83c 8720 763d 29a1 abbd 2563 22be
00000120: 8d07 863e 8ac9 e73c f287 14bd 624e 4e3e
00000130: 0642 023e 75a6 a6bd 11d7 283e d9b8 21bf
00000140: d102 8abd 2756 5a3e 20a3 6abd 610f adbd
00000150: cbc0 80bd 01be 84be 95e0 c33d 67e1 c73d
00000160: fc6e d73d 4963 83be d1e7 2cbe 91a1 94bd
00000170: 51b1 df3d 587b febd df36 ddbd eaf8 59bd
00000180: 9077 26bd 9991 03be 6e1c 46bd 1afa 5a3d
00000190: 3dff 98be c6c6 273c 94fb 0f3f f84d a83b
000001a0: 2404 a73e 4318 173e 2d25 9f3d d748 a23e
000001b0: 8d24 09be 22ce 583c 0c70 163e d3f9 a03d
000001c0: cf5b 3f3e 8cc4 033d a371 94be 39fd 0d3e
000001d0: 6db7 21be d378 2e3a e154 d03d 96de 1cbe
000001e0: 8dd5 83bc 1e90 69bf 2671 ec3d 0650 fdbd
000001f0: 76f4 923e f5ee 5dbd a7f8 633e ef95 d23d
00000200: 6059 053f 3ed0 923e 2673 55bd 98b4 cfbd
00000210: 0255 53bd c31d bd3c 02a7 383e 4fd9 96be
00000220: 933c b8bd 8ab1 6f3e 82f8 9fbc bd27 5b3d
00000230: 4431 93be b6c1 1cbe d97e 243e 5db4 11be
00000240: 4ba8 30bd c994 3f3e e7a1 ba3e 3d13 30bf
00000250: 4932 16be 8e62 2dbd aa49 413d eaba 823d
00000260: ea14 17be 9f6e 41bd 5c4f 84be 342c 85bb
00000270: a00b d2bd ffc4 a5bd d874 92be b547 04be
00000280: 5562 4a3e ce6b 7ebe 445e 55be 21e7 18be
00000290: 3e35 76bd d981 b4bd 9266 9a3e b5d2 973e
000002a0: be9e 403e a2f4 4b3e 2297 a13e 5dc6 97bd
000002b0: 7f29 f33d b2de 953e 6e90 603e 5919 9f3d
000002c0: 03a9 57bd d59b 6d3e 4b64 673d a906 993e
000002d0: d082 ddbe 84ce 5b3e 7a4d d93e 2810 8b3e
000002e0: 4fb3 923c d756 e73d 170e 393d bce0 d73d
000002f0: 4535 c3bd 0704 623d 99e2 703c ade3 4abd
00000300: 0109 debd bb6a 4cbe a828 3c3e 7c73 8f3e
00000310: 7391 323e e1bc a23c 125c 86bd 414f cebd
00000320: f70a 5bbe f5b9 ef3d e795 e1bd 6e29 38bd
00000330: 953f 063c 40cc 7fbe 148a 1cbe dd25 a03d
00000340: ec9d 78bd 40a8 c13d b5c3 97bd 2980 593e
00000350: bc42 953d 13c5 abbd 64c5 d33c 871a a33d
00000360: 14fd a5be 1474 f0bd d315 ba3d 6680 46bd
00000370: 445f 0dbf b74f 5cbc 7f1a 293d 703a 26be
00000380: ed4a b8bb 252b bfbd edf9 8d3d a799 28be
00000390: fb88 b93d 8848 a43c cb55 763e c49b 78bd
000003a0: 2c87 91be fbae 8b3e 7de8 ba3e 97d5 0fbd
000003b0: c7ff 51bd a731 5cbe ca28 403e 604b 8b3e
000003c0: aca7 063e 1534 aabd 5b28 99ba ec6c 31bc
000003d0: 3633 963d cdad 903e 6cbe 263e e2b7 e8bc
000003e0: c0da 9b3d 8951 043f 91a6 d33c fc6f e6bd
000003f0: f89b b53d 6298 8b3c 6af7 d93d 83a8 f5bd
-0.17025308 0.47899207 0.10054904 -0.013798214 0.013141261 0.07699748 0.2484235 -0.03241626
0.068920255 0.08047463 -0.054926537 0.08947054 -0.054754473 -0.18174121 0.10045147 -0.23375407
0.24965793 -0.21519233 -0.3170478 -0.8281425 0.0236458 0.30430436 -0.08141836 -0.009247898
0.07843015 -0.16077267 0.009853732 -0.019719308 0.16304655 0.027558964 -0.038881432 0.012339626
0.089316815 -0.1280907 0.01953897 -0.041366372 0.015488199 -0.018774137 0.11702357 -0.091797344
0.016598925 -0.35328838 -0.027097123 -0.24603225 0.19439274 -0.023007553 0.03631801 0.096473865
-0.13636109 -0.009593656 0.021253752 0.07884275 -0.08677934 0.09061909 -0.17162476 -0.7335299
0.15092592 -0.11488306 0.0031733194 0.20829928 0.2503914 0.51251596 0.18056168 0.008988392
-0.2352514 0.11348205 -0.14366269 -0.11534625 0.028441679 0.060089614 -0.08380348 -0.15858133
0.26177636 0.028294344 -0.03626246 0.20147088 0.12720498 -0.08137218 0.16488291 -0.6317268
-0.067388184 0.21321927 -0.057284474 -0.08450199 -0.06286772 -0.2592621 0.0956432 0.09759789
0.105192155 -0.25661686 -0.16885306 -0.07257379 0.10922492 -0.1242587 -0.108014815 -0.0532159
-0.040641367 -0.1284851 -0.048366956 0.05346117 -0.2988223 0.010240262 0.5624325 0.0051362477
0.32620347 0.14755349 0.077707626 0.31696197 -0.1339285 0.01323274 0.1469118 0.0786015
0.18687366 0.032169864 -0.28992948 0.13866128 -0.15792628 0.00066555775 0.10172439 -0.15319285
-0.01609304 -0.9123553 0.11545019 -0.12368779 0.28702134 -0.054182965 0.22262822 0.10282504
0.520895 0.286745 -0.052111767 -0.101418674 -0.05159474 0.02308548 0.18032458 -0.29462668
-0.089959286 0.2340757 -0.019527677 0.053504694 -0.28748524 -0.1530827 0.16064014 -0.1422896
-0.043129247 0.18709101 0.36451647 -0.68779355 -0.1466762 -0.042330317 0.047189392 0.06383307
-0.14754072 -0.047224637 -0.25841796 -0.0040641073 -0.102561235 -0.08094215 -0.2860477 -0.12917979
0.19764073 -0.24845812 -0.2083674 -0.14931919 -0.06010937 -0.08813829 0.3015638 0.29652944
0.18810555 0.19917539 0.31560618 -0.07410882 0.11873149 0.29271466 0.21930096 0.077685066
-0.052651417 0.23203976 0.05649213 0.29887894 -0.43263865 0.21465498 0.42441922 0.27160764
0.017907767 0.1129586 0.045179453 0.105409116 -0.09531645 0.055179622 0.014702463 -0.049533535
-0.10841561 -0.1996259 0.18374884 0.28017795 0.17438297 0.019865455 -0.0656053 -0.1007371
-0.21390902 0.1170539 -0.1101492 -0.044961385 0.00819387 -0.24980259 -0.15287048 0.07819722
-0.06069748 0.09455919 -0.07410375 0.21240295 0.07288119 -0.08387198 0.02585096 0.07964044
-0.32419646 -0.1174089 0.09086194 -0.048462294 -0.5522349 -0.01344674 0.041285034 -0.1623323
-0.005624166 -0.09334401 0.06932435 -0.16464864 0.0905933 0.020054117 0.24056165 -0.060695425
-0.2842344 0.27281937 0.365055 -0.035115805 -0.05126932 -0.21503316 0.1876556 0.27205944
0.13149899 -0.08310715 -0.0011685 -0.010829192 0.073339865 0.282576 0.16283578 -0.028407995
0.076100826 0.5168691 0.025836261 -0.11251828 0.08867639 0.017040435 0.106428936 -0.11995032

model.2.bias f4 [128]
00000000: e8df aebe fc03 633e 7e02 d53e e31c 9ebd
00000010: ad92 c1be 378f 333f 7c7a d8be 2eee 4fbc
00000020: 3245 92be 1c5f 3c3f 4e03 a53c 36ce b93e
00000030: 87ee b43e e5ba 08bf 3c42 063f 571d db3e
00000040: 268c 32bf 0061 3c3d b099 c13e 09d7 86be
00000050: 545f 00be e7b3 52be 5e83 2bbf 0925 12be
00000060: 2299 763e a361 193f ea12 b23e 4a95 9ebe
00000070: 06e9 083f 64a7 253e e8be 583e 8cba f73e
00000080: b062 173e 8475 a93e 7476 583e 2f6c 12be
00000090: a137 0cbf 62a0 693d 5602 45bf 54e0 eebd
000000a0: 5074 a8be 5c01 e23e c360 d4be 7213 803e
000000b0: da65 843c 22da aabe 686a 2abf 6ae2 0b3f
000000c0: 0ec5 bfbe 82f7 21bf 3c36 62bd 7d43 1c3f
000000d0: f82f 04bf b9ae 023f 106a bdbe ab4b febd
000000e0: 8e77 29bd 690f 6abf 7e63 b43e bbfe d8be
000000f0: 2ea5 e5bd ec5b 1ebf 09af b63a cbe9 0abe
00000100: 0b55 1bbf 9bb7 7e3e 9e5d a23e e472 043e
00000110: 5554 373e 6faf c13e 8c0d 32bf 086a 2d3f
00000120: ea82 18bf 6a79 a9be 21d4 133f 5bef d0be
00000130: 8c3e d1be a05d c43d 681c 93bd 2c12 af3e
00000140: 7f1b 783e b18b 54be a363 c03e 54ab 3b3e
00000150: 6428 78bf 4014 2c3f a112 03bf 3140 d0be
00000160: 484d 083e 82a2 25bf c440 d43e 2bbc e23e
00000170: e976 e53e 516d d9be 5eab 20bf b04f 0b3e
00000180: d14c 49be 18a6 e5bd b773 47bd f5fe 2f3f
00000190: 1b7b 73bf 1522 1c3f e98c 003f a2cd 003e
000001a0: ee4b d1be 0189 aa3d 83d0 90be b318 64bd
000001b0: b61b 0b3e 2faa 77be a28b 4abf 8a15 173e
000001c0: 53db b2bd b068 8bbe 1d20 c5bc 5579 e5bd
000001d0: 553c ddbe db7c 4e3e b66b bebe 91dc 2c3f
000001e0: 204b 75be 91d9 f23e 3233 f4be c43d 053f
000001f0: dd54 c93e 54a2 243d 5540 82be 1eab ecbe
-0.34155202 0.22169489 0.41603464 -0.077203535 -0.37807217 0.70140404 -0.42280948 -0.012691064
-0.28568417 0.73582625 0.020143177 0.3629014 0.35338232 -0.5341018 0.52444816 0.42795822
-0.697451 0.045990944 0.37812567 -0.26335934 -0.12536365 -0.2057644 -0.66997325 -0.1427194
0.24081853 0.59914607 0.34780055 -0.30973274 0.53480566 0.16177136 0.21166575 0.4838451
0.1478374 0.3309747 0.21138936 -0.14299081 -0.5477238 0.05703772 -0.7695669 -0.11663881
-0.3290124 0.44141662 -0.41480073 0.25014836 0.016161848 -0.33369547 -0.66568613 0.54642355
-0.37455028 -0.6326829 -0.055227503 0.6104048 -0.51635695 0.51047856 -0.36994982 -0.12416776
-0.04137378 -0.91429764 0.35232157 -0.42381844 -0.11213146 -0.6185901 0.0013937663 -0.13565747
-0.6067664 0.24874727 0.3171205 0.12934452 0.17903264 0.37829158 -0.6955192 0.67739916
-0.5957476 -0.33100444 0.5774556 -0.40807614 -0.40868032 0.0958817 -0.071831524 0.34193552
0.24229239 -0.20756413 0.37576017 0.18327075 -0.9693663 0.672184 -0.512003 -0.40673974
0.1331073 -0.6470109 0.41455662 0.44284186 0.44817284 -0.42466214 -0.62761486 0.13604617
-0.1965821 -0.112133205 -0.04869434 0.6874841 -0.9510972 0.60989505 0.5021501 0.12578443
-0.40878242 0.08326913 -0.28284082 -0.055687618 0.1358479 -0.24186014 -0.7911931 0.1475431
-0.08733239 -0.27228308 -0.024063164 -0.11204783 -0.43210092 0.20164816 -0.37191552 0.6752406
-0.23954439 0.47431615 -0.4769531 0.5204737 0.39322558 0.04019387 -0.25439706 -0.46224302

model.4.weight f4 [1, 128]
00000000: 2f26 643d 25d6 53be 4931 26be 6bd4 553f
00000010: 06e4 463e d2bf 1abe ad07 c83a ab4c a1be
00000020: 24f1 713e b862 eabd 1bf7 52bf 9e39 fbbe
00000030: 565a 18bf d6c8 92bd c7da 7e3d 4cd1 ffbd
00000040: df4d b7bb a45e 023f 216f 3bbe d895 133c
00000050: f7cc 4f3e 4d50 6c3c 7ecf e53e 97cb 6e3e
00000060: 6e15 4eba b135 d4be b74b b0bb a8fb f73e
00000070: 38b5 e5be 82cc 773a caae d9bc 410b e8be
00000080: b10a c8be c813 ffbd 2e15 d5be 2d91 84be
00000090: a1a7 653e 5873 cdbe fc5c 9b3e d3d8 0b3f
000000a0: c679 34b9 46af cdbe 832c e0ba ff37 f6bd
000000b0: d74a 753e c6ed f43b 1c96 e13e d15b 78be
000000c0: c949 9abb 55da 623b 044a 973d 9b61 30bf
000000d0: 9824 06ba 5624 25be 4074 413c 45b8 053f
000000e0: e047 8d3e ff46 8abd ccf7 36bf 77bb 263e
000000f0: e319 afbe 2c94 f93b e878 edbd e6d7 8ebb
00000100: c146 1e3f b33e c9be a386 e4bd e9ef 233c
00000110: 23af 50bf 2b6f 5cbf e693 463a e657 49bf
00000120: aacd c8b9 4bbe 7dbb f684 16bc 53a6 293e
00000130: e0c9 61be e538 a9be 7fae 20bd b234 1ebf
00000140: 09b5 11bf c363 813e 3923 03bf 2e34 85be
00000150: dec7 133e 769a 89be 507a ca3e 2a62 173b
00000160: 79cb 20bf 8ce9 023e 3e94 54bf 8b04 1abf
00000170: e6e6 22bf 3fcf 923d 4f83 0a3f 503f 82be
00000180: ab42 c33a 9f4a 023f 4043 9a3d c5cb 75be
00000190: f158 b93e 0e4c 53be 5d94 e5be a095 cfbe
000001a0: 8ad2 103d af9c c33e d547 d8bb b750 9cbe
000001b0: c6c1 95bf 693b 3fbe 289e 21b8 71b0 b3be
000001c0: 95ae 9abe 174c a83e 7c0e e83e 7c40 8bbe
000001d0: bd16 21be 05c0 c4be c047 4abd 7c1c 57bf
000001e0: 774e 58be daf5 33bf 0f98 813b 4e4c f7be
000001f0: f0ac cfbe 6dfc e93e b005 873e 0d26 1a3d
0.055700477 -0.20687158 -0.16229738 0.8352725 0.19422922 -0.15112236 0.0015261077 -0.31503806
0.23627144 -0.1144461 -0.82408303 -0.49067396 -0.5951284 -0.07167213 0.06222036 -0.12491092
-0.0055939998 0.5092566 -0.18304111 0.0090078935 0.20293032 0.014423442 0.44884866 0.23319851
-0.00078614696 -0.41447213 -0.0053801197 0.48434186 -0.4486482 0.0009452776 -0.026572604 -0.45321086
-0.39070657 -0.12454945 -0.4161772 -0.2589201 0.22427227 -0.40127063 0.3034438 0.5462772
-0.00017211502 -0.40172786 -0.0017103109 -0.12022399 0.2395433 0.007474634 0.44059837 -0.24253775
-0.004708503 0.0034615 0.07387164 -0.68898934 -0.0005117147 -0.16127142 0.011807501 0.522343
0.275939 -0.06751823 -0.7147186 0.1628245 -0.34199437 0.0076165404 -0.11595327 -0.004359233
0.6182671 -0.39305648 -0.111584924 0.0100059295 -0.8151724 -0.8610713 0.0007575139 -0.7864975
-0.00038300204 -0.003871816 -0.009186974 0.16567354 -0.22049665 -0.3305122 -0.039228912 -0.61799157
-0.5691686 0.25271425 -0.5122562 -0.26016372 0.14431712 -0.26875657 0.39546442 0.0023099282
-0.62810475 0.12784404 -0.830387 -0.6016318 -0.63633573 0.07168435 0.5410661 -0.2543893
0.0014897188 0.5089511 0.07532358 -0.24003513 0.3620067 -0.20634481 -0.44839755 -0.40543842
0.035357036 0.38205478 -0.00660036 -0.3053033 -1.169976 -0.18675007 -3.8532686e-05 -0.35095552
-0.3021132 0.32870552 0.4532355 -0.27197635 -0.1573133 -0.3842775 -0.049384832 -0.8402784
-0.21123682 -0.70297015 0.0039548944 -0.48300403 -0.40561628 0.45700398 0.26371527 0.037633944
