discriminator_gan_ecv_base.pth (torch, 397254 bytes, 5 tensors)

model.0.weight f4 [256, 255]
0	0x3fac0fb9	1.3442298
1	0xbf0f0de8	-0.55880594
2	0x3e9567e7	0.29180834
3	0x3df61cac	0.120171875
4	0xbee55b3b	-0.44796166
5	0xbec87cbb	-0.39157662
6	0x3ebe2e58	0.37144732
7	0xbf19d4f4	-0.60090566
8	0xbd125a21	-0.035730485
9	0xbde990f5	-0.114046015
10	0xbc7fee06	-0.015620714
11	0xbf0551dc	-0.5207803
12	0x3d962e5c	0.07333061
13	0x3e1f5ac0	0.15561962
14	0x3db92c00	0.090415955
15	0x3e2b4876	0.1672686
16	0xbeef94d2	-0.46793228
17	0xbf59d84f	-0.85095686
18	0x3e8d326e	0.27577537
19	0x3eeb5192	0.4596067
20	0x3ea8ac5f	0.3294401
21	0x3e7abd1e	0.24486205
22	0xbe7c801b	-0.24658243
23	0xbf39ace6	-0.7252945
24	0xbe1740a8	-0.14770758
25	0xbe92f051	-0.28698972
26	0x3f25446b	0.6455752
27	0xbf253190	-0.6452875
28	0xbe94c948	-0.29059815
29	0x3edbd1e5	0.42933574
30	0xbe809097	-0.25110313
31	0x3ef16c4f	0.47152945
32	0xbf2f0436	-0.683658
33	0x3e8a1059	0.26965597
34	0x3f2728f4	0.65296865
35	0xbc9a2691	-0.018817218
36	0x3f076c90	0.5290003
37	0x3f05a012	0.5219737
38	0xbe226f19	-0.15862693
39	0xbd033e96	-0.03204211
40	0x3eaf5def	0.34251353
41	0x3c6df427	0.0145235425
42	0xbee508c3	-0.44733247
43	0xbf201ece	-0.62547004
44	0x3f351c64	0.70746446
45	0xbedf6f97	-0.43639824
46	0xbf5efedc	-0.87107635
47	0x3ea57fc1	0.3232403
48	0xbe82b822	-0.25531107
49	0xb9b1e5f9	-0.00033931414
50	0x3efc6d3c	0.4930209
51	0x3f4ee3e7	0.808165
52	0x3f2317b3	0.6370804
53	0xbd7ae2d3	-0.061251473
54	0xbe829f66	-0.25512236
55	0x3f3a4360	0.72759056
56	0x3e8a1d94	0.2697569
57	0xbf0e51d6	-0.5559362
58	0x3e51423a	0.2043542
59	0x3ec8abe3	0.3919364
60	0xbca92073	-0.020645356
61	0x3e01ed65	0.12688215
62	0xbf1f84aa	-0.62311804
63	0x3ddff310	0.10935032
64	0x3e3501b9	0.17676438
65	0xbee4cd53	-0.446879
66	0x3dc691e0	0.09695792
67	0xbd9f52c8	-0.07779461
68	0x3d870519	0.06592769
69	0x3ecc7701	0.39934543
70	0x3e66463d	0.22487731
71	0x3f1523be	0.58257663
72	0xbd03a22d	-0.032137085
73	0xbf34f4bb	-0.7068593
74	0x3d94730a	0.072485045
75	0xbf3fd3df	-0.74932665
76	0xbebf6f63	-0.3738967
77	0xbcfda775	-0.030963639
78	0xbef71b96	-0.48263234
79	0x3e743e66	0.23851928
80	0x3d7b2624	0.06131567
81	0x3e654116	0.2238811
82	0x3d5ede53	0.054411244
83	0x3c63e4f4	0.013909567
84	0x3cb3cd09	0.021948354
85	0x3eb15ea5	0.3464252
86	0x3e5ef6d4	0.21773845
87	0xbf9093ab	-1.1295065
88	0x3e5a8029	0.21337952
89	0xbedf2932	-0.43586117
90	0x3eaad325	0.33364215
91	0x3eb49568	0.35270238
92	0x3dba0f3c	0.09084937
93	0x3f081349	0.53154427
94	0xbf4a2342	-0.7896005
95	0x3f43ebc7	0.7653164
96	0x3eaa8acf	0.33309028
97	0x3e377070	0.17913985
98	0x3eb437bb	0.3519877
99	0xbe90d4d7	-0.28287384
100	0x3f8d9f73	1.1064285
101	0xbbdee766	-0.006802487
102	0x3ece1cf2	0.4025646
103	0xbf3956e1	-0.7239819
104	0xbe6c94ac	-0.23103589
105	0xbe351ae8	-0.17686045
106	0x3f4a325f	0.7898311
107	0x3f1bea03	0.6090395
108	0x3ec4bb22	0.3842402
109	0xbf0f9c66	-0.5609802
110	0x3f079178	0.5295634
111	0xbec444e6	-0.38333815
112	0x3f533c8e	0.82514274
113	0x3eb223d8	0.34792972
114	0x3f5a7f45	0.8535045
115	0xbefefa08	-0.49800134
116	0xbe0025ba	-0.12514392
117	0x3e42000f	0.18945335
118	0x3f32cf73	0.6984779
119	0x3ec445ad	0.38334408
120	0x3e286454	0.16444522
121	0xbfcea8b5	-1.6145235
122	0x3ee3ea4c	0.44514692
123	0x3c7ee2a9	0.01555697
124	0x3d316b39	0.043315146
125	0x3e127dcf	0.14305805
126	0x3f06116b	0.5237033
127	0xbefadfa2	-0.48998743
128	0xbec4d78b	-0.38445696
129	0x3f9b20d8	1.2119398
130	0x3f4e1bdc	0.8051126
131	0xbeb08f40	-0.3448429
132	0xbf3afc3a	-0.7304112
133	0x3e6008bf	0.21878336
134	0xbf49cc9c	-0.78827834
135	0x3d06578e	0.032798342
136	0xbec3b05d	-0.38220492
137	0xbf75df0a	-0.96043456
138	0xbf5b4d00	-0.8566437
139	0xbf3229bb	-0.69594926
140	0xbe4e9e54	-0.20177585
141	0x3f15e5c8	0.58553743
142	0xbf607f96	-0.8769468
143	0x3f1ffee8	0.6249833
144	0xbeb4fc53	-0.35348758
145	0xbd0ee9d5	-0.03489097
146	0xbf5baae3	-0.8580763
147	0xbf475315	-0.7786115
148	0x3ddbbb01	0.107290275
149	0xbe9b823d	-0.303728
150	0xbd8e3495	-0.06943623
151	0x3f3a3aa4	0.7274573
152	0xbf2e2501	-0.68025213
153	0x3e3e6187	0.18591891
154	0xbe896d12	-0.26841027
155	0xbf5eab56	-0.8698019
156	0xbf5cd257	-0.86258453
157	0xbf28b243	-0.65897006
158	0x3e39e43f	0.18153475
159	0xbdfa3cca	-0.12218626
160	0xbe132dfb	-0.14373009
161	0xbf6b04f1	-0.91804415
162	0x3e653352	0.22382858
163	0x3e9b4b2d	0.30330792
164	0xbf39a2c5	-0.7251399
165	0x3dea37ed	0.11436448
166	0xbee93e2e	-0.45555252
167	0xbe91fc3c	-0.28512752
168	0x3f005091	0.50122935
169	0xbed382b4	-0.41310656
170	0x3f56677d	0.8375166
171	0x3eca6fdd	0.3953847
172	0x3ea45f02	0.32103735
173	0x3dca6c36	0.09883921
174	0x3f0e3445	0.55548507
175	0x3f34e91f	0.70668215
176	0x3de66e96	0.11251561
177	0xbebd8894	-0.37018263
178	0x3f1bf75d	0.6092432
179	0x3ecf33ee	0.40469307
180	0xbe2ab265	-0.16669615
181	0xbf2a07ca	-0.66418135
182	0x3efeddb0	0.4977851
183	0x3ed1cd49	0.40976933
184	0xbe9925ae	-0.2991156
185	0xbef68900	-0.48151398
186	0xbdf6dbc5	-0.120536365
187	0xbead6c12	-0.33871514
188	0x3f7936b6	0.9734911
189	0xbefb758d	-0.49113122
190	0xbd04df71	-0.032439653
191	0x3dfd604a	0.12371881
192	0xbe2beb24	-0.16788918
193	0x3f16da78	0.58927107
194	0x3f45654c	0.7710769
195	0x3e112977	0.14175974
196	0x3e523a54	0.20530063
197	0x3e725f9a	0.23669282
198	0xbcd51596	-0.02601127
199	0xbf231c3f	-0.63714975
200	0x3e8783fc	0.26467884
201	0xbe470416	-0.19435152
202	0x3eb972c7	0.3622038
203	0xbedbc4a3	-0.4292346
204	0xbd8b7f12	-0.06811346
205	0x3f7855f3	0.9700615
206	0xbee20f0c	-0.44152105
207	0xbec6f9a4	-0.38862336
208	0xbd51cd54	-0.051221207
209	0xbe28b0aa	-0.16473642
210	0xbf54e937	-0.8316836
211	0xbd3bb4fb	-0.045826893
212	0xbe7f8436	-0.24952778
213	0xbf300ff6	-0.68774354
214	0x3bce7646	0.0063007204
215	0x3ed1ff5e	0.41015142
216	0x3eb7ae5e	0.3587522
217	0x3fb82a8f	1.4387988
218	0xbf6b1afa	-0.9183804
219	0x3e5cb387	0.21552859
220	0xbe944f32	-0.2896667
221	0x3f3aae18	0.72921896
222	0xbeace69d	-0.33769694
223	0xbecb33e8	-0.3968804
224	0x3ec9ed9d	0.39439097
225	0xbf641bca	-0.891049
226	0x3f0139f1	0.50479037
227	0xbe972579	-0.29520777
228	0x3c0c517a	0.008564347
229	0xbf0ffc7b	-0.5624463
230	0xbe1b380c	-0.15158099
231	0xbf0c7c59	-0.5487724
232	0xbedf08a2	-0.43561274
233	0xbf053aca	-0.5204283
234	0xbf8f90d0	-1.1216068
235	0xbf27c851	-0.65540034
236	0x3ef816f8	0.48455024
237	0xbd59617d	-0.053071488
238	0xbe8d8813	-0.2764288
239	0xbe922dd6	-0.28550595
240	0xbdcaae96	-0.09896581
241	0x3f208daa	0.6271616
242	0x3e275ed9	0.16344775
243	0xbeaf9182	-0.342907
244	0x3ea20447	0.31643888
245	0x3f203686	0.62583196
246	0x3f1fb0e7	0.62379307
247	0x3deec634	0.11658898
248	0x3ebf50e4	0.37366402
249	0x3e6c8821	0.23098804
250	0x3d983d37	0.07433551
251	0xbe46b546	-0.19405088
252	0x3d1f630d	0.03891282
253	0xbe5902c0	-0.21192455
254	0xbd7ee056	-0.062225662
255	0xbf8c3d3d	-1.0956188

model.0.bias f4 [256]
0	0x3d847885	0.064683
1	0xbd048f69	-0.03236333
2	0xbbbdbeb2	-0.005790555
3	0x3c999f13	0.01875261
4	0xbdfa3846	-0.122177646
5	0x3d02ad99	0.031903837
6	0x3e290835	0.16507037
7	0x3d8107d0	0.06300318
8	0xbbdd37c1	-0.006751031
9	0x3e46d644	0.19417673
10	0xbc8dc12d	-0.017304027
11	0xbdec990b	-0.11552628
12	0x3e83393a	0.25629598
13	0xbcb25905	-0.021770963
14	0xba1a45b2	-0.0005885019
15	0xbdd0cfd4	-0.1019589
16	0x3ce999d9	0.028515743
17	0x3b51b04e	0.0031995955
18	0xbb296b24	-0.0025851214
19	0xbd015141	-0.03157163
20	0xbcbd9213	-0.023140943
21	0x3c2e9936	0.0106566455
22	0x3c8b6c75	0.01701949
23	0x3d76fffa	0.060302712
24	0xbda202e9	-0.07910711
25	0xbcf1eaa6	-0.029530834
26	0xbd9142af	-0.07092797
27	0xbc2114dd	-0.009831634
28	0x3d65808b	0.05603079
29	0x3be4326b	0.006964018
30	0xbc33ecef	-0.010981782
31	0x3efd78c2	0.49506193
32	0xbc87106c	-0.016487323
33	0xbcf41bb3	-0.029798364
34	0xbb549f2d	-0.003244351
35	0x3d1bccaa	0.03803698
36	0x3de37c7c	0.11107728
37	0xbcd02235	-0.025406936
38	0xbb893e84	-0.0041883606
39	0xbc82e0db	-0.01597636
40	0x3ca519c0	0.02015388
41	0x3c95579e	0.018230256
42	0x3c9d0878	0.019169077
43	0xbd19fb89	-0.0375934
44	0xbb4a6c97	-0.0030887478
45	0x3a01e6b8	0.0004955339
46	0x3c425c7d	0.011862871
47	0xbc12226b	-0.008919339
48	0x3c96ecaf	0.018423406
49	0xbc01bb32	-0.007918166
50	0xbd3b7d82	-0.04577399
51	0xbc4ac60e	-0.0123763215
52	0xbba362f4	-0.0049861614
53	0xbd48b749	-0.04900292
54	0x39a6bff5	0.00031805006
55	0x3cdb30d6	0.026756685
56	0x3c5ffe80	0.013671517
57	0xbb254196	-0.0025216094
58	0x3d067633	0.032827567
59	0x3cb41644	0.021983273
60	0x3bbe69bc	0.0058109444
61	0x3c1e3799	0.00965681
62	0xbc4a5d9d	-0.012351421
63	0x3955bcf8	0.0002038366
64	0x3c0d40dd	0.008621422
65	0x3ba008fc	0.0048838835
66	0xbba7ba80	-0.005118668
67	0x3cef6335	0.02922211
68	0x3cbe062c	0.023196302
69	0x3d168d21	0.036755685
70	0xbc430671	-0.011903391
71	0xbcf029bc	-0.029316776
72	0x3f7efc5d	0.99603826
73	0x3cbb9db6	0.02290235
74	0x3ecaa462	0.3957854
75	0x3d35260e	0.044225745
76	0x3d83f9a5	0.064441
77	0x3d3ea919	0.046547983
78	0x3ea98ab8	0.33113647
79	0xbce7ea34	-0.028309919
80	0xbba9a272	-0.0051768357
81	0xbcda1e13	-0.026625669
82	0x3bf54d15	0.0074859955
83	0x3f20027c	0.6250379
84	0x3c8c3968	0.017117217
85	0x3cd647e7	0.026157333
86	0xbcb87546	-0.022516858
87	0xbc4ab9c0	-0.012373388
88	0x3f1de03c	0.6167028
89	0x3bea77b4	0.007155383
90	0xbbff5c24	-0.0077929664
91	0xbce11149	-0.027474063
92	0x3ce7c8e6	0.028294038
93	0x3c86bca4	0.016447373
94	0x3b69b943	0.0035663403
95	0xbaa5f03b	-0.0012660095
96	0xbebc6c62	-0.3680144
97	0x3c96b1b5	0.018395284
98	0x3cb730bb	0.022362104
99	0xbd4387e1	-0.047737006
100	0x3d0e73cd	0.034778405
101	0x3f159669	0.5843263
102	0xbca536a6	-0.02016766
103	0x3bbdf895	0.0057974556
104	0xbc172f56	-0.009227594
105	0x3ce5187b	0.027965775
106	0x3cf0b3d1	0.029382618
107	0xbca094b1	-0.019602152
108	0xbd8dec5c	-0.069298476
109	0xbd659975	-0.05605455
110	0x3cb0d923	0.021587914
111	0x3d327baa	0.043574966
112	0x3d2e114c	0.042496964
113	0xbc11b153	-0.008892375
114	0xbe25faf2	-0.1620901
115	0x3d2b6b4e	0.04185038
116	0x3d16e81e	0.036842458
117	0x3c3f56b8	0.01167839
118	0x3d7aa3e2	0.061191447
119	0x3c084760	0.008317798
120	0xbca3d507	-0.01999904
121	0x3d055879	0.032555077
122	0xbce732f9	-0.028222548
123	0x3c7f85c2	0.015595855
124	0x3c3f29fc	0.011667725
125	0x3d20b26a	0.03923265
126	0xbccf8b17	-0.025334878
127	0xbc37edcb	-0.011226128
128	0x3cbefdee	0.023314442
129	0x3e97acd1	0.29624036
130	0x3d02c488	0.031925708
131	0x3f065a12	0.52481186
132	0x3c9801c6	0.018555533
133	0x3c847855	0.01617066
134	0x3f8f16d1	1.1178838
135	0xbd8392bb	-0.06424471
136	0xbcfc5aa9	-0.030804949
137	0xbf9d948d	-1.2310959
138	0x3cf4ba03	0.029873854
139	0xbb1bfc0f	-0.0023801362
140	0xbb714bc9	-0.0036818853
141	0x3ccdebe5	0.025136897
142	0x3bd374de	0.0064531406
143	0x3d4e8426	0.050418995
144	0x3c3054b6	0.010762384
145	0x3caba0fb	0.020950785
146	0xbddc1b72	-0.10747422
147	0x3f3e484a	0.74329054
148	0x3e87cbd4	0.26522696
149	0xbce3effc	-0.027824394
150	0xbd52b623	-0.05144323
151	0x3c2fa93d	0.010721502
152	0x3e18590e	0.14877722
153	0xbf541eda	-0.82859576
154	0xbc2123a3	-0.009835157
155	0xbc874a40	-0.016514897
156	0x3acd78e5	0.0015676288
157	0xbd96746b	-0.07346424
158	0x3ea36e8c	0.31920278
159	0xbd16f104	-0.036850944
160	0x3d08b7db	0.033378463
161	0x3b5031f4	0.0031768056
162	0x3edb205c	0.42798126
163	0xbc9ab62f	-0.0188857
164	0xbd2045c3	-0.03912903
165	0x3c29fa53	0.010374623
166	0x3cb4e2b3	0.022080755
167	0x3c66db45	0.014090364
168	0xbd2bd3b1	-0.04194993
169	0xbd3faf82	-0.046798237
170	0xbe00cc4e	-0.12577936
171	0x3bbb4b55	0.0057157674
172	0x3f3336b4	0.70005345
173	0x3d63d3c3	0.055621874
174	0xbc906e7e	-0.017630812
175	0xbb90db5d	-0.0044206814
176	0x3b5b83ce	0.003349531
177	0xbae9b4c1	-0.0017830358
178	0xbe8e8f76	-0.27843827
179	0xbbea7f9d	-0.007156326
180	0xbd0a8b28	-0.033824116
181	0xbc1bf3e2	-0.009518595
182	0x3ce48c51	0.02789894
183	0x3ce290f3	0.027657008
184	0x3dcb3cff	0.099237435
185	0xbd0f41f9	-0.034975026
186	0x3a84a0da	0.0010118738
187	0x3d58ecfb	0.052960377
188	0x3cf443cb	0.029817482
189	0x3d2df608	0.04247096
190	0xbb133386	-0.002246113
191	0xbd4104cd	-0.04712372
192	0xbc1d8124	-0.009613309
193	0x3c48e0b1	0.012260602
194	0x3dff9185	0.124789275
195	0x3da6c93d	0.08143852
196	0xbc08a528	-0.008340158
197	0x3d3cebb0	0.046123207
198	0xbcea3cc5	-0.02859343
199	0xbc782d1a	-0.015147472
200	0x3d5a4df5	0.053297002
201	0xbc83c6fc	-0.016086094
202	0x3d1d31db	0.038377624
203	0x3c986934	0.018604852
204	0xbc93135a	-0.017953563
205	0xbd08143c	-0.033222422
206	0x3e083417	0.1330112
207	0x3d057e8b	0.032591384
208	0xbe83db1c	-0.25753105
209	0x3cbc6fb8	0.02300249
210	0xbe92e9d2	-0.28694016
211	0x3f01b769	0.50670487
212	0xbc4438e7	-0.011976457
213	0x3d30462c	0.04303567
214	0x3d1ff86e	0.03905528
215	0xbc610ddd	-0.013736215
216	0x3c9b5b42	0.018964414
217	0x3d678021	0.056518678
218	0x3d4c2222	0.04983724
219	0xbcf6f87f	-0.030147789
220	0xbd7233b8	-0.059131354
221	0x3b11b8d1	0.0022235403
222	0xbbf8562d	-0.0075786323
223	0x3d1ab148	0.037766725
224	0x3add29b9	0.0016873396
225	0xbc8a7885	-0.016903171
226	0x3ccb9d2d	0.02485522
227	0x3d4000ec	0.04687588
228	0x3d083bdc	0.03326021
229	0xb99a24f1	-0.00029400692
230	0xbc93f024	-0.018058844
231	0x3c07d83e	0.008291302
232	0x3cdab2ab	0.026696524
233	0xbe315af4	-0.17319852
234	0x3d95957e	0.07303904
235	0xbc242cdd	-0.010020462
236	0x3adcffe2	0.0016860927
237	0x3dac1cb4	0.08403912
238	0x3c33c5ec	0.010972481
239	0x3ddb7869	0.10716326
240	0x3c8366e4	0.016040273
241	0x3b370b0e	0.0027930173
242	0x3da7f5dc	0.08201191
243	0xbb089a5a	-0.0020843954
244	0xbc91174b	-0.017711302
245	0x3e379171	0.17926575
246	0xbc118c99	-0.008883619
247	0x3d5766bf	0.05258822
248	0xbd0b4738	-0.034003466
249	0x3ce0c8f7	0.027439578
250	0xbc6fcce0	-0.014636248
251	0x3ca5c469	0.020235257
252	0xbec8d7e5	-0.39227214
253	0xbde0631c	-0.109564036
254	0x3d89290e	0.06697284
255	0x3e71f29c	0.23627704

model.2.weight f4 [128, 256]
0	0xbeee9264	-0.46596062
1	0xbea3f161	-0.32020095
2	0xbf156346	-0.58354604
3	0xbe93d6be	-0.28874773
4	0x3f18d7f8	0.5970454
5	0xbe8b1c21	-0.27169898
6	0x3ec4afb5	0.38415304
7	0x3ea7f1c0	0.32801628
8	0xbe864926	-0.26227683
9	0xbb9929aa	-0.004674156
10	0xbef26806	-0.4734499
11	0xbea5c2b8	-0.3237512
12	0x3ea42181	0.3205681
13	0xbee9aff5	-0.45642057
14	0xbf1f546a	-0.6223818
15	0xbe251b1f	-0.16123627
16	0xbe312d0b	-0.17302339
17	0xbf0e7440	-0.55646133
18	0xbe6db0bc	-0.2321195
19	0xbf10ee74	-0.5661385
20	0xbeb58309	-0.35451534
21	0xbec1f162	-0.37879473
22	0xbde7b2d7	-0.11313408
23	0xbea31635	-0.3185288
24	0x3e9163ff	0.28396603
25	0xbed6d251	-0.41957334
26	0xbe3f2a55	-0.18668492
27	0xbec4b1e4	-0.3841697
28	0xbe8487b9	-0.25884798
29	0xbee52690	-0.44755983
30	0xbf2517d9	-0.64489514
31	0x3eca0e2d	0.3946394
32	0xbe3937b3	-0.18087654
33	0xbe8b43b9	-0.27200106
34	0xbf249c8a	-0.6430136
35	0xbe902416	-0.2815253
36	0x3c8a23be	0.016862746
37	0xbea90af3	-0.33016166
38	0xbe07bacd	-0.13254853
39	0xbe994213	-0.29933223
40	0xbe98b0e3	-0.29822454
41	0xbe16b688	-0.14718068
42	0xbee80fb3	-0.45324478
43	0xbe2d0904	-0.1689797
44	0xbf0e17b5	-0.55504924
45	0xbd97a567	-0.07404595
46	0xbfaac260	-1.3340569
47	0xbe0eb4bb	-0.1393613
48	0xbf00defd	-0.50340253
49	0x3bee0f21	0.007264987
50	0xbf1e110e	-0.61744773
51	0xbe9c73b9	-0.3055704
52	0xbea9da01	-0.33174136
53	0xbe669e67	-0.22521363
54	0xbe82f4d3	-0.2557741
55	0xbe46baaa	-0.19407144
56	0xbd8df409	-0.06931312
57	0xbf0a7536	-0.540851
58	0xbe124a26	-0.14286098
59	0xbed81eb8	-0.42210937
60	0xbf1e1bc8	-0.6176114
61	0xbe47b413	-0.19502287
62	0xbf015f04	-0.5053561
63	0xbf2cb6ce	-0.6746644
64	0xbe44326d	-0.19159861
65	0xbe503f99	-0.2033676
66	0xbf2df032	-0.67944634
67	0xbf07248a	-0.5279013
68	0xbd91cb59	-0.071188636
69	0xbeb176bc	-0.346609
70	0xbf1a21b2	-0.60207665
71	0xbf14a4cf	-0.5806398
72	0xbe8db0b9	-0.2767389
73	0xbe65925d	-0.22419114
74	0x3f09be6a	0.53806174
75	0xbe9d4c27	-0.30722162
76	0xbe9dbfc8	-0.3081038
77	0x3e94d533	0.29068908
78	0x3ee300cc	0.44336545
79	0xbe285679	-0.16439237
80	0x3e0075c7	0.12544928
81	0xbeea79d3	-0.4579607
82	0xbd7f91d8	-0.062394947
83	0xbe0d7592	-0.13814381
84	0xbe0dd6b2	-0.13851431
85	0x3db26908	0.08711439
86	0xbdc7e003	-0.09759524
87	0xbedf07b0	-0.43560553
88	0x3e927508	0.28604913
89	0xbe82e154	-0.25562537
90	0xbe326910	-0.1742289
91	0xbe2acd61	-0.16679908
92	0xbebd1982	-0.36933523
93	0xbf19ad35	-0.6002992
94	0xbe86b04a	-0.26306373
95	0xbd4e4ab0	-0.050364196
96	0x3f405ab1	0.75138384
97	0xbea1c85f	-0.31598184
98	0xbe9ea98e	-0.30988735
99	0x3e65663d	0.22402282
100	0xbe48470f	-0.19558357
101	0x3f2412b2	0.64091027
102	0xbe6be472	-0.23036364
103	0xbe843778	-0.2582357
104	0xbeacd9a9	-0.33759812
105	0xbebe1d81	-0.37131885
106	0xbe701de7	-0.23448907
107	0xbe8b246c	-0.27176225
108	0xbf07f9e9	-0.5311571
109	0x3e45b11e	0.19305846
110	0xbf006e5a	-0.50168383
111	0xbd881189	-0.066439696
112	0x3e119764	0.14217907
113	0x3cdf447c	0.027254336
114	0x3e7220d0	0.2364533
115	0xbe49808a	-0.1967794
116	0xbee0cd35	-0.4390656
117	0xbed82f39	-0.42223528
118	0x3ed40242	0.41407973
119	0xbebac0e5	-0.36475292
120	0xbf627a19	-0.88467556
121	0xbe965d0a	-0.29367858
122	0xbeb868ec	-0.3601755
123	0xbf23a933	-0.6393005
124	0xbec193b3	-0.37807998
125	0xbf1c5976	-0.61074007
126	0xbec8b903	-0.39203653
127	0xbf06c332	-0.52641594
128	0x3f18f3a3	0.5974676
129	0xbf5b8982	-0.85756695
130	0xbf202209	-0.62551934
131	0x3ee1af65	0.44079128
132	0xbddaf469	-0.10691149
133	0xbe653e54	-0.22387058
134	0xbf615d8f	-0.88033384
135	0x3f3789e0	0.71694756
136	0xbedb1b22	-0.42794138
137	0x3eda12ee	0.42592567
138	0xbee56b9c	-0.44808662
139	0xbe6040ed	-0.21899767
140	0xbf200e47	-0.62521785
141	0xbebacc94	-0.36484206
142	0xbf2d3350	-0.6765642
143	0xbed4f01a	-0.41589433
144	0xbed0050a	-0.40628844
145	0xbf07349a	-0.5281464
146	0xbeb79349	-0.35854557
147	0x3f11ebbc	0.5700033
148	0x3d91b36e	0.071143016
149	0xbecbd24a	-0.39808875
150	0xbe81c320	-0.2534418
151	0xbe551d37	-0.20811926
152	0x3f2b31f9	0.6687313
153	0x3d225985	0.039636154
154	0xbec89b72	-0.39181095
155	0xbeef89d5	-0.46784845
156	0xbed59131	-0.41712335
157	0xbe053556	-0.13008627
158	0x3d993015	0.07479874
159	0xbdf00c40	-0.117210865
160	0xbefd1389	-0.49428967
161	0xbe9f45be	-0.31107897
162	0x3e1895bd	0.1490087
163	0xbe9969dd	-0.2996358
164	0xbe83aa7f	-0.25716016
165	0xbe648879	-0.22317685
166	0xbe447c89	-0.19188131
167	0xbebe409c	-0.37158668
168	0x3e3e9149	0.1861011
169	0x3c96c5a3	0.018404787
170	0xbeb9d8ad	-0.36298123
171	0xbf012759	-0.50450665
172	0xbf2079fc	-0.62686133
173	0xbe3f0ded	-0.18657656
174	0x3b497288	0.0030738432
175	0xbe41ba83	-0.18918805
176	0xbe8552cd	-0.26039734
177	0xbeb09e95	-0.34495988
178	0x3e2f2ddb	0.17107336
179	0xbf0ad175	-0.54225856
180	0xbee5a3e5	-0.44851604
181	0xbeb842de	-0.35988516
182	0xbf171fb0	-0.59032726
183	0xbee25620	-0.44206333
184	0xbfafb30f	-1.3726519
185	0xbdfb0fbf	-0.12258863
186	0xbef09795	-0.46990648
187	0xbef945d5	-0.4868609
188	0xbe98b768	-0.29827428
189	0xbe9c82eb	-0.30568632
190	0xbf132b55	-0.57487994
191	0xbe9de60c	-0.30839574
192	0xbe8a93c6	-0.27065867
193	0xbee4d09a	-0.446904
194	0xbcdacff8	-0.026710495
195	0xbf08b0be	-0.5339469
196	0xbeb18a0a	-0.34675628
197	0xbd952bb8	-0.07283729
198	0x3e28b9d6	0.16477141
199	0xbe5d723f	-0.21625613
200	0x3d99611c	0.07489225
201	0xbdcc08c7	-0.09962612
202	0x3a8360dd	0.0010023374
203	0xbe28d235	-0.16486438
204	0xbeb98e00	-0.3624115
205	0xbe985c17	-0.2975776
206	0xbd9e3f72	-0.07726945
207	0xbe33a260	-0.1754241
208	0x3e5d2867	0.21597444
209	0xbf0847ec	-0.53234744
210	0x3d8a00f4	0.06738463
211	0x3f3708a7	0.7149758
212	0xbe8e873c	-0.2783755
213	0xbf473442	-0.77814114
214	0xbe1f929d	-0.15583272
215	0xbeda3756	-0.42620343
216	0xbe0560c3	-0.13025193
217	0xbee15e91	-0.4401746
218	0xbee57adc	-0.44820297
219	0xbdf24a3a	-0.11830564
220	0xbe993700	-0.29924774
221	0xbe4c9202	-0.19977573
222	0xbe8ad216	-0.27113408
223	0xbe5bc1d1	-0.21460654
224	0xbe2fa6ca	-0.17153469
225	0xbee21d17	-0.4416282
226	0xbf03beba	-0.514629
227	0xbee6df90	-0.4509244
228	0xbf342a81	-0.70377356
229	0xbebfd94a	-0.37470466
230	0xbeca88c6	-0.39557475
231	0x3dddeb05	0.10835842
232	0xbd7f2852	-0.06229431
233	0xbdc9212c	-0.0982078
234	0xbeaa214e	-0.33228534
235	0xbe5e9388	-0.21735966
236	0xbe7d601a	-0.24743691
237	0xbf1bcde2	-0.6086103
238	0xbea79d23	-0.32737073
239	0x3e6f5376	0.23371682
240	0xbcbde790	-0.023181707
241	0xbefc8513	-0.49320278
242	0x3f4a5219	0.7903152
243	0xbed4efef	-0.41589305
244	0xbead06e3	-0.33794317
245	0xbf942cc1	-1.1576158
246	0xbea7c065	-0.32763973
247	0xbe8977c5	-0.2684919
248	0xbe8988dc	-0.26862228
249	0xbeb9dae1	-0.36299804
250	0xbea9284f	-0.33038566
251	0xbeb55b83	-0.3542138
252	0x3ea6a90b	0.32550845
253	0x3f8f1940	1.1179581
254	0xbeb23213	-0.3480383
255	0x3e41eb09	0.18937315

model.2.bias f4 [128]
0	0xbe791687	-0.24325
1	0xbcaa1e68	-0.020766452
2	0xbeacf5b1	-0.33781198
3	0x3e3f0a8d	0.18656369
4	0xbe1678ae	-0.14694473
5	0xbe920539	-0.2851961
6	0x3e09f181	0.13471033
7	0x3f87508f	1.057146
8	0x3cbf44a9	0.02334817
9	0x3e41df13	0.18932752
10	0xbf0584e1	-0.5215588
11	0xbe6ee69e	-0.23330161
12	0xbecc9fe0	-0.39965725
13	0x3db7a0fb	0.089662515
14	0xbec5c213	-0.3862463
15	0x3cff515c	0.031166725
16	0xbd8f7daa	-0.070063904
17	0xbdb62cd3	-0.08895268
18	0xbdf4a86b	-0.11946186
19	0xbcebde7e	-0.028792616
20	0xbd97815e	-0.07397722
21	0xbe81f2c5	-0.2538053
22	0x3f8c574a	1.0964139
23	0x3f1542f2	0.58305275
24	0xbe3e2528	-0.18568861
25	0x3f3637b6	0.7117876
26	0x3dcd9002	0.10037233
27	0x3d7daf72	0.061934896
28	0x3d6a394c	0.05718355
29	0x3ee9725e	0.45595068
30	0x3f23c183	0.6396715
31	0x3e8fcafe	0.28084558
32	0xbd42c57e	-0.047551624
33	0x3cbb4221	0.022858681
34	0x3f2d5e67	0.6772217
35	0x3e1aaba3	0.15104537
36	0x3e6bb510	0.23018289
37	0xbe4eaaf3	-0.201824
38	0xbe830cfa	-0.25595838
39	0xbed8023f	-0.42189214
40	0x3d8e1e4e	0.06939374
41	0x3efec8b0	0.49762487
42	0x3e37f945	0.17966183
43	0x3e38b15c	0.18036407
44	0x3e0c54c4	0.1370421
45	0x3e34a284	0.1764012
46	0xbeb3c522	-0.35111338
47	0x3f29a40e	0.6626595
48	0x3efd457a	0.4946707
49	0x3e93700e	0.28796428
50	0x3e014e6c	0.12627572
51	0xbda27ef8	-0.079343736
52	0xbcb98c39	-0.022649871
53	0xbdd71499	-0.105019756
54	0xbe3e1a66	-0.18564758
55	0x3e2fc2c3	0.1716414
56	0x3e207e48	0.15673172
57	0x3eec0f33	0.46105346
58	0x3d6335eb	0.055471342
59	0xbdefff73	-0.11718645
60	0x3e5482fa	0.20753089
61	0x3e2e2e8e	0.17009947
62	0xbe8a544c	-0.27017438
63	0xbe89fe0e	-0.2695164
64	0x3ccf3876	0.025295477
65	0xbe5de9f8	-0.21671283
66	0xbca6ad24	-0.020346232
67	0x3e590695	0.21193917
68	0xbe536309	-0.20643248
69	0x3ec2dc3c	0.3805865
70	0xbe072e4c	-0.13201255
71	0xbe5fc622	-0.21852925
72	0x3f17c3e9	0.5928331
73	0xbc944687	-0.018100036
74	0xbd96f134	-0.073702246
75	0x3e9b3528	0.30313993
76	0xbd3d7696	-0.04625567
77	0x3e01b5f9	0.12667073
78	0xbf08398d	-0.53212816
79	0xbf377912	-0.71669114
80	0xbe4646c3	-0.19362931
81	0xbea7b7cc	-0.32757413
82	0xbd70bf3b	-0.05877612
83	0xbd965965	-0.073412694
84	0x3eb8be35	0.36082616
85	0x3cf61c02	0.030042652
86	0xbd1f28b7	-0.038857188
87	0x3e4dd32d	0.20100088
88	0x3e95f33f	0.29287145
89	0x3e114d6d	0.14189692
90	0xbe487f21	-0.19579746
91	0x3f4755b3	0.7786514
92	0xbe960bd9	-0.29305914
93	0x3dd55b31	0.10417784
94	0x3e880895	0.26569048
95	0xbe41a90a	-0.1891214
96	0xbe0482f6	-0.12940583
97	0x3e2baba2	0.16764691
98	0xbd7d54e8	-0.06184855
99	0xbe50fc7d	-0.20408817
100	0xbe86cb93	-0.2632719
101	0xbf09f427	-0.5388817
102	0x3f07b710	0.53013706
103	0x3d1377b9	0.03600285
104	0x3df0a7b2	0.11750735
105	0x3e3fb357	0.18720756
106	0xbe8239ae	-0.2543463
107	0x3eacead6	0.33772916
108	0x3d85d730	0.065351844
109	0xbd49e5c6	-0.049291395
110	0xbe2d8c4c	-0.1694805
111	0x3f59b146	0.8503612
112	0xbc138970	-0.009004936
113	0x3e2392f8	0.15974033
114	0xbe555f3b	-0.20837109
115	0x3e4ad2b7	0.19806944
116	0xbe12282a	-0.14273134
117	0xbeadc519	-0.33939436
118	0xbedc4d1f	-0.4302759
119	0x3f6b6586	0.9195179
120	0x3ee5f5ea	0.4491418
121	0xbdbdac4e	-0.0926138
122	0xbdec8b64	-0.11550024
123	0x3f19349b	0.59845895
124	0x3e0ab037	0.13543783
125	0x3ea6c7fa	0.32574445
126	0x3f3daee9	0.74095017
127	0x3ec073e0	0.37588406

model.4.weight f4 [1, 128]
0	0x3e9df160	0.30848217
1	0xbe123987	-0.14279757
2	0x3eaeb833	0.34124908
3	0xbf168e8e	-0.5881127
4	0xbe19bbad	-0.15012999
5	0xbef0b777	-0.47014973
6	0xbf127355	-0.5720723
7	0x3f315a01	0.6927796
8	0x3e59cb01	0.21268846
9	0xbed46a46	-0.4148733
10	0xbf2b912c	-0.6701839
11	0xbee2614e	-0.44214863
12	0xbf18ad6f	-0.5963964
13	0x3f293ed5	0.661115
14	0xbf17476b	-0.5909335
15	0xbedc3b6c	-0.43014085
16	0xbe3c561f	-0.18392228
17	0xbef18336	-0.47170419
18	0xbed2cb66	-0.41170806
19	0xbebe94f3	-0.37223014
20	0x3e0a1bae	0.13487121
21	0xbebfd8f3	-0.37470207
22	0x3e6461b1	0.22302891
23	0x3e3cb423	0.18428092
24	0xbec87b90	-0.3915677
25	0x3e96ecdf	0.29477593
26	0xbe6b1494	-0.22957069
27	0x3f390a25	0.72281104
28	0xbe302951	-0.17203261
29	0xbeef4e83	-0.46739587
30	0x3e78d888	0.2430135
31	0x3e8b02f9	0.27150705
32	0xbeb7ea05	-0.3592073
33	0xbf1704a2	-0.58991444
34	0x3e78efb2	0.24310187
35	0xbe80764f	-0.25090262
36	0xbf0cd140	-0.5500679
37	0xbecd19fb	-0.40058884
38	0xbeb2524a	-0.34828407
39	0xbf3d1ca1	-0.7387181
40	0xbe4dc977	-0.20096384
41	0x3f13134a	0.5745131
42	0xbf41534a	-0.75517714
43	0xbef9ec48	-0.4881308
44	0x3efd5867	0.49481508
45	0x3f0cde27	0.5502648
46	0xbeee83c6	-0.4658491
47	0x3db64a2b	0.08900865
48	0xbeaa32bc	-0.33241832
49	0x3f0d97b9	0.55309635
50	0x3f037bf8	0.51361036
51	0xbe7ff4a8	-0.24995673
52	0xbf6a81a1	-0.9160405
53	0x3ef22211	0.47291616
54	0xbefc004c	-0.49218976
55	0xbdf7b925	-0.120958604
56	0x3edd5d9c	0.4323548
57	0x3ea52a1a	0.32258683
58	0xbed51fa1	-0.41625693
59	0xbef47c0e	-0.47750896
60	0xbf404cbb	-0.7511708
61	0x3f1cd71a	0.6126572
62	0xbedac258	-0.42726398
63	0xbe34197d	-0.17587848
64	0x3da341af	0.079715125
65	0xbef497c8	-0.4777205
66	0xbf022f00	-0.50852966
67	0xbeffd59b	-0.49967656
68	0x3eaa0b88	0.33211923
69	0xbe4c7df3	-0.19969921
70	0xbefbd36e	-0.49184746
71	0xbebe4d81	-0.37168506
72	0x3e533ac8	0.20627892
73	0xbf469f8a	-0.7758719
74	0xbf13bb5d	-0.5770777
75	0xbdb2a89c	-0.08723566
76	0x3e6af290	0.22944093
77	0x3f0f8579	0.5606304
78	0xbf07c52a	-0.53035223
79	0xbebfae0d	-0.37437478
80	0x3ea598c7	0.32343122
81	0xbeac2e89	-0.33629254
82	0xbe8dabf2	-0.27670246
83	0x3d5ad4ed	0.053425718
84	0xbf14bee7	-0.58103794
85	0x3e536039	0.20642175
86	0xbe8adf2c	-0.27123392
87	0x3ef8543f	0.48501775
88	0xbe4e3d36	-0.20140538
89	0x3f0626ef	0.5240316
90	0xbee336a4	-0.44377625
91	0x3f2b7bbe	0.6698569
92	0xbef17fde	-0.47167867
93	0xbdb6d545	-0.08927397
94	0xbe2273d0	-0.15864491
95	0xbed6d70c	-0.41960943
96	0xbf10f43b	-0.56622666
97	0xbe201c78	-0.1563586
98	0xbf46c82e	-0.776492
99	0x3debc148	0.11511475
100	0xbf023c15	-0.5087293
101	0xbed8dfea	-0.42358333
102	0xbeccb866	-0.39984435
103	0x3f1b299c	0.60610366
104	0x3f1fbaf2	0.6239463
105	0xbe96402e	-0.2934584
106	0xbf046f79	-0.51732594
107	0x3e27ff58	0.16406
108	0xbf0604a8	-0.52350855
109	0xbf2c6de8	-0.67355204
110	0x3f11590a	0.5677649
111	0x3edb854d	0.42875138
112	0xbe25a170	-0.16174865
113	0x3f1f5cf0	0.62251186
114	0xbeb10f52	-0.34582
115	0xbeb09d68	-0.3449509
116	0x3e33a9d5	0.17545255
117	0xbec19cab	-0.3781484
118	0x3f2bd82c	0.6712673
119	0x3ecec8ad	0.40387478
120	0x3f2b370f	0.6688089
121	0xbf1fd4cf	-0.62434095
122	0x3db60869	0.08888323
123	0x3e47cb1b	0.19511072
124	0x3f1546ad	0.5831097
125	0x3ea7d32b	0.32778296
126	0x3ecbf1b3	0.3983284
127	0xbeb1af9f	-0.347043
