discriminator_gan_ff_ts_128_13.pth (torch, 295918 bytes, 5 tensors)

model.0.weight f4 [256, 156]
-3.888574 0.30207083 1.6981648 -0.4666294 0.24174064 3.2704558 -0.30574605 0.047438674
-0.49841875 2.5501442 1.269448 1.5325845 1.3553149 1.1496869 0.763756 0.61456573
-0.61059326 0.21025315 -0.48598275 -0.07556353 0.17984207 0.5319545 0.905165 -0.26213136
0.82038873 1.3352411 0.74694085 0.6671601 0.74205625 0.28530154 0.2399004 -0.14305545
0.30480626 -0.69717777 -0.5680656 -0.95196736 -0.5473033 -0.38005573 -0.3668201 -0.18790181
-0.036298178 -0.10560698 -0.19121903 0.06048228 0.4624503 -0.4330388 -0.21388389 -0.38935956
-0.19880281 -0.17085336 -0.67193455 -0.38383287 -0.32536548 -0.69561946 -0.4140658 -0.34164402
-0.4246535 -0.15886705 -0.15969104 -0.26587424 -0.029504457 -0.44506857 0.3900578 -0.19010621
-0.40892684 -0.8385832 -0.3796177 -0.81455016 -0.510437 -1.142841 -0.71718067 -0.62162024
-0.66921854 -0.28686187 -0.8340634 0.10718287 -0.47032332 -0.17389306 -0.48357397 0.37328458
-0.33923045 -0.6666878 -0.5564242 -0.7335739 -0.74488115 -0.6730911 -0.8954369 -0.75571907
-0.3853524 0.030372065 -0.2795781 0.007900425 0.027237674 -0.17323993 -0.114185244 -0.87730813
-0.30754873 -0.19671372 -0.3484209 -0.4269851 -0.9601034 -0.6676734 -0.24178652 -0.9423843
-0.83475596 -0.9247224 -0.7990237 -0.86163604 0.0384419 -0.80216765 -0.18512665 -0.44363996
-0.28721777 -0.88482463 -0.10678465 -0.488677 -0.52125835 -0.1991689 -0.17421895 -0.49144664
-0.5223116 -0.5510569 -0.97313255 -0.9458824 -0.77368116 -1.0686107 -1.4161681 -0.8191803
-0.78702635 -0.35094333 -0.56662506 -0.7854887 0.0036465873 -0.55607873 -0.8676332 -0.9590622
-1.1868722 -1.183667 -0.63992995 -1.2760327 -0.1443632 -0.9957928 -1.0347657 -0.5328578
-1.3016812 -0.36297247 -1.2023095 0.076509915 -0.13796237 -0.9673759 -1.1098442 -0.54972154
-0.11620334 -0.42302376 -0.44474837 0.7569206 4.7655344 -1.5408391 -0.64507574 -0.53572017
-1.8048366 -2.1560261 1.0169538 0.06068489 0.28820053 -0.17122139 0.35012895 0.009958602
0.6814032 -0.040811677 -0.2481242 0.5438044 0.5968536 0.4380067 -0.7816366 0.68734515
-0.91662717 -1.2204301 -1.2406753 -0.9670179 0.09220576 -0.7226809 0.22192247 0.10249153
-0.4656637 0.44865066 0.05805967 -0.34551793 -0.077757195 -0.24412712 0.37250406 0.3471295
-0.012639608 0.16139302 -0.014875918 0.21492063 0.38770548 -0.0910818 -0.090374455 0.04366554
0.1983643 0.4179838 0.2996421 0.20765662 1.0010115 0.090135835 0.0704194 -0.042383935
0.33291003 -0.3103797 -0.152138 0.41873416 -0.50481695 0.34662098 0.32001853 0.27107722
0.31507266 -0.07103722 -0.38803586 0.1372411 0.33070242 0.31330788 -0.5249015 0.25248885
0.61396486 -0.04073407 -0.36862963 -0.7247241 -0.5780888 0.39594632 -0.22770561 -0.2923298
0.21599182 -0.4358758 -0.014699313 -0.15615454 -0.20051591 0.18078373 0.13556302 0.31836966
0.9034378 -0.09355668 0.47287485 0.34548166 0.24037166 -0.05697854 -0.071558245 0.058196522
-0.0761406 0.37699556 -0.29623443 0.57681847 0.15945427 0.4155658 -0.2740144 0.39788413
00000000: 65de 78c0 07a9 9a3e 775d d93f 0cea eebe
00000010: dc8a 773e 264f 5140 bf8a 9cbe 0e4f 423d
00000020: be30 ffbe 9035 2340 467d a23f bb2b c43f
00000030: f57a ad3f f128 933f 8385 433f 2e54 1d3f
00000040: d74f 1cbf 9a4c 573e bbd2 f8be 0dc1 9abd
00000050: 8528 383e 2c2e 083f e5b8 673f 1536 86be
00000060: ff04 523f 2ee9 aa3f 8437 3f3f 01cb 2a3f
00000070: 66f7 3d3f 0b13 923e 73a8 753e 217d 12be
00000080: 910f 9c3e 3e7a 32bf bf6c 11bf 22b4 73bf
00000090: 121c 0cbf aa96 c2be d8cf bbbe 5569 40be
000000a0: 66ad 14bd 7948 d8bd ecce 43be 44bc 773d
000000b0: 49c6 ec3e 43b7 ddbe 6104 5bbe 235a c7be
000000c0: f792 4bbe 2ff4 2ebe e703 2cbf be85 c4be
000000d0: 4e96 a6be 1e14 32bf 6f00 d4be f7eb aebe
000000e0: 2f6c d9be 0bae 22be 0c86 23be ab20 88be
000000f0: 55b3 f1bc 07e0 e3be a8b5 c73e 34ab 42be
00000100: dc5e d1be 63ad 56bf 405d c2be 5c86 50bf
00000110: 00ac 02bf 9d48 92bf 2799 37bf 8122 1fbf
00000120: e851 2bbf 8fdf 92be 2e85 55bf b182 db3d
00000130: 38ce f0be 0611 32be 0297 f7be 281f bf3e
00000140: 9daf adbe 0dac 2abf d171 0ebf 80cb 3bbf
00000150: 88b0 3ebf b34f 2cbf 5a3b 65bf ce76 41bf
00000160: e94c c5be d6ce f83c dc24 8fbe c970 013c
00000170: 8b21 df3c cf65 31be f4d9 e9bd 4497 60bf
00000180: 0777 9dbe 526f 49be 3964 b2be cb9d dabe
00000190: 56c9 75bf a5ec 2abf e396 77be 1940 71bf
000001a0: 91b2 55bf 9bba 6cbf d18c 4cbf 2e94 5cbf
000001b0: 4175 1d3d dc5a 4dbf d791 3dbe c724 e3be
000001c0: 350e 93be de83 62bf e9b1 dabd df33 fabe
000001d0: 3071 05bf eff2 4bbe 7466 32be e59e fbbe
000001e0: 37b6 05bf 1112 0dbf 371f 79bf 5925 72bf
000001f0: f80f 46bf 3cc8 88bf ff44 b5bf cdb5 51bf
00000200: 8f7a 49bf d8ae b3be 570e 11bf ca15 49bf
00000210: 95fb 6e3b 2d5b 0ebf 361d 5ebf 1a85 75bf
00000220: 6eeb 97bf 6682 97bf 73d2 23bf 0a55 a3bf
00000230: f2d3 13be 47ec 7ebf 3473 84bf 5e69 08bf
00000240: 7d9d a6bf 87d7 b9be 47e5 99bf 3bb1 9c3d
00000250: 0246 0dbe f2a5 77bf 600f 8ebf 8dba 0cbf
00000260: 04fc edbd 9296 d8be 0fb6 e3be 8cc5 413f
00000270: 427f 9840 373a c5bf af23 25bf f524 09bf
00000280: e304 e7bf 55fc 09c0 8b2b 823f b890 783d
00000290: 058f 933e a954 2fbe 1a44 b33e 6729 233c
000002a0: 7170 2e3f 252a 27bd 4514 7ebe c436 0b3f
000002b0: 66cb 183f 6a42 e03e 5619 48bf daf5 2f3f
000002c0: 14a8 6abf 0e37 9cbf 73ce 9ebf 7c8e 77bf
000002d0: 60d6 bc3d 9e01 39bf a53f 633e 14e7 d13d
000002e0: 796b eebe 8ab5 e53e facf 6d3d bae7 b0be
000002f0: 2a3f 9fbd 76fc 79be dab8 be3e f5ba b13e
00000300: 5c16 4fbc 3644 253e 1fba 73bc 2714 5c3e
00000310: 5581 c63e 1889 babd 3e16 b9bd a3da 323d
00000320: 0320 4b3e f901 d63e b06a 993e f0a3 543e
00000330: 2521 803f 2399 b83d 0c38 903d c79a 2dbd
00000340: 2f73 aa3e 17ea 9ebe 10ca 1bbe 5364 d63e
00000350: af3b 01bf 4e78 b13e 78d9 a33e a2ca 8a3e
00000360: 3451 a13e f67b 91bd a3ac c6be ee88 0c3e
00000370: d451 a93e e469 a03e f25f 06bf 3846 813e
00000380: cd2c 1d3f c5d8 26bd 06bd bcbe 8587 39bf
00000390: a1fd 13bf 7ab9 ca3e a92b 69be 40ac 95be
000003a0: f62c 5d3e 1d2b dfbe 63d5 70bc fae6 1fbe
000003b0: 0b54 4dbe 5f1f 393e 08d1 0a3e 5901 a33e
000003c0: b347 673f a59a bfbd a71c f23e f9e2 b03e
000003d0: fd23 763e 5462 69bd 218d 92bd 7a5f 6e3d
000003e0: 9aef 9bbd 9005 c13e 0aac 97be 60aa 133f
000003f0: fb47 233e 0ac5 d43e 9e4b 8cbe 78b7 cb3e

model.0.bias f4 [256]
-0.022135634 0.04386314 0.051668335 0.00045431263 0.00011461423 -0.018376855 0.23562336 -0.37452576
0.015741907 -0.031059539 -0.031522803 0.041374903 -0.03325994 -0.25876266 -0.4717585 0.0031856173
-0.024044905 0.26488647 -0.014457143 -0.28044724 -0.316735 0.0026243434 0.5449109 -0.40683722
1.4850619 0.5592652 -0.49428904 1.0942944 0.97731996 -0.09935303 -0.008920556 -0.03200907
0.017783545 -0.013144192 -0.045498136 0.96422493 -0.1092458 0.12878214 -0.50034386 -0.00966513
-0.10510172 -0.43175474 -0.014269559 -0.30525196 0.60897267 1.8907671 0.0054886416 -0.0155295255
-0.015255225 -0.27795482 -0.3187467 1.6521211 -0.0055874623 1.249143 0.008406416 1.7339945
0.83046097 0.1697692 0.48452947 -0.1313011 -0.006229432 0.026706303 0.012029436 -1.052858
0.015235015 -0.657915 -0.12203562 -0.1250563 -0.08916741 -0.30870184 -0.009636946 -0.0014379948
-0.3156315 -0.6144951 -0.04245573 -0.31468296 -0.31905073 0.06651658 -0.027776035 0.008622859
1.3004502 0.026512068 -0.023504319 -0.976412 -0.030620607 0.8075184 -0.35964122 0.06463069
0.39234212 -0.075316936 0.00078107463 -0.107259765 -0.5276769 -0.4772734 0.043311525 -0.12012263
-0.3710039 0.014819497 0.59633476 0.027302282 1.3443407 -0.010263251 -0.23682112 0.37765414
0.028085029 -0.14363062 -0.013678896 0.009613947 -0.0016745095 0.0044885874 -0.021823922 -0.05741946
-0.59020627 -0.15773128 0.12347795 -0.01932801 0.018247843 -0.64469695 0.0142391585 -0.006989456
-0.052130785 -0.004962951 0.7461911 -0.3729578 -0.40835705 -0.47053415 1.1956099 1.8439502
-1.1029013 0.36510208 -0.37927285 -0.0059542637 1.2829807 0.0034507546 -0.013396543 0.01573982
0.036704846 0.81750447 -0.823854 -0.049046237 -0.36983433 0.82019097 -0.60909545 0.48635116
-0.3749041 -0.42281264 0.036354918 -0.37734997 0.006821715 0.029832322 0.047660183 -0.08711885
0.021419093 -0.18086515 -0.03310006 -0.8215298 0.29874492 0.3830719 1.9819602 -0.024445621
-0.79964167 -0.531178 0.18077421 0.070468515 0.045105256 -0.35011652 0.041491248 1.6616428
-0.005332969 -0.19257058 0.03487916 0.59148264 -0.5299792 0.0066283764 -0.05444108 -0.059082907
-0.33100894 -0.2055414 -0.17028895 0.24903385 -0.5092765 -0.31653333 0.3629891 -0.0019716313
2.3282142 -0.1657958 0.0013481183 0.0520243 0.014715731 -0.59547764 1.3987119 0.0017565043
-0.0026881718 -0.014300391 0.39259484 0.0063352934 -0.16952202 -0.0110573275 -0.1646263 -0.3404214
-0.03705942 0.09702148 0.01989435 0.06881874 0.008504368 1.7006902 -0.46208915 -0.2211299
-0.5696289 -0.058260463 -0.37967888 0.06692379 -0.25906157 -0.09358516 -0.23242521 -0.4126336
-1.5998322 -0.12054306 -0.4689997 -0.539913 -0.38317528 0.03822887 -0.744976 -1.8008155
-0.000980274 -0.4258095 1.0879084 -0.022858502 0.011084898 -0.5127591 0.004835352 -0.0025050999
0.0084200995 -0.25651157 -0.32384658 0.3052142 0.023023337 0.6627821 1.0178301 -0.12741314
0.58485943 0.07596033 0.023570433 0.024296368 0.014895822 -0.006602338 -0.3353258 0.9687609
-0.15162146 0.66238046 0.031127298 -0.15993896 0.24784884 -0.62157995 0.95932037 -0.31574708
00000000: ca55 b5bc d6a9 333d 2da2 533d cf30 ee39
00000010: 0c5d f038 0f8b 96bc 4047 713e d7c1 bfbe
00000020: 2cf5 803c 9370 febc 0e1e 01bd bb78 293d
00000030: 933b 08bd 8a7c 84be 558a f1be cac5 503b
00000040: d2f9 c4bc 339f 873e a7dd 6cbc c896 8fbe
00000050: 172b a2be 2dfd 2b3b 487f 0b3f f84c d0be
00000060: 8216 be3f 012c 0f3f 7413 fdbe d711 8c3f
00000070: a431 7a3f 9a79 cbbd 8627 12bc f11b 03bd
00000080: ccae 913c bd5a 57bc 415c 3abd 72d7 763f
00000090: 43bc dfbd 77df 033e 8916 00bf 7e5a 1ebc
000000a0: 923f d7bd f50e ddbe deca 69bc fc49 9cbe
000000b0: a2e5 1b3f a804 f23f 10da b33b 8d6f 7ebc
000000c0: 0df1 79bc 1850 8ebe c432 a3be b478 d33f
000000d0: 0817 b7bb ebe3 9f3f 10bb 093c 88f3 dd3f
000000e0: 1799 543f fad7 2d3e 3f14 f83e cc73 06be
000000f0: 4320 ccbb 2dc7 da3c 1d17 453c 0dc4 86bf
00000100: 499c 793c 1e6d 28bf d0ed f9bd c20e 00be
00000110: 679d b6bd 2b0e 9ebe 48e4 1dbc 197b bcba
00000120: 749a a1be 8d4f 1dbf 0fe6 2dbd 201e a1be
00000130: 9e5a a3be d839 883d 918a e3bc e446 0d3c
00000140: 2775 a63f d62f d93c 218c c0bc 23f6 79bf
00000150: 11d8 fabc 87b9 4e3f e522 b8be 185d 843d
00000160: 11e1 c83e c43f 9abd 08c1 4c3a 02ab dbbd
00000170: d515 07bf 2e5d f4be 6d67 313d da02 f6bd
00000180: 39f4 bdbe 7acd 723c 65a9 183f 09a9 df3c
00000190: 5b13 ac3f 3227 28bc 3c81 72be e25b c13e
000001a0: 9312 e63c e813 13be 731d 60bc d183 1d3c
000001b0: 377b dbba 0015 933b 15c8 b2bc ab30 6bbd
000001c0: c217 17bf 4f84 21be 02e2 fc3d c655 9ebc
000001d0: 807c 953c dc0a 25bf 5c4b 693c ce07 e5bb
000001e0: 1787 55bd 40a0 a2bb 6106 3f3f 53f4 bebe
000001f0: 2d14 d1be dae9 f0be bf09 993f 8f06 ec3f
00000200: df2b 8dbf a9ee ba3e 0d30 c2be fc1b c3bb
00000210: b638 a43f 0e26 623b 2d7d 5bbc ccf0 803c
00000220: d257 163d f947 513f 19e8 52bf b5e4 48bd
00000230: ed5a bdbe 09f8 513f aeed 1bbf 0503 f93e
00000240: 6ef3 bfbe e67a d8be e5e8 143d 0434 c1be
00000250: b188 df3b ea62 f43c 5337 433d 5e6b b2bd
00000260: 1877 af3c b734 39be ee93 07bd c74f 52bf
00000270: 18f5 983e 0022 c43e dfb0 fd3f 2f42 c8bc
00000280: 51b5 4cbf 48fb 07bf e01c 393e cc51 903d
00000290: 4ac0 383d 7942 b3be baf2 293d b6b0 d43f
000002a0: 30c0 aebb 3931 45be 73dd 0e3d 686b 173f
000002b0: b8ac 07bf da32 d93b 9cfd 5ebd eb00 72bd
000002c0: 017a a9be 7279 52be 3a60 2ebe bb02 7f3e
000002d0: f25f 02bf a810 a2be b5d9 b93e 7c36 01bb
000002e0: 7601 1540 60c6 29be 58b3 b03a 6f17 553d
000002f0: 401a 713c 3971 18bf fe08 b33f 813a e63a
00000300: 0a2c 30bb 304c 6abc 3102 c93e 4b98 cf3b
00000310: 2e97 2dbe cb29 35bc cc93 28be b74b aebe
00000320: 9ecb 17bd 33b3 c63d 7af9 a23c d7f0 8c3d
00000330: e855 0b3c 37b0 d93f f396 ecbe e06f 62be
00000340: 33d3 11bf 86a2 6ebd 4565 c2be 570f 893d
00000350: b8a3 84be 94a9 bfbd e000 6ebe b644 d3be
00000360: 4dc7 ccbf 48df f6bd bb20 f0be bd37 0abf
00000370: 8d2f c4be e095 1c3d bfb6 3ebf 1f81 e6bf
00000380: 8a7c 80ba b403 dabe 9540 8b3f c141 bbbc
00000390: 6f9d 353c 2e44 03bf df71 9e3b 9a2c 24bb
000003a0: 75f4 093c 7c55 83be 38cf a5be 0945 9c3e
000003b0: 709b bc3c 16ac 293f 4248 823f 9778 02be
000003c0: 59b9 153f 1791 9b3d c816 c13c 2d09 c73c
000003d0: 9b0d 743c 6d58 d8bb d3af abbe b700 783f
000003e0: a842 1bbe c491 293f adfe fe3c 0ac7 23be
000003f0: 16cc 7d3e dd1f 1fbf 0596 753f 9aa9 a1be

model.2.weight f4 [128, 256]
0.44183692 0.9581114 0.569922 -0.0872946 1.1265533 1.6534786 0.042731643 0.63485163
0.7848205 1.0539968 1.4948306 1.2828804 1.0734639 0.8132375 0.38444075 1.7760572
-0.20945644 0.5057079 1.0226524 0.43958995 0.22734985 0.6866434 0.40531135 0.4524014
-0.13222091 -0.14722885 0.6899498 0.49395457 -0.33354855 0.26631194 0.83090264 1.4241537
0.2534468 1.6591055 1.2591835 1.1872822 0.41903704 0.084974535 -0.14249328 1.4338896
0.48769724 0.061960485 0.6274159 0.1309201 0.4099133 -0.7358895 0.73390734 1.0032251
1.6516819 0.39697763 0.55227906 -0.2422667 1.4662156 -0.41555682 1.1346825 1.4853089
-0.6626276 0.105533145 -0.07603262 0.81532395 0.73708 1.2638471 0.69573593 0.32010254
-0.059242513 0.28349397 0.0236355 0.80723375 0.7258749 0.4614898 0.6485043 0.38640082
0.1869534 -0.03617512 0.91732943 0.8717468 -0.55139536 0.8361847 1.4411606 1.3471813
0.47509158 1.2158694 0.110652365 0.49791503 0.9390994 -0.18266447 0.37837347 1.1980904
-0.4425944 0.7547479 1.3761557 0.53315866 -0.14073217 0.30598438 0.4313316 0.8777609
0.25603905 0.53118706 -0.65404874 0.7890194 -0.4563164 0.9286603 0.25333893 -0.1675296
0.5029054 0.8902538 0.9027884 0.982667 0.719335 0.6200418 1.0404621 0.16479358
0.22432171 -0.03736914 -0.22164464 1.2153071 1.3915598 0.15733139 1.2514764 1.0594413
-0.34548914 1.1426857 0.31016284 0.21344806 0.08330244 -0.14009368 -0.26192927 0.0009179892
0.05687924 0.0634383 0.101407796 0.34015468 2.6391068 1.5255113 0.80800736 0.7625979
1.5822492 0.1341995 -0.026892852 0.85263044 0.36809096 -0.6431605 0.22818221 -0.059352975
-0.13939558 0.23367222 1.1449493 -0.1046543 1.0893258 0.8115141 0.6316667 0.2062463
1.5011913 1.2619313 0.76520133 0.41604307 0.049829982 0.19623348 -0.32464358 0.5943431
0.46128535 0.3306778 0.8318907 1.0145671 1.026452 0.9271175 1.2806244 -0.01568619
1.0588325 1.1022307 0.61989415 -0.1732443 0.3474548 0.9577115 0.6865292 -0.061101034
0.4394873 0.13537009 -0.1167915 -0.20881517 -0.32103562 0.11015573 -0.14434956 0.23841411
-0.26353619 0.72142184 0.25725955 1.3932104 0.47436443 0.09532496 0.14515248 0.9523851
0.94851166 0.8804058 -0.035340395 0.6372465 0.57668436 1.1513095 0.702934 -0.25148195
0.19748794 0.28438216 0.52457976 1.0628537 1.3122543 0.0021950137 0.17898618 0.31701937
-0.31952098 1.0489398 -0.23026249 0.063969955 0.59200215 0.25833124 0.13587748 0.39096537
0.47600955 0.894887 0.17989321 0.3268177 0.3686161 0.9334732 0.25381035 0.19343132
0.4604212 0.27943146 -0.4328923 1.3457828 0.8916683 0.360525 1.9930642 0.80009127
0.68435234 0.268201 0.20228195 -0.3280539 1.303254 -0.15010437 0.06456279 -0.08359609
0.24802482 0.1296752 0.85761434 1.2057704 1.1496595 0.72809416 0.19993179 -0.16626716
-0.20219584 0.4458332 0.3077783 0.12056082 0.0381342 -0.025082996 -0.010506485 0.13963403
00000000: 7338 e23e ca46 753f 68e6 113f 83c7 b2bd
00000010: e632 903f 30a5 d33f 6007 2f3d a385 223f
00000020: ffe9 483f 5ee9 863f 9c56 bf3f 6d35 a43f
00000030: 4467 893f 5530 503f 6bd5 c43e d855 e33f
00000040: c07b 56be 1376 013f 46e6 823f ef11 e13e
00000050: 66ce 683e ddc7 2f3f f884 cf3e 28a1 e73e
00000060: eb64 07be 29c3 16be 8da0 303f 9de7 fc3e
00000070: e0c6 aabe 0a5a 883e 09b6 543f ab4a b63f
00000080: c7c3 813e 925d d43f ed2c a13f ddf8 973f
00000090: 068c d63e 2107 ae3d c2e9 11be b289 b73f
000000a0: 74b3 f93e 47ca 7d3d 549e 203f eb0f 063e
000000b0: 28e0 d13e 4163 3cbf 5ae1 3b3f ae69 803f
000000c0: 506a d33f a740 cb3e 2962 0d3f c314 78be
000000d0: f4ac bb3f ddc3 d4be 473d 913f 9a1e be3f
000000e0: f6a1 29bf c321 d83d feb6 9bbd 12b9 503f
000000f0: 46b1 3c3f bec5 a13f c01b 323f 7be4 a33e
00000100: 47a8 72bd 1f26 913e 3c9f c13c dfa6 4e3f
00000110: f0d2 393f 6448 ec3e 6104 263f 54d6 c53e
00000120: b670 3f3e 5d2c 14bd 1ad6 6a3f cc2a 5f3f
00000130: 3f28 0dbf 3310 563f f377 b83f 7070 ac3f
00000140: 343f f33e 9ca1 9b3f b59d e23d b8ee fe3e
00000150: d168 703f 650c 3bbe 2bba c13e 075b 993f
00000160: bc9b e2be 2937 413f df25 b03f 167d 083f
00000170: 181c 10be fca9 9c3e 7fd7 dc3e f0b4 603f
00000180: 8d17 833e e0fb 073f bd6f 27bf 2dfd 493f
00000190: 4ea2 e9be aebc 6d3f a4b5 813e e18c 2bbe
000001a0: 69be 003f ace7 633f 241d 673f 1190 7b3f
000001b0: 5726 383f 0fbb 1e3f dd2d 853f a6bf 283e
000001c0: 97b4 653e 6210 19bd d0f6 62be 2f8f 9b3f
000001d0: a21e b23f 7b1b 213e 6130 a03f c69b 873f
000001e0: f4e3 b0be 8643 923f aacd 9e3e 2192 5a3e
000001f0: 789a aa3d b874 0fbe 981b 86be 36a5 703a
00000200: 35fa 683d f0eb 813d e4ae cf3d c128 ae3e
00000210: 20e7 2840 f443 c33f 92d9 4e3f 9e39 433f
00000220: 2487 ca3f 986b 093e 664e dcbc fd45 5a3f
00000230: 6b76 bc3e 2ba6 24bf 99a8 693e 1b1c 73bd
00000240: b7bd 0ebe c547 6f3e b38d 923f fe54 d6bd
00000250: 076f 8b3f 63bf 4f3f e9b4 213f 3b32 533e
00000260: 0927 c03f f786 a13f 3ce4 433f 9903 d53e
00000270: 861a 4c3d 6ef1 483e af37 a6be df26 183f
00000280: 982d ec3e 9a4e a93e caf6 543f 56dd 813f
00000290: c762 833f 9357 6d3f 80eb a33f 5380 80bc
000002a0: d387 873f e515 8d3f 62b1 1e3f f466 31be
000002b0: 98e5 b13e 952c 753f 61c0 2f3f 1445 7abd
000002c0: 7b04 e13e 759e 0a3e 6230 efbd a5d3 55be
000002d0: c85e a4be 5499 e13d 5fd0 13be d422 743e
000002e0: 37ee 86be 1aaf 383f 86b7 833e b854 b23f
000002f0: e5df f23e bc39 c33d daa2 143e 83cf 733f
00000300: a9d1 723f 4662 613f 17c1 10bd 9622 233f
00000310: 96a1 133f 1c5e 933f 7cf3 333f 3ec2 80be
00000320: 473a 4a3e 8a9a 913e dc4a 063f 970b 883f
00000330: f3f7 a73f 38da 0f3b 2748 373e 5d50 a23e
00000340: 4198 a3be a943 863f eec9 6bbe ae02 833d
00000350: 748d 173f fe43 843e 7723 0b3e 9d2c c83e
00000360: 86b7 f33e 5017 653f ed35 383e a654 a73e
00000370: 40bb bc3e 1af8 6e3f 6ef3 813e dc12 463e
00000380: 54bc eb3e a411 8f3e 0fa4 ddbe 9c42 ac3f
00000390: 6044 643f bc96 b83e ba1c ff3f c8d2 4c3f
000003a0: b731 2f3f a451 893e 0023 4f3e aef6 a7be
000003b0: 07d1 a63f f6b4 19be 7f39 843d 6d34 abbd
000003c0: 38fa 7d3e 93c9 043e 9d8c 5b3f af56 9a3f
000003d0: 0b28 933f 6164 3a3f ebba 4c3e f041 2abe
000003e0: 6d0c 4fbe 4044 e43e 1e95 9d3e 97e8 f63d
000003f0: 9b32 1c3d db7a cdbc 6423 2cbc 39fc 0e3e

model.2.bias f4 [128]
-0.64739776 0.6266135 0.34880665 -0.0026112495 0.3256389 -0.17112638 0.06719182 0.283495
-0.3182765 0.265811 0.7377497 -0.19257328 -0.8965323 0.8268639 1.0897052 -0.43671593
0.12881708 -0.44501278 0.43984455 0.13229017 -0.032028023 1.0745578 0.59098643 -0.5250938
-0.083079785 0.28541055 -0.31668627 -0.34681842 0.25820807 1.2123522 0.718066 0.35351253
0.71103895 0.03236371 0.35392395 0.2157931 0.19007277 -0.6420148 0.27329648 0.10271629
-0.2418357 -0.44102344 -0.27345893 -0.7486828 0.37100115 -0.11976223 -1.183236 0.22013421
0.007939498 -0.3339615 -0.11621334 0.25613257 -0.34351173 -0.62697524 -0.18432839 -0.4250329
0.29828116 -0.28941715 0.1187371 -0.46676 0.3297855 -0.081770085 -0.5451771 0.31897226
1.3319255 0.58572066 -0.0704659 0.22521509 -0.42384225 0.13022512 -0.2601447 0.41349307
0.65716803 0.31074843 0.44082603 0.03979618 -0.21548031 -0.16367067 0.19543052 -0.25535887
0.47440967 0.41808665 -1.4674535 0.5578557 -0.36960185 0.5423565 0.19201432 -0.27212036
0.7863053 0.5705156 0.96955246 0.032619394 0.1973739 -0.47708803 -0.8259027 -0.12319557
-0.7635805 0.19184951 0.27978572 -0.021668214 0.15900342 -0.39884672 0.3782729 0.73420453
0.17654148 -0.75941575 -0.16282426 0.10774384 -0.3192942 0.43898147 -0.257446 -0.18713315
-0.44227389 0.040559098 0.74621725 0.3458004 0.21518496 0.7425576 1.0326353 -0.81755316
-0.4982157 -0.25260246 -0.097991854 0.36098254 0.62913704 -0.6556859 0.60566026 0.31564984
00000000: dcbb 25bf be69 203f c996 b23e 7f21 2bbb
00000010: 24ba a63e c13b 2fbe dd9b 893d 4226 913e
00000020: 23f5 a2be 6118 883e 2add 3c3f ee31 45be
00000030: 2483 65bf 5aad 533f 767b 8b3f 3b99 dfbe
00000040: a0e8 033e b7d8 e3be 4e33 e13e 1377 073e
00000050: d12f 03bd 1c8b 893f e34a 173f 8c6c 06bf
00000060: bc25 aabd 5521 923e b424 a2be 2f92 b1be
00000070: d933 843e 5b2e 9b3f 2cd3 373f 98ff b43e
00000080: a606 363f cf8f 043d 8535 b53e def8 5c3e
00000090: 70a2 423e 155b 24bf 84ed 8b3e eb5c d23d
000000a0: c7a3 77be d3cd e1be cf02 8cbe ada9 3fbf
000000b0: ddf3 bd3e e645 f5bd 4774 97bf dd6a 613e
000000c0: ab14 023c 00fd aabe 4201 eebd cf23 833e
000000d0: c5e0 afbe 7381 20bf 95c0 3cbe ea9d d9be
000000e0: 4fb8 983e 7c2e 94be 702c f33d 2bfb eebe
000000f0: a5d9 a83e 1377 a7bd ba90 0bbf 5550 a33e
00000100: 897c aa3f caf1 153f 6d50 90bd c99e 663e
00000110: da01 d9be bc59 053e b031 85be 5db5 d33e
00000120: 2a3c 283f 6b1a 9f3e f3b3 e13e 5201 233d
00000130: dfa6 5cbe 4999 27be f01e 483e 66be 82be
00000140: d3e5 f23e 740f d63e 84d5 bbbf a2cf 0e3f
00000150: 743c bdbe e0d7 0a3f 679f 443e 5c53 8bbe
00000160: 4e4b 493f 4f0d 123f 9734 783f ea9b 053d
00000170: 621c 4a3e e244 f4be 5c6e 53bf f64d fcbd
00000180: 037a 43bf 3374 443e 1340 8f3e 8a81 b1bc
00000190: cbd1 223e a335 ccbe fcac c13e d4f4 3b3f
000001a0: 4ac7 343e 1269 42bf 67bb 26be cda8 dc3d
000001b0: 887a a3be 2ec2 e03e f6cf 83be d59f 3fbe
000001c0: b971 e2be 4c21 263d 1808 3f3f c00c b13e
000001d0: 7259 5c3e 4118 3e3f 652d 843f 2a4b 51bf
000001e0: 2116 ffbe 1c55 81be f4af c8bd b4d2 b83e
000001f0: 200f 213f 08db 27bf 8d0c 1b3f db9c a13e

model.4.weight f4 [1, 128]
-0.17011912 0.09272769 0.05670162 0.064659126 0.0073524816 -0.092821 0.07515111 -0.012895822
0.10089628 -0.0074531953 0.022607185 0.102588676 -0.035262745 0.02426726 0.9135721 -0.00031161454
0.0066301636 0.060127407 -0.0059627905 0.036217656 0.046384554 -0.10420977 0.11385205 -0.0175744
0.01873351 0.12658165 0.010575971 0.07156862 0.19293576 0.03447302 0.3325376 0.035293978
0.20691755 0.018095251 0.08352407 0.097415246 0.08677396 0.046489634 0.039490275 0.07053994
0.007906433 -0.27746168 0.0009113018 -0.3642026 0.026762944 0.11465157 -0.02207351 0.011445251
-0.059052013 -0.21683756 0.11914459 0.22233707 0.105086096 0.024802672 0.0205771 -0.012739919
0.2923854 0.3030437 0.027876737 -0.015543279 0.12194636 0.022755498 -0.09244628 -0.0041614613
0.07781363 0.14743358 0.014971287 0.022436038 -0.37585393 -0.05150017 0.042892538 0.010833968
0.13864258 0.034275945 0.11400337 0.0060216873 0.04390447 -0.022791477 0.06540206 -0.008604051
0.11996983 0.10191967 -0.016001608 0.12004441 0.1687174 0.0083934255 0.021064596 0.08700499
0.03427211 0.034072313 0.022825025 0.10020525 0.038199816 -0.5294444 -0.019933537 0.0066832523
-0.8719858 -0.019558102 0.059502304 0.023625435 -4.1451487e-05 -0.7797506 0.07596608 -0.03501054
0.038196124 -0.47075695 0.023738373 0.004680789 0.016925527 0.047907546 -0.026332563 -0.019038927
-0.038251087 0.00036294397 0.07369466 -0.10062971 0.008155305 0.04830697 0.06858708 -0.9692106
0.01791928 -0.34394524 0.028943934 0.050837707 0.42410576 -0.022497581 -0.0064454833 -0.033228375
00000000: b533 2ebe 04e8 bd3d f53f 683d 016c 843d
00000010: 16ed f03b f018 bebd d3e8 993d ff48 53bc
00000020: b5a2 ce3d ef39 f4bb b432 b93c 031a d23d
00000030: ab6f 10bd 22cc c63c dcdf 693f 3260 a3b9
00000040: d841 d93b 2848 763d 8363 c3bb f758 143d
00000050: bbfd 3d3d ef6b d5bd 432b e93d 30f8 8fbc
00000060: 0577 993c 9f9e 013e d646 2d3c 9292 923d
00000070: f490 453e 9533 0d3d 5e42 aa3e 6b90 103d
00000080: 32e2 533e 7e3c 943c ab0e ab3d a581 c73d
00000090: 8cb6 b13d ea6b 3e3d 8ec0 213d 3e77 903d
000000a0: fc89 013c 750f 8ebe 6ee4 6e3a c378 babe
000000b0: f63d db3c 71ce ea3d 81d3 b4bc dd84 3b3c
000000c0: 86e0 71bd aa0a 5ebe 1402 f43d 54ac 633e
000000d0: 6137 d73d f92e cb3c 4e91 a83c 18bb 50bc
000000e0: 8ab3 953e 8b28 9b3e c15d e43c 3da9 7ebc
000000f0: 03bf f93d bd69 ba3c 7a54 bdbd de5c 88bb
00000100: c15c 9f3d d4f8 163e 214a 753c c8cb b73c
00000110: ed6f c0be d8f1 52bd 16b0 2f3d f580 313c
00000120: 52f8 0d3e ef64 0c3d 997a e93d 9351 c53b
00000130: 2cd5 333d 31b5 babc 84f1 853d 01f8 0cbc
00000140: beb2 f53d 43bb d03d ce15 83bc d8d9 f53d
00000150: 41c4 2c3e 9484 093c a98f ac3c ac2f b23d
00000160: e960 0c3d 698f 0b3d 8cfb ba3c 6938 cd3d
00000170: 6977 1c3d ab89 07bf a84b a3bc 2fff da3b
00000180: 763a 5fbf 5038 a0bc b0b8 733d 218a c13c
00000190: 32dc 2db8 bc9d 47bf 1b94 9b3d 3667 0fbd
000001a0: 8a73 1c3d 0e07 f1be fa76 c23c 4e61 993b
000001b0: 67a7 8a3c b43a 443d 63b7 d7bc 86f7 9bbc
000001c0: 2cad 1cbd 8449 be39 3aed 963d f316 cebd
000001d0: d49d 053c 88dd 453d 6277 8c3d 301e 78bf
000001e0: 74cb 923c 9719 b0be d41b ed3c 333b 503d
000001f0: 6424 d93e d94c b8bc a234 d3bb 7a1a 08bd
