discriminator_gan_ff_lstm_es.pth (torch, 295898 bytes, 5 tensors)

model.0.weight f4 [256, 156]
0	0xc05c0ebb	-3.438399
1	0x3f9ab31c	1.208591
2	0x3f6ff947	0.9373974
3	0xbc0031fc	-0.007824417
4	0xbe77d26b	-0.24201362
5	0xbe34b20f	-0.17646049
6	0xbe9e1c1f	-0.3088083
7	0xbd557610	-0.052114546
8	0x3dd4f1c7	0.10397678
9	0x3e985665	0.29753414
10	0x3f03885b	0.51379937
11	0x3eee330a	0.46523315
12	0x3e5335d4	0.20626003
13	0xbdaba643	-0.08381321
14	0xbd457999	-0.048211668
15	0xbdd07b9e	-0.10179828
16	0xbbd7d0aa	-0.006586154
17	0xbd475681	-0.04866648
18	0xbdc9a8a3	-0.09846618
19	0xbe813629	-0.25236633
20	0xbecce8ee	-0.4002146
21	0xbef2b7b2	-0.47405773
22	0xbedacbb7	-0.42733547
23	0xbeb6ce62	-0.35704333
24	0xbe82dd57	-0.25559494
25	0xbe3a67a3	-0.18203597
26	0xbe155da2	-0.145865
27	0xbe3d6831	-0.18496777
28	0xbeaba0d4	-0.3352114
29	0xbe4d912d	-0.20074911
30	0xbe449901	-0.19198991
31	0xbdc0128a	-0.09378536
32	0xbd9d79d0	-0.076892495
33	0xbe2a3baa	-0.16624323
34	0xbe0bba42	-0.1364527
35	0xbd84d4a4	-0.064858705
36	0x3dae1b31	0.0850128
37	0x3d00a2c9	0.031405244
38	0x3dd0e679	0.10200209
39	0x3d547dc2	0.051877744
40	0x3e32e0f1	0.17468621
41	0x3d97bdd6	0.07409255
42	0x3e346135	0.17615207
43	0x3dfc9ba0	0.123343706
44	0x3daf1614	0.08549133
45	0x3e2a7a79	0.16648282
46	0x3da60d3f	0.08107995
47	0x3e1f64ba	0.15565768
48	0x3e0065b8	0.12538803
49	0x3e20b23e	0.15692994
50	0x3dcc8e59	0.09988088
51	0x3e153731	0.14571835
52	0x3e640c8a	0.22270408
53	0x3e168606	0.14699563
54	0x3e73bd47	0.23802672
55	0x3e5edfcc	0.21765059
56	0x3e15c5f9	0.14626302
57	0x3dceb0fa	0.10092349
58	0x3e541ff6	0.20715317
59	0x3e3e308f	0.18573211
60	0x3dda5a00	0.106616974
61	0x3e54a6cc	0.20766753
62	0x3e57e6fb	0.21084206
63	0x3e6c2c19	0.23063697
64	0x3ddd860f	0.10816585
65	0x3e093781	0.1340008
66	0x3e087144	0.13324457
67	0x3e08d42b	0.13362186
68	0x3d65652f	0.0560047
69	0x3d6eb41d	0.05827724
70	0x3e1f3b76	0.15550026
71	0x3dbd7069	0.09249956
72	0x3e1b8016	0.1518558
73	0x3de8ea44	0.113728076
74	0x3e036e2e	0.12834999
75	0x3df235ad	0.11826644
76	0x3e076925	0.13223703
77	0x3e148c48	0.14506638
78	0x3cfdc240	0.030976415
79	0x3e120acb	0.1426193
80	0x3d1f58ac	0.038902923
81	0x3cb013e1	0.021493854
82	0x3d9723af	0.07379853
83	0x3d41a499	0.047276113
84	0x3dc37500	0.095438
85	0xbc491f2e	-0.0122755
86	0xbd2267ae	-0.039649658
87	0x3db06af2	0.08614148
88	0x3c8c0794	0.017093457
89	0x3d9857a6	0.074385926
90	0x3d66ff6d	0.056395937
91	0xbcdc8c08	-0.02692224
92	0x3d4f3dc5	0.050596017
93	0x3d5f6490	0.054539263
94	0xbcbebd80	-0.02328372
95	0xbc86dbf7	-0.01646231
96	0x3d33b5bd	0.04387449
97	0x3cf70958	0.030155823
98	0xbc9e4b75	-0.01932309
99	0xbc67d8c0	-0.014150798
100	0x3d9d9bcd	0.07695732
101	0xbc89593f	-0.016766189
102	0x3d0f2444	0.034946695
103	0x3c850313	0.016236817
104	0xbd96a975	-0.0735654
105	0xbdc0de13	-0.09417357
106	0x3d592f7b	0.053023797
107	0xbc884515	-0.016634503
108	0x3ce4939a	0.027902413
109	0xbcc07316	-0.023492377
110	0xbc96693b	-0.018360725
111	0x3c531525	0.012883459
112	0x3cc041b2	0.023468826
113	0xbde9f3fc	-0.114234895
114	0xbd63476c	-0.055488035
115	0xbc4afa1a	-0.01238873
116	0xbc95c043	-0.018280154
117	0xbcbdfb89	-0.02319123
118	0xbe0132b3	-0.12616996
119	0xbe077e0c	-0.13231677
120	0xbe0211dc	-0.12702125
121	0xbd8624a8	-0.065499604
122	0x3a6c8c04	0.00090235495
123	0xbe0d20eb	-0.13782088
124	0xbd301266	-0.042986296
125	0xbe0830a0	-0.13299799
126	0xbe2ad73e	-0.16683671
127	0xbdde295d	-0.10847733
128	0xbd4d1c3a	-0.050075747
129	0xbd04283b	-0.03226493
130	0xbe28039b	-0.16407625
131	0xbdd204c4	-0.10254815
132	0xbd6b7a66	-0.057489775
133	0xbda06efe	-0.0783367
134	0xbda1ab26	-0.07893972
135	0xbd89ec98	-0.0673458
136	0xbd871362	-0.06595494
137	0xbdc02d51	-0.093836434
138	0xbe355ac1	-0.17710401
139	0xbe4ce09d	-0.20007558
140	0xbe36c99f	-0.1785035
141	0xbe233286	-0.15937242
142	0xbe437b94	-0.1909011
143	0xbdc2a4ed	-0.09504113
144	0xbdc419a2	-0.095752016
145	0xbe0f1811	-0.13974024
146	0xbdc21aca	-0.09477766
147	0xbdeac14e	-0.11462651
148	0xbdddac90	-0.10823929
149	0xbddfc8f0	-0.10926998
150	0xbe4c089f	-0.19925164
151	0xbdca3251	-0.09872878
152	0xbe3c4533	-0.18385772
153	0xbe31ee69	-0.17376103
154	0xbe7703f6	-0.24122605
155	0xbaa11c8d	-0.0012291834
156	0x408ab4af	4.334556
157	0x3eaa893b	0.33307824
158	0x3f0beae6	0.546553
159	0x3efdafd6	0.49548215
160	0xbd0bf34c	-0.034167573
161	0xbecf7786	-0.40520877
162	0xbef761cd	-0.48316804
163	0xbf6981b3	-0.9121353
164	0xbf24327e	-0.64139545
165	0xbdba706c	-0.09103474
166	0xbecd7ebe	-0.4013576
167	0xbf582dda	-0.84444964
168	0xbe8696eb	-0.26287016
169	0x3e87fbcd	0.26559296
170	0xbe498717	-0.19680439
171	0x3edecae3	0.43514165
172	0x3f3ccd3b	0.73750657
173	0x3f94f53b	1.1637338
174	0x3f8a7666	1.0817382
175	0x3eb73fb2	0.35790783
176	0xbde3ab08	-0.11116606
177	0xbe89e899	-0.2693527
178	0xbe95bcbb	-0.29245552
179	0xbe368077	-0.17822443
180	0xbe8fe44e	-0.2810387
181	0xbe806980	-0.2508049
182	0xbe790e7d	-0.24321933
183	0xbde8a36a	-0.11359294
184	0xbd9bb135	-0.07602159
185	0x3d96e415	0.07367722
186	0xbda3f00b	-0.08004769
187	0xbd8f9dd2	-0.07012524
188	0x3d1294af	0.035786327
189	0x3d3398b1	0.04384679
190	0x3e2f3417	0.17109714
191	0x3e271134	0.16315156
192	0x3e3e7659	0.18599834
193	0x3e797866	0.24362335
194	0x3ea67f40	0.3251896
195	0x3e6ca326	0.23109111
196	0x3eb86e4d	0.36021653
197	0x3ecbef7e	0.39831156
198	0x3edd73f4	0.43252528
199	0x3e9a9c29	0.30197266
200	0x3ec527a6	0.38506812
201	0x3e9e0ca3	0.30869016
202	0x3ee3cb76	0.44491166
203	0x3eb2726b	0.3485292
204	0x3ed5a88b	0.4173015
205	0x3eb93728	0.36174893
206	0x3eb43351	0.351954
207	0x3eb10e72	0.34581333
208	0x3ebc4fb1	0.3677955
209	0x3eca76be	0.39543718
210	0x3eb968ee	0.36212867
211	0x3ebd9903	0.370308
212	0x3e8964ec	0.2683481
213	0x3ebd07a4	0.36919892
214	0x3ebae2ce	0.36501163
215	0x3eb48082	0.35254294
216	0x3ea96a7d	0.33089057
217	0x3e4d2a57	0.20035683
218	0x3e663a4a	0.22483173
219	0x3e9b7b22	0.3036738
220	0x3e1ecb6e	0.1550729
221	0x3e8ad5c4	0.27116215
222	0x3debb793	0.115096234
223	0x3de2fe8f	0.110837094
224	0x3e53448f	0.20631622
225	0x3dc2a564	0.09504202
226	0x3e059287	0.13044177
227	0x3e4fc4b9	0.20289887
228	0x3e40450a	0.18776336
229	0x3e3af006	0.18255624
230	0x3dabc65a	0.08387442
231	0x3cac97f6	0.021068554
232	0x3e2055dc	0.15657753
233	0x3d6f0995	0.058358748
234	0x3d086a7e	0.033304684
235	0x3d998aba	0.07497163
236	0xbb825eda	-0.0039785923
237	0x3dac7d99	0.08422393
238	0x3d90e73d	0.07075355
239	0xbd418466	-0.047245406
240	0xbd593156	-0.053025566
241	0x3a0f25ea	0.0005460667
242	0x3d156592	0.036473818
243	0xbc7a8115	-0.015289565
244	0xbd8f40be	-0.069947705
245	0xbd2f46e8	-0.04279223
246	0xbe09e477	-0.13466059
247	0xbe0135be	-0.12618157
248	0xbdee5a26	-0.11638288
249	0xbb040acc	-0.0020148037
250	0x3b850c66	0.004060316
251	0xbdc787cd	-0.09742699
252	0xbd8f36a0	-0.06992841
253	0xbd11014f	-0.03540164
254	0xbd65d146	-0.05610778
255	0xbdea2492	-0.114327565

model.0.bias f4 [256]
0	0xbea86f0c	-0.32897222
1	0x3a0ca7a4	0.00053655566
2	0x3e16ed28	0.14738905
3	0xbe855ad2	-0.26045853
4	0xbede7b6f	-0.43453547
5	0x3ebd04a7	0.36917612
6	0x3ec9378b	0.39300188
7	0x3ead4e75	0.3384892
8	0x3def84c1	0.11695243
9	0xbea4b088	-0.32165933
10	0xbf0e92ff	-0.5569305
11	0x3e25e92d	0.16202231
12	0x3dc2f053	0.095184945
13	0xbf86f043	-1.0542072
14	0x3ebe850c	0.37210882
15	0xbe1d5c00	-0.15367126
16	0x3d493b0c	0.049128577
17	0xbed2490e	-0.4107136
18	0x3eb8a933	0.3606659
19	0xbb58a49a	-0.0033057095
20	0xbe4e03f9	-0.20118703
21	0x3c8391a6	0.016060662
22	0xbd3c5056	-0.04597505
23	0x3e49c677	0.19704615
24	0xbc925113	-0.017860925
25	0x3e910639	0.2832506
26	0xbe61def4	-0.22057706
27	0xbec4f153	-0.38465366
28	0xbe35cfee	-0.177551
29	0xbec1a0ea	-0.3781808
30	0x3dbb34c8	0.091409266
31	0xbd0d5718	-0.034506887
32	0xbf19a4f9	-0.60017353
33	0xbe25275c	-0.16128296
34	0xbc093410	-0.008374229
35	0x3e04729a	0.12934342
36	0xbee48e25	-0.44639698
37	0x3d3cbd84	0.046079174
38	0x3e92dbef	0.2868342
39	0x3eab74b3	0.33487472
40	0xbf40e753	-0.7535297
41	0x3e98e312	0.2986074
42	0x3e0233a4	0.12715012
43	0x3f0eb55b	0.55745476
44	0xc03420d6	-2.8145041
45	0x3e200f22	0.15630773
46	0xbdf58f4b	-0.119902216
47	0xbefe2e56	-0.49644727
48	0x3ee91f3e	0.45531648
49	0x3cef4da4	0.029211827
50	0xbeb5596c	-0.35419786
51	0x3e96f74d	0.2948555
52	0xbecca0d1	-0.39966443
53	0xbdc870c1	-0.09787131
54	0x3ef626b6	0.4807641
55	0xbc7918fb	-0.01520371
56	0xc010079c	-2.2504644
57	0xbf29eaaa	-0.66373694
58	0x3e064f24	0.13116127
59	0x3de102fe	0.10986899
60	0x3e946671	0.28984407
61	0xbc9d7cb1	-0.019224497
62	0x3e05afe6	0.13055381
63	0x3e6ed7f4	0.23324567
64	0xbe00b7ea	-0.12570158
65	0x3e3134da	0.17305318
66	0x3e3e58d0	0.18588567
67	0xbe9ece48	-0.31016755
68	0x3e99cdbb	0.30039772
69	0xbe51f684	-0.20504194
70	0x3e64e224	0.22351891
71	0x3f083d72	0.5321876
72	0x3e80e38a	0.251736
73	0x3e26cd7f	0.16289328
74	0xbf127b9d	-0.5721987
75	0x3fb026fb	1.3761896
76	0xbeada51b	-0.33915028
77	0xbee2bc74	-0.44284403
78	0xbdd06242	-0.10174991
79	0x3f5c9ec3	0.8617975
80	0xbee7a655	-0.4524409
81	0xbd29563c	-0.041342005
82	0xbf36d55d	-0.71419317
83	0xbeaa0c68	-0.3321259
84	0x3e973dbc	0.29539287
85	0xbd57a52f	-0.052647766
86	0xbdd89f8e	-0.10577308
87	0x3d7987eb	0.060920637
88	0x3d6037d4	0.05474074
89	0xbf51d524	-0.8196585
90	0xbf06846c	-0.5254581
91	0xbf3d9fe9	-0.7407213
92	0x3e554bc3	0.20829682
93	0xbf3959f6	-0.72402894
94	0x3d9a90e4	0.07547167
95	0xbd066073	-0.032806825
96	0x3ea842fc	0.32863605
97	0x3eae46f8	0.3403852
98	0x3e500e8f	0.20318054
99	0x3e3cbddd	0.18431802
100	0x3ee95d79	0.45579126
101	0xbe255cff	-0.16148756
102	0x3f557b07	0.8339085
103	0x3dafc471	0.0858239
104	0x3f595709	0.8489843
105	0xbe2e0891	-0.16995455
106	0x3f134d17	0.57539505
107	0x3e014546	0.12624082
108	0xbed8685a	-0.42267114
109	0x3d890bef	0.06691729
110	0xbe23933d	-0.15974136
111	0xbe4df3f9	-0.201126
112	0xbe17535d	-0.14777894
113	0x3dff5617	0.12467592
114	0x3ebe42e9	0.37160423
115	0x3e57e34b	0.21082799
116	0xbebc4b20	-0.36776066
117	0xbbc791fc	-0.0060904007
118	0xbebc4635	-0.36772314
119	0x3e20d394	0.1570571
120	0x3f9a5deb	1.2059911
121	0xbc9d0911	-0.019169362
122	0x3d8e580e	0.06950389
123	0xbee565dc	-0.44804275
124	0x3f03fcda	0.51557696
125	0xbd4b2a37	-0.049600806
126	0xbf23c939	-0.63978916
127	0x3dd43fe0	0.10363746
128	0x3dd0f113	0.10202231
129	0x3f190695	0.5977567
130	0xbf072cc3	-0.52802676
131	0x3dc71a18	0.09721774
132	0xbefc1323	-0.4923335
133	0x3e8126a7	0.25224802
134	0x3e3e8774	0.18606359
135	0xbfa21913	-1.2663902
136	0x3fa00e15	1.2504297
137	0x3db553bd	0.088538624
138	0x3e537e87	0.20653735
139	0xbf076fdf	-0.52905077
140	0xbef96c4d	-0.4871544
141	0x3e416fea	0.18890348
142	0xbea48712	-0.321343
143	0xbecd4711	-0.40093282
144	0xbd0a3834	-0.033745006
145	0x3e96c8f1	0.2945018
146	0x3eaac418	0.33352733
147	0x3df716c6	0.120648906
148	0xbec37c73	-0.38180885
149	0xbd60ef7c	-0.05491589
150	0xbcd9a3b4	-0.026567318
151	0xbf69515d	-0.91139776
152	0xbe84a555	-0.25907388
153	0x3e001423	0.12507682
154	0xbf0b69f8	-0.5445857
155	0xbeda9e00	-0.4269867
156	0xbe591bfa	-0.21202078
157	0x3e90bcf0	0.28269148
158	0xbf081b42	-0.5316659
159	0x3a1f9432	0.00060874515
160	0xbeecdee6	-0.46263808
161	0xbeb4a3fb	-0.35281357
162	0x3df69d17	0.12041681
163	0xbf04e3be	-0.51910007
164	0x3f03f3ff	0.51544183
165	0xbd9bed2b	-0.076135956
166	0x3e957681	0.29191974
167	0xbe2e0940	-0.16995716
168	0xbcc76519	-0.0243402
169	0x3cacbb8c	0.021085523
170	0xb9dbdd07	-0.00041935613
171	0x3e345a2d	0.17612524
172	0x3de2b874	0.11070338
173	0xbe608b3e	-0.21928117
174	0x3e5ec293	0.21753912
175	0x3d96bc83	0.073601745
176	0x3d74655e	0.059666984
177	0x3d96a54d	0.07355747
178	0xbf8bbae0	-1.0916405
179	0x3eb73661	0.35783675
180	0xbd3a6a50	-0.045511544
181	0xbbdfc754	-0.0068291817
182	0x3f4f4c5c	0.8097589
183	0x3f520256	0.82034814
184	0xbd84eba0	-0.064902544
185	0x3da9dcca	0.08294065
186	0xbe5d26fc	-0.21596903
187	0xbf900bbb	-1.125358
188	0x3dc90b51	0.098166116
189	0x3f12dda6	0.5736946
190	0xbdee6178	-0.116396844
191	0xbf914fee	-1.1352518
192	0x3e5c3001	0.21502687
193	0xbf6ffa59	-0.93741375
194	0x3e89a2d0	0.2688203
195	0x3de220c1	0.110414036
196	0xbd24e39a	-0.04025612
197	0xbf917753	-1.136454
198	0xbd613577	-0.05498263
199	0xbdc8e5af	-0.09809434
200	0x3eb914e2	0.36148745
201	0x3c5d7dda	0.013518775
202	0x3ee331dd	0.4437398
203	0xbe6f6e1b	-0.23381846
204	0xbdf6c369	-0.1204899
205	0xbf023ffc	-0.5087888
206	0xbcc5338c	-0.024072431
207	0xbc044eed	-0.008075458
208	0xbf01c8a0	-0.50696754
209	0xbe8609d9	-0.26179388
210	0x3e8e40d7	0.27783844
211	0xbdd81a06	-0.105518386
212	0xbdfd687a	-0.12373443
213	0x3de359ec	0.111011356
214	0xbf40f832	-0.75378716
215	0x3db9dc1e	0.09075187
216	0xbe8b4891	-0.272038
217	0xc015c9ad	-2.3404343
218	0x3e71142f	0.23542856
219	0xbf815af1	-1.0105878
220	0x3f0b2a0a	0.5436102
221	0x3d73dbe9	0.059535895
222	0xbf01635c	-0.50542235
223	0xbf323377	-0.6960978
224	0xbe36e87a	-0.1786212
225	0x3e0e4856	0.13894781
226	0x3d58dad7	0.052943077
227	0xbda151e6	-0.07876949
228	0xbf504a10	-0.8136301
229	0xbe4219e8	-0.18955195
230	0x3e8e2c91	0.27768376
231	0xbe177d4d	-0.14793892
232	0x3e4d0b57	0.20023857
233	0x3def1372	0.11673631
234	0x3f2b436e	0.66899765
235	0x3ebb646f	0.36600062
236	0x3e342a5b	0.17594282
237	0x3eaa0297	0.332051
238	0x3cc853f0	0.024454087
239	0xbe2d6662	-0.16933587
240	0x3db934f9	0.09043307
241	0x3f9ac178	1.2090292
242	0xbead68c6	-0.33868998
243	0xbdbdda13	-0.0927011
244	0xbe167f85	-0.14697082
245	0xbe16ff1b	-0.14745753
246	0xbe0eeb67	-0.13956986
247	0xbebe71e1	-0.37196258
248	0x3ed09f6c	0.4074663
249	0x3c8b1a20	0.01698023
250	0x3ed19a48	0.4093802
251	0xbd60f65b	-0.054922443
252	0x3f402b8d	0.75066453
253	0x3dd9f1ed	0.10641847
254	0x3e5ae341	0.21375753
255	0xbf4d8729	-0.80284363

model.2.weight f4 [128, 256]
0	0xbe597957	-0.21237694
1	0x3da9bf7a	0.082884744
2	0x3e75709a	0.23968735
3	0x3d0bdf8c	0.034148738
4	0xbd4dc3a5	-0.05023541
5	0x3da2bb84	0.07945922
6	0x3d9822c1	0.07428504
7	0x3c852005	0.01625062
8	0x3e92be4d	0.28660813
9	0x3e08b112	0.13348797
10	0xbd69007e	-0.056885235
11	0x3e13e170	0.14441466
12	0xbe2cf023	-0.1688848
13	0xbe0f0f41	-0.13970663
14	0xbd6e7325	-0.05821528
15	0xbe878239	-0.2646654
16	0x3e6bfb82	0.23045161
17	0xbd49f737	-0.049308028
18	0xbe31d4ba	-0.17366305
19	0xbf0d3a86	-0.55167425
20	0x3d990cc7	0.0747314
21	0x3e8c1cc4	0.27365696
22	0x3ddf3ab4	0.108998686
23	0xbe782fbb	-0.24236958
24	0x3d946a14	0.07246795
25	0xbe4b2ec1	-0.19842054
26	0x3c7e3a1b	0.015516783
27	0x3d8bdb1d	0.06828902
28	0xbc7cb8a6	-0.015424883
29	0xbcaa627d	-0.020798916
30	0xbe295ce2	-0.16539338
31	0x3d5ba613	0.053625178
32	0x3dde9800	0.108688354
33	0x3c745bc5	0.014914458
34	0x3d4fd5a0	0.050740838
35	0x3dd316ee	0.10307108
36	0x3e074404	0.1320954
37	0x3c814233	0.015778637
38	0x3c92df73	0.017928815
39	0xbe0ebab2	-0.13938406
40	0x3e45a057	0.19299446
41	0xbedb2da2	-0.42808253
42	0xbd75e360	-0.060031295
43	0xbe3faf39	-0.18719186
44	0x3e2779b8	0.16355026
45	0x3dfce103	0.12347605
46	0x3d0ae5ac	0.03391044
47	0x3e1d13c4	0.15339571
48	0xbe734504	-0.23756796
49	0xbe89cbfc	-0.2691344
50	0xbcade158	-0.021225616
51	0x3e068bfe	0.1313934
52	0xbe1b894d	-0.15189095
53	0x3c5bc6b6	0.013414076
54	0xbce60ef5	-0.028083304
55	0xbe5889ec	-0.21146363
56	0x3e56e86d	0.20987101
57	0xbcc53850	-0.024074703
58	0xbe4e4833	-0.2014473
59	0x3e9f9385	0.31167236
60	0x3e6782b9	0.2260846
61	0x3de61c57	0.11235874
62	0x3e4811ae	0.19537994
63	0x3a98439b	0.0011616828
64	0xbe06caee	-0.13163349
65	0x3e05141b	0.12995951
66	0xbc59c174	-0.013290752
67	0xbe112374	-0.1417368
68	0xbe1e0514	-0.15431625
69	0xbaffeaa0	-0.001952488
70	0xbe2e57e0	-0.17025709
71	0x3cb32067	0.021866037
72	0x3e3ac5e1	0.18239547
73	0xbd336276	-0.04379507
74	0xbd9d0077	-0.07666104
75	0x3dd6f08e	0.10495101
76	0x3dafb2e6	0.08579044
77	0x3c65bd93	0.014022249
78	0x3d61e676	0.055151425
79	0xbf4f8106	-0.8105625
80	0x3da68a13	0.08131804
81	0x3daa1141	0.08304072
82	0xbda079c1	-0.07835723
83	0xbd2ba8b8	-0.04190895
84	0xbd834721	-0.06410051
85	0xbea2ee47	-0.31822416
86	0x3cfb58f8	0.030682072
87	0x3d8ad8e4	0.0677965
88	0xbdcd7e4e	-0.10033856
89	0xbdb951b8	-0.0904879
90	0xbd3d68cf	-0.04624253
91	0xbd9408f7	-0.072282724
92	0x3e035c49	0.12828173
93	0xbde9008f	-0.1137706
94	0xbdcaab24	-0.09895924
95	0xbe9ac144	-0.30225575
96	0x3c12ebce	0.008967353
97	0xbe617765	-0.22018202
98	0xbe85fabd	-0.2616786
99	0x3e5eef99	0.21771087
100	0xbe97ee05	-0.29673782
101	0x3e05d9d1	0.13071372
102	0x3ea3fad3	0.320273
103	0x3d9065b8	0.07050651
104	0x3e6dadd5	0.23210843
105	0x3d84ab62	0.06478001
106	0xbe2eb73e	-0.17062089
107	0x3ede3377	0.4339864
108	0xbd9b18cd	-0.0757309
109	0xbd3b2557	-0.045689907
110	0x3d104552	0.03522236
111	0x3d308708	0.043097526
112	0x3e4744af	0.19459794
113	0xba70bfcf	-0.0009183855
114	0xbe7004b5	-0.23439296
115	0x3cf1107d	0.029426808
116	0xbe02ee4a	-0.12786213
117	0xbdace750	-0.08442557
118	0x3e222fbd	0.15838523
119	0xbe00d9d9	-0.12583102
120	0xbcba7cd1	-0.022764595
121	0xbea58bfa	-0.32333356
122	0x3ea8669d	0.32890788
123	0xbe0f99c8	-0.14023507
124	0x3e508688	0.2036382
125	0xbd3eff07	-0.04662993
126	0x3da1fc54	0.07909456
127	0x3e42e4fb	0.19032662
128	0x3e184184	0.14868742
129	0x3e2be9a0	0.1678834
130	0xbc8bca1c	-0.017064147
131	0x3e008448	0.12550461
132	0xbe04cba0	-0.12968302
133	0x3d1a2c72	0.037640043
134	0xbcbda6bb	-0.023150792
135	0xbe42ce4f	-0.19024013
136	0xbc159430	-0.009129569
137	0x3eb7bd3e	0.35886568
138	0x3db89ca1	0.090142496
139	0x3d02735a	0.03184829
140	0xbd8822ac	-0.06647238
141	0x3c4ce8ac	0.012506645
142	0x3e3527cf	0.17690967
143	0xbe637431	-0.22212292
144	0xbdd185e9	-0.102306195
145	0x3e0d0406	0.13771066
146	0xbdafc376	-0.08582203
147	0xbf2ae04a	-0.6674849
148	0xbe0eb786	-0.13937196
149	0xbe404bfb	-0.18778984
150	0x3e1de353	0.15418749
151	0x3e41b743	0.18917565
152	0xbcd8228c	-0.02638366
153	0xbda9d95d	-0.08293412
154	0xbd47532a	-0.048663296
155	0x3c45f59e	0.0120824855
156	0xbe09a55b	-0.13441984
157	0x3cb6eb87	0.022329105
158	0xbe1705af	-0.14748262
159	0xbdb8ef34	-0.090299994
160	0x3e8811b2	0.26576
161	0xbe3e965b	-0.18612044
162	0xbdf50097	-0.11963003
163	0xbd46f002	-0.048568733
164	0xbd913c07	-0.070915274
165	0xbe2d9d70	-0.16954589
166	0x3e5f41e6	0.21802482
167	0x3e35aa68	0.17740786
168	0x3d886fa1	0.066619165
169	0x3e2d625e	0.16932055
170	0x3e2e8f65	0.17046888
171	0xbdf31dde	-0.11870931
172	0x3de110fa	0.10989566
173	0x3e5dd01b	0.21661417
174	0x3bc6a6b3	0.0060623526
175	0xbb4de0ae	-0.0031414437
176	0xbe9eeb5a	-0.31038934
177	0x3dd6c526	0.10486822
178	0x3df3b718	0.11900157
179	0x3e89db4c	0.26925123
180	0xbeebe4b9	-0.4607294
181	0xbdbec36b	-0.09314617
182	0x3d6a6cfd	0.057232846
183	0x3e81a0af	0.25317904
184	0x3b925d2c	0.0044666734
185	0x3e587a44	0.2114039
186	0x3c64fffa	0.013977045
187	0x3e1fce9b	0.15606157
188	0xbdf28e43	-0.118435405
189	0x3d16df6b	0.03683416
190	0xbd695e94	-0.056974962
191	0xbdbe51ae	-0.09292923
192	0xbdf3f540	-0.11912012
193	0xbdd2d1d8	-0.10293931
194	0xbd30a837	-0.043129172
195	0x3cd271f1	0.025689097
196	0x3d9eb87b	0.077500306
197	0xbcdbcbd7	-0.026830597
198	0x3d5cf319	0.053942773
199	0xbdcc60b0	-0.09979379
200	0xbe6d112c	-0.23151082
201	0x3cfbf575	0.030756691
202	0xbd8e78b8	-0.06956619
203	0xbcb67679	-0.022273289
204	0x3d45e034	0.04830952
205	0xbde49485	-0.1116114
206	0xbea11782	-0.31463248
207	0xbcac6c43	-0.021047717
208	0xbdcb30c0	-0.09921408
209	0x3dc0e369	0.09418375
210	0xbe73f594	-0.2382415
211	0x3d27637f	0.04086637
212	0x3d8b3937	0.06798022
213	0x3e59c041	0.21264745
214	0x3dfd7652	0.123760834
215	0x3e26d8f8	0.16293705
216	0xbe8fa171	-0.28052858
217	0xbeb80d44	-0.3594762
218	0x3d6d35b1	0.057912532
219	0x3da384b0	0.079842925
220	0xbef1d759	-0.4723461
221	0x3d779f99	0.06045494
222	0x3daf36ed	0.08555398
223	0xbe17a448	-0.14808762
224	0x3b120cb9	0.0022285415
225	0xbe2a5c42	-0.16636756
226	0x3dcf9faa	0.101378754
227	0x3d6ce77f	0.05783796
228	0x3e60818c	0.21924418
229	0x3d3b28bc	0.045693144
230	0xbdd24bf5	-0.10268394
231	0xbd3e6b89	-0.046489272
232	0xbe25b573	-0.16182499
233	0x3e6f9fca	0.23400798
234	0x3e521bda	0.20518437
235	0xbe4349b9	-0.19071092
236	0xbd525c06	-0.05135729
237	0xbda86344	-0.082220584
238	0xbe26c873	-0.16287403
239	0x3e52eac8	0.20597374
240	0xbd546a99	-0.051859472
241	0xbe0a50ac	-0.13507336
242	0xbcf8376f	-0.03029987
243	0x3d43b000	0.04777527
244	0x3cd24253	0.025666391
245	0x3e8a872a	0.27056247
246	0x3d93c521	0.07215334
247	0xbdfc6a49	-0.1232496
248	0xbde90c7b	-0.113793336
249	0x3e10c65a	0.14138165
250	0xbda437e5	-0.080184735
251	0x3d61aae9	0.055094633
252	0x3d7d389c	0.061821565
253	0x3da9d858	0.082932174
254	0xbe63e6a7	-0.22255956
255	0xbe007aee	-0.12546894

model.2.bias f4 [128]
0	0xbe7c734b	-0.24653356
1	0x3e7f3b5a	0.24924985
2	0x3e502272	0.2032564
3	0xbcced1c3	-0.025246507
4	0xbe5131ac	-0.20429105
5	0x3eb7b426	0.3587963
6	0xbe967a60	-0.2939024
7	0xbe582bc4	-0.21110445
8	0xbe5187da	-0.2046198
9	0x3ec6462d	0.38725415
10	0xbd72657e	-0.05917882
11	0x3e1bb591	0.15205981
12	0x3e941d4f	0.2892861
13	0xbeb1189d	-0.3458909
14	0x3e8434aa	0.2582143
15	0x3ed29034	0.41125643
16	0xbf1572ee	-0.58378494
17	0xbdbdd681	-0.09269429
18	0x3e3890da	0.18024006
19	0xbdbff569	-0.0937298
20	0xbc20b783	-0.009809378
21	0xbdccbe18	-0.09997195
22	0xbf0e788d	-0.55652696
23	0xbca91cec	-0.020643674
24	0x3d5ad24c	0.05342321
25	0x3ef050b2	0.46936566
26	0x3e568e00	0.20952606
27	0xbe8c0d62	-0.2735396
28	0x3edbfd40	0.42966652
29	0x3e2b6cf4	0.16740781
30	0x3df7f1e5	0.121066846
31	0x3e8aa4e6	0.27078933
32	0x3d8ff339	0.07028813
33	0x3e1c531c	0.15266079
34	0xbd4a29ce	-0.049356274
35	0xbe47169a	-0.19442216
36	0xbea5969e	-0.32341474
37	0xbd52fa10	-0.05150801
38	0xbf2f7f94	-0.68554044
39	0xbd17f14a	-0.037095346
40	0xbeb058d0	-0.3444276
41	0x3e60d17d	0.21954913
42	0xbee8489f	-0.45367905
43	0x3d890063	0.06689527
44	0x3e07093f	0.13187121
45	0xbf018778	-0.50597334
46	0xbeff67f0	-0.49883986
47	0x3ee2e0ce	0.44312137
48	0xbec4b306	-0.38417834
49	0xbf0ac132	-0.5420104
50	0x3d621013	0.05519111
51	0x3f061735	0.5237916
52	0xbefe0318	-0.49611735
53	0x3eb5b795	0.35491624
54	0xbee58c98	-0.44833827
55	0x3de1d78f	0.11027443
56	0x3db50bb8	0.08840126
57	0xbf53bec9	-0.8271299
58	0x3e6cd937	0.23129736
59	0xbe7ab48f	-0.2448294
60	0xbe1f9dc5	-0.15587528
61	0xbf15243c	-0.58258414
62	0xbe5336de	-0.20626399
63	0xbe2a7cb8	-0.16649139
64	0xbf0355f5	-0.51303035
65	0x3dc737eb	0.097274624
66	0x3dfc56f6	0.12321274
67	0x3db27d27	0.08715277
68	0xbcfacde0	-0.030615747
69	0x3e4203e6	0.189468
70	0xbf322fa4	-0.69603944
71	0x3f19177c	0.5980146
72	0xbf1d67d8	-0.6148658
73	0xbee23434	-0.44180453
74	0x3ef4e303	0.47829446
75	0xbe058119	-0.13037528
76	0xbeb7dc19	-0.3591011
77	0xbe03101e	-0.12799117
78	0x3d98869e	0.07447551
79	0x3ea3378f	0.31878325
80	0x3e6bfcfe	0.23045728
81	0xbe1801d8	-0.14844453
82	0x3e54324f	0.20722316
83	0x3b9b3538	0.004736569
84	0xbf125351	-0.5715838
85	0x3f0fb654	0.56137586
86	0xbeb6906e	-0.35657066
87	0xbee5754d	-0.44816056
88	0xbbae1afb	-0.005313275
89	0xbef9bafa	-0.48775464
90	0x3e021f8d	0.12707348
91	0x3e6f0f6a	0.23345724
92	0x3e9e8c9f	0.3096666
93	0xbe6e12e5	-0.23249395
94	0xbef6e80f	-0.48223922
95	0xbdce4bb9	-0.10073037
96	0xbe72d254	-0.23713046
97	0x3c644612	0.013932722
98	0x3e030957	0.12796532
99	0x3f188e40	0.59592056
100	0xbf45db75	-0.7728799
101	0x3ebb653b	0.3660067
102	0x3e770b06	0.24125299
103	0x3cd88f2c	0.026435457
104	0xbecdfb1e	-0.4023065
105	0x3e4ed635	0.20198901
106	0xbe439449	-0.19099535
107	0xbd92579d	-0.07145617
108	0xbdee3d7b	-0.1163282
109	0xbed8b57a	-0.42325956
110	0xbf356372	-0.70854867
111	0xbd6a5e8f	-0.057219084
112	0xbe906b90	-0.28207064
113	0xbe275cae	-0.16343948
114	0x3df1683b	0.117874585
115	0xbe0ecfda	-0.13946477
116	0xbe017244	-0.12641245
117	0x3daedace	0.085378274
118	0xbe976ddb	-0.29576
119	0x3edd0463	0.4316741
120	0xbede5f5d	-0.4343213
121	0x3ea0269a	0.3127945
122	0xbecb6669	-0.3972657
123	0x3ee1fa9c	0.44136512
124	0x3e7a02b2	0.2441509
125	0xbbea95e1	-0.0071589802
126	0xbeb5e831	-0.3552871
127	0xbe81cf6a	-0.25353557

model.4.weight f4 [1, 128]
0	0x3dbc4663	0.09193113
1	0x3bd2d2cb	0.00643382
2	0xbdab571f	-0.083662264
3	0x3f18d129	0.59694153
4	0x3e05e340	0.1307497
5	0xbe28456c	-0.16432732
6	0x3e0c778a	0.13717476
7	0xbd7ed487	-0.0622144
8	0x3e003862	0.12521508
9	0xbe0e22f0	-0.13880515
10	0xbea908ba	-0.3301447
11	0xbee650a3	-0.44983396
12	0xbe9893b3	-0.29800186
13	0x3e2a4fcd	0.16632004
14	0xbe01cfb4	-0.12676889
15	0xbe5e403d	-0.21704192
16	0x3defe557	0.11713665
17	0x3b6bbbd8	0.0035970118
18	0xbde0e837	-0.109817915
19	0x3da4b3d8	0.08042115
20	0x3e67b479	0.22627439
21	0x3e327dcc	0.174308
22	0x3e6ad3ea	0.22932401
23	0x3e29b60b	0.1657335
24	0xbe6763c3	-0.2259665
25	0xbe8b9349	-0.27260807
26	0x3b9fa041	0.0048713987
27	0x3ec4e960	0.384593
28	0xbeaac8fc	-0.33356464
29	0xbe713174	-0.23554021
30	0xbe916b54	-0.28402197
31	0xbe1e6ce3	-0.15471224
32	0xbe7e9ea9	-0.24865212
33	0xbe2b9520	-0.16756105
34	0xbe3223d2	-0.17396477
35	0xbe09ec64	-0.13469082
36	0x3e49974a	0.19686618
37	0xbe842740	-0.25811195
38	0x3da92ed7	0.08260887
39	0x3ece802b	0.4033216
40	0x3ccd4b13	0.025060212
41	0xbde125df	-0.109935515
42	0x3c13de1b	0.009025122
43	0xbdb1fdce	-0.086909875
44	0x3deea0e6	0.11651783
45	0x3d30b1a1	0.04313815
46	0x3da94a41	0.08266116
47	0xbe4bbb98	-0.1989578
48	0x3cce292f	0.025166122
49	0x3e02f028	0.12786925
50	0x3e454a01	0.19266511
51	0xbeb95447	-0.3619711
52	0x3e012277	0.12610804
53	0xbe50a153	-0.2037404
54	0x3dafc969	0.08583338
55	0x3e39e974	0.18155462
56	0x3e651cc3	0.22374253
57	0x3d87c724	0.0662978
58	0xbdb8d52d	-0.09025035
59	0x3e58c6ef	0.21169637
60	0xbdc51976	-0.09623997
61	0x3dbf4c73	0.093407534
62	0xbd320683	-0.04346324
63	0x3b2407d7	0.0025029087
64	0x3eac17b2	0.33611828
65	0xbd2fd00d	-0.042923022
66	0xbdb5d66e	-0.0887879
67	0x3b62c7b3	0.0034603893
68	0xbe48d698	-0.19613111
69	0xbec64931	-0.38727716
70	0x3d29418a	0.04132227
71	0xbec009fb	-0.37507614
72	0x3d8d38f2	0.06895627
73	0x3ad332b4	0.0016113133
74	0xbdebd029	-0.11514313
75	0x3dc882e0	0.097905874
76	0x3bf8c5cb	0.007591938
77	0xbea5bb9e	-0.32369703
78	0x3c95dfdd	0.018295223
79	0xbe41546c	-0.1887986
80	0xbec88b34	-0.39168704
81	0x3e0f749d	0.14009328
82	0xbe958b03	-0.2920762
83	0xbe8eefac	-0.2791723
84	0x3da84334	0.08215943
85	0xbd7ed82e	-0.062217884
86	0x3e8ddb45	0.27706352
87	0x3b8660ca	0.0041008936
88	0xbf08a418	-0.5337539
89	0x3deabb85	0.11461548
90	0xbf02dec0	-0.5112114
91	0xbe9139fa	-0.28364545
92	0xbecaf15a	-0.39637262
93	0x3d344faa	0.044021286
94	0x3e51eaca	0.20499721
95	0xbe0b40bd	-0.13598914
96	0x3be7206b	0.007053425
97	0x3d4bfeb5	0.049803454
98	0x3dadbda2	0.08483435
99	0xbe241f6c	-0.16027611
100	0x3e922675	0.28544965
101	0xbe97e5ee	-0.2966761
102	0xbea4ccdf	-0.32187554
103	0xb8c3b3b0	-9.331794e-05
104	0x3d479c63	0.048733126
105	0x3e98f699	0.2987564
106	0x3c4283f4	0.01187228
107	0xb99da6a9	-0.00030069545
108	0xbe8b63a1	-0.27224448
109	0xbdbe3d44	-0.09289029
110	0x3db80cb5	0.08986799
111	0xbdd08e8f	-0.10183441
112	0xbe545f56	-0.20739493
113	0x3e0f06c0	0.13967419
114	0x3d90e900	0.07075691
115	0xbeb26d4f	-0.3484902
116	0xbe46a6b0	-0.19399524
117	0xbe4f96f4	-0.20272428
118	0x3d7a4d1e	0.0611087
119	0xbebb47ae	-0.36578125
120	0xbe2a63b5	-0.16639598
121	0xbebb921b	-0.36634907
122	0x3d40de88	0.047087222
123	0xbe95bbcf	-0.2924485
124	0xbeb389a3	-0.35065946
125	0x3a0806a1	0.0005188976
126	0x3c83f90a	0.016109962
127	0x3df40ce8	0.11916524
