discriminator_gan_ecv_ts_128_9.pth (torch, 397294 bytes, 5 tensors)

model.0.weight f4 [256, 255]
000000 38 a4 75 c0 c2 fb 96 be be d4 19 bf 17 79 d4 3f
       -3.838148 -0.2948895 -0.60090244 1.6599454
000010 9c 10 79 3f 5d 99 19 3f 5e 84 20 3d 62 fa 9f 3c
       0.9729097 0.5999964 0.039188735 0.019528572
000020 1c d6 1f bf 8d d5 40 be 4d 6a b4 be e0 4b 96 be
       -0.6243608 -0.18831463 -0.3523735 -0.29354763
000030 ad 4f 2d 3d 67 b2 7e bd 62 cf d1 be 8d be 07 3e
       0.042312313 -0.062181856 -0.40978533 0.13256283
000040 df 62 23 bf 8f 7c 8d bf 72 d1 46 bf 0f e4 37 bf
       -0.6382274 -1.1053637 -0.7766334 -0.71832365
000050 05 45 c3 bf 50 5f 04 c0 44 9e cf bf 06 2b e8 bf
       -1.5255438 -2.0683174 -1.6220174 -1.813813
000060 f5 7c bb bf c8 50 86 bf 20 59 d5 bf 0e db 88 bf
       -1.4647509 -1.0493402 -1.6667824 -1.069185
000070 bd 88 6e bf c2 ed 94 bf 0a dc 1a bf 32 5f ee be
       -0.93177396 -1.1635058 -0.60492 -0.46557003
000080 84 e5 76 3c 05 1e dc 3e bb 21 65 3e 24 62 00 3d
       0.015069369 0.42991653 0.22376148 0.031343594
000090 dd 62 c0 3d 86 b8 ce 3e ca cc 28 3f 91 ac 2c 3f
       0.09393857 0.40375155 0.65937483 0.67450815
0000a0 1d 91 18 3f 25 6f 4c 3f 82 a9 df 3a af ac c0 3e
       0.59596425 0.79857093 0.0017064067 0.37631747
0000b0 15 f5 6f 3f 23 d7 66 3f de 26 6c 3f af f0 14 3f
       0.9373334 0.9017202 0.92246807 0.58179754
0000c0 34 3c 03 3f 20 25 20 bc f2 8e fc 3e e2 2d 71 bd
       0.5126374 -0.009774476 0.4932781 -0.058881648
0000d0 30 1c 25 bd 7c 45 20 be 27 76 28 bd 9d 0c 06 bf
       -0.040310085 -0.15651506 -0.041128304 -0.52362996
0000e0 fc ce da be 8f ac 52 3d c1 40 0d bf 2f 84 30 bf
       -0.42736042 0.051434096 -0.5517693 -0.68951696
0000f0 64 e3 a8 be 5f dd f7 be 91 55 74 bf 94 94 1d bf
       -0.32985985 -0.4841108 -0.95443064 -0.6155484
000100 91 07 1b be ac 73 2c be a3 1f f2 be 75 af d4 be
       -0.15139605 -0.16841 -0.47289762 -0.41540113
000110 01 cb 4a bd 1a 3c 16 bd 76 cb a1 3e 85 38 7e 3e
       -0.049510006 -0.03667841 0.3160054 0.24826248
000120 b6 d6 04 bf a2 e5 03 3f 52 2f 87 3d a7 42 40 3e
       -0.5189012 0.51522267 0.066008225 0.18775426
000130 6b 8a 59 3e 6a 45 ce 3e 04 ac 55 3f ce 0e 3c 3f
       0.21244209 0.40287334 0.834656 0.7346009
000140 f0 22 d5 3e 23 5d 0e 3f 54 05 59 bd 90 4a 24 bf
       0.41628218 0.55610865 -0.052983597 -0.64176273
000150 18 61 7b 3e e1 9b bb bd dd 15 0f bf e7 1e 51 bf
       0.24548757 -0.09160591 -0.55892736 -0.8168778
000160 53 c1 ea 3d 2e ee 63 be 3d 3f e9 bc cd 8f 2d bf
       0.11462655 -0.22258827 -0.028472537 -0.6779755
000170 7c f5 a6 bd 45 2c 8a 3e 07 f2 fe 3e c3 0b db 3e
       -0.08152291 0.269869 0.49794027 0.4278241
000180 e1 c5 03 bf e7 24 dc bc 7a 81 0f 3f 5c a1 dc 3e
       -0.51473814 -0.026873065 0.5605694 0.43091857
000190 c5 3f 2e be 50 38 d2 3d 0a fc 4a 3f 26 0a 05 bf
       -0.17016514 0.10264647 0.7929083 -0.5196861
0001a0 b9 a1 1c 3e 50 48 fa be b5 bd b3 3d 5d 4e 30 bd
       0.15296067 -0.48883295 0.08776418 -0.043043483
0001b0 a4 20 67 be ac 7a 9a be 1e 02 ea 3e b5 a1 ff 3e
       -0.22571045 -0.30171716 0.4570474 0.4992806
0001c0 17 61 a5 3e 86 71 63 3e 76 bf ea 3e 83 55 a6 bd
       0.32300636 0.22211275 0.45849198 -0.08121779
0001d0 2c 53 99 3f ed ad d9 3e 46 e5 04 3f 82 4e 4a 3e
       1.1978507 0.42515507 0.51912344 0.19756511
0001e0 d2 76 4c 3d 9b 9b 24 3e 59 bc 21 be 2c 3c 74 be
       0.049918003 0.16074984 -0.15794505 -0.23851079
0001f0 bc e0 6e 3e b3 59 5a bd db c4 2b bf 7f 6e e4 bc
       0.23327917 -0.0533082 -0.6709725 -0.02788472
000200 77 d7 c2 bd 89 e8 65 be d4 9c fe be f4 21 6c bf
       -0.09513753 -0.22451986 -0.49729025 -0.9223931
000210 df 88 d1 3e 1f 57 0c 3d 63 e0 54 bd b8 88 01 3f
       0.40924737 0.034262773 -0.051971804 0.5059924
000220 4e fa 8f 3e 22 86 75 be 22 68 ce 3d 99 91 52 be
       0.28120655 -0.23976949 0.100784555 -0.20563354
000230 c8 1a fc bd fc fa 31 3f 34 40 e6 3e d9 59 44 bc
       -0.123097956 0.69523597 0.44970858 -0.011984312
000240 af 1f 0a be ad eb 24 be 74 56 0e 3e 72 9d 83 bd
       -0.13488649 -0.16105528 0.13900167 -0.06426515
000250 2a 14 a6 3e 28 04 0e 3f b1 94 d2 be 08 b6 95 bd
       0.3243726 0.5547509 -0.41129068 -0.0731011
000260 50 ac de 3e c8 15 e1 3c ee df b6 be aa 09 14 bf
       0.4349084 0.027476206 -0.3571772 -0.57827246
000270 a1 3a f7 be c1 5f b1 be 4f 42 26 3f 38 24 cd be
       -0.48286918 -0.34643367 0.6494493 -0.40066695
000280 69 e6 bb be 4d 00 d9 be 02 b0 c9 bd bc b3 d1 be
       -0.36699226 -0.42383042 -0.09848024 -0.4095744
000290 20 87 ba be 04 72 ec 3d 58 e7 a6 3e c8 fb 4f be
       -0.36431217 0.11545184 0.32598376 -0.2031089
0002a0 1e 94 10 be 24 cc c3 3e 33 0b 0f 3f e0 42 60 3e
       -0.14119002 0.38241684 0.55876464 0.21900511
0002b0 3e 6b 47 3d c9 cd ed ba 9e 8b 21 bf 01 0a 83 be
       0.04868626 -0.0018142994 -0.63103664 -0.2559357
0002c0 b9 99 ec bd cb 49 dc bd 69 17 38 bf 30 b5 b1 be
       -0.11552758 -0.107562624 -0.7191072 -0.34708548
0002d0 6b 14 a6 3d 49 25 ca be bc 4e 73 be e2 20 3e 3f
       0.08109363 -0.3948157 -0.23760504 0.74268925
0002e0 6a b5 18 bd 2b 29 71 3d 3a 71 81 be 8c 37 ec 3c
       -0.037282385 0.05887715 -0.25281698 0.02883508
0002f0 3f 09 c4 be 97 8c 24 be b0 b5 64 3e 69 0e bb be
       -0.38288304 -0.16069256 0.22334933 -0.36534432
000300 41 ac 86 3e e1 5f 3f 3f 2f c5 13 3e f8 70 a8 3d
       0.26303294 0.74755675 0.14430688 0.08224672
000310 c9 38 15 3f 86 b2 3c 3e f1 d3 f4 3e d0 a1 db 3e
       0.5828977 0.18427476 0.47817948 0.4289689
000320 ba 36 81 be d6 15 dd 3e 92 64 86 3e 68 77 06 3f
       -0.25237066 0.43180722 0.26248604 0.5252595
000330 34 9a 36 3f e8 49 12 3f a4 ce 11 3d 39 8d dd 3e
       0.71329045 0.5714402 0.03559746 0.43271807
000340 87 30 80 3d b1 7d c1 3e e6 43 a8 3e 52 26 d0 bc
       0.06259256 0.37791207 0.32864302 -0.025408898
000350 e6 fb 10 3e 5b 71 00 3f 9c 4f e0 3c 81 f9 e6 be
       0.14158592 0.50172967 0.02738171 -0.4511223
000360 9a c2 55 3e ac c5 64 be 04 47 02 3e bd 6e 2d bc
       0.20875016 -0.22341031 0.12722403 -0.010585484
000370 41 06 ae be eb ab 13 3e 0f 97 2a 3f 19 84 c5 be
       -0.33989146 0.1442105 0.6663675 -0.38577345
000380 b2 ee 72 3e a6 df 50 3e 64 f9 43 be b4 68 f5 be
       0.23723868 0.20397815 -0.19138104 -0.47931445
000390 c9 b6 66 3d ca a3 10 3e a4 3d 1e be 19 6d 5c 3f
       0.05632666 0.1412498 -0.15453202 0.8610397
0003a0 4b b3 aa be de 03 5f 3e e8 e3 be 3e 65 09 14 3f
       -0.33339915 0.21778819 0.37283254 0.57826835
0003b0 b1 3f 2f 3e 08 62 b3 3e 9a 7e 29 3e 27 01 b1 3e
       0.1711414 0.3503573 0.16552201 0.34571192
0003c0 d8 6b 85 3e c2 08 14 be c8 2c 60 bf 46 90 42 bd
       0.2605884 -0.14456466 -0.8756833 -0.04750087
0003d0 35 77 88 be 9a 67 0e 3f 93 67 5a bd 3c 99 29 bf
       -0.26653448 0.55626833 -0.053321432 -0.6624944
0003e0 5e e9 6b 3d 33 70 46 3f 97 a4 84 3e d5 f0 99 be
       0.057595603 0.7751495 0.25906822 -0.30066553
0003f0 8f 9b 5f be ae 60 9f 3f 6f 22 d5 3c 66 a0 d6 40
       -0.21836685 1.2451379 0.026017396 6.70708

model.0.bias f4 [256]
000000 cf 10 62 bc cc 11 c9 ba 8e d1 8d 3e bd 43 a5 3d
       -0.013797953 -0.0015340387 0.2769894 0.08069561
000010 e1 76 f9 3d 1b f2 19 3e 35 e9 1c bb a3 28 71 3d
       0.121808775 0.15033762 -0.0023942713 0.058876645
000020 d8 7e 3f bd 38 16 6f 3e c3 de 13 bd f4 af be bc
       -0.046751827 0.2334832 -0.036101114 -0.02327726
000030 c7 9e e3 3d 16 d3 e3 ba e1 74 b2 3b a5 ed 07 bd
       0.11114269 -0.0017381634 0.005446062 -0.03318562
000040 1f 72 7a bb e5 18 ee bf 4e 85 b6 be 5a 89 2a 3f
       -0.0038214994 -1.8601347 -0.35648578 0.6661583
000050 93 00 87 be aa a9 fc be d8 6f 96 bd e4 fd 17 bf
       -0.26367626 -0.49348193 -0.07345551 -0.5937178
000060 56 5a d2 bc 87 7b b1 3c 07 22 18 bd 3c 1a dc bb
       -0.025677841 0.021665348 -0.037141826 -0.0067169946
000070 9e 69 0a 3d 60 1b 99 3e f4 af 6e bf 7e ee bc bc
       0.03379213 0.29903698 -0.93237233 -0.02306294
000080 c1 08 c8 be 45 fb c4 bb d5 4a f6 bc 56 1b 7a be
       -0.3906918 -0.006011399 -0.03006498 -0.2442449
000090 f2 4b c7 bb f1 a3 64 3c e9 78 b5 3e 64 df 85 3e
       -0.0060820514 0.013955102 0.3544381 0.26146996
0000a0 29 8e 6f 3b 83 0b ef bd de 43 0a bf 5a b1 7e bd
       0.003655324 -0.116721176 -0.5400981 -0.062180854
0000b0 7b 11 20 bd 06 e2 71 3e 97 13 09 be 5c 43 c8 3c
       -0.03907917 0.23621377 -0.13386379 0.024446182
0000c0 00 89 fc 3c f8 9e 1d 3e be c0 7e 3c 93 49 8a bd
       0.030827045 0.15392673 0.015548883 -0.067523144
0000d0 a1 cd 9a be dd 5d 90 be ae 1a 00 3d 5a c4 98 be
       -0.30235007 -0.28196612 0.031275444 -0.29837304
0000e0 e6 98 1c 3b 58 8e 0f 3f 1b 17 e2 3e 8e c2 fe bc
       0.0023894846 0.56076574 0.44158253 -0.03109863
0000f0 8e a7 b0 3d b9 a2 f4 be 5f bb 83 bf d2 64 ec bc
       0.086257085 -0.47780398 -1.0291556 -0.028856669
000100 74 5f 64 3e 3c 96 95 ba 9c cb 8a 3d e6 20 ef be
       0.22302037 -0.0011412571 0.06777117 -0.46704787
000110 09 22 81 be a1 40 dd 3c 00 c3 b1 bc bc 9c 01 3e
       -0.2522128 0.027008357 -0.021699429 0.12657446
000120 d9 ce 27 bc a0 ed 36 bb 20 c6 f7 3e 16 98 1c bd
       -0.010242187 -0.0027912632 0.48393345 -0.038230978
000130 2c 95 3a bd 63 8f 04 bc ec 52 65 bf 28 e6 c9 3d
       -0.045552418 -0.008090827 -0.89579654 0.09858352
000140 34 c3 fc bd 48 36 d2 3d 23 ec 69 3e 0a 35 ae 3e
       -0.123419195 0.102642596 0.22843985 0.3402484
000150 61 e9 d7 bc 50 fe 13 bf 50 05 7c bd 1b db e5 bc
       -0.0263564 -0.57809925 -0.061528504 -0.02805858
000160 0b a7 e2 3c 2c b8 96 3e 12 0b 78 be b8 fa a6 3c
       0.027667543 0.29437387 -0.24222973 0.020383224
000170 10 40 8c 3d 62 48 16 bf 72 44 80 be bc 93 7b 3c
       0.068481565 -0.587042 -0.2505222 0.015355047
000180 ef a5 4c bf 65 56 4c 3e 86 15 95 bd 44 44 41 3d
       -0.79940695 0.19954832 -0.07279496 0.047184244
000190 f9 ff 79 bd ab 37 71 3e d3 13 95 3c 7d a1 4d 3d
       -0.06103513 0.23556392 0.01819793 0.050202835
0001a0 8a 67 e3 bc a2 2f 6c bd 45 12 2b be 9c cc 8b 3c
       -0.027759332 -0.057662614 -0.16706188 0.017065339
0001b0 a3 0b 82 bc 7d 7c ca 3c dd 89 70 3e a8 35 88 3d
       -0.01587469 0.024717564 0.2349009 0.06650859
0001c0 76 f5 22 3c 5e a0 c6 3b 71 32 25 3d eb c5 07 bd
       0.009946218 0.0060615977 0.040331308 -0.033147734
0001d0 31 d6 1a bc e9 82 7f bc 8e c4 03 3e 9b e8 fc be
       -0.009450481 -0.015595176 0.12867948 -0.49396214
0001e0 dd 20 2b 3f 63 14 a2 3d 5e a9 6f 3e 01 0d ed 3d
       0.6684702 0.07914045 0.23404452 0.11574746
0001f0 ed dd ef 3c 59 0b d0 bc a3 2f 0f 3e 68 a4 19 b9
       0.029280627 -0.025396036 0.13983016 -0.00014652463
000200 53 e3 20 3e 86 e0 41 3e 57 85 08 be 44 ef c5 3a
       0.15711717 0.18933305 -0.13332115 0.0015101214
000210 ee 76 93 3c be 26 75 be 51 20 7a bd 97 23 55 3e
       0.018001046 -0.2394056 -0.061065976 0.20814358
000220 cd f9 4f bc 18 da 61 be fe 15 90 bd 45 e5 3a be
       -0.0126938345 -0.22055852 -0.07035445 -0.18251522
000230 90 37 9d be f6 eb 4a 3e a6 58 94 3b d5 55 cb bc
       -0.30706453 0.19816574 0.0045271693 -0.024821201
000240 37 e3 05 3b e3 8f 23 bd 1c e7 b1 3b 4a 78 27 3e
       0.002042962 -0.039932143 0.0054291617 0.1635448
000250 f4 4a 30 3d 54 d5 5b bc 7d b3 fe 3c 84 8f 5a 3c
       0.04304023 -0.013417561 0.031091446 0.013339881
000260 63 b7 51 3e 4d fd df 3e f8 84 e3 3d 8a e4 c6 3c
       0.20480113 0.4374794 0.11109346 0.024278898
000270 11 27 b4 bd 1c 73 a4 3c cb d1 0c bc 0a 63 b3 3d
       -0.08796514 0.02007442 -0.00859494 0.087591246
000280 c0 36 1d ba d2 95 c0 3e 16 72 7f 3e c5 ad de bd
       -0.0005997233 0.37614304 0.24945864 -0.10872988
000290 49 a6 c7 ba d6 47 87 bd ff 23 ec 3e a2 e0 91 3e
       -0.0015232052 -0.066054985 0.46121213 0.28491694
0002a0 ee 66 d1 3e d3 e0 f5 be d3 41 60 be e9 15 3b be
       0.40898842 -0.4802309 -0.2190011 -0.18270077
0002b0 ff ca a6 be ab 44 5a be fb 2f 55 be 51 e2 bb 3b
       -0.3257675 -0.21315257 -0.20819084 0.005733766
0002c0 40 1a 83 be 1c ba 4b 3c 83 dc a7 bd 1a 03 20 3e
       -0.25605965 0.012434509 -0.08196356 0.15626183
0002d0 54 55 11 3e 81 32 7f be c2 da 3c 3e 85 2d ef 3c
       0.14192706 -0.2492161 0.18442824 0.02919651
0002e0 cb cc 22 bc 6c 95 f9 3d b9 51 dd bc fe 6a 0b 3d
       -0.009936522 0.12186703 -0.027016507 0.034037583
0002f0 d6 2b 2f 3e dd 36 3a 3d a6 fd fd bc ca 74 23 bc
       0.17106566 0.045462478 -0.031004738 -0.009976575
000300 fa 10 87 bc 1b f6 ab bb 37 e0 9d bc 57 e1 8e bc
       -0.016487587 -0.005247844 -0.019271953 -0.017441435
000310 fd aa 7b 3e f5 df 1a 3d 8d 35 8b 3e fb cd 1d 3d
       0.24576946 0.03781124 0.27189294 0.038526516
000320 b2 77 1a 3e 25 5e ab bb 23 25 99 ba a5 f8 13 3e
       0.15084723 -0.0052297288 -0.0011684041 0.14450319
000330 b4 f5 27 3e 59 5d e7 3d 7d 8b 31 3c 44 95 5d 3a
       0.16402322 0.112971015 0.010836479 0.0008452723
000340 57 91 d0 bc 2b 06 43 be f9 01 a5 bd 70 53 dd 3e
       -0.025459928 -0.19045322 -0.08057017 0.4322772
000350 c7 87 5b bd 85 1e ea bc 2d 30 53 3c 7e 9e 0b be
       -0.053596284 -0.028579006 0.012889904 -0.13634679
000360 8b e2 ef 3c 9d 36 ad be a3 27 9e bc 9b b9 bb bb
       0.029282829 -0.3383073 -0.01930601 -0.005728913
000370 23 5a f3 39 55 17 0e 3d 2d ea f5 3e a1 6c 2c bd
       0.0004641573 0.03469022 0.48030224 -0.042095784
000380 ac dc 7f bd 26 f7 ea 3d b1 97 e3 be f8 88 72 3b
       -0.06246631 0.11472921 -0.4445167 0.003700791
000390 a2 f2 4e be 21 bd bc 3c 8e 8d 07 3d eb 6d 26 bd
       -0.20209745 0.023039402 0.03309398 -0.04063217
0003a0 64 b4 08 bd 83 f4 65 3d 8c a9 3b bd 87 aa f3 3b
       -0.03337516 0.056141388 -0.04581599 0.0074361
0003b0 e0 2c 54 bd b6 28 d0 3e 7c 0f 4a be 44 38 2e bf
       -0.05180061 0.4065606 -0.1973247 -0.68054605
0003c0 d5 7e be bd 3f 77 0c bf c4 fc ba 3e fe 78 ed 3b
       -0.09301535 -0.54869455 0.3652097 0.0072470894
0003d0 67 88 ba be 47 b3 43 bf db 28 54 bd 55 23 d6 3d
       -0.36432192 -0.7644543 -0.051796775 0.10455958
0003e0 fe 8d 58 3d 3d 43 07 bf 41 00 f8 be 9f 1d f0 bc
       0.05286979 -0.5283697 -0.48437694 -0.029311
0003f0 13 1a 8f ba cf cb 89 3e 76 fc 19 3d 17 52 ee 3e
       -0.0010917805 0.26913306 0.03759428 0.46547005

model.2.weight f4 [128, 256]
000000 94 13 02 ba 97 78 28 3f 39 25 ac 3d fd cc 9a 3b
       -0.0004962024 0.65809005 0.08405537 0.0047241435
000010 a4 c6 ca be 47 82 ea bd 93 04 86 3d 73 7e d3 3e
       -0.39604676 -0.1145063 0.06543841 0.4130741
000020 4f 1c 2f bf 1c f5 2c bf a3 60 74 3f ae 62 af be
       -0.6840257 -0.6756151 0.95459956 -0.34254974
000030 a2 e5 8b 3e 91 c8 d7 3e 82 bc f6 bd 71 c6 10 bf
       0.27323633 0.42145208 -0.12047674 -0.565528
000040 88 c5 22 3f 42 b1 b5 3e 8c 8c f8 be 5e 8c e0 bc
       0.6358266 0.354868 -0.4854473 -0.027410682
000050 bd 70 bc 3e 21 e5 92 3e f5 12 ae 3f fc 81 a2 bd
       0.36804762 0.28690436 1.3599535 -0.07934949
000060 0d 19 0f 3f 94 a2 1b bf 96 4e 24 bf 34 5b 1c 3e
       0.558976 -0.6079495 -0.6418241 0.15269166
000070 9f 5e 18 3f 20 12 50 3d 04 9d 71 bf 5b 1b b7 3e
       0.5951938 0.050798535 -0.9438021 0.35763058
000080 ca 02 b6 bf d4 bf 25 3e 0a fb 6f 3f 72 c0 cc be
       -1.4219601 0.16186458 0.9374243 -0.39990574
000090 bd 46 46 bf 11 bd 1d 3f b6 91 67 3f 2a 58 2a 3e
       -0.7745169 0.6161662 0.9045671 0.16635194
0000a0 ef 98 c6 3e d3 f0 bc bf ac ce 59 bd 74 d4 4a bf
       0.38788554 -1.4760994 -0.053175613 -0.7923043
0000b0 bc b7 97 be 05 0f 04 bf 8d 50 3d bf 74 c3 8e 3e
       -0.29632366 -0.5158542 -0.73951036 0.27883494
0000c0 64 6a 8a 3f db be 02 be 06 01 17 3f 16 e4 5b be
       1.0813718 -0.12768118 0.58985937 -0.21473727
0000d0 8d 02 99 bf c2 19 0c bf 2f 08 48 3f 8d 0e b9 bd
       -1.1953903 -0.54726803 0.7813749 -0.090359785
0000e0 65 d1 e0 3d e7 b2 63 be ec 5a 3b be a7 f3 f9 3e
       0.10977439 -0.22236215 -0.18296403 0.48818704
0000f0 c3 3a 2d bd 74 c3 6a 3d 69 ef 97 3e ca c2 25 3b
       -0.042292368 0.057315305 0.29674843 0.0025293105
000100 8e e1 53 be bb 38 d1 be 4c 06 52 be 59 48 0f 3d
       -0.20691511 -0.40863594 -0.20510215 0.034981105
000110 e8 fa 91 be cf a6 66 3d 8e 1e 8a 3e 03 3e eb bd
       -0.2851174 0.056311425 0.26976436 -0.11486437
000120 34 12 eb 3e 5f a0 cf bd 0f 74 5e bc 8f 7d 27 3e
       0.45912325 -0.1013801 -0.013577475 0.1635649
000130 81 25 a2 bd 82 71 55 3f 62 12 4e bf 06 d8 b2 3d
       -0.079173096 0.83376324 -0.804968 0.087326095
000140 dc 45 9e 3e 19 a9 a6 be 18 46 15 be fa 1a 5a 3d
       0.30912673 -0.32550886 -0.1457752 0.053248383
000150 76 e9 9a 3f d5 c9 3c 3e e8 61 f5 be 39 77 86 be
       1.2102497 0.18436368 -0.4792626 -0.26262835
000160 c3 56 26 3f 4a e2 89 3e a4 19 e0 bd 6f d7 0b 3f
       0.6497614 0.26930457 -0.109423906 0.546256
000170 90 e3 5b 3e 63 a5 32 3a 99 46 31 3f 80 5c 00 3e
       0.21473527 0.00068148057 0.6924835 0.12535286
000180 60 61 ad be 85 d8 34 be 4f f4 bc 3d 5e 84 ac bd
       -0.33863354 -0.1766072 0.09226286 -0.084236845
000190 40 8c 82 3e cb d6 5b 3f 19 10 62 3f 55 16 c2 bc
       0.25497627 0.85874623 0.88305813 -0.02369229
0001a0 d5 8b 60 bd f6 fb a8 3e ed 6d 9a 3e b5 e7 03 3e
       -0.054820854 0.3300473 0.30161992 0.12881358
0001b0 37 d3 ba bd 48 b3 de 3e d3 16 c9 be 64 f5 eb 3e
       -0.09122317 0.43496156 -0.39275226 0.46085656
0001c0 b2 36 22 3f 6e 4a 2c 3f 54 1d 3c 3f 96 d7 54 3f
       0.6336471 0.6730107 0.7348225 0.8314146
0001d0 3b 03 1b 3f 50 fa 8e 3f fc c3 18 3f 19 ac b8 bd
       0.60551804 1.1170139 0.5967405 -0.090172
0001e0 28 c7 e8 be 71 c2 e2 3e 2c a8 d4 bd cb e9 40 bf
       -0.45464444 0.44288972 -0.10383639 -0.7535674
0001f0 b0 e2 3c 3e 0d 6f ff 3c 91 0a 58 be 71 83 8d 3f
       0.1844585 0.031180883 -0.21097781 1.1055738
000200 fb 71 67 be 82 46 9a bf 87 f8 a2 be ad bd c0 3c
       -0.22602074 -1.2052767 -0.31830236 0.023527944
000210 35 b1 23 3f 01 fc 7c be 86 6c c5 3d 06 e4 51 be
       0.6394227 -0.24705507 0.0963984 -0.2049714
000220 c6 86 36 bf 1b c6 03 bf b3 af 8b 3e a3 0d 13 3e
       -0.712994 -0.5147416 0.27282485 0.14360671
000230 df 66 4b bc f5 bc 7b 3c bb d4 3c be e2 00 4e be
       -0.012414663 0.015364875 -0.18440525 -0.20117524
000240 1c 25 04 3f 07 93 00 be 1c 17 31 3f 40 ad 1e be
       0.51619124 -0.12556086 0.6917589 -0.15495777
000250 91 06 99 bc 1d c6 94 bc e6 f9 09 bf 93 93 9c be
       -0.018679889 -0.018160874 -0.5389694 -0.3058134
000260 08 f5 93 3c 18 5d 11 bf 4e 4f ad 3e 49 ec 22 3f
       0.018061176 -0.56782675 0.33849567 0.6364179
000270 c0 ee ac be d4 ff 52 bf 7f 78 2e be d4 4c ca 3e
       -0.33775902 -0.8242161 -0.17038153 0.3951174
000280 60 a0 b7 3c c4 9f d3 be 95 be 28 bd 10 b1 f3 3d
       0.02241534 -0.4133283 -0.04119738 0.11899006
000290 ba d4 87 3f a4 af 90 bf 32 d8 ab be 6e cd cd bd
       1.0611794 -1.1303601 -0.3356338 -0.10048948
0002a0 b9 6d d8 bd 86 2c 55 bc 6b 9c cd 3e 64 9f 8e be
       -0.10567803 -0.0130111035 0.401584 -0.2785598
0002b0 65 ec ee 3d 57 d9 04 bf 26 13 de be 75 02 60 3f
       0.116661824 -0.51894134 -0.43373984 0.8750375
0002c0 f5 92 6d bd 34 77 26 3f c6 7e 4b 3e 50 95 f8 3e
       -0.058001477 0.6502564 0.19872579 0.48551416
0002d0 c9 e8 01 be d1 29 8d 3e e4 b4 bd 3e bb a9 9e 3e
       -0.12686457 0.27570966 0.3705207 0.3098887
0002e0 da 85 d5 be ce 62 0a 3f 2e fd 02 bd b7 b6 b5 bd
       -0.41703683 0.54057014 -0.031979732 -0.08872741
0002f0 b3 26 a5 be 6e a7 b2 3e 7d 2e 2f 3f 6e 91 ed 3e
       -0.32256088 0.34893364 0.6843031 0.46400017
000300 81 95 b1 3e 2d 82 ab 3e 16 a5 39 3e ec cc 66 3e
       0.34684375 0.33497754 0.18129382 0.22539109
000310 f0 29 0f bf 5a 11 23 3f db fc d9 be 8b 5b f9 3e
       -0.55923367 0.6369835 -0.42575726 0.48702654
000320 b9 43 3d 3e 73 fa d3 be bf 5f d1 3a e2 64 b3 3e
       0.18482865 -0.41402015 0.0015973969 0.35037905
000330 2f 74 68 be a9 2b 45 3f 77 e4 47 be 22 f0 96 3c
       -0.2270057 0.77019745 -0.19520746 0.018425051
000340 df 33 db 3d cc 8f f5 3e 33 93 88 3d 0d 6b 84 3e
       0.10703253 0.4796127 0.06668701 0.25862923
000350 6c 15 db be 0c d3 12 bf d4 73 14 3f 2c b1 74 be
       -0.4278978 -0.5735328 0.5798924 -0.2389571
000360 f7 f9 a7 3e 60 34 30 bf 5e c6 81 bf d2 77 19 3e
       0.32807896 -0.6882992 -1.0138662 0.14987114
000370 0d 07 3f 3c c5 d8 5c 3e 50 70 14 bf 49 8e 4e be
       0.011659396 0.21567066 -0.57983875 -0.20171465
000380 97 b8 30 bd f0 f4 26 be fe 96 41 3e 9e ac 5c 3f
       -0.04314479 -0.16304374 0.18905255 0.8620089
000390 67 89 ac bf a8 e2 3c 3f aa b2 21 3f 78 20 92 3e
       -1.3479432 0.7378335 0.63163245 0.28540397
0003a0 30 6b 2a 3f 78 1d 00 3f dc 1a a6 be c6 79 3f 3f
       0.66569805 0.50044966 -0.32442367 0.74795187
0003b0 f6 b1 8c 3f 96 02 21 be 5e 0b 2c bf a8 00 4d be
       1.0991809 -0.15723643 -0.67204845 -0.20019782
0003c0 d1 3a 31 3e b2 69 86 39 9a 9d 61 3e 3c de ad bc
       0.17307593 0.0002563722 0.22032776 -0.021224134
0003d0 3c d1 07 3e 7a 63 80 bf e5 4a 53 bf 10 41 6d 3e
       0.1326341 -1.0030358 -0.82536155 0.2316935
0003e0 e6 dd 28 3e 36 50 36 bd 81 ed c4 bd 63 92 04 3f
       0.16490898 -0.04451009 -0.09615613 0.5178587
0003f0 3d e9 2b 3e bb 94 dd 3e 8b 1b 8a 3f fb 63 43 3d
       0.16788192 0.43277535 1.0789655 0.04770277

model.2.bias f4 [128]
000000 e4 71 66 be 94 76 0a bf 6d 04 5b 3e ea 2a 92 3e
       -0.22504383 -0.54087186 0.21388407 0.28548366
000010 a5 70 85 3e a2 57 2c 3e 28 a6 0c bd df 83 ae be
       0.26062503 0.16830304 -0.034338146 -0.34084985
000020 bc 4e a1 be 90 88 be be 8f f1 06 3e b5 3f 17 bd
       -0.31505382 -0.37213564 0.13178085 -0.03692599
000030 1b 9b 36 bc eb d3 19 be 6a 5c b1 3e 78 b5 cc bb
       -0.011145378 -0.15022247 0.3464082 -0.0062472187
000040 4d 5d 80 3d 47 71 5d be ee 77 b4 bc 09 15 c1 be
       0.06267796 -0.21625243 -0.022029843 -0.3771136
000050 18 cb 8f 3d b0 66 87 be 30 dc c6 be 54 cd 15 bf
       0.07021159 -0.26445532 -0.38839865 -0.5851643
000060 28 b4 50 3f d5 87 05 bf fb e0 a1 bd 61 73 5b 3e
       0.81524897 -0.5216039 -0.0790424 0.21430732
000070 40 7f 77 bd 58 b3 a7 bd 3a 85 07 bf 05 8c c8 bd
       -0.06042409 -0.08188504 -0.5293766 -0.097923316
000080 e6 e7 5b be 26 25 f9 3d 19 53 5d bf 6b 5f 8a 3d
       -0.21475181 0.121652886 -0.8645492 0.06756481
000090 2d a6 41 3f 88 56 a1 3e 75 b6 a9 3d 63 b3 05 3d
       0.7564419 0.3151133 0.08286754 0.03264178
0000a0 73 4e 18 bf 16 88 e2 bd df a5 6f be 38 1d 03 bf
       -0.59494704 -0.110611126 -0.23403119 -0.5121646
0000b0 d8 fe 9b be 10 37 f1 3d c1 0f c6 bd 44 39 42 be
       -0.30467868 0.117780805 -0.096709736 -0.18967158
0000c0 70 c4 9d be e4 35 5a 3f bf cc 3f 3d bc 85 43 3f
       -0.30813932 0.8523848 0.04682612 0.7637594
0000d0 76 ab 05 3e 31 db bb 3e 53 52 6f bd ba a0 1f 3e
       0.13053688 0.36690667 -0.05842812 0.15588656
0000e0 3f 76 a6 be b9 36 c0 bd f8 be 99 3e 9f 5e 01 3f
       -0.3251209 -0.093854375 0.3002851 0.50535005
0000f0 1f 3a 0f bf ec 2f e4 be 56 bf 54 3e ae e4 cb 3e
       -0.5594806 -0.4456781 0.20776114 0.39822906
000100 58 8c 01 bf e8 66 e8 be 8a d4 a1 3e 10 be db bd
       -0.5060477 -0.4539101 0.31607467 -0.10729611
000110 6c 2a 12 3e 79 1b 2f be 2e 7c 95 3e d9 99 88 be
       0.14273995 -0.17100324 0.29196304 -0.26679876
000120 47 25 7c bf b6 11 e9 bc 57 44 2d 3e 35 7a 0c be
       -0.9849438 -0.028450828 0.16920601 -0.13718493
000130 08 5c bf 3e 30 df 05 be 2a 73 f4 bd 14 07 58 bf
       0.37374902 -0.1307342 -0.11936028 -0.843858
000140 a6 4a 6c 3d 5d 8c 94 3e 78 9a 22 3d ee 74 8d 3d
       0.057688378 0.2901334 0.039698094 0.06907068
000150 ca e2 f4 bc 9f 87 3c be c6 c7 91 be d1 e0 3c be
       -0.029893298 -0.1841111 -0.28472728 -0.18445136
000160 59 20 94 bd b0 1a 2f 3e 68 a4 eb 3c 63 ab 87 be
       -0.07232732 0.17100024 0.028764918 -0.26497945
000170 fe 36 34 3d 4c 07 dc be 5b 98 9d 3e 8d 3f a6 bd
       0.043997757 -0.42974317 0.307803 -0.0811759
000180 fb 4a 87 be 30 11 7f bf b0 63 c7 3d 04 eb bd bd
       -0.26424393 -0.996356 0.09735811 -0.09273341
000190 ff 19 e8 bd 15 3f f8 bd c5 6a 1e be 9b 16 87 be
       -0.11333083 -0.12121407 -0.15470417 -0.26384434
0001a0 5b 3f 87 3a c0 cf b6 3e ee d0 ce be 24 d4 6a 3d
       0.0010318564 0.35705376 -0.40393776 0.05733122
0001b0 e9 a7 75 3e f2 80 af 3f 14 a7 21 3e f4 45 ad 3d
       0.23989834 1.3711226 0.15786391 0.08460608
0001c0 52 76 40 be a1 19 94 3e c0 c9 61 be 3c 30 0a bf
       -0.18795136 0.28925803 -0.22049618 -0.5397985
0001d0 f6 7f 3a 3d 2e e6 2a 3e f1 5d 5c be 38 11 88 3e
       0.04553219 0.16689369 -0.21520211 0.26575637
0001e0 69 5b 87 be 03 22 62 bd 6d 32 92 bd 38 2f 1c bf
       -0.26436928 -0.055208217 -0.07138524 -0.6100955
0001f0 d0 7e 03 3d 06 86 e2 bc 87 b6 f9 bc 29 1c 25 3e
       0.03210336 -0.027651798 -0.030482544 0.16124023

model.4.weight f4 [1, 128]
000000 e7 7a cd 3d 0b 0e 88 3e 39 7a ec 3e 5a ce d9 3e
       0.100332074 0.26573214 0.46186998 0.42540246
000010 62 89 03 bb dc 09 05 bd ed 97 52 be cb aa 88 bf
       -0.00200709 -0.032480106 -0.20565768 -1.0677122
000020 a4 7e d9 bd ff b1 1a 3f ce fb 95 3d 26 39 38 3e
       -0.10619858 0.6042785 0.073234186 0.1799055
000030 4a 2c 3f be 24 48 fe 3c 4c bf eb 3d cc f3 f7 3e
       -0.18669239 0.031040259 0.11511096 0.4842819
000040 99 c3 7d bf bc bb c1 bc 49 fd 29 bf 95 52 a1 bc
       -0.99126583 -0.023649089 -0.6640211 -0.019692698
000050 09 a0 86 bd 44 3c f4 bc ed fa 17 3e cb 1d c4 bd
       -0.06573493 -0.029813893 0.14841814 -0.09575995
000060 d2 42 c5 3d b7 0b a3 bd bf 9d fb 3c d9 eb 88 3e
       0.096318856 -0.07961219 0.030714868 0.26742437
000070 6e dc 11 bf a9 d1 5d bd a4 7e b4 bc d0 e9 1e bd
       -0.56976974 -0.054155026 -0.022033043 -0.0387972
000080 dc 16 1f 3d 4f c8 32 3f c7 bd 3c bd 1f ce 0d be
       0.03884016 0.69836897 -0.046079423 -0.1384816
000090 7f 00 da 3e 70 e9 71 3e 1f 05 80 be 81 8f f0 3d
       0.42578503 0.23624206 -0.25003907 0.11746121
0000a0 65 aa 84 3e 8f 3c c5 3e b5 82 55 bd 60 2a 5c 3d
       0.2591125 0.38522765 -0.052126605 0.05375135
0000b0 fd ce 94 bd 64 94 9e bb aa 98 68 3c ad d7 d7 bc
       -0.072660424 -0.004839467 0.014196554 -0.02634796
0000c0 91 0f 74 3e e8 c2 6d 3e 7a ae f3 bd 74 54 ec 3d
       0.23834063 0.23218882 -0.11898513 0.11539546
0000d0 a5 ea 46 bd cc 8d 25 bb 85 7f 1c bd 02 64 8d bc
       -0.04856362 -0.002526152 -0.03820755 -0.017259602
0000e0 7c bd fa 3e a8 89 8d be 71 a6 16 3f f1 8e fe 3e
       0.4897269 -0.27644086 0.5884772 0.4971843
0000f0 e2 53 8f ba 5e ab 6d bd 1c a4 1a 3d a5 eb ab 3e
       -0.0010935033 -0.058024757 0.037754163 0.3357822
000100 80 90 d6 3c e4 36 5c 3e 31 ca a2 bc 68 d2 24 be
       0.02619195 0.21505314 -0.019871803 -0.16095889
000110 00 0b 1c be ea d8 e8 3e 99 bc 3c 3e a7 34 92 3d
       -0.15238571 0.45477992 0.1843132 0.07138949
000120 4d c1 4c bd 15 69 cb be a8 f2 9a 3b 34 63 ef 3e
       -0.049989033 -0.3972861 0.004728634 0.46755373
000130 74 18 ca be ab 8d cc bc 60 cd c6 3e 55 27 cf bc
       -0.3947178 -0.024969896 0.38828564 -0.02528731
000140 52 ac 17 bf 84 8a 4f 3e 7f e0 13 be b0 0c 60 3d
       -0.59247315 0.20267683 -0.14441107 0.0546996
000150 8e 08 15 bd d2 84 34 bf 19 f3 0f 3f 97 27 b8 be
       -0.03638511 -0.7051517 0.5623031 -0.35967705
000160 2e 61 16 3f 0b c9 5c 3e 77 88 c6 bb 7f 18 9f bf
       0.58742034 0.21561067 -0.0060587483 -1.2429351
000170 12 22 a9 3e 4d 77 f0 bd a8 14 3e 3e 92 82 c8 3c
       0.33033806 -0.11741505 0.18562567 0.024476323
000180 34 21 84 bf 63 c8 5a bd 8d 03 9f 3d 1c 6c 89 bd
       -1.0322633 -0.05341376 0.07764349 -0.06710073
000190 59 ab 83 bf a9 13 b7 3b f5 f2 06 bc af 2d 23 bd
       -1.0286666 0.0055870605 -0.008236636 -0.03983849
0001a0 f4 97 aa bd cc c4 86 3d 44 34 b5 3a e6 8a 0c 3d
       -0.08329764 0.06580505 0.001382478 0.03431215
0001b0 f8 5d 24 bf b4 fb 31 3d 18 e3 8f bd df b0 04 be
       -0.64205885 0.043452933 -0.070257366 -0.12958096
0001c0 34 9b 13 3d 7e e3 ba bc 00 78 90 bf 27 11 91 be
       0.036036685 -0.022813555 -1.1286621 -0.283334
0001d0 5e ee f1 3c 3d 72 21 be 48 ba cd 3d 91 3f d2 bd
       0.029532608 -0.15766235 0.10045296 -0.102660306
0001e0 53 56 6f 3e be 67 2c be 52 1f 0f bf 70 39 a6 3b
       0.23372774 -0.1683645 -0.55907166 0.005072765
0001f0 8a fd 02 3d f8 af cf bf be f6 07 be cd 16 2c bb
       0.031980075 -1.6225576 -0.13277718 -0.0026258708
