discriminator_gan_ecv_ts_128.pth (torch, 397274 bytes, 5 tensors)

model.0.weight f4 [256, 255]
00000000: 6add 22c0 b5d9 4bbc e911 50be 447f 9bbe
00000010: 8c9d 193e beed 203e a771 163e 3dd5 6c3e
00000020: f06c fa3e 2baf 813e 52f6 ed3d 68cd 14be
00000030: b3fe 4abe 333a fcbe ea3f 12bf 32e2 5ebf
00000040: b100 5ebf d604 1abf 7ec4 44bf bcca 4ebf
00000050: 7f7c 39bf ec7e 8abf 0dcc afbf 6fd7 34bf
00000060: 4a36 2dbf b828 3dbf e6b6 30bf fcfd 0fbe
00000070: 1ed2 11bf 2782 40bf cf49 58be 33bb cdbe
00000080: 5596 bcbe d237 87be 100f 113d 3ca0 9d3e
00000090: 74c3 d73e f06a 8eba acec db3e 08db 643f
000000a0: 2bba 023f 1d04 d93b 212c c43e 178d 003f
000000b0: ef10 a63d 0122 103f fdf7 413e 1d2f cd3e
000000c0: 9ce8 be3c 03cd 0dbe 7be9 fcbd 20bb 3a3e
000000d0: b2f8 b53e a232 773f 2fd5 e03c e7ef 6abe
000000e0: 6de5 c93e 0000 a5be 7df6 0ebe 2164 e2bd
000000f0: d551 0b3f 703d 853e 1637 75be 5ef4 74be
00000100: 0cd5 15bf 2d6c babe 8255 20bc f16a 97be
00000110: b36f 8b3d 9a34 7f3e 708a 2c3f e632 dd3e
00000120: 7c3d 233e 8c80 9c3e b90a 0e3f 6b53 183e
00000130: 5ae8 95bd 8f89 183e bff9 a63e 2bd6 503e
00000140: 2860 41be c7a4 6f3d 518a a3bd 075c 8dbe
00000150: 2537 373f dff6 123e 897e 53be d6d7 423e
00000160: 516b 383e d0ee 513e b480 373d eeb6 95be
00000170: 1cda e33b 9c1c 9bbd b148 1f3c 9689 1f3e
00000180: 558b ed3d df69 eb3d 1848 993e 8607 e33d
00000190: 22ae fcbd 00b2 9ebc 9699 05be 4032 a0bd
000001a0: bbf1 8c3e a8fb 1e3e 345d 5f3e 9004 afbe
000001b0: f9ad 373d a557 8d3c 16f6 e93d 9032 993e
000001c0: 17c5 8cbd b2fc c33e 7bbc 2e3f 9eab 8f3e
000001d0: af04 c73e 21ca 6c3e 9c2e fbbd dab7 47bd
000001e0: 564c 65be 3d4c 28bc 1ced d83d 71c3 b63e
000001f0: f1b3 af3e 2b31 d3bd 6b6e 873e bbc2 2fbe
00000200: fbe6 96be 89e3 2cbe be93 b3bc 2b0b 4f3e
00000210: f0df 9c3e 095e 103e 8338 833d 6e0c 99bd
00000220: 25f3 4e3e 3f4d f6bb e840 85be 2895 94be
00000230: c7e7 e83d b2e2 533e b7a2 69be 6534 62be
00000240: db40 103e fc06 9bbe e310 b2be cc46 173e
00000250: 9bd0 e8bd 4f6c a93c fc11 91bc 0c91 cdbd
00000260: b433 c93e 8b71 2c3f e1bd a5be 9a41 383e
00000270: 272a ca3c eac4 01bf d3d7 1dbd b768 993e
00000280: 7344 273e bacb 5e3e c9c7 c33e ba5d 933c
00000290: a771 fc3c 1ba4 a3bb a68c 27be a41f 23be
000002a0: f2bb 8d3c 5571 023e 7f0f 8d3e 5b1e ad3e
000002b0: 0ed0 413e 4fa0 ad3e e8b8 5f3e ceb9 bdbd
000002c0: 9e5d 8fbe c9ff adbe 9f1b 01bf c967 dabc
000002d0: 543f 093e 2860 45bd 4d84 d13d dc83 24bd
000002e0: b551 2c3c 91c7 ddbe 6ae3 17bf c267 36bf
000002f0: 0fd9 e6be 9b4b 5d3e 97fd dc3e 3fd8 3cbd
00000300: 1c7b b1bc 3a1c ce3e e22b 4c3b 451a 5b3e
00000310: 7202 b13e bcc0 b63d 2c92 04bf 37c8 423e
00000320: 6f0e 373e be1a bfbe ce01 5dbe 7ea5 5bbe
00000330: 9ed6 aa3e da0d 773e 9f98 cdbc d24d 18be
00000340: 692b 82be a523 46be 0c44 0cbe fae3 86be
00000350: 0928 8dbd 6d16 393e 24ef 823e 1702 613e
00000360: 1e85 4a3e fec0 973a 061a 6bbe b877 893e
00000370: 90ce d6be 450a 86bd f6c1 df3d 49c5 43be
00000380: 56f0 a13e a3dc 8b3e e579 0b3e 5c21 e23e
00000390: e12e 58be 4ac5 c63e 7cdb 103e 2630 eabe
000003a0: 55c6 d8bd c93e f73e afa7 223e 3716 a23a
000003b0: cb49 acbe fd5a d73e 088b fdbe 8498 d1be
000003c0: ea3e 7d3e 9ccd 9f3e 3bee f03d 764d 60bd
000003d0: 37c7 06be 04b6 743e 2acf 043e 456c ccbc
000003e0: 80c3 9c3e eadc ddbe f126 b9be 1112 493e
000003f0: 309a b83f 6f10 513d e361 f9bd 5401 aac1
-2.544764 -0.012442042 -0.20319332 -0.30370533 0.15001506 0.15715691 0.14691792 0.23128219
0.48911238 0.25328955 0.116192475 -0.14531481 -0.19823723 -0.49263152 -0.57128775 -0.87063897
-0.86719805 -0.6016363 -0.76862323 -0.807781 -0.7245559 -1.0819983 -1.3734146 -0.70641226
-0.67660964 -0.73890257 -0.6902908 -0.14061731 -0.5696124 -0.75198597 -0.21121906 -0.40181884
-0.36833444 -0.26409775 0.035414755 0.30786312 0.42141306 -0.001086561 0.42954004 0.89396715
0.5106532 0.006622805 0.38314918 0.50215286 0.081086986 0.56301886 0.18942256 0.40075007
0.023304276 -0.13847737 -0.1234922 0.18235445 0.35541302 0.96561635 0.027445404 -0.22943078
0.3943285 -0.32226562 -0.13961215 -0.11054254 0.5442174 0.26023436 -0.23946795 -0.23921344
-0.5852821 -0.36410657 -0.009786012 -0.29573777 0.06808414 0.2492241 0.6739874 0.43202895
0.15941423 0.30566823 0.5548511 0.14875571 -0.07319708 0.14896224 0.32612416 0.20394199
-0.18884337 0.058506753 -0.07985366 -0.27609274 0.7156852 0.14351986 -0.20653738 0.19027647
0.18009688 0.20501256 0.044800475 -0.29241127 0.006953491 -0.07573816 0.009721921 0.15579829
0.11598841 0.11494803 0.29937816 0.11085419 -0.12337901 -0.019371986 -0.1304687 -0.078220844
0.27528176 0.15525687 0.21812898 -0.34183168 0.044843648 0.017253706 0.1142389 0.2992139
-0.068735294 0.3827873 0.6825635 0.2806062 0.3887076 0.23123981 -0.122647494 -0.04875932
-0.22392401 -0.010272083 0.105921 0.35695985 0.34316972 -0.103121124 0.2645143 -0.17164128
-0.294731 -0.16883673 -0.021921035 0.20219104 0.306396 0.14098372 0.06407263 -0.07473074
0.2020994 -0.0075165327 -0.26026082 -0.29020047 0.11372333 0.20691946 -0.22815977 -0.220903
0.1408724 -0.30278766 -0.3477851 0.147731 -0.11367913 0.020681528 -0.01770877 -0.10037431
0.3929726 0.6736075 -0.3237143 0.17993775 0.024678303 -0.5069109 -0.038535904 0.29962704
0.16334705 0.21757403 0.3823836 0.017989028 0.030815912 -0.004993928 -0.16362247 -0.15930039
0.017301533 0.12738545 0.27550885 0.33812222 0.18927023 0.33911368 0.2184788 -0.09263955
-0.28001112 -0.3398421 -0.5043277 -0.026660817 0.13403064 -0.048187405 0.102303125 -0.040164813
0.010517527 -0.4331632 -0.5933138 -0.7125207 -0.45087478 0.21610872 0.43162224 -0.046104666
-0.021665148 0.4025591 0.0031154086 0.2139674 0.34572178 0.0892348 -0.5178554 0.19021688
0.178766 -0.3732509 -0.2158272 -0.21449849 0.33366865 0.24126378 -0.02509719 -0.14873436
-0.25423744 -0.19349535 -0.13697833 -0.26345807 -0.06892402 0.18074961 0.25573075 0.21973453
0.19777343 0.0011577902 -0.22959146 0.2684915 -0.4195447 -0.065449275 0.10925667 -0.19118227
0.31628674 0.2731677 0.13620718 0.44166076 -0.21111633 0.38822395 0.14146227 -0.4573986
-0.10584704 0.4829009 0.15884279 0.001236624 -0.3365005 0.42061606 -0.49520135 -0.40936673
0.24731031 0.31211555 0.11764189 -0.054761373 -0.13161932 0.23897558 0.12969652 -0.02495397
0.30617905 -0.43332607 -0.36162522 0.19635798 1.4422054 0.051041063 -0.121768735 -21.250648

model.0.bias f4 [256]
00000000: 30e0 093f bd32 72be 1527 41bd 1365 12be
00000010: 3719 ae3e 8a54 863e 8c26 cd3d 8dca babd
00000020: b40f 6cbd 80cf 253f 4564 393c 6f1a 11be
00000030: 6847 b43e 1313 aa3c bc52 d13e 4b27 7d3d
00000040: dc6a 2a3e b24a 7cbd 2886 e1bc 6f75 bcbe
00000050: dbb2 ac3d 7a35 4cbe e41f d23e bb91 c2bc
00000060: cbc0 f4be 55c9 193d 71c3 29bd 4fc3 04bd
00000070: 4778 69bc 46f4 903c 716d 833e db02 f6bc
00000080: c77d c6bc bca8 0dbd a6ad 04be 8989 24bd
00000090: ffe8 ccbc 00a0 ae3d 40aa a03e 44ca 17be
000000a0: 6822 6bbd 72fc a03d ba1a 37bd 79fe a33d
000000b0: cbb1 91be 66a1 15be 91c5 53be 5aad 89be
000000c0: 51b1 8c3b 672f 55bf 582d cb38 187f c7ba
000000d0: 0318 563e e175 89bf feb5 613e f35c ecbc
000000e0: a6d3 d6bc b29e 87bc aa91 433e f012 b2bc
000000f0: 116d cb3c de95 4d3e bd1c e53c aa54 14bd
00000100: 3d58 943c 5fbc 893e dd39 a13c 7e24 80be
00000110: c23b c73c 8948 8a3c db4c 9e3e fdbd 643d
00000120: 8b1a f0bd c7c7 86bc ceaa e73e b631 0e3b
00000130: 1149 63bd 93f6 5cbd 078a a33c ed38 98bd
00000140: aa94 70bd 0873 71be 4948 9bbd 33fd 90be
00000150: d962 adbe 4fef d4bc 2f00 293e ca47 adbd
00000160: 2c45 c4be dd70 66be 96f9 8f3e 4bf0 73bc
00000170: 992d d83c 7ba4 203d 4856 b43e ac45 be3e
00000180: a4a9 03bc 9515 a93e 19af 68be 42e8 3c3d
00000190: bfd9 abbe b53a 32bf 4cd1 8bbd 5a6f a2bc
000001a0: 7130 e93d 698b 063e 62c4 29be de96 ec3a
000001b0: e49f 8c3d 0581 833d c2af 9abb 9fdf 533e
000001c0: 55ed 833e 1f67 66bd db4f a53d 762c a6bc
000001d0: 69c7 b3be 80fb 89be fac5 13bd 9f2c 0dbd
000001e0: 1eb9 16be 44f3 ad3e 4fe6 a0bd 9e4d 32bf
000001f0: 5e0a 8fbe 699a 11be b5a1 4cbd cea4 083d
00000200: 4bf4 a73c 6f9a e9bd cb55 8fbd 1413 0b3f
00000210: 14cd 183d c69a 5cbe db1d 02be 4acc 6f3e
00000220: b54b adbd 4240 793d 1ed0 ff3d f40e acbd
00000230: c087 913e cd17 49be 7eee a7bc e0a3 d13e
00000240: 3bfd 6bbd 925e 803e d3f0 533e 082e e4bb
00000250: c36e bebd b584 c3bd 60d7 66be 3303 9bbf
00000260: 9a0b 72bc 7640 8f3e cbf6 05bd e813 1cbd
00000270: 3545 6f3e 87e7 a63c cd56 bbbd dce3 b3bd
00000280: 6fb0 abbd badb b6bd d33b ca3b 57db 28be
00000290: 9e72 523d 3063 f4bc eb40 95be 1ea6 21bf
000002a0: 1b12 833d 7601 9abe 3e39 633f e733 923e
000002b0: c4f1 313d 480f 693e 4749 d0be 82d6 b93d
000002c0: 96a5 11be 765d 423d a766 9a3e 4e24 883d
000002d0: 5578 e73e 506b d0ba 0716 e3bd 98ba b33c
000002e0: 4c94 363b e0e0 883d a129 3a3d c0d4 a83e
000002f0: 79b1 1cbd 66a9 7cbe 127a dbbd 6fcd 89be
00000300: d983 89bb 766a babe ba9b 3cbd 4821 8ebd
00000310: c7cd 13bf 8bd8 8dbe f871 c73e 75fe a6be
00000320: 139b 35be 73a6 ba3e 0342 543e 91fd d23d
00000330: 57e2 56bf 5f2b 4b3c f4ba 8d3d c04f a5be
00000340: 5fec 81be dc56 3fbe 0b93 9fbc b54a 3c3e
00000350: 4c92 1abd bd7d dcbd e186 41bc 82b6 2ebf
00000360: b23a f6be 8907 4dbe d23a 6e3c 8370 9f3e
00000370: 63b7 7fbe 5e6e 603c 8045 1ebe 2786 4dbf
00000380: b057 02be 09e9 35be e96f 553d 0ce2 303e
00000390: a917 fc3e 2eb3 bfbc 06d8 2f3e 1226 85bc
000003a0: 2034 043e 7854 833e 0eeb 83be d33e ec3d
000003b0: 49e9 efbd d65b eabe 0b81 433e 8ac0 c93e
000003c0: 7c51 01bc ba4b 9dbd 3af4 9d3d 597b 9f3d
000003d0: 045c 9fbd 0218 a83d 006c c23d 747e 383e
000003e0: c964 ab3e 9162 cabc bd16 a9bd 5030 103a
000003f0: d2fe 393d 1632 71bd 8d28 193e 716d 55bc
0.5385771 -0.23652168 -0.047156412 -0.14296369 0.34003612 0.26236373 0.10017118 -0.09120665
-0.057632163 0.64769745 0.01131541 -0.1417024 0.3521073 0.020761048 0.40883434 0.06180505
0.16642326 -0.061594673 -0.027529791 -0.36808345 0.084325515 -0.19942275 0.41039956 -0.02375113
-0.4780334 0.03754552 -0.041446153 -0.032412823 -0.014249868 0.017694604 0.25669435 -0.030030658
-0.024229897 -0.034584746 -0.12956867 -0.040170226 -0.025013445 0.08526611 0.3137989 -0.14823252
-0.05740586 0.0786065 -0.044703223 0.08007521 -0.28455958 -0.1461235 -0.20680834 -0.2689007
0.0042935987 -0.83275455 9.68824e-05 -0.0015220372 0.20907597 -1.0739099 0.22042081 -0.028852915
-0.026223969 -0.016555164 0.19098535 -0.021737546 0.02483228 0.20076701 0.027967805 -0.036213554
0.018108482 0.26901528 0.019680912 -0.2502784 0.024320487 0.01688029 0.3091801 0.05584525
-0.11723813 -0.016452683 0.452475 0.002169711 -0.055489603 -0.05394609 0.019963278 -0.07432733
-0.058735527 -0.23579037 -0.07582147 -0.28318176 -0.33864477 -0.025993017 0.16503976 -0.08460958
-0.38334024 -0.22503991 0.28120106 -0.014888833 0.02638893 0.03921936 0.35222077 0.3716253
-0.008036051 0.33024278 -0.22723044 0.046119936 -0.33564565 -0.6962083 -0.068270296 -0.019828487
0.113861926 0.13139118 -0.1657882 0.0018050333 0.06866434 0.06421093 -0.004720659 0.20690773
0.25767007 -0.056250688 0.08071872 -0.020284873 -0.35113075 -0.26949692 -0.036077477 -0.034466382
-0.14719054 0.3397466 -0.07856428 -0.69649684 -0.27937597 -0.14219059 -0.049958903 0.033360295
0.02050223 -0.11406409 -0.069987856 0.54325986 0.037304953 -0.21543416 -0.12706701 0.23417774
-0.084617056 0.060852297 0.12490867 -0.084012896 0.28423882 -0.19637986 -0.020499464 0.4094534
-0.057614546 0.2507215 0.20697336 -0.006963495 -0.0929847 -0.09546796 -0.22543097 -1.2110351
-0.014773274 0.27978867 -0.032706063 -0.03810492 0.23366244 0.020374073 -0.09147415 -0.08783695
-0.083832614 -0.08928628 0.0061716824 -0.16489922 0.05137884 -0.029832453 -0.2915109 -0.631441
0.06399938 -0.3007924 0.8875922 0.28555223 0.043443456 0.22759736 -0.40680906 0.09074117
-0.14223322 0.047452413 0.30156443 0.066475496 0.45208994 -0.0015901122 -0.11088186 0.02193956
0.0027859388 0.066835165 0.045449857 0.32974815 -0.03825519 -0.24673995 -0.107166424 -0.26914546
-0.0041966257 -0.36409348 -0.04604695 -0.06939942 -0.57735866 -0.27704272 0.3895414 -0.3261601
-0.17734937 0.36455116 0.20728306 0.1030227 -0.8393912 0.012400477 0.06920424 -0.32287407
-0.2537565 -0.18685478 -0.019479295 0.18387873 -0.037737176 -0.1076617 -0.011811943 -0.68247235
-0.48091656 -0.20022406 0.014540391 0.31140527 -0.249723 0.013698189 -0.154562 -0.80282825
-0.12728763 -0.17764677 0.05210868 0.1727373 0.492368 -0.02340087 0.1717225 -0.016253505
0.12910509 0.25650382 -0.2576527 0.1153542 -0.117144175 -0.4577319 0.19092195 0.39404708
-0.007892963 -0.07680459 0.07712598 0.077871986 -0.077812225 0.08207704 0.094932556 0.18016988
0.3347533 -0.024705203 -0.0825629 0.0005500363 0.04540903 -0.058885656 0.14956875 -0.013026581

model.2.weight f4 [128, 256]
00000000: f660 233e 4943 aabe 53a2 b73e 696e 37be
00000010: c2be c23e 8ca3 c33e 3ad0 0ebf a223 7fbf
00000020: 9acc ff3e dd0e 403e 3832 d43d 0f67 60bd
00000030: 5a0c 1ebf 652a 24bf e8dc 59be e6cd acbe
00000040: 445f 863e ba7d 493e b742 adbe bd08 2e3f
00000050: 0fc2 c13d 1525 cf3e bdcf 0dbf 3ee2 a6be
00000060: 3fbb 94bd 64c8 3dbe 1eb8 54bf 7a57 aabe
00000070: aa15 f5bd 79ac 863d e13b ebbe 99f3 82be
00000080: 1a41 1cbf 2bdf 3dbf 33d5 343e f64c 30bf
00000090: 893a afbf cce7 d8be 71b8 9bbf 3e78 2b3e
000000a0: dcb4 7d3e 712f 37bf 7f00 7fbe dbdb bfbd
000000b0: a191 a23f 7f54 d53e 629a adbe 1cfd e4be
000000c0: bdef dbbf 1ad9 ca3e be8c 4fbf 5a64 46bf
000000d0: 9612 a83d accd c03e 7eb1 72bf 75df e1be
000000e0: 7c18 99bf a402 72be f623 1e3e 7957 ce3e
000000f0: bab9 64bf c191 923f fba5 08bf ba20 60be
00000100: 4812 75bd 8f9f db3e f767 06be b951 40be
00000110: 6f4d 39bf 10c6 93be ece5 c03b 0a62 6bbd
00000120: 0780 44bf d821 36be 8d2c 783e ea7a a3be
00000130: ef12 8bbf 6afa 0dbe 4eab f13e 79ee 913e
00000140: 1e30 3b3f b4b5 0d3f 73ac 02bf 8be7 373e
00000150: 86b7 333d 76f2 25bf 88a3 7c3f 81dd 02bd
00000160: 9b6b 1cbd f851 3c3f 0b0c b4bd e7b6 303d
00000170: 4465 60bf b9ae 24bf 4a92 1a3e 86d6 de3e
00000180: 6187 4abe 0fd7 fc3d 8418 883f 5c7d 4dbd
00000190: 96f3 dd3e da82 bc3e 2215 5e3e dc21 66bd
000001a0: dc6f ddbe 89e0 ba3e 3b6a 533f 9aa9 a23e
000001b0: 16f5 e5be 1c0a 903d 9cae 433c 86cd 3d3f
000001c0: 183e 193e 2f41 a2bf b287 1c3f 5e25 303e
000001d0: 3b76 8ebc fc23 2abe a3fa 913e 5b30 3cbf
000001e0: 615f 65bd 5711 39be 2958 3ebf 8b50 b7be
000001f0: a22d 9bbe 1eaf 2dbe f33b 9b3d 2efe 303f
00000200: a27f fbbe bd42 8dbd 51b3 9abf ce00 1a3f
00000210: 79d6 073c 9f22 3f3e 03c7 b3be 2ac8 243d
00000220: 4047 17bf 91b9 153f f18f aebe 85f5 d73e
00000230: e252 36bf 0c35 0a3f 2b88 d0be 29b4 b63e
00000240: f636 b9be 7d51 e53e a73d 403e 38a7 e0be
00000250: 642c 1c3f d339 7abe 22ec 863e ba94 be3f
00000260: 0424 c3be 3dff 9ebe 6f2d 86bf e8de b3bf
00000270: 5d03 e5bc d23d 373e 5f1c 0cbf 740e a43d
00000280: 243d 69bf 7fbf 283e 33e8 cc3b 8f77 85be
00000290: f57e a4bc ba8e 33bf 229c a7be 8475 5a3d
000002a0: b241 a2be ee8c 6e3f 1d58 293c b21b a23e
000002b0: 3203 173d 3dff 1bbf d0e2 cf3e 054e 1f3f
000002c0: 6808 4d3e c739 21bf 96f0 b0bc f0df 28bb
000002d0: 0730 12be 1aba 2bbe 0259 e53e 4458 bbbf
000002e0: 508c 94bf 5a86 513e 0e56 123f ec36 40be
000002f0: bba3 e9bd 4c1a 95be d43e 3e3f fc80 473e
00000300: d09b 0abf c1f9 3c3f af04 7abf 7b5f d13e
00000310: 5fdf 4a3f 3f6f 253f a484 81be f9f9 bb3c
00000320: f636 e3bc 44e6 753d 25ed 86bd 770e f5be
00000330: 39e0 87be c8fe 49bf 58c3 e63e 74c5 02bf
00000340: 2025 95be 8f31 413f 50c3 93bf 8bef a9be
00000350: 7eea 2e3e f3ff 97be c67f 18bf ef8c 153e
00000360: 53d7 ce3e a1c8 85bd e613 14bf a2bd 903c
00000370: d366 6f3f 1d8b 7abf ac4a 9c3d 9869 673f
00000380: 3eaf c93e f244 03bf 3a67 5fbf 005b 0f3f
00000390: 8a3b 21bf b374 1abf f278 06be 9f2a 68bc
000003a0: 59cc 743d 7fdb 77bd 8c6c a9be 1ce5 2c3f
000003b0: b581 90bf 398a b13d acff 183f f72d 6d3e
000003c0: 9c2b 29bf 6d60 cb3d 064c cabe 161d b0be
000003d0: c9cb 7cbe 0394 c53e 6fa1 64be 31a6 213f
000003e0: 1522 af3e 7480 373d 78c0 f3be 8430 953f
000003f0: c376 cfbf a4a4 08be 541c 8a3d 5e33 1fbf
0.15954956 -0.3325446 0.3586603 -0.17913212 0.38036162 0.38210714 -0.5578648 -0.99663746
0.49960786 0.1875567 0.10361141 -0.054785784 -0.61737597 -0.6412719 -0.21275675 -0.33750838
0.26244557 0.19676867 -0.33839962 0.67982084 0.09460842 0.4045798 -0.5539511 -0.32594484
-0.07262277 -0.18533474 -0.8309344 -0.33269864 -0.11967023 0.06575865 -0.4594412 -0.25576475
-0.6103684 -0.7416865 0.17659454 -0.68867433 -1.3689739 -0.42364347 -1.2165662 0.16745088
0.24776024 -0.71556765 -0.24902533 -0.09368106 1.2700692 0.41666028 -0.33906847 -0.44724357
-1.7182537 0.3961876 -0.8107413 -0.77496874 0.0820667 0.37656915 -0.9480208 -0.44115797
-1.1960597 -0.2363382 0.15443406 0.4030111 -0.89345896 1.145073 -0.53378266 -0.21887484
-0.059831887 0.4289517 -0.13125597 -0.18781175 -0.7238378 -0.28862047 0.005886784 -0.057466544
-0.76757854 -0.17786348 0.24235745 -0.31929713 -1.0865153 -0.13865057 0.47201008 0.28502253
0.73120296 0.5535538 -0.51044387 0.1795942 0.043876193 -0.6482309 0.9868703 -0.031949524
-0.038188558 0.73562574 -0.087913595 0.04314318 -0.8765452 -0.64329106 0.15094867 0.43523043
-0.19778205 0.12345707 1.0632482 -0.05016838 0.43349904 0.36818582 0.21687749 -0.056184635
-0.43249404 0.36499432 0.8258397 0.3177002 -0.44913548 0.07033178 0.011943486 0.7414173
0.14965093 -1.2676142 0.61144555 0.17201754 -0.017390361 -0.1661529 0.28511533 -0.73511285
-0.055999164 -0.18073021 -0.7435327 -0.35803637 -0.30308253 -0.16961333 0.07579794 0.6913785
-0.49120814 -0.06897495 -1.2085973 0.6015748 0.00829088 0.1866555 -0.3511277 0.040229954
-0.59093094 0.58486277 -0.34094194 0.42179504 -0.7122022 0.53987193 -0.40728888 0.35684326
-0.36174744 0.44788733 0.18773519 -0.43877578 0.61005235 -0.2443612 0.2635203 1.4889138
-0.38113415 -0.31054106 -1.0482615 -1.40524 -0.027955705 0.17894676 -0.5473079 0.08010569
-0.9110892 0.164793 0.0062532662 -0.26067778 -0.02008007 -0.7013966 -0.32736307 0.053334728
-0.31690747 0.9318379 0.010335949 0.31661755 0.03686828 -0.6093634 0.40602732 0.62228423
0.20022738 -0.62978786 -0.021599095 -0.0025768243 -0.14276133 -0.16770211 0.4479447 -1.4636312
-1.160532 0.20461407 0.5716256 -0.18770951 -0.11408182 -0.29121625 0.7431462 0.19482797
-0.54144 0.73818594 -0.97663397 0.40893158 0.7924709 0.64622873 -0.2529651 0.022946345
-0.027736168 0.06003405 -0.065882005 -0.47862598 -0.26538256 -0.7890439 0.4507091 -0.5108254
-0.29129887 0.75466245 -1.154398 -0.3319057 0.17081639 -0.2968746 -0.59569967 0.14604543
0.40398654 -0.065324076 -0.5784286 0.017668549 0.9351627 -0.9786852 0.0763143 0.903955
0.39391512 -0.5127708 -0.87266886 0.5599823 -0.62981474 -0.6033432 -0.13132074 -0.014170318
0.059765194 -0.060512062 -0.33090627 0.67537093 -1.1289583 0.08668942 0.59765124 0.23162065
-0.6608217 0.09930501 -0.39511126 -0.3439719 -0.24687113 0.38589486 -0.22327207 0.6314421
0.3420569 0.044800237 -0.4760778 1.1655431 -1.6208118 -0.13344055 0.067436844 -0.62187755

model.2.bias f4 [128]
00000000: fdcf 46bd 4254 203f 8eb6 9dbd cf2f 48bd
00000010: 3fe2 9d3e c6d5 3b3e 22f1 a5bd 3f30 a7bd
00000020: fc23 e53e bcac b6be b1c2 34be aa03 0ebe
00000030: 0667 d2bc 89b7 3f3f 87a1 873e 96a0 1e3f
00000040: 0fa3 e0be 226f 403e e4c9 8e3b 82ab a7be
00000050: 9028 e3bc 77c8 8d3c 0685 ce3d 92c3 1fbe
00000060: e18a 853e 26e0 a5bd c95a 6a3f 543c c23d
00000070: 5327 713c 2cb0 90be 225f 52bf ad5e 123e
00000080: 75e7 7a3e e5e7 19bd 1450 2f3d 1540 3fbf
00000090: fb29 38bd 511e a0bd 0c4d dcbe 9848 763e
000000a0: 2553 e1bd 502f 2d3e 9ef6 61bd 4957 4dbd
000000b0: d90d 56be d8ac b73e 3e38 303d f6e0 0abf
000000c0: d302 a2be f281 92bd 5a59 95be f39a 3b3e
000000d0: a49d 5dbe 4c5d bebd 1fcc 473f 517e 003d
000000e0: 9316 bcbe e1ba cd3c 8012 b23c 50fd dabe
000000f0: a0ee 583d f80b 263e 1070 91be 9b7d 38bf
00000100: da78 853e 8091 663e c493 963e b88b 04bf
00000110: 2da3 eb3d 3b6f f53b 9ec2 74bd 19a3 d3be
00000120: ae91 efbd b225 1ebe 22fb 08be fd4a 3f3d
00000130: 795d babd f8c5 e9bd 2957 5e3e a964 05be
00000140: 4da3 07bf 286d d7bd 30a7 a6be 11fc d53d
00000150: 0880 8e3d 5cdf 283e 8853 b13e ce4f 8bbe
00000160: f57b 2abf 523b d23e 27f8 2ebe 2203 17be
00000170: e24e 6b3d e10b 78be f49f d0be 7808 ddbe
00000180: 75fc 31bd 28c6 d1be 4d0e 003e 269b 23bf
00000190: b398 96be e7df c03d 44fd 8cbe e534 d839
000001a0: 62d6 503d 5fb5 513d 4f9a 773e 5c93 60bc
000001b0: 3886 73be 2f6e 45be cc24 043d a9fc 1c3b
000001c0: 23af 8dbe b390 b038 5f4d f13b b70f e8be
000001d0: d81e b2bb f18e 88bd e5fc b9bd fcdf 2fbe
000001e0: cd9d 01bf 17da c13e 1b33 30be b7e7 1ebe
000001f0: 9304 d8be 680d 5e3e f84c 0abe d37f 1d3e
-0.048538197 0.6262857 -0.07700835 -0.04887372 0.30836675 0.18343267 -0.08102633 -0.08163499
0.44754016 -0.3567866 -0.17652394 -0.13868585 -0.025683891 0.7488943 0.26490423 0.61963785
-0.43874404 0.18792394 0.0043575633 -0.32748038 -0.027729303 0.017307503 0.10083966 -0.15601948
0.2608252 -0.080993935 0.9154478 0.09484163 0.014718848 -0.28259408 -0.8217641 0.14293928
0.24502356 -0.037574667 0.042800978 -0.74707156 -0.04496191 -0.078182824 -0.43027532 0.2405113
-0.11002187 0.1691258 -0.055166833 -0.05013207 -0.2090372 0.35874057 0.043022387 -0.54249513
-0.3164278 -0.07153691 -0.29169732 0.18320827 -0.21642166 -0.09295139 0.7804584 0.031370465
-0.36735973 0.025113525 0.021737337 -0.42771387 0.052961946 0.16215503 -0.2840581 -0.7206666
0.26068765 0.22516441 0.2940961 -0.51775694 0.11505733 0.0074900663 -0.059755914 -0.4133537
-0.11697708 -0.15444067 -0.1337705 0.046702374 -0.0909986 -0.11414713 0.21712936 -0.1302668
-0.5298355 -0.10518867 -0.3254943 0.104484685 0.06958014 0.16491455 0.34634042 -0.27209324
-0.66595393 0.41060883 -0.1708685 -0.14747289 0.057448275 -0.24223281 -0.40747035 -0.43170524
-0.043453652 -0.40971494 0.12505455 -0.6390861 -0.29413375 0.09417706 -0.27536976 0.0004123814
0.0509857 0.05119836 0.24179958 -0.013707008 -0.23781669 -0.19280313 0.032261655 0.0023954308
-0.2767268 8.419286e-05 0.0073639597 -0.4532449 -0.005435806 -0.06667889 -0.09081439 -0.17175287
-0.5063141 0.37861702 -0.17206995 -0.1551808 -0.4219099 0.21684802 -0.13505924 0.15380792

model.4.weight f4 [1, 128]
00000000: 74a7 9abd 0d7c 333e 2757 2cbf 7c24 99be
00000010: 64a1 fcbd 7e2e 18be 4b59 7c3e 3d0d c83e
00000020: 768a 853e 4dff e53d 8823 df3e 6f44 01bf
00000030: 4627 edbd 61d6 3a3e 4dd9 4ebe 3bc5 7d3e
00000040: 7a93 953e ef5d 76bf 83f4 51be 3c19 2d3e
00000050: 00fc ec3e bab1 933e c802 fabd 04e7 ae3e
00000060: aef9 c6bd 81a7 34be 07cf 273e bfcb 6fbd
00000070: 9bda a7bd f070 953d ac7b 09bd c8d0 e73e
00000080: 0bb6 edbd ab34 58be 3442 c8bd 9835 0cbe
00000090: 1dc0 1fbe 03aa 71bd 4f9c 323d 8220 aa3e
000000a0: 04d3 8d3e aa1d 703e 82cd 2e3e c860 343e
000000b0: 34ef 61be 908b a13e efaa 93be 5146 09be
000000c0: 1d0f b53e 46ed a7bd edfe 26be d5b0 bb3e
000000d0: c30a 913d 9fab e13d 6574 b0bd ad86 b03e
000000e0: ac0a 09be 01ef 583e 1af7 cf3e 2e58 84bd
000000f0: 89ba 95bd 9ad7 bebd 1b09 a8be bfb6 953e
00000100: c3b2 0fbe 601a 12be a834 1d3e d452 263e
00000110: bbf7 40be d911 08be 2365 dabc 43d8 2dbe
00000120: e2c9 3c3d a6e2 28be f174 29be 71f9 9e3e
00000130: b866 813e 66c1 f3bd 288d 4dbe be1f 2dbe
00000140: 1eda 863c 74d8 b9bd d526 94be f251 e13e
00000150: 533b 8dbd 3e6f 16bf efc0 673e 8598 a4be
00000160: 4252 f1bd 8546 f7bd 9ac4 163e 6939 cebe
00000170: 1faa c93e de77 f9bd 9b51 b43d 5737 dcbd
00000180: 591e 4ebe a3df 363e 49a9 7d3e 2e5a 5b3e
00000190: 3b3d 293e 1c9b a53d e03c 3b3e 4c76 a03e
000001a0: 1225 1cbf 4db0 b83e 29b7 bbbd 0dec 2b3e
000001b0: dc6a d3bd f300 8d3e cfc9 623d 7636 a13e
000001c0: 7818 1dbe ca93 fa3d 238e 0d3f 18c8 14be
000001d0: 8334 32be e0e6 bd3e 42f2 103e 3e4d bbbd
000001e0: 40b3 793d 7760 2ebf 043b 873e ec02 e5be
000001f0: c41e fc3d 8aea 3abe eee7 30be 3c16 c4bc
-0.075514704 0.1752779 -0.67320484 -0.29910648 -0.1233547 -0.14861485 0.24643438 0.390726
0.260822 0.112303354 0.43581796 -0.50495046 -0.115797564 0.18245842 -0.20200081 0.24782269
0.29214078 -0.9623708 -0.2050343 0.16904157 0.4628601 0.28846532 -0.12207562 0.34160626
-0.09715591 -0.17642023 0.16387568 -0.058543917 -0.081959926 0.07296932 -0.03356521 0.45276475
-0.116069876 -0.21113841 -0.09778252 -0.1369232 -0.15600629 -0.059000026 0.0436061 0.33227926
0.27700055 0.23448816 0.17070583 0.17615044 -0.22063905 0.3155179 -0.2884135 -0.1340573
0.35363093 -0.08199553 -0.16308184 0.3665835 0.07082131 0.11019062 -0.086159505 0.3447775
-0.13382977 0.21184923 0.4061821 -0.064621314 -0.073109694 -0.093184665 -0.32819447 0.29240987
-0.14033036 -0.14267874 0.15352118 0.16242534 -0.18844502 -0.13288058 -0.026659554 -0.16977029
0.046090968 -0.1649271 -0.16548516 0.31049684 0.2527368 -0.11902122 -0.20073378 -0.1690664
0.016461428 -0.09074488 -0.28935876 0.44007832 -0.06896081 -0.5876349 0.22632192 -0.32147613
-0.117832676 -0.120739974 0.14723435 -0.40278175 0.39387605 -0.12181066 0.088046275 -0.10752743
-0.20128764 0.17858748 0.24771608 0.2142112 0.16527264 0.080862254 0.1828494 0.31340253
-0.60994065 0.36072007 -0.091657944 0.16789265 -0.10323116 0.27539787 0.05536824 0.31486863
-0.15341365 0.1223522 0.5529501 -0.14529455 -0.17402844 0.37090206 0.14154914 -0.09145592
0.06096196 -0.68115944 0.26412213 -0.44728792 0.123105556 -0.18253532 -0.17275974 -0.023936383
