discriminator_gan_ff_ts_128.pth (torch, 295888 bytes, 5 tensors)

model.0.weight f4 [256, 156]
00000000: 6da3 91bf 5fa4 683f 9bb7 503e 732b c23f
00000010: 6098 be3f 87ff 3c3f 063d 59be f5f7 043f
00000020: f22a fc3d 1bc5 32be 3200 773f 3317 0e3f
00000030: ab7a 0fbf 3ff0 b1bd 5a64 6abf 7a5f 26bf
00000040: f96f 603c a44a 113f cb05 713e 282a 16bf
00000050: f21e 55be afd7 f63d 8eda 8fbd dc8d 3abf
00000060: ee33 84be 947b 6a3d 0160 d13d 876c 11bf
00000070: 9e33 f53c 7dfd 58bf 52ad c9be 8851 743e
00000080: c402 9cbe 2d6a 943d ae26 efbe 9108 e6be
00000090: 6231 dbbe 9900 89be 06ee c3be 5ef6 94be
000000a0: c8e9 3d3e 4891 1bbf f20d 5fbe e33b 05be
000000b0: 1d92 ebbe 5cad 9dbe c8c6 74bd b13a 0fbe
000000c0: b162 dd3e 1ec5 e0be a391 263f 1e85 0dbe
000000d0: b41e 8fbe febd 36be 0c84 8f3f 69c2 f33c
000000e0: 9962 babd ab2f a9bd bc6b 03bf 2ffd c4bd
000000f0: 11b4 56be 256d 43be 52c5 2f3c 4681 21be
00000100: af83 76be 168b 863c 76a2 913d 7b73 23be
00000110: 8f3f dbbd 3d90 b03e 6974 28bf 311c 9c3e
00000120: b224 a6be ba60 90be 10bc 88bd 4680 32bd
00000130: a481 6dbd a455 0dbf fb6b acbc 2042 fc3c
00000140: 8075 9d3e 754a 2dbf 2346 33bf 8bc1 0cbf
00000150: b646 16bf 1d56 dcbd 38ed eebe 1bec 95be
00000160: 8080 2d3c d939 03bf c6fe 87be 64f8 bebe
00000170: 2a91 ad3e 1d39 33bc 0d3b 60bf b5ba 39be
00000180: b5e6 68bf f335 29bf b24a 173e f6c5 7d3f
00000190: 2b9d 033e ae87 00bf 27b7 4cbe 2caa 18bf
000001a0: 54e4 39be 9cc3 2dbf db59 01be 9e75 10be
000001b0: d021 c03d c66b 663f 9599 1bbf f32d 123f
000001c0: d3dc f9be b842 02be bbd0 ddbe 12d6 a53e
000001d0: a87c 8a3d f285 90bd 1a23 04bf 630d f5be
000001e0: 194e 10bf 683e babe 768b 183f 7e1b 043d
000001f0: 8ad6 323f 2b89 5bbe e872 ed3c 29af ef3e
00000200: 60b4 1dbf 4d7a b2be 00eb d2be ecb1 ed3d
00000210: 6bf4 023d 023c d33d 2ba0 f33e 200d b0be
00000220: 48e9 333d 0045 cc3e b60b 3a3e 4199 b13e
00000230: c795 88be 3d9a fabc 00dd 343e 00f6 b0be
00000240: 8a94 d6bd a5fd 0ebf aef8 9ebe f0f1 5dbe
00000250: 310b 9f3e 33b1 87be 591e 653e ee92 973e
00000260: 93d0 80be 5017 e23e 43a9 47bf 86b2 a23f
00000270: ed98 993f 794b 073f 5086 32bf bc30 b2bf
00000280: 6bee 643f 0259 24bf 41c8 91bf c785 84bf
00000290: f161 91be 9244 be3d 7f71 aebe fdfb d7be
000002a0: 71e7 e33d d24a 323f 3cad e4be 70d6 123e
000002b0: f97d 6abf c9d4 e83e 11ed 22bf cc79 21bf
000002c0: 5bb1 c8be 8c91 173e f5cc a7bd a96e 67bd
000002d0: ce57 afbc 0250 43bb 54fb b3be 0dcb ce3c
000002e0: 5533 babd 3f15 d53e 4e15 063e 51e2 983e
000002f0: be52 0d3e 727d 813f 9d3d 5a3d c6a4 0b3f
00000300: e81d a2be 8d82 4bbd c992 b33d 80d5 153e
00000310: fe60 553f 8f20 5e3f 8ff1 b33e 14c8 4d3e
00000320: 8816 2d3e cddb 233e b4d3 9cbe 688d 8cbd
00000330: 6ef4 95bd 5454 0d3d 4b62 cbbd 2d1d 2ebe
00000340: acd0 5bbe f71f 6ebe c6f7 88be 0442 c1bc
00000350: e192 cbbe 5cb8 d0bd 8813 9abe da80 e3be
00000360: 67ac b1bd 5c40 fbbd e12a 97bd 0430 bc3e
00000370: 43df f4bb e70b 39bd ce56 443d 77c0 b0be
00000380: 9d9a 833e cefd b03d 69af 81bd 53b0 21bd
00000390: e05a 4f3e 00fc cdbd c26f 173d e787 b2bd
000003a0: c6cd 4e3e 84e1 fcbd 55ab 9d3d caf4 8d3e
000003b0: 331f 0e3e 46d4 6c3d 967b 8dbe 0029 ff3e
000003c0: ee41 c3bd b45d ad3d e28b 3dbf 3dcb b7be
000003d0: 2160 863e 8543 2dbc 9697 6abe e44e eebd
000003e0: b21f a9be 3102 bebe cdf0 f0bd 8a1e 78be
000003f0: fb27 c4bc a6de bbbe c7d8 263f 609a ac3e
-1.1377999 0.9087581 0.2038254 1.516951 1.4890251 0.73827404 -0.21214685 0.5194085
0.12312879 -0.17458002 0.96484673 0.5550415 -0.5604655 -0.086884014 -0.91559374 -0.64989436
0.013698571 0.5675452 0.23537366 -0.58658075 -0.20812586 0.12052857 -0.07024108 -0.7287271
-0.2582087 0.05724676 0.102233894 -0.56806225 0.02993184 -0.8476179 -0.39390045 0.23859227
-0.3047086 0.07246814 -0.46709198 -0.4492841 -0.42811114 -0.26758268 -0.38267535 -0.29094213
0.18546212 -0.60768557 -0.21782663 -0.13011126 -0.46009913 -0.30796325 -0.059759885 -0.13987233
0.43239358 -0.43900388 0.65065974 -0.13820311 -0.27953112 -0.17845914 1.1212173 0.029755788
-0.09100837 -0.08261045 -0.51336265 -0.096186034 -0.20967127 -0.19084604 0.010728197 -0.1577197
-0.24073671 0.016423743 0.07111065 -0.15962021 -0.10705482 0.34485045 -0.6580263 0.30490258
-0.3244987 -0.28198797 -0.06676495 -0.043579362 -0.057984963 -0.552088 -0.021047583 0.03079325
0.30753708 -0.6769174 -0.70028895 -0.54982823 -0.58701646 -0.10758612 -0.4666536 -0.29281697
0.010589719 -0.51260144 -0.26561564 -0.37298882 0.33899814 -0.01093891 -0.87590104 -0.1813763
-0.9097703 -0.66097945 0.14774588 0.9913019 0.12852924 -0.5020703 -0.19991742 -0.5963466
-0.18153507 -0.678766 -0.12631933 -0.14107367 0.09381449 0.900082 -0.6078122 0.5710136
-0.48801288 -0.12720764 -0.4332331 0.32389885 0.067620575 -0.07056798 -0.5161606 -0.47861776
-0.5636917 -0.36375737 0.595878 0.03225278 0.6985861 -0.21439044 0.028985456 0.46813324
-0.61603355 -0.34858933 -0.41194916 0.116062015 0.031971376 0.1031418 0.47583136 -0.34385014
0.043923646 0.39896393 0.1816853 0.34687236 -0.2667677 -0.030591125 0.1766243 -0.34562683
-0.1047755 -0.5585578 -0.31049103 -0.21674323 0.31063226 -0.2650238 0.22374858 0.29604286
-0.2515913 0.4415841 -0.7799265 1.2710731 1.1999794 0.5284954 -0.69736195 -1.3921123
0.89426297 -0.64198315 -1.1389238 -1.0353326 -0.28395036 0.092904225 -0.34070966 -0.4218444
0.11128128 0.69645417 -0.44663417 0.14339614 -0.9159847 0.45474842 -0.63642985 -0.6307647
-0.3919781 0.14801615 -0.08193389 -0.056502018 -0.021404173 -0.0029802327 -0.35152686 0.025243307
-0.09091822 0.41617772 0.13094065 0.29860166 0.13801095 1.0116408 0.053281415 0.545483
-0.31663442 -0.04968505 0.087682314 0.14632225 0.83351123 0.8676843 0.35145232 0.20095855
0.16903126 0.16001816 -0.30630267 -0.068629086 -0.07322012 0.03450425 -0.09930857 -0.17003317
-0.21466321 -0.23254381 -0.26751536 -0.023591049 -0.39760497 -0.10191414 -0.30093026 -0.44434243
-0.08675461 -0.12268135 -0.073812254 0.36755383 -0.007472904 -0.045177367 0.047934346 -0.3452184
0.25703898 0.086421594 -0.06332285 -0.039474797 0.2024951 -0.10057831 0.036971815 -0.087173276
0.20195684 -0.12347701 0.076986946 0.27725822 0.13879089 0.057819627 -0.2763335 0.49835968
-0.095340595 0.08465138 -0.7404157 -0.35897246 0.26245216 -0.01057518 -0.22909388 -0.11636141
-0.33031994 -0.37111047 -0.11764679 -0.242304 -0.023944845 -0.36693305 0.65174526 0.3371153

model.0.bias f4 [256]
00000000: 1a23 603e 1982 8e3e 7164 cfbd 6ca6 b1be
00000010: 3fe3 bdbd 4494 573d a440 593e 2b1b 0e3e
00000020: a263 7dbd 3ff9 61bd 963e 833e 8fc9 d6bf
00000030: f2de a13f d57b 53be cd8e b23d 3523 8a3f
00000040: 7d51 b7bd 6982 eb3e 9bb3 833e ffae 19bd
00000050: e17b 87bd 2927 81be 3504 a83b 59cf ce3d
00000060: 8feb 47bf e217 313e f92b a3bc c500 fabd
00000070: 1e93 8d3e 2e2a 33be ac83 483e 364b 4a3f
00000080: c5e2 e1bd 4bab 133f bd32 13be 17be ae3e
00000090: fb71 26bd 22a6 b53c 9d56 01be ff38 113e
000000a0: b34f de3d 9291 493f fef5 cebe 900e 45bd
000000b0: 4ad0 87bd c8b7 4a3d 47aa 3ebe 399e 37be
000000c0: fff5 323f 5f4e 7d3f 919d 01be dccd e93e
000000d0: 6b1e 223c 6c06 853f 7636 cd3e 8313 003f
000000e0: 7c94 913e f172 f63d 973f f1be 6dc6 ab3e
000000f0: 8495 cfbc 234e 67bc 3acb 1a3e f9ca f7bd
00000100: fafa ec3d f8cd 563e 8a34 393f 2975 75be
00000110: d20c a73c b406 19bd 3122 f83d dbd1 1d3f
00000120: 0faa c8bd daee 02be e110 6b3f 96ac 333d
00000130: a7b5 0bbc 0ac2 36bf d0cf 983e 7efc 3a3f
00000140: aa30 60bb de05 423e 798f 4ebe 6183 9abe
00000150: bd19 843e d579 3e3e d481 d53e 3293 813e
00000160: 63d9 bb3f bfeb bbbd 0868 1bbe 8458 b63b
00000170: 35ac f7bd 07e9 323f fd1f a4bd fdf3 d13c
00000180: c6f2 0ebd 9227 7a3d 6965 5cbf e21e 2d3f
00000190: 5915 1b3d e8d7 973f cdb3 c23f e6bc 92be
000001a0: 87fd 343f 90bc 59bd 8b5b 44be 6093 59bd
000001b0: 063d 923d 4fae 15be 0f49 463f 8bc0 e6bc
000001c0: 2b9a debe 91c1 9fbb d86c 9cbd 4907 99bc
000001d0: 0348 9b3e fa23 36bc 2cba 833e 7fdc 3f3d
000001e0: a218 d63e d193 36be ce5b 2cbd a433 a33f
000001f0: ce8a b6bb 77f5 62bd 43bf f53c bf6b 4cbe
00000200: f146 85be da41 ce3e 8630 aa3d c5d7 84bd
00000210: d822 86bd 811c bebc 19a0 7a3c 2e9f 4bbc
00000220: 04d5 e83e 2884 4ebd dc1d dcbd 01a3 7a3e
00000230: 089d 3939 1b01 033e 984a 983f 5968 d7bd
00000240: b1a6 2f3e d890 bc39 6fb6 c93c b14b 55bc
00000250: b90d 183d ef6f 6a3d 6e07 66bf bd7b abbc
00000260: e177 6ebd 4f7e a23d 2ef2 163c 656a 38be
00000270: ee73 7ebc f454 403f 7e00 1c3d cdba c2bd
00000280: d570 c23e 5aaa 93bf 438f 62bd 6881 85be
00000290: 1d03 ee3e 00a7 28be cc34 353e 4aa3 0b3a
000002a0: 4e9b b23c 5bf4 993e 2fc3 dfbc 88ff d5be
000002b0: 49a6 123e e410 da3c 08c3 c83e 4b68 96be
000002c0: 15ce a23e 15bd 063e 1080 263f 0af2 2abf
000002d0: d7e9 85bd d73e 0e40 380d 9e3c 9e69 fcbe
000002e0: ee32 873d 2291 3d3e 3c1c 0e3f 2ed7 90be
000002f0: 681d 70bf 99d0 cabe bde0 debd dfac b8bc
00000300: d0ea a33e 1ac7 e53e 577c 2a3e a9cf 983d
00000310: 1fd8 8dbd d9e3 fcbe 010d 89bd 4183 a5bd
00000320: 2acf 333f 1563 91bd 172a 2d3f ea80 853f
00000330: ca03 df3e 0578 c53f 050b e53e e353 2bbe
00000340: 8c24 1fbd a9eb 8a3f 3aa2 afbd 1633 d13d
00000350: 9836 f6bc fb81 4dbf ab8c 333f 9c43 c8bc
00000360: d5d3 76be fbe3 453d b9b8 c2bc 1372 913e
00000370: 7941 e63c 1a76 a23c c3fe ae3d b489 b1b9
00000380: 7b20 3d3d 753c bebd 77bb aabc 0d3f c5be
00000390: 072f afbc 3a7f d43f fb76 a03c bdeb 5c3c
000003a0: be89 1bbd 7382 9f3f 12db db3e c940 853d
000003b0: ac06 273c 5772 26be 34ef c23e 0c49 b93e
000003c0: 3fc6 25be fd94 84bd 2c22 9a3c cc3f fbbc
000003d0: 2194 1dbd b790 5d3c e78b d53e c20b 2c3d
000003e0: bc7c 8fbe 985e 10be ab88 48bd 4186 7b3d
000003f0: c324 afbd 5980 e23c b9f2 213d ad6d 0fbd
0.2188839 0.27833632 -0.101265796 -0.34697282 -0.092718594 0.05263163 0.21216065 0.13877551
-0.061862595 -0.05516934 0.25633687 -1.6780261 1.2646163 -0.20652707 0.08718643 1.0791994
-0.089510895 0.45997933 0.25722966 -0.037520405 -0.06615425 -0.2522519 0.0051274546 0.10098142
-0.7809381 0.17294267 -0.019918429 -0.12207178 0.27651304 -0.17496559 0.19581479 0.7902101
-0.11029581 0.5768325 -0.14374824 0.34129402 -0.040636044 0.022173945 -0.12630697 0.14181899
0.10855045 0.7873775 -0.40422052 -0.04810959 -0.06631525 0.049491674 -0.18619643 -0.17931451
0.6990661 0.9894771 -0.12657763 0.4566487 0.0098949475 1.0392585 0.40080613 0.5002977
0.28433597 0.12033642 -0.47118828 0.33549824 -0.02533985 -0.01411775 0.15116587 -0.12099261
0.115713075 0.20977008 0.72345793 -0.23970474 0.020391855 -0.03735991 0.121158965 0.6164834
-0.09798061 -0.12786427 0.9182263 0.043865763 -0.008527196 -0.7138983 0.29846048 0.7304152
-0.0034208694 0.1894755 -0.20171918 -0.3017836 0.25800887 0.18601163 0.41700613 0.25307614
1.4675716 -0.091758244 -0.15176404 0.005564751 -0.12093393 0.6988682 -0.08013914 0.025629038
-0.034899496 0.061072893 -0.8609224 0.6762525 0.037862156 1.1862764 1.5211121 -0.28659743
0.7069935 -0.053158343 -0.19175546 -0.053119063 0.071405455 -0.14617275 0.7745523 -0.028167984
-0.43476996 -0.00487537 -0.07637948 -0.018680232 0.30328378 -0.011116976 0.25727975 0.04684114
0.41815668 -0.17829825 -0.04207974 1.2750134 -0.005570746 -0.055409875 0.029998427 -0.19962977
-0.26030686 0.40284616 0.08310036 -0.06486467 -0.06549615 -0.023206951 0.015296959 -0.012428088
0.45475018 -0.050419003 -0.10747883 0.24476244 0.00017701474 0.1279339 1.1897764 -0.105179496
0.17153431 0.0003596607 0.024623124 -0.0130185345 0.037122462 0.057235654 -0.89855087 -0.020933026
-0.058219794 0.07934248 0.009213014 -0.18009336 -0.0155305695 0.7512963 0.038086407 -0.09508286
0.3797671 -1.1536362 -0.055312406 -0.26075292 0.4648675 -0.16469955 0.17695922 0.0005326761
0.02180257 0.3006924 -0.02731475 -0.41796517 0.14321245 0.026619382 0.39211297 -0.29376444
0.31797853 0.13158067 0.6503916 -0.6677557 -0.06538742 2.2225854 0.019293413 -0.4929933
0.06601511 0.18512395 0.5551183 -0.2828917 -0.9379487 -0.39612272 -0.10882709 -0.022543369
0.32015085 0.44878465 0.16648994 0.07461483 -0.069259875 -0.49392584 -0.066919334 -0.08081675
0.7023798 -0.070989765 0.6764235 1.0429966 0.43557578 1.5427252 0.4473497 -0.16731219
-0.038853213 1.0853168 -0.08575864 0.10214822 -0.03005533 -0.8027646 0.7013652 -0.024446301
-0.24104245 0.048313122 -0.023769723 0.28407344 0.028107392 0.019831706 0.08544686 -0.00033862668
0.046173554 -0.09288875 -0.020841343 -0.38524666 -0.02138473 1.6601326 0.019587984 0.013483939
-0.037973158 1.2461685 0.42940575 0.065064974 0.010194462 -0.16254555 0.38073123 0.36188543
-0.16188906 -0.0647373 0.018815123 -0.03067007 -0.038471345 0.013523272 0.417083 0.0420034
-0.28024852 -0.14098585 -0.04895846 0.06140733 -0.085519336 0.027649092 0.03953812 -0.035016704

model.2.weight f4 [128, 256]
00000000: 1a22 bb3e 1cd0 bf3e 0b76 8f3f e892 8b3e
00000010: 08f4 bd3d 9d58 783e bebc 38be 6f9c 043f
00000020: 0acd 503f 991e c6bd 7cff 943e 8149 5a40
00000030: a54d 603e 6bd3 a03e 0ec0 f6be d7a8 8f3c
00000040: 97c8 9d3f 0016 bd3e 3a4e 003e f150 1f3f
00000050: b358 c93e c6c1 cebe 33c7 9b3e 3920 2c3e
00000060: 5bbe 8abf 858d 193f ab32 24be 994c 613e
00000070: 9e94 0c3e eb12 173f ae09 d73e c106 bfbd
00000080: 7f8e 65be 5b62 1b3f 5325 073f 40df 47bf
00000090: 12b5 693f 2813 ab3e 5216 d6bd 7761 c33e
000000a0: 0be5 4cbe f441 57be 0b4c e63e 9546 8e3e
000000b0: e48f bc3e 2920 f33e 2fd5 a43e ec1b 343e
000000c0: 3968 313f dddd 003f b65a af3e 4ffc d33e
000000d0: 6271 1d3f 7450 a13e df72 68be 65ff bfbd
000000e0: 0f11 8c3f 3d91 f23e 55b6 89be 576f 0f3f
000000f0: cf44 e13d 01d3 993f 1e84 0f3f cd6e a13e
00000100: 316f ecbd 07fe 703f 6e24 5c3e f116 6d3d
00000110: 4e36 9e3e a8e0 243f 1a93 283f 61f9 273e
00000120: 2c69 6c3f f0b9 b43e d364 0fbf af59 043f
00000130: bdf0 903f 2dab 2cbf d5ad 63be 0242 613f
00000140: 12d7 a43f 38f0 1a3f 6e0c 223d 711a 17bf
00000150: ec52 853b 626f 2cbe f7ad 8c3e f672 e73e
00000160: 3459 ad3f 678d 4bbe f3a5 9dbe 0bb6 273e
00000170: ec1d 8a3f 0f56 2d3f f6ad 953f 6d81 f53e
00000180: 2a98 503d 4fa5 e23e f512 0b40 32e1 4e3f
00000190: 9a79 90bd 8387 45be e5f9 273f da11 fabd
000001a0: ac6b afbd 7756 16be a4e4 cb3d 9468 dcbe
000001b0: 1a14 98be b724 713f abd5 e73e dcb9 353f
000001c0: 3439 2bbe 7495 e93d 551a 143e da12 943e
000001d0: 27b6 f23e a017 7b3f 7850 473f 2e2a 413f
000001e0: 75db 03bf c747 233f f153 643c 893e c23e
000001f0: f7d8 0a3f 1d20 833f d240 73bd d0d5 e93d
00000200: 8cd3 3c3f d0a3 1d3d 7989 c13e 1cbd 4d3e
00000210: eaab 83be a44a c83f cbf9 603f c6a4 3b3e
00000220: c214 143d 0c80 ff3e 744b 543f 8ff7 293f
00000230: 5d39 7e3f f3ee 90be 36f4 99be 6690 c13c
00000240: 021b 223f 1868 793e 31b9 053d 0607 1d3f
00000250: 7f1e 5e3e 8ee9 0f3f 440b c03e 0368 a13f
00000260: e7b2 09be 035a 513e c0a0 8f3f ac0b 833f
00000270: 8fa9 283f bbef f33e 0188 703f 5d58 a83e
00000280: 91dd e1be 9edd 6540 dbaa 983f 31bb 073f
00000290: 7fbf 013f a594 033f 25b7 45bd 785a 7a3f
000002a0: 65f6 9d3f 6d00 1cbc eb1b 343f c8e3 8abf
000002b0: 4ff3 843f 7565 b63f cb72 fabd 3069 d6be
000002c0: fe88 4a3f 7744 3c3d 04b3 8c3f 6438 143f
000002d0: 6c89 8c3e 1fef c33f 8d9e 063f 0b1d 09be
000002e0: 2882 083f 2946 a2bd c4ba 553f cbab 563e
000002f0: e8cd 443d 0629 5cbf d4c6 eb3e 9278 173e
00000300: 26b6 dd3d 1974 213f 909a 783f 110c fc3d
00000310: c876 423b bd64 423e 84e6 373e b728 2b3f
00000320: e34c 73be 8781 d8be 8a48 9b3c 1a99 7d3f
00000330: b0eb b2be 71a7 c53f aef1 37bf 8199 1a3f
00000340: ee8d 8bbd 396c 1ebf b69e 0dbe 0d33 0c3f
00000350: ea15 023f 7f2a 60bf b9f0 b8be bb6e d83e
00000360: d9eb 4f3e 1e1f 6e3f 6d9a a9bc 822f a8be
00000370: a8f1 263f 3b23 883e 5b72 84be 9300 993f
00000380: c798 91be 7afd 9d3e 4a9d 133f 0f42 6cbd
00000390: 3a58 843f 6218 5b3f f99a 6e3f 4c01 6e3e
000003a0: 7293 9b3e f907 3cbf b6bd ba3f 01c3 413f
000003b0: a55f bb3e 2002 1e3f e2f0 4c3f 3f2e c73d
000003c0: 461c d13d 5379 243e 6e31 363e cf78 8e3f
000003d0: 9a1b 383e 0df3 e73b c1f2 dabd b18d 82be
000003e0: fa0d 3dbe ea83 113f 5020 c13e 21fb 193f
000003f0: 1fd3 cd3e 70d5 893f 5e61 81be 5ddc 55bd
0.36549455 0.37463462 1.1207899 0.27260518 0.09275061 0.24252553 -0.1804075 0.518012
0.81562865 -0.09673805 0.2910117 3.4107363 0.21904619 0.314113 -0.481934 0.017536564
1.232684 0.36930847 0.12529841 0.6223288 0.39325485 -0.40382212 0.30425414 0.16809167
-1.0839342 0.59981567 -0.16034953 0.22001876 0.13728568 0.5901324 0.41999573 -0.0932746
-0.22417639 0.60696954 0.5279133 -0.7807503 0.91291916 0.33413053 -0.10453476 0.38160297
-0.20009248 -0.21021253 0.4497989 0.27788225 0.3682853 0.47485474 0.32193896 0.17588776
0.69299656 0.50338537 0.34248894 0.41403434 0.61501133 0.31506693 -0.2270007 -0.093748845
1.0942706 0.47376433 -0.2689692 0.56029266 0.10999452 1.2017518 0.5606097 0.31529847
-0.115446456 0.94137615 0.21498272 0.057883207 0.30900806 0.644053 0.6584946 0.16403724
0.9234798 0.3529811 -0.5601322 0.51699346 1.1323467 -0.67448694 -0.2223428 0.87991345
1.2878134 0.60522795 0.039562635 -0.5902472 0.004068723 -0.16839364 0.27476475 0.45204896
1.3542848 -0.1987816 -0.30790672 0.16378038 1.0790381 0.6770944 1.1693714 0.47950307
0.050926365 0.44266745 2.173032 0.8081237 -0.07054444 -0.19289975 0.65615684 -0.12210436
-0.08565459 -0.14681421 0.09955719 -0.43048537 -0.29702836 0.9419665 0.45280203 0.70986724
-0.1672104 0.11405459 0.1446317 0.28920633 0.47404596 0.98082924 0.7785716 0.75454986
-0.5150674 0.637814 0.013936029 0.37938336 0.5423731 1.0244175 -0.05938799 0.114177346
0.73760295 0.038486302 0.37800196 0.20091671 -0.25717098 1.5647779 0.87881154 0.18324575
0.03615261 0.4990238 0.8292763 0.6639337 0.9930628 -0.28307304 -0.3006913 0.023628425
0.6332246 0.24356115 0.032647315 0.6133884 0.21691321 0.5621575 0.37508595 1.2609867
-0.13447152 0.20444493 1.1220932 1.0237937 0.65883726 0.47643837 0.93957525 0.32879916
-0.44114354 3.5916514 1.1927141 0.53020006 0.50682825 0.5139869 -0.048270363 0.97794294
1.2340819 -0.009521586 0.703551 -1.0850763 1.0386752 1.4249712 -0.12228926 -0.41877127
0.79115283 0.04596373 1.0992131 0.57898545 0.27448595 1.5307349 0.5258568 -0.13389985
0.533236 -0.07923538 0.83488107 0.20963971 0.04804793 -0.86000097 0.4605013 0.14792088
0.10825758 0.63067776 0.97110844 0.12306989 0.002967285 0.18983741 0.17959028 0.66859
-0.23759799 -0.42286322 0.018955488 0.9906174 -0.3494544 1.5441724 -0.7185315 0.6039048
-0.0681418 -0.61883885 -0.13830075 0.547654 0.5081469 -0.87564844 -0.36121157 0.4227198
0.20304812 0.9301623 -0.020703519 -0.32848746 0.6521249 0.2658938 -0.25868496 1.19533
-0.28436872 0.3085745 0.5766188 -0.057680186 1.0339425 0.8558408 0.9320522 0.23242682
0.3038593 -0.73449665 1.4589145 0.7568818 0.36596408 0.6172199 0.8005506 0.097256176
0.10210471 0.16061907 0.17792293 1.1130618 0.17979279 0.0070785345 -0.10690833 -0.25498727
-0.18462363 0.5684191 0.37719965 0.6014882 0.40200135 1.0768261 -0.25269598 -0.052212108

model.2.bias f4 [128]
00000000: 277d 8f3e c42f 60be cb97 213f f163 99bf
00000010: dc18 373d 82ee 543e ce8b 5a3e bbf1 9cbe
00000020: 9e4a 0ebf a7a9 91bd d410 39bf daa1 87be
00000030: dd36 d7be a829 213a 84ae 7abe 5144 b93d
00000040: c674 d8be 9550 2b3e 7107 05bf c639 95be
00000050: baf4 ce3e a4a3 89be 38e6 6e3e f4a5 ccbe
00000060: ec99 debe 559e dbbe d3a5 d0be f764 28bf
00000070: 1814 fbbe 1dd7 81be dd2a 30be 9ea9 59bf
00000080: 286a 193e ac6a e5be 1ab1 943e 8785 ef3d
00000090: e84f c93e 13f8 37be 47dc c9be d9f5 42be
000000a0: d889 11be 9600 2dbc 3703 2b3e 6454 e0be
000000b0: fc6f eb3d 88fb 423f c936 133b 9af2 e4bd
000000c0: fd23 febe aa2a 973e 3acc a53e 94cb cbbd
000000d0: 0fbd bdbd a10a 32be f46f 95be 8d59 df3d
000000e0: 3016 97bb e144 113d 1e3a 3cbe ec54 50be
000000f0: 3b12 c13e 2af7 e53d a4cd 8f3e caa6 033f
00000100: 4938 91be 7c1f 56be a65d c5bd 9378 cabe
00000110: a70e 1c3f d9a6 993e af95 ecbe 7117 9439
00000120: b259 02be 824b 83be 1820 253f cd29 2dbf
00000130: 2de3 963e 8048 913e 806c bdbe 0894 a1be
00000140: 53d2 dabd 5a5a 29bc 560d 90bd 67cd bb3e
00000150: 6fbe 3bbf 9a8b 0d3f a85f d4bd 085e 003f
00000160: 113a 123b f702 44be 6959 f43d 0ea4 28be
00000170: cb95 e5be f8f5 343e 08d8 993e 13ed 663f
00000180: f827 c5bd c156 0a3c 9083 83be f8c8 643e
00000190: 7384 dcbd 4cf4 f13c ae4f 373e 5457 46bd
000001a0: a3a4 f3bd f872 c8be ff34 91be 67fa a73d
000001b0: 7cb6 433e 47c4 e23d 7d10 e6be b499 803e
000001c0: 3fe0 563e 9a8d 07bf c9b6 72be 79a9 b23d
000001d0: ce9b 8dbe 5184 79be 52ba c23d 0383 4c3e
000001e0: e168 b2bc beae 3cbf 0134 88be cb6b 43bf
000001f0: 40fb 25be 0f1f 043f 48bb f1be 0c76 e43e
0.2802517 -0.21893221 0.6312224 -1.1983625 0.044701442 0.20794109 0.21342394 -0.30653176
-0.55582607 -0.07112437 -0.722913 -0.2649067 -0.42034045 0.000614787 -0.24480635 0.090462334
-0.4227659 0.16729958 -0.5196448 -0.2914564 0.40421087 -0.2688266 0.23330009 -0.39970362
-0.43476808 -0.42894235 -0.40751514 -0.6577906 -0.49038768 -0.2535943 -0.17203851 -0.8502444
0.14981902 -0.44807947 0.29041368 0.1169539 0.39318776 -0.17965727 -0.3942587 -0.19039096
-0.1421274 -0.010559222 0.16700445 -0.43814385 0.11495969 0.76165056 0.0022463074 -0.11179085
-0.49636832 0.29524738 0.32382375 -0.09950939 -0.09264576 -0.17386867 -0.29186976 0.10905752
-0.0046107993 0.03546608 -0.18381545 -0.20344895 0.3770922 0.112287834 0.2808658 0.51426375
-0.28363255 -0.20910448 -0.09637003 -0.39545116 0.6095986 0.30010107 -0.4620795 0.00028246225
-0.12729529 -0.25643545 0.64502096 -0.6764191 0.29470196 0.28375626 -0.3699684 -0.3155825
-0.106846474 -0.010336483 -0.07033794 0.36680147 -0.73337454 0.5529114 -0.103698075 0.5014348
0.0022312442 -0.19141756 0.11931116 -0.16468832 -0.44840845 0.17671955 0.3004763 0.90205497
-0.09626764 0.008443535 -0.25686312 0.22342288 -0.1076745 0.029535435 0.17901489 -0.048423126
-0.11896636 -0.39150214 -0.28360745 0.08202057 0.19112581 0.11072593 -0.44934455 0.25117266
0.2098398 -0.5295044 -0.2370254 0.087237306 -0.27657932 -0.24366881 0.09508194 0.19971852
-0.021778526 -0.73704135 -0.26602176 -0.76336354 -0.16209126 0.5160989 -0.47213197 0.44621313

model.4.weight f4 [1, 128]
00000000: 766e 65bd c75e d7be d24f 663d f28b 2bbd
00000010: 58f3 b0bd e78c d43d 15d2 c13d 8f60 b6be
00000020: 9e22 8f3c cd93 b93c f5d9 af3d 0b90 2c3e
00000030: 0d90 c7bd e583 5a3e 7620 22bd 1077 353c
00000040: 7ca0 e6bd 6584 3e3e 7096 bd3d 509a 083c
00000050: b382 36bc ad2d 953d d725 04bf 3f61 da3e
00000060: c94e cfbd 1008 f03b cf5a 9fbc b4df 28bc
00000070: 37fd c7bd 2e40 1fbe 67c8 1f3d 8718 1c3d
00000080: 305d fa3c 45cd 14bd 7e8f b9bd 6e7d a13d
00000090: 10ec ab3e f047 2b3e a879 3ebe ed34 9cbb
000000a0: 8954 96bd 20a5 e83c 8331 783c ce12 af3c
000000b0: 669b 32bd 1155 5bbc ee4a cb3c fbef 1f3d
000000c0: ad89 84bd 9b46 233e f856 083d 9eee e53e
000000d0: e3c3 d8bc 9922 0e3d 05ca 0f3e 76c0 45bd
000000e0: 56eb 48bd fd8a 623d 3f75 023e 8f75 d0bd
000000f0: 6d30 17be 4d6b 433b 6b21 503e 550c b7bd
00000100: de6c 4d3b 8cdf 843c afc9 e8bd 7557 803d
00000110: 3927 afbd d1ef 39bd 0b58 b73d e8ea a8bc
00000120: bf37 e63c c5b0 76bb 201a c43c 1eeb e63b
00000130: 6278 1e3d 2846 2f3c d613 1d3c 5115 e4bc
00000140: d1e2 bc3d 0d31 f53c bc5d dbbd 53b5 5abd
00000150: 84f4 b53c 9895 fc3e 1c54 923a 6ed0 25bc
00000160: 64c4 e53d 1ffe 053f 3a78 16bb f2a8 35be
00000170: a39d 283e b39b 0c3e ced8 663e 52b4 893d
00000180: 71c7 23bc 0498 9b3e 9803 d63c e671 113d
00000190: b46e 34bc a9ba a4bd 5fff 05be 23e1 80bb
000001a0: 2404 c6bd a07b c03d 574b 9c3b f265 e83c
000001b0: 04c3 3f3c 3aa7 433d a6e6 273c 9249 3dbd
000001c0: 7a09 3fbd 0295 1abe c575 5dbd f4aa 27bd
000001d0: 413d 8f3c d1a3 983c 1e14 dabd f716 7bbf
000001e0: 7c3e 0c3e 23f1 093e 6c7f 483d 7c3d 873c
000001f0: 466a 0a3d 750c f83e 198b a7bd 90d0 183e
-0.056013547 -0.42064497 0.056228466 -0.04188151 -0.08640164 0.103784375 0.09463898 -0.35620543
0.017472561 0.022653485 0.08586494 0.16851823 -0.097442724 0.21339376 -0.03958174 0.01107575
-0.11261079 0.18605192 0.09257209 0.008337572 -0.01113956 0.072841026 -0.5162024 0.42652318
-0.10122449 0.00732518 -0.01945248 -0.010307241 -0.09765094 -0.15551826 0.039009478 0.03810933
0.030562013 -0.036328573 -0.09060572 0.07885252 0.3357854 0.1672666 -0.18601096 -0.0047670514
-0.073403426 0.02839905 0.015148523 0.021371271 -0.04360523 -0.013386981 0.024816003 0.039047223
-0.06471572 0.15944903 0.033286065 0.44908613 -0.026460594 0.034700964 0.14041908 -0.04827925
-0.04905256 0.05530833 0.12740038 -0.101786725 -0.14764567 0.0029818595 0.20325248 -0.08937899
0.0031345407 0.016219877 -0.11366593 0.06266681 -0.08552403 -0.045394722 0.0895234 -0.020619825
0.028102754 -0.0037641984 0.023938239 0.007047071 0.038689025 0.010697879 0.009587249 -0.027842196
0.09222949 0.029930616 -0.10711238 -0.05339558 0.02221132 0.4933288 0.0011163983 -0.010120494
0.11219099 0.52340883 -0.0022959844 -0.17740229 0.16466384 0.1373127 0.22543642 0.067238465
-0.009996281 0.30389416 0.02612476 0.035509013 -0.011012722 -0.08043415 -0.13085698 -0.0039330884
-0.096687585 0.093985796 0.0047697234 0.028368924 0.01170421 0.0477669 0.010247862 -0.04621274
-0.046639897 -0.15095904 -0.054067392 -0.040934518 0.017485263 0.018632801 -0.10648368 -0.98081917
0.13695711 0.13470893 0.048949644 0.01650881 0.033792756 0.48447004 -0.08180828 0.1492331
