discriminator_gan_ff_ts.pth (torch, 295848 bytes, 5 tensors)

model.0.weight f4 [256, 156]
1.1320565 0.8015233 0.8456953 0.48192078 -0.3064035 0.46373782 -1.3670318 -0.026267247
-0.2062308 -0.08652717 0.8557907 -0.19912702 -0.48211643 -0.78723305 -0.43865475 -0.088168085
-0.12894817 -0.26058996 -0.24518223 -0.10195487 -0.62461436 -0.6780383 -0.27824318 -0.2693132
-0.0017314256 0.646095 0.6667004 0.43988022 0.6479665 0.5471049 0.18911545 -0.29182574
-0.41585153 -0.7407735 0.15456395 -0.2839959 0.048323445 -0.39420235 0.34898925 -0.045899495
0.18246149 0.2933325 -0.17146005 0.18341757 -0.4471819 -0.56547266 -0.36551586 -0.07618547
-0.00925788 0.54546195 0.13903086 0.26868337 0.2407433 0.45058852 0.05858063 -0.12190724
0.034388833 0.056704912 -0.16673087 -0.09427938 -0.21212982 0.33642337 0.020377552 0.31044355
0.028669896 -0.14878511 -0.6376718 -0.15423594 -0.26260749 -0.00665788 0.32729438 0.21902126
0.4383741 0.24145542 0.36741322 0.73386437 0.53013426 0.55144113 -0.003583886 0.019460736
-0.07386169 -0.11633949 0.355279 0.10049615 0.43425232 0.4818726 -0.20114535 -0.34593508
-0.26736975 -0.2611713 -0.39894468 -0.60439014 -0.30804303 -0.123084195 -0.2220923 -0.019408451
0.28611472 0.3136329 0.040904287 -0.23114239 -0.08655014 -0.5761484 -0.35159436 -0.080712624
-0.07248656 0.29405537 0.27342948 0.28883794 0.41378784 -0.116617896 0.44558007 0.3021207
0.50581926 0.48259428 0.614197 0.609656 0.2707622 0.3163354 -0.60182554 -0.37381256
-0.7876149 -0.31209052 -0.2279038 -0.63047725 -0.4302824 -0.42427427 0.18277887 -0.11634446
0.38690352 0.21561809 -0.07797164 0.26047817 0.4134995 0.288522 0.26851073 0.43681106
0.06861979 0.36950362 -0.13984561 0.18613447 0.54396135 0.037336342 0.13959262 -0.14422515
0.09906245 -0.15637963 -0.5817411 -0.16728218 -0.2312812 0.10006267 -0.6600987 0.14126581
0.65241987 -0.566307 -0.87077564 -1.3525031 -3.1719952 0.23368996 1.068484 -0.80675334
-0.009273062 1.6930345 1.5411943 1.1625487 0.07760875 0.33797985 0.28936142 -0.23034912
-0.069294766 -0.5446237 -0.33804783 -0.6012647 -0.099979065 0.27238876 -0.13561939 0.39216647
-0.19164538 -0.52170384 -0.713874 -0.11997503 -0.2128674 -0.19566087 0.06271056 0.25030258
0.054676756 0.4006182 0.40041107 0.23234265 -0.107418016 0.22288276 0.4573873 0.36304644
-0.17357074 -0.115152374 0.025406603 -0.1890302 0.009922013 0.38764194 0.46306837 -0.0832069
0.1316631 -0.23525545 0.6807445 -0.028664881 0.06044509 0.2917144 0.2586359 -0.28511262
0.2450384 -0.37142524 0.12713379 -0.2644869 0.012272938 0.12525763 -0.46390188 -0.6783855
-0.14894116 0.29110244 0.09929575 0.21113233 0.27690798 0.12892474 0.021031456 -0.33775887
0.2573909 -0.3947507 -0.17155568 0.09876156 0.5828907 -0.09828727 -0.09080904 -0.6378907
0.06271842 -0.45149162 -0.23919253 -0.24498458 -0.21759449 0.21801122 -0.38174006 -0.110370584
-0.30473837 0.13274325 -0.2515955 -0.26643965 -0.08869078 -0.23141384 0.14945489 -0.39894107
0.115235046 -0.07789968 0.049956493 0.69529593 0.7916762 0.6422716 0.5984204 0.5131625
00000000: 3ae7 903f a230 4d3f 7d7f 583f 52be f63e
00000010: ebe0 9cbe 0b6f ed3e e6fa aebf 692e d7bc
00000020: 2b2e 53be 2835 b1bd 1915 5b3f f4e7 4bbe
00000030: f7d7 f6be 1b88 49bf 5b97 e0be 7891 b4bd
00000040: fd0a 04be 0c6c 85be 0d11 7bbe b7cd d0bd
00000050: bae6 1fbf eb93 2dbf e475 8ebe 6be3 89be
00000060: 01f1 e2ba 7b66 253f e1ac 2a3f fb37 e13e
00000070: 22e1 253f 110f 0c3f 7ba7 413e 2f6a 95be
00000080: 7eea d4be 55a3 3dbf 0346 1e3e e967 91be
00000090: ceee 453d e4d4 c9be b8ae b23e 1c01 3cbd
000000a0: 2fd7 3a3e ad2f 963e 3993 2fbe d1d1 3b3e
000000b0: 07f5 e4be d1c2 10bf e524 bbbe 2107 9cbd
000000c0: 5dae 17bc 65a3 0b3f 1b5e 0e3e de90 893e
000000d0: 6985 763e 8ab3 e63e 3ef2 6f3d 81aa f9bd
000000e0: 4edb 0c3d 6943 683d 7fbb 2abe 8c15 c1bd
000000f0: 8f38 59be af3f ac3e d3ee a63c 75f2 9e3e
00000100: 21dd ea3c 205b 18be 763e 23bf 07f0 1dbe
00000110: 7d74 86be 582a dabb 2193 a73e 1c47 603e
00000120: 9272 e03e 1740 773e 961d bc3e 89de 3b3f
00000130: e1b6 073f 3f2b 0d3f a1df 6abb 1f6c 9f3c
00000140: cc44 97bd 6643 eebd 21e7 b53e edd0 cd3d
00000150: 5256 de3e 01b8 f63e 0cf9 4dbe 671e b1be
00000160: b0e4 88be 3fb8 85be 7a42 ccbe 50b9 1abf
00000170: d1b7 9dbe 9113 fcbd 2a6c 63be 79fe 9ebc
00000180: a17d 923e 7e94 a03e 418b 273d 97b0 6cbe
00000190: 3341 b1bd 767e 13bf 2d04 b4be a94c a5bd
000001a0: d573 94bd 6d8e 963e f3fe 8b3e 91e2 933e
000001b0: 00dc d33e 5dd5 eebd 1223 e43e 90af 9a3e
000001c0: 5f7d 013f 9916 f73e 043c 1d3f 6a12 1c3f
000001d0: 58a1 8a3e b7f6 a13e 3d11 1abf 5c64 bfbe
000001e0: 21a1 49bf 54ca 9fbe 9d5f 69be f566 21bf
000001f0: fa4d dcbe 7a3a d9be 622a 3b3e 0146 eebd
00000200: 3818 c63e fdca 5c3e 98af 9fbd 655d 853e
00000210: 35b6 d33e 28b9 933e 3d7a 893e b3a5 df3e
00000220: 8888 8c3d 942f bd3e b033 0fbe 099a 3e3e
00000230: 0d41 0b3f feed 183d 5ef1 0e3e c2af 13be
00000240: 41e1 ca3d fb21 20be fcec 14bf 054c 2bbe
00000250: fbd4 6cbe a8ed cc3d 3afc 28bf fca7 103e
00000260: fd04 273f 7ff9 10bf 27eb 5ebf d21e adbf
00000270: f801 4bc0 6c4c 6f3e 15c4 883f 6387 4ebf
00000280: 0bee 17bc 5bb5 d83f db45 c53f 65ce 943f
00000290: 56f1 9e3d b20b ad3e 2e27 943e a4e0 6bbe
000002a0: 6aea 8dbd 756c 0bbf 9b14 adbe 7cec 19bf
000002b0: d3c1 ccbd 8a76 8b3e cfdf 0abe 0bca c83e
000002c0: b03e 44be 628e 05bf 72c0 36bf 78b5 f5bd
000002d0: e9f9 59be 535b 48be 656e 803d a927 803e
000002e0: bcf4 5f3d d41d cd3e ae02 cd3e 3beb 6d3e
000002f0: fafd dbbd 613b 643e ab2e ea3e 39e1 b93e
00000300: 87bc 31be 02d5 ebbd 8221 d03c 2291 41be
00000310: f08f 223c 0179 c63e 4c17 ed3e 6168 aabd
00000320: b1d2 063e cee6 70be 4645 2e3f 9dd2 eabc
00000330: 4595 773d 975b 953e ed6b 843e 48fa 91be
00000340: 59eb 7a3e 732b bebe 5c2f 023e d46a 87be
00000350: 6f14 493c 8943 003e 8c84 edbe acaa 2dbf
00000360: 0884 18be 610b 953e 925b cb3d 1333 583e
00000370: e2c6 8d3e d904 043e 294a ac3c bbee acbe
00000380: bdc8 833e c41c cabe 4bac 2fbe 8043 ca3d
00000390: 5338 153f d64a c9bd 17fa b9bd ce4c 23bf
000003a0: 8472 803d e929 e7be e3ee 74be 3ddd 7abe
000003b0: 17d1 5ebe 553e 5f3e 6f73 c3be f909 e2bd
000003c0: ab06 9cbe d9ed 073e 20d1 80be c76a 88be
000003d0: 83a3 b5bd c0f7 6cbe b40a 193e 0142 ccbe
000003e0: 5a00 ec3d de89 9fbd 2e9f 4c3d eafe 313f
000003f0: 4bab 4a3f e96b 243f 1432 193f 9e5e 033f

model.0.bias f4 [256]
0.576277 -0.016596463 0.5122993 -0.06530413 1.6134604 0.59093 -0.11601609 0.009128752
-0.08450619 -0.07450122 1.2290039 0.048400793 -0.0851922 0.049975086 -0.05375056 0.006860735
-0.33986813 -0.8258241 -0.14513157 0.27960733 -0.056103475 -0.6067338 -0.006740016 0.08180624
0.21162212 -0.06858915 0.0052062 0.05098145 1.1954262 -1.0643647 -0.024474612 0.017923543
0.048899587 1.1068317 -0.056740317 -0.093382835 0.22236422 0.017035326 -0.19417566 -0.16052781
0.0048005837 0.09208893 -0.014345505 -0.075905636 0.057981383 0.07800734 -1.0979364 -0.18642753
0.0103884265 -0.018949125 -1.2756854 -0.6114016 -0.11617881 -0.00030507776 1.0840293 -0.0841806
-0.100188695 -0.1422262 0.12216713 -0.16050196 -0.007941832 0.005659667 0.6824959 -0.13035743
-0.0851112 -0.10827036 -0.110586025 0.11958212 -0.70271754 -0.046349693 -0.12816912 -0.47627044
0.45795843 -0.007479614 0.9811681 1.4525009 -1.0516517 0.11906849 -0.28011724 0.40987504
0.20845664 -0.059179176 0.011676638 0.09471918 0.92617637 -0.021879394 0.1873397 1.1251023
0.4846235 -0.32410923 -0.18872915 0.81296855 -0.00026790285 0.09958531 0.5956088 0.3233776
-0.199015 -0.047339518 1.6214834 -0.08426812 -0.12472404 -0.068312824 0.2604977 -0.13305554
1.39079 -0.048849426 -0.13280618 -0.11593668 -0.18872552 -0.33470368 -0.11588097 -0.059574097
-0.09107237 -0.2570213 0.0037320815 -0.7538139 0.9746518 0.3198767 0.13832013 -0.049915332
-0.044448044 1.101837 0.049831863 0.07781835 -0.48303485 0.34443232 0.25199366 -0.0155614605
-0.17938767 0.0014521859 -0.04284741 -0.14670703 0.37952778 -0.19670922 -0.0042588366 -0.07623928
-0.10171286 -0.30285525 0.72488075 0.0077307587 0.003026573 -0.00042730317 -0.13993569 -0.99934053
1.3036082 -0.4205579 -0.19999623 0.13657038 -0.007427064 -0.054427836 0.33539194 -0.09714334
-0.0053458437 -0.040856868 -0.0078429775 -0.8557997 1.4250356 -0.043385018 0.83999586 0.017635927
-0.032383084 -0.04583706 -0.17562324 -0.60907733 -1.7918675 0.109021395 1.7939304 0.05949968
-0.08117079 0.21021225 -0.02582225 -0.028860126 0.11484096 0.5704991 0.047076494 -0.07443155
0.024247905 -0.45410272 0.5129997 -0.9242077 -0.22586812 0.094436385 -0.00782759 0.019848794
1.1399468 -0.042301435 -0.29702705 0.44510698 0.81083685 -0.10759199 -0.11994281 -0.0945294
-0.14846566 -0.082113445 0.71516204 -0.011833088 1.3726543 -0.0015300608 -0.69969285 -0.054595523
-0.022756526 1.0582933 0.38222146 0.00074872666 -0.024732947 -0.07361726 0.051356718 0.055000614
0.9989608 -0.07349566 -0.028242804 0.29890257 -0.06604476 0.5679988 0.0043323203 0.14922127
-0.2255715 0.5976531 -0.19975336 -0.18192156 0.08755337 -0.04614732 0.36256284 0.20048614
-0.46423835 0.362651 -0.4565372 -0.6601486 -0.16015953 0.48978782 0.47831318 -0.09651726
-0.06006907 -0.06902923 -0.13119343 -0.07957933 0.3504344 0.607024 0.41971198 1.1348373
0.093753085 -0.025653789 -0.17894997 1.1714401 0.10705489 1.2794002 2.4773717 0.27480614
-0.08444639 -1.0336396 -0.266618 -0.1763779 -0.045913104 -0.0034002583 -0.32093957 -0.82390624
00000000: e486 133f 4ef5 87bc 0c26 033f 2cbe 85bd
00000010: df85 ce3f 3047 173f d899 edbd c390 153c
00000020: 9511 adbd 1894 98bd 0050 9d3f e93f 463d
00000030: 4079 aebd adb2 4c3d 8c29 5cbd 04d0 e03b
00000040: 3203 aebe 3569 53bf 5f9d 14be b128 8f3e
00000050: c2cc 65bd e852 1bbf 5adb dcbb 088a a73d
00000060: 78b3 583e 7878 8cbd c598 aa3b edd1 503d
00000070: ba03 993f 1a3d 88bf fb7e c8bc 65d4 923c
00000080: ef4a 483d a9ac 8d3f 8968 68bd 803f bfbd
00000090: 72b3 633e ab8d 8b3c fcd5 46be 6761 24be
000000a0: 374e 9d3b 1f99 bc3d 6909 6bbc 6a74 9bbd
000000b0: e37d 6d3d 50c2 9f3d 2e89 8cbf dce6 3ebe
000000c0: 3834 2a3c 323b 9bbc a949 a3bf d184 1cbf
000000d0: 28ef edbd d8f2 9fb9 79c1 8a3f e166 acbd
000000e0: bb2f cdbd bfa3 11be c332 fa3d a05a 24be
000000f0: 751e 02bc ba74 b93b 0db8 2e3f 6b7c 05be
00000100: c84e aebd dabc ddbd ed7a e2bd 78e7 f43d
00000110: 4ce5 33bf 2dd9 3dbd c43e 03be b8d9 f3be
00000120: 8779 ea3e 8d17 f5bb d52d 7b3f 8deb b93f
00000130: 869c 86bf 2eda f33d 876b 8fbe 24db d13e
00000140: a875 553e dd65 72bd 5f4f 3f3c 21fc c13d
00000150: e519 6d3f 6a3c b3bc fad5 3f3e 5a03 903f
00000160: 9220 f83e a5f1 a5be 3742 41be b51e 503f
00000170: 5075 8cb9 62f3 cb3d d179 183f c091 a53e
00000180: 97ca 4bbe 15e7 41bd c58c cf3f c494 acbd
00000190: 516f ffbd 98e7 8bbd f45f 853e b63f 08be
000001a0: 6805 b23f 5616 48bd 58fe 07be 3670 edbd
000001b0: 4341 41be 485e abbe 0153 edbd f803 74bd
000001c0: 2784 babd 4c98 83be f095 743b f3f9 40bf
000001d0: c882 793f e1c6 a33e cba3 0d3e 0574 4cbd
000001e0: 270f 36bd ff08 8d3f 7f1c 4c3d 3a5f 9f3d
000001f0: 5850 f7be 6f59 b03e 5005 813e 7ff5 7ebc
00000200: 67b1 37be 4657 be3a c480 2fbd 5e3a 16be
00000210: 7751 c23e 246e 49be b68d 8bbb 5723 9cbd
00000220: d54e d0bd d80f 9bbe c991 393f 4e52 fd3b
00000230: 7859 463b a907 e0b9 4d4b 0fbe c8d4 7fbf
00000240: a2dc a63f 5d53 d7be d0cb 4cbe 1bd9 0b3e
00000250: ba5e f3bb b9ef 5ebd 7eb8 ab3e 16f3 c6bd
00000260: 302c afbb 8859 27bd d57f 00bc b015 5bbf
00000270: 9167 b63f 7db4 31bd f809 573f 3879 903c
00000280: 20a4 04bd a4bf 3bbd 94d6 33be 7eec 1bbf
00000290: ea5b e5bf 9c46 df3d 839f e53f f0b5 733d
000002a0: df3c a6bd e141 573e 2f89 d3bc 126c ecbc
000002b0: bd31 eb3d 3b0c 123f 48d3 403d 926f 98bd
000002c0: 8ba3 c63c 2780 e8be f353 033f e098 6cbf
000002d0: f949 67be dd67 c13d 4b3f 00bc f099 a23c
000002e0: c7e9 913f 4544 2dbd ee13 98be 10e5 e33e
000002f0: 0193 4f3f 3059 dcbd 93a4 f5bd a198 c1bd
00000300: 6207 18be 182b a8bd dc14 373f 91df 41bc
00000310: 23b3 af3f 528c c8ba 121f 33bf 8e9f 5fbd
00000320: e56b babc 2876 873f 88b2 c33e 3246 443a
00000330: c09c cabc a5c4 96bd 6c5b 523d 5348 613d
00000340: e5bb 7f3f e584 96bd 745d e7bc c209 993e
00000350: 7a42 87bd 5f68 113f 23f6 8d3b 76cd 183e
00000360: 37fc 66be cbff 183f 258c 4cbe a549 3abe
00000370: 2e4f b33d f904 3dbd d6a1 b93e 3d4c 4d3e
00000380: a6b0 edbe 64ad b93e 3ebf e9be 80ff 28bf
00000390: dc00 24be 78c5 fa3e 77e5 f43e d7aa c5bd
000003a0: fc0a 76bd 325f 8dbd 9257 06be 7dfa a2bd
000003b0: 236c b33e ed65 1b3f 7de4 d63e 5942 913f
000003c0: 9e01 c03d e527 d2bc a93e 37be c0f1 953f
000003d0: 983f db3d 63c3 a33f 428d 1e40 64b3 8c3e
000003e0: 3bf2 acbd 4d4e 84bf 2882 88be 699c 34be
000003f0: 610f 3cbd ded6 5ebb 3152 a4be 85eb 52bf

model.2.weight f4 [128, 256]
-0.026025549 0.14926557 1.309142 -0.05802347 -0.32820556 -0.18154408 0.684424 0.26059127
-0.07703408 0.003911146 -0.47731295 -1.0479983 0.6468482 -0.42405397 -0.49327227 -0.23378643
-0.33606666 0.074014224 0.9567787 -0.7797244 -0.22825049 0.13388337 -0.01704354 0.9249006
-0.31653884 0.36424395 -0.24959612 -0.78997445 -1.2285557 -0.44999158 0.31205627 -0.7259542
-0.13431084 -0.8405379 0.19958232 -0.36138526 0.40014368 -0.431097 0.40306956 -0.36173147
-0.91824454 -0.1768576 -0.0054027075 -0.4797159 -0.33600846 -0.64009446 -0.31834736 -0.12944439
-0.25573 0.44768026 -0.6656599 0.42086437 -0.052932348 -0.95830697 0.0065323142 0.66170985
-0.14250526 -0.18707524 -0.6660875 0.32865405 0.0024045475 -0.037091423 -0.3062989 -0.67202413
-0.6955956 -0.30362034 -0.08809783 -0.019423224 -0.55304503 -0.039614536 -0.2900652 -0.4649672
-0.26618505 0.6734631 -0.6799943 0.32651278 -0.37348515 -0.34283453 0.28581622 -0.36223683
-0.22382751 -0.7648593 1.2880889 -0.29146332 0.3800906 0.046624545 -0.33267814 -1.1389772
-0.48778793 0.28070307 -0.07593367 -0.1543754 0.21046986 -0.20562354 -0.05118517 -0.4933643
-0.30441007 0.28741097 -0.2515995 0.09064164 1.6383653 -0.51802135 -0.13289241 -0.64436305
-0.26444867 -0.44378537 -0.121013284 -0.4728233 -0.65698695 -0.27662414 -0.06071081 0.28863487
-0.045500055 -0.5228024 -0.15926784 0.17040733 -0.06400707 -0.721646 -0.013820706 -0.48848382
-0.7540187 0.5110267 -0.6808202 -0.61137325 -0.799064 -0.055384744 -0.2298291 -0.6176552
-0.11215451 -0.61854815 -0.71987283 -1.0233892 -0.5279635 -0.16351785 0.899792 -0.1551009
0.02795254 0.17553759 0.49763787 1.0486933 -0.10425974 0.40080184 0.38657013 0.28564146
-0.041615363 0.2810416 -0.12172887 -1.9814973 0.21119344 -0.40699178 -0.4681266 -0.23209374
-0.0018577533 0.22625448 -0.40103823 -6.963368 0.0876558 0.01739558 0.08039875 -0.3764355
0.25470543 -0.24950446 0.23507172 0.6504154 -0.35831347 -0.6092896 -0.29959592 -0.59778494
0.26741862 -0.44427633 0.3142197 0.35479802 0.4424596 -0.5725982 -0.92171997 -0.44763193
0.023946442 0.28092885 -0.35790077 -0.36115485 -0.45618603 0.42769405 -0.5508079 -0.41077825
-0.19327295 -0.21438327 0.106575 -0.048807617 0.13292225 -1.075024 -0.845878 -1.0872607
0.064382076 -0.2683772 0.25365216 -0.0421081 -0.6912318 0.63904166 -0.123625934 0.6313439
0.613528 -0.20079103 -0.33160755 -0.34834963 -0.21621206 -0.31883878 1.1754357 -0.25241658
-0.026624674 -1.6255538 -0.39768645 0.26252717 0.15914595 0.24264872 -0.2270769 -0.8520147
-0.11597254 -0.44762248 0.40986243 0.09592447 -0.070293516 0.12242678 -0.12263742 0.122799695
-0.7104651 0.053098455 -0.06534032 -0.94123787 -0.27750343 0.56765825 -0.5313192 0.71560335
0.19413629 0.54753006 -0.24756047 -0.085666955 -0.1137987 0.70995224 -0.53517675 -0.13896498
-0.15072323 -0.010668265 -0.901426 -0.38758066 -0.14180875 -1.5250252 -1.1703427 -0.42696744
-0.15651639 0.23869766 -0.4515961 -0.5966526 -0.011056297 -0.107928805 0.25920647 -1.6722648
00000000: 8833 d5bc 13d9 183e f791 a73f 05aa 6dbd
00000010: 8f0a a8be b1e6 39be 6936 2f3f 386c 853e
00000020: 0bc4 9dbd 1229 803b 5d62 f4be cf24 86bf
00000030: d897 253f 9a1d d9be 2f8e fcbe b665 6fbe
00000040: ee10 acbe c594 973d 73ef 743f 059c 47bf
00000050: 7fba 69be b918 093e e59e 8bbc 49c6 6c3f
00000060: 6111 a2be 2f7e ba3e 2096 7fbe c43b 4abf
00000070: 5041 9dbf 4c65 e6be d7c5 9f3e 22d8 39bf
00000080: c888 09be 7e2d 57bf 4f5f 4c3e 7d07 b9be
00000090: a2df cc3e bfb8 dcbe 225f ce3e de34 b9be
000000a0: 1312 6bbf 291a 35be 3209 b1bb 539d f5be
000000b0: 4d09 acbe 3bdd 23bf 6dfe a2be 128d 04be
000000c0: 0bef 82be 5936 e53e b068 2abf 897b d73e
000000d0: 97cf 58bd 9b53 75bf 060d d63b d165 293f
000000e0: e6ec 11be a790 3fbe b684 2abf 5845 a83e
000000f0: 9d95 1d3b 2ded 17bd 36d3 9cbe c609 2cbf
00000100: 8e12 32bf 2074 9bbe a36c b4bd 741d 9fbc
00000110: 5c94 0dbf da42 22bd 6d83 94be 2e10 eebe
00000120: 6849 88be 1468 2c3f 1b14 2ebf af2c a73e
00000130: 7239 bfbe 0288 afbe 8156 923e 1b77 b9be
00000140: 0a33 65be d2cd 43bf 19e0 a43f ae3a 95be
00000150: 3c9b c23e 61f9 3e3d ca54 aabe 01ca 91bf
00000160: 57bf f9be 50b8 8f3e 1d83 9bbd 9614 1ebe
00000170: 6985 573e fa8e 52be 8aa7 51bd 3f9a fcbe
00000180: a3db 9bbe 8827 933e a6d1 80be 53a2 b93d
00000190: f4b5 d13f 0c9d 04bf f314 08be faf4 24bf
000001a0: d165 87be d637 e3be d0d5 f7bd e515 f2be
000001b0: 4c30 28bf aea1 8dbe e6ab 78bd f3c7 933e
000001c0: 445e 3abd 61d6 05bf 1c17 23be 427f 2e3e
000001d0: 2416 83bd cbbd 38bf 3e70 62bc 8d1a fabe
000001e0: 5f07 41bf a5d2 023f 3c4a 2ebf f582 1cbf
000001f0: 758f 4cbf 1ddb 62bd 5258 6bbe a71e 1ebf
00000200: 44b1 e5bd 2c59 1ebf 9649 38bf 6bfe 82bf
00000210: 9e28 07bf 3971 27be c558 663f c5d2 1ebe
00000220: bafc e43c 20c0 333e 64ca fe3e 953b 863f
00000230: 2186 d5bd e635 cd3e 85ec c53e 993f 923e
00000240: df74 2abd afe4 8f3e fc4c f9bd b4a1 fdbf
00000250: 1843 583e 3a61 d0be 4aae efbe fba9 6dbe
00000260: db7f f3ba 41af 673e e254 cdbe e9d3 dec0
00000270: e284 b33d 2d81 8e3c 1aa8 a43d 27bc c0be
00000280: c068 823e 197e 7fbe a4b6 703e a081 263f
00000290: dd74 b7be 67fa 1bbf a364 99be 6f08 19bf
000002a0: 18eb 883e 3078 e3be 68e1 a03e 16a8 b53e
000002b0: 118a e23e cc95 12bf d7f5 6bbf 0330 e5be
000002c0: 542b c43c e8d5 8f3e c53e b7be 4ae9 b8be
000002d0: 3791 e9be b7fa da3e bf01 0dbf 8751 d2be
000002e0: 58e9 45be 4a87 5bbe fe43 da3d 7fea 47bd
000002f0: c51c 083e 639a 89bf 768b 58bf 5c2b 8bbf
00000300: c0da 833d bd68 89be b2de 813e 8b79 2cbd
00000310: 91f4 30bf 3c98 233f 982f fdbd c19f 213f
00000320: 2c10 1d3f 2a9c 4dbe 77c8 a9be e25a b2be
00000330: b266 5dbe d63e a3be ad74 963f bf3c 81be
00000340: fd1b dabc 2612 d0bf 8f9d cbbe f669 863e
00000350: 28f7 223e e878 783e d986 68be a31d 5abf
00000360: 0383 edbd c62e e5be 7dd9 d13e 0c74 c43d
00000370: 0cf6 8fbd e4ba fa3d 5429 fbbd 687e fb3d
00000380: 0ae1 35bf c47d 593d 25d1 85bd f7f4 70bf
00000390: ee14 8ebe 0d52 113f 8904 08bf c831 373f
000003a0: aacb 463e ee2a 0c3f 7e80 7dbe 2872 afbd
000003b0: 4b0f e9bd 6ebf 353f 5801 09bf d64c 0ebe
000003c0: 3157 1abe f2c9 2ebc dbc3 66bf f970 c6be
000003d0: 5036 11be 0734 c3bf cacd 95bf 7a9b dabe
000003e0: d545 20be 296d 743e 9b37 e7be 3abe 18bf
000003f0: 7925 35bc c709 ddbd b6b6 843e c60c d6bf

model.2.bias f4 [128]
0.3460452 0.21105744 0.3363762 -1.3595079 -0.48020664 -0.51521575 0.5180882 -0.2833404
-0.36651394 -0.052655775 -0.35247755 0.016987337 0.82462835 0.466623 0.12614751 0.7009832
0.057004385 0.1057696 0.19368908 -0.09020653 -0.5316604 -0.24983442 -0.035805974 -0.8731071
-0.039068643 0.1526928 -0.5214388 -0.27011782 -0.39743996 -0.109274924 0.38636222 0.19724119
0.13445692 0.11710691 -0.4702521 -0.1511075 0.18849078 0.07481385 -0.34244412 0.18851903
-0.45388725 0.31493247 0.14752105 0.4197252 -0.41748077 -0.18200424 -0.48655683 0.728901
-0.39930218 0.22939841 -0.51011825 0.21931924 -0.56675994 0.1395793 -0.49799153 0.48885834
0.26164535 -0.03947407 -0.05534575 -0.23381856 0.8513136 0.21217236 0.20267572 -0.18608499
-0.33036065 0.18336949 -0.04096288 0.23488112 0.48340225 0.032205757 -0.13735291 -0.25560394
0.08848261 0.16167852 0.5139977 0.12255411 -0.5824969 -0.372015 -1.301113 0.05909179
0.23243804 -0.4282924 0.033610146 0.4775567 0.15018167 0.455518 0.056780722 -0.49651265
0.20705605 -0.35612676 -0.029207258 -0.005157425 -0.5270998 0.3472211 -0.17469284 0.3703894
-0.14731306 0.06863371 -0.92150104 0.3426322 0.006568555 -0.19805692 0.05980927 0.34304076
-0.6081435 0.3398284 -0.1642163 0.47704497 -0.72910297 0.41995358 -0.20629413 -0.4483419
-0.05150321 -0.4627022 0.3563445 0.011578395 -0.08912887 0.48557222 -0.14954038 -0.13617222
-0.5355812 0.444213 -0.6082477 0.079029575 -0.11756654 0.24999848 0.08810799 0.038622398
00000000: d62c b13e 711f 583e 8039 ac3e 5b04 aebf
00000010: a5dd f5be 2ee5 03bf 6ea1 043f fe11 91be
00000020: b7a7 bbbe 95ad 57bd f077 b4be 0729 8b3c
00000030: d81a 533f 36e9 ee3e d02c 013e a373 333f
00000040: 6e7d 693d bb9d d83d 6e56 463e 34be b8bd
00000050: e51a 08bf 98d4 7fbe 49a9 12bd f283 5fbf
00000060: 7106 20bd 805b 1c3e 037d 05bf e24c 8abe
00000070: 407d cbbe 88cb dfbd 45d1 c53e 98f9 493e
00000080: 13af 093e bfd5 ef3d e2c4 f0be edbb 1abe
00000090: ba03 413e 0138 993d d654 afbe 220b 413e
000000a0: e963 e8be d43e a13e c20f 173e 39e6 d63e
000000b0: 0ac0 d5be 525f 3abe fa1d f9be 4299 3a3f
000000c0: 5671 ccbe 6be7 6a3e 1c97 02bf 3995 603e
000000d0: 2e17 11bf e0ed 0e3e bff8 febe a44b fa3e
000000e0: 61f6 853e 90af 21bd 3ab2 62bd 226e 6fbe
000000f0: b0ef 593f b643 593e 398a 4f3e 108d 3ebe
00000100: 0825 a9be 36c5 3b3e b1c8 27bd ad84 703e
00000110: 8080 f73e 2fea 033d 3ea6 0cbe 85de 82be
00000120: 5f36 b53d 0e8f 253e 5a95 033f a6fd fa3d
00000130: 841e 15bf c078 bebe df8a a6bf 3c0a 723d
00000140: 3d04 6e3e 2449 dbbe cbaa 093d 5082 f43e
00000150: 39c9 193e a839 e93e e792 683d e836 febe
00000160: 8006 543e 3f56 b6be 0f44 efbc 9eff a8bb
00000170: 03f0 06bf f7c6 b13e aee2 32be aea3 bd3e
00000180: 3cd9 16be d58f 8c3d 7ee7 6bbf 7d6d af3e
00000190: 083d d73b 6fcf 4abe 91fa 743d 0aa3 af3e
000001a0: 4baf 1bbf fdfd ad3e 5128 28be 3d3f f43e
000001b0: 7ea6 3abf 2804 d73e c53e 53be 128d e5be
000001c0: 08f5 52bd 4ee7 ecbe c972 b63e 4fb3 3d3c
000001d0: 3289 b6bd ec9c f83e 1d21 19be bb70 0bbe
000001e0: d91b 09bf e36f e33e 1fb6 1bbf 42da a13d
000001f0: bac6 f0bd 9aff 7f3e f671 b43d 8532 1e3d

model.4.weight f4 [1, 128]
0.019932369 0.03414036 -0.0029127302 -0.010642942 0.037992194 0.057123844 0.005204406 -0.0025141372
0.04774977 0.008366551 0.0065955045 0.05571049 0.029957235 -0.0655611 0.028266879 0.04536605
0.009549892 -0.0643571 0.11394309 0.0068185497 0.042089816 -0.00045531188 0.017909748 -0.025695551
-0.013959035 0.0847993 0.019312408 0.07406797 0.05201201 0.0038892447 0.030783148 0.09155148
0.053745136 -0.072765216 0.036551822 -0.022092165 0.22947936 0.09782783 -0.066544876 -0.068327434
0.06984116 0.01737063 0.032391794 0.060477063 0.056710683 0.045749396 0.033012625 0.12721376
-0.022223094 0.116809785 0.07243903 -0.016372249 0.018153733 -0.030879706 0.08863886 -0.039674565
0.013969823 0.08992245 -0.13505095 0.010902239 -0.4078434 0.02007796 0.09490641 0.30807456
0.06183459 0.051011186 -0.009981825 0.062422063 -0.13074468 0.033508684 0.079931535 0.046013504
0.55618745 -0.00015696671 0.005999761 0.16445576 0.025327116 0.0035582096 -0.11365032 0.104527675
-0.02487981 0.013962963 -0.022520585 -0.056076083 0.027008519 -0.13474166 -0.0055244854 -0.01670027
0.13226214 -0.0138489595 -0.030513326 -0.08506132 -0.0039660684 -0.036394212 -0.0133389 -0.102972984
-0.0017279139 0.000571605 0.02088836 -0.01774914 -0.046433028 0.03797983 0.09039741 0.042512063
-0.0005579049 -0.05819106 0.05374559 -0.034861263 0.04179394 0.1408988 -0.005478834 0.08406048
-0.027313897 -0.011674485 -0.006042992 0.043734673 0.07533453 0.07648308 0.001400731 0.018398631
-0.2612233 -0.023870604 0.029184679 0.026131071 0.08397086 -0.020648466 -0.08372359 0.27005047
00000000: 3549 a33c c3d6 0b3d 81e3 3ebb bc5f 2ebc
00000010: b49d 1b3d b1fa 693d b989 aa3b 39c4 24bb
00000020: 4395 433d dc13 093c 1a1f d83b af30 643d
00000030: e068 f53c e644 86bd f18f e73c c0d1 393d
00000040: 2677 1c3c a8cd 83bd ff5a e93d 246e df3b
00000050: 5f66 2c3d edb6 eeb9 77b7 923c 7a7f d2bc
00000060: 70b4 64bc 41ab ad3d 0e35 9e3c f3b0 973d
00000070: 8c0a 553d b3e2 7e3b f12c fc3c 587f bb3d
00000080: dc23 5c3d ee05 95bd 5db7 153d a1fa b4bc
00000090: a3fc 6a3e f559 c83d ae48 88bd 41ef 8bbd
000000a0: e208 8f3d da4c 8e3c 42ad 043d ccb6 773d
000000b0: 7649 683d b863 3b3d 3f38 073d 5344 023e
000000c0: 350d b6bc f839 ef3d ea5a 943d 181f 86bc
000000d0: 23b7 943c 70f7 fcbc 4a88 b53d cc81 22bd
000000e0: afe1 643c 4329 b83d cc4a 0abe 4e9f 323c
000000f0: dad0 d0be 897a a43c 4b5e c23d f3bb 9d3e
00000100: 4446 7d3d 1bf1 503d cf8a 23bc 47ae 7f3d
00000110: efe1 05be 6740 093d 25b3 a33d a878 3c3d
00000120: 4d62 0e3f 6e97 24b9 a599 c43b 1767 283e
00000130: d07a cf3c da30 693b 80c1 e8bd 9b12 d63d
00000140: bed0 cbbc e9c4 643c 177d b8bc 09b0 65bd
00000150: f840 dd3c b8f9 09be be06 b5bb 01cf 88bc
00000160: ba6f 073e bfe6 62bc 15f7 f9bc a134 aebd
00000170: cbf5 81bb 1912 15bd 678b 5abc 80e3 d2bd
00000180: 2b7b e2ba c3d7 153a 111e ab3c a566 91bc
00000190: 8f30 3ebd bd90 1b3d 4722 b93d 2121 2e3d
000001a0: 5d40 12ba c059 6ebd 5624 5c3d afca 0ebd
000001b0: 1f30 2b3d c647 103e ca87 b3bb e727 ac3d
000001c0: 65c1 dfbc 5746 3fbc 4b04 c6bb 2123 333d
000001d0: fd48 9a3d 29a3 9c3d bc98 b73a bab8 963c
000001e0: 0fbf 85be 498c c3bc b514 ef3c d410 d63c
000001f0: eaf8 ab3d f926 a9bc 4677 abbd 0e44 8a3e
