discriminator_gan_ecv_lstm_es.pth (torch, 397284 bytes, 5 tensors)

model.0.weight f4 [256, 255]
-13.122575 0.3312593 -0.8089325 -0.67239606 -0.12762703 -0.0057369107 -0.087820426 -0.16633737
-0.2541043 -0.34061307 -0.41609332 -0.44471326 -0.40674233 -0.5095033 -0.45973116 -0.44811302
-0.40990478 -0.37859192 -0.3280669 -0.3851669 -0.37999937 -0.25600436 -0.23822866 -0.26091504
-0.240235 -0.19733907 -0.08690758 -0.055995032 -0.1152083 0.07033516 0.09113905 0.24797772
0.40946594 -0.4948165 -0.47433326 -0.4412491 -0.31983992 -0.392301 -0.3564197 -0.35841444
-0.17181556 -0.2946835 -0.22929466 -0.24209015 -0.2362929 -0.17848457 -0.21556284 -0.23854731
-0.20036693 -0.16203323 -0.22357553 -0.23167625 -0.10884335 -0.23319358 -0.0803102 -0.08998927
-0.16264091 -0.22826394 -0.13338947 -0.14768837 -0.24632253 -0.16179833 -0.13631499 -0.17022207
-0.29174808 -0.18398945 -0.19368026 -0.22164986 -0.3537162 -0.24857478 -0.16027659 -0.22634915
-0.1805005 -0.22782092 -0.20613623 -0.22898327 -0.20023812 -0.21269128 -0.32274583 -0.19925536
-0.24032944 -0.29585198 -0.24894859 -0.23987871 -0.20810387 -0.25687233 -0.28835696 -0.13872738
-0.26012897 -0.14138408 -0.18730873 -0.19438764 -0.1908455 -0.2231372 -0.21393074 -0.29929668
-0.19287251 -0.22023042 -0.21334215 -0.22586988 -0.16438332 -0.2686519 -0.22886123 -0.14143911
-0.24920136 -0.276269 -0.1591401 -0.2403677 -0.13475667 -0.17528667 -0.19378246 -0.18202509
-0.16086416 -0.27342954 -0.25428373 -0.17921533 -0.15454845 -0.20881669 -0.30289122 -0.2665657
-0.26824996 -0.27638552 -0.12434907 -0.28594008 -0.17402837 -0.286176 -0.23319003 -0.2218855
-0.2420095 -0.14251706 -0.2474017 -0.19434312 -0.1575003 -0.18856086 -0.17082624 -0.17392921
-0.15610738 -0.23971172 -0.26585737 -0.27469674 -0.2962358 -0.22192293 -0.26294643 -0.19453458
-0.22698049 -0.22836761 -0.24662083 -0.17484872 -0.19603063 -0.1589419 -0.25196832 -0.15084995
-0.21955085 -0.27719703 -0.23541257 -0.24069174 -0.22445704 -0.26098776 -0.2344767 -0.26550013
-0.32795116 -0.19686547 -0.29777113 -0.22383632 -0.25142604 -0.24462424 -0.24726635 -0.24377114
-0.3287849 -0.27345562 -0.22921805 -0.21929945 -0.22510804 -0.26848358 -0.17813508 -0.23688895
-0.17379816 -0.27625507 -0.27973574 -0.21540734 -0.29088107 -0.2258925 -0.30734852 -0.22322085
-0.2348016 -0.18531875 -0.2951697 -0.30788118 -0.25655714 -0.2909616 -0.24695507 -0.28247726
-0.21055487 -0.2511757 -0.20572783 -0.2731136 -0.20503 -0.08283869 -0.19107251 -0.2653285
-0.1952188 -0.2497446 -0.13924369 -0.22029613 -0.18912674 -0.23160963 -0.23481041 -0.18776077
-0.18134819 -0.26687905 -0.2431702 -0.18156669 -0.2778418 -0.14212315 -0.1573554 -0.174168
-0.27497798 -0.29612088 -0.2893145 -0.21465215 -0.25830793 -0.20499782 -0.30537584 -0.28859052
-0.21120504 -0.31967846 -0.20939101 -0.21653293 -0.20806633 -0.16629644 -0.33297274 -0.30542547
-0.16256183 -0.2009814 -0.23327862 -0.16961123 -0.27219284 -0.1572353 -0.191254 -0.29853153
-0.2665091 -0.218313 -0.23752715 -0.25069866 -0.23740807 -0.26384026 -0.32041323 -0.2514996
-0.27699053 -0.18226647 -0.2070558 -0.23507656 0.0487521 0.46238872 -0.04706816 0.32149854
00000000: 11f6 51c1 d29a a93e 3316 4fbf 2622 2cbf
00000010: a9b0 02be b2fc bbbb 32db b3bd 5854 2abe
00000020: f519 82be d664 aebe 2f0a d5be 75b1 e3be
00000030: 8840 d0be cf6e 02bf e261 ebbe 126f e5be
00000040: 0adf d1be cdd6 c1be 62f8 a7be 9934 c5be
00000050: 478f c2be 0113 83be 37f2 73be a896 85be
00000060: 2a00 76be 4113 4abe 9afc b1bd 0c5b 65bd
00000070: 54f2 ebbd e10b 903d 1ca7 ba3d dfed 7d3e
00000080: 85a5 d13e 9758 fdbe cfdb f2be 67eb e1be
00000090: 0fc2 a3be addb c8be a57c b6be 1982 b7be
000000a0: 6bf0 2fbe c1e0 96be 38cc 6abe 7be6 77be
000000b0: c4f6 71be a9c4 36be 81bc 5cbe bf45 74be
000000c0: fd2c 4dbe 0aec 25be fcf0 64be 8a3c 6dbe
000000d0: 43e9 debd 4cca 6ebe ad79 a4bd 4b4c b8bd
000000e0: 578b 26be 06be 69be 4097 08be 9f3b 17be
000000f0: f93b 7cbe 76ae 25be 2896 0bbe b24e 2ebe
00000100: 0160 95be bb67 3cbe 1e54 46be 2ef8 62be
00000110: 4a1a b5be 638a 7ebe 8c1f 24be 12c8 67be
00000120: 20d5 38be e349 69be 6015 53be 977a 6abe
00000130: 390b 4dbe becb 59be f13e a5be 9909 4cbe
00000140: ec18 76be e979 97be 61ec 7ebe c4a2 75be
00000150: 2e19 55be c584 83be 86a3 93be 8d0e 0ebe
00000160: a02f 85be fdc6 10be dccd 3fbe 8e0d 47be
00000170: 016d 43be 147e 64be a910 5bbe 6a3d 99be
00000180: 5f80 45be 1584 61be 5d76 5abe 6f4a 67be
00000190: 1a54 28be be8c 89be 995a 6abe 6ad5 10be
000001a0: a42e 7fbe 2173 8dbe 9ff5 22be f322 76be
000001b0: a7fd 09be 597e 33be e96e 46be c964 3abe
000001c0: 93b9 24be f5fe 8bbe 7a31 82be 3984 37be
000001d0: f341 1ebe 0bd4 55be 8f14 9bbe 4d7b 88be
000001e0: 0f58 89be 6782 8dbe baaa febd bd66 92be
000001f0: 7e34 32be a985 92be 5ec9 6ebe f435 63be
00000200: 57d1 77be feef 11be df56 7dbe e201 47be
00000210: c247 21be 1916 41be 13ed 2ebe 801a 32be
00000220: 9dda 1fbe fd76 75be 751e 88be 0da5 8cbe
00000230: 38ac 97be c43f 63be eaa0 86be 1334 47be
00000240: 936d 68be 33d9 69be 2c8a 7cbe 8b0b 33be
00000250: 41bc 48be aac1 22be fe01 81be 6978 1abe
00000260: f0d1 60be c5ec 8dbe fe0f 71be e577 76be
00000270: 11d8 65be 30a0 85be a91a 70be a2ef 87be
00000280: 37e9 a7be 1a97 49be 7575 98be 5935 65be
00000290: eaba 80be c77e 7abe 6433 7dbe 249f 79be
000002a0: 7f56 a8be 6002 8cbe 23b8 6abe 0990 60be
000002b0: b982 66be ae76 89be 0b69 36be 0493 72be
000002c0: 25f8 31be 4e71 8dbe 8639 8fbe be93 5cbe
000002d0: 5dee 94be 5d50 67be c95c 9dbe 0294 64be
000002e0: d56f 70be 33c4 3dbe 7c20 97be 9aa2 9dbe
000002f0: 755b 83be ebf8 94be cae1 7cbe dca0 90be
00000300: b29b 57be 1a9a 80be 51aa 52be 8cd5 8bbe
00000310: 62f3 51be 55a7 a9bd 83a8 43be 23d9 87be
00000320: 70e7 47be 0cbd 7fbe e695 0ebe 4f95 61be
00000330: 71aa 41be 132b 6dbe 2472 70be 5c44 40be
00000340: 57b3 39be 5fa4 88be 9c01 79be 9eec 39be
00000350: 4841 8ebe bb88 11be c621 21be 1959 32be
00000360: eac9 8cbe 289d 97be 0821 94be c6cd 5bbe
00000370: f040 84be f3ea 51be 395a 9cbe 23c2 93be
00000380: 2246 58be e5ac a3be 996a 56be cfba 5dbe
00000390: 570f 55be 9d49 2abe 677b aabe ba60 9cbe
000003a0: 9c76 26be 11ce 4dbe 97e0 6ebe 91ae 2dbe
000003b0: dc5c 8bbe 4a02 21be 17d8 43be 20d9 98be
000003c0: e173 88be 718d 5fbe 513a 73be 935b 80be
000003d0: 1a1b 73be 1216 87be 340d a4be 8ec4 80be
000003e0: b4d1 8dbe 10a4 3abe 7006 54be e9b7 70be
000003f0: 48b0 473d 37be ec3e 8bca 40bd 759b a43e

model.0.bias f4 [256]
0.022365049 0.3004277 0.1407416 0.0080229845 0.03807758 0.017641563 0.01875134 -0.030465715
0.012062118 0.024666855 -0.13361609 0.24770579 0.015479594 0.017999705 0.06574602 0.27740815
0.058354054 0.15408167 0.13356252 0.0132117085 0.2182867 -0.090672076 -0.13647068 0.3274626
0.012407715 0.25653124 0.054782055 -0.18147582 0.017707692 0.017637542 0.007440725 0.19286802
-0.067978635 0.02390256 0.030756937 0.060207073 0.011344642 -0.2471768 0.12461566 0.052681316
0.048234973 -0.2035764 0.029183727 -0.06596182 -0.10831802 -0.073515974 -0.160582 0.021904241
0.0020299845 -0.12080651 0.40325972 0.06177286 -0.16050446 0.13893498 0.028935907 0.016424853
-0.24838579 0.015176034 0.38891625 0.002178641 0.029493462 0.15259524 0.045807246 -0.14315479
0.023846263 0.026614552 0.024153233 0.033780098 -0.41734767 0.43270966 -0.014541679 0.057042073
0.001783699 -0.29316837 0.14691813 0.019069044 0.015662756 0.031109078 0.021837182 0.012396125
-0.005188842 0.1292573 0.018570244 0.011703901 -0.024361031 0.0052556456 -0.14230491 -0.027506063
0.17771403 -0.10117143 0.06551605 0.016891966 0.016523845 -0.044204272 -0.36821914 0.3003805
0.0111202635 0.006266905 -0.26624393 0.013883465 0.11468076 -0.090571456 -0.09882874 -0.1545708
-0.09549338 0.01906871 0.16912137 -0.0031759304 0.0027006445 0.014607423 0.04882134 0.014861887
0.09336301 0.29830512 0.019929633 -0.38673937 0.24556878 -0.06669947 0.011349955 0.048029963
0.02642581 0.0049520847 0.030905835 -0.29586464 0.26973626 0.33852667 -0.05658406 0.021746585
0.094377086 -0.17425336 0.067901984 0.038409945 0.25964552 0.016826272 0.0034833243 0.023817044
0.28751686 -0.0026361737 0.020752547 0.018036578 0.117829695 0.009245434 -0.20855126 -0.10073708
0.018301614 -0.018190699 0.23221724 0.03055592 -0.23172806 0.09195699 0.006497566 -0.09541507
-0.24167873 0.0022334426 0.0765103 0.035264596 0.007320216 0.24341509 -0.013640039 -0.029268568
-0.021635178 -0.043337233 0.017295793 -0.0004727175 0.0232351 0.11116786 0.29110077 0.09701846
0.029262586 0.0030674126 0.026578676 0.1637926 0.06864826 -0.19765495 -0.10012739 0.042889863
-0.16008237 0.021139013 0.020974372 0.15195566 0.026748741 0.024302045 0.18296432 0.2742028
0.047979835 0.14118715 0.0317148 0.24883471 0.039945602 -0.13410589 -0.20185997 0.026555018
0.19078769 0.023288066 -0.08286541 0.012996963 -0.20561963 0.18736109 0.011199852 0.014444102
0.12174925 0.09222235 0.13353299 0.017848922 0.3761293 0.0143756345 -0.04037217 -0.033058956
0.04820362 -0.38319442 -0.04683626 0.2331473 -0.112844095 0.40829033 0.004240368 -0.16437012
0.1792644 0.02801231 0.039581697 -0.021741187 0.008287436 -0.00286912 -0.0984377 -0.13867697
-0.096629046 0.039028212 0.040558908 -0.6839172 -0.3605843 0.017622521 0.041782226 -0.047804303
0.20977613 0.009312357 -0.19360574 0.13382508 -0.1266169 -0.0117889615 0.035921752 0.40193644
0.24704044 0.01743335 -0.09140941 0.026554767 0.059804752 0.01580537 0.008949922 0.0073361616
0.16392292 0.020933736 0.035412394 0.17537494 0.3374017 0.35654184 0.016170992 0.0076922267
00000000: e836 b73c a9d1 993e 911e 103e d672 033c
00000010: 3df7 1b3d 0a85 903c 699c 993c 3c93 f9bc
00000020: 31a0 453c 2512 ca3c a8d2 08be 96a6 7d3e
00000030: 1f9e 7d3c 1e74 933c d9a5 863d 7108 8e3e
00000040: a904 6f3d 96c7 1d3e 9dc4 083e ec75 583c
00000050: 8c86 5f3e 48b2 b9bd f8be 0bbe 2ea9 a73e
00000060: bb49 4b3c 1058 833e 2663 603d ccd4 39be
00000070: b90f 913c 9b7c 903c 53d1 f33b 327f 453e
00000080: 6238 8bbd 4dcf c33c f9f5 fb3c b19b 763d
00000090: e1de 393c ea1b 7dbe 7f36 ff3d 5dc8 573d
000000a0: 0992 453d 5576 50be b612 ef3c fe16 87bd
000000b0: d7d5 ddbd 8b8f 96bd 9c6f 24be 8670 b33c
000000c0: 7d09 053b 6769 f7bd 0f78 ce3e 8a05 7d3d
000000d0: 485b 24be f944 0e3e ff0a ed3c 6a8d 863c
000000e0: d858 7ebe e6a4 783c 0820 c73e 88c7 0e3b
000000f0: 469c f13c ed41 1c3e 61a0 3b3d 2b97 12be
00000100: 3d59 c33c c306 da3c 00dd c53c 005d 0a3d
00000110: 98ae d5be 1f8c dd3e 3940 6ebc f3a4 693d
00000120: 02cb e93a 2a1a 96be b571 163e af36 9c3c
00000130: 2e4f 803c 77d8 fe3c e4e3 b23c 1e19 4b3c
00000140: 2907 aabb 075c 043e a020 983c b8c1 3f3c
00000150: c990 c7bc 8d37 ac3b 61b8 11be 6554 e1bc
00000160: abfa 353e f732 cfbd 472d 863d 0561 8a3c
00000170: 045d 873c 8a0f 35bd 3887 bcbe 79cb 993e
00000180: c431 363c 9c5a cd3b 2051 88be 7977 633c
00000190: bfdd ea3d 877d b9bd b966 cabd cf47 1ebe
000001a0: 0992 c3bd fc35 9c3c 272e 2d3e 4523 50bb
000001b0: 4cfd 303b f953 6f3c e3f8 473d 467f 733c
000001c0: 1b35 bf3d 73bb 983e 7843 a33c b402 c6be
000001d0: 6276 7b3e bb99 88bd 29f5 393c 11bb 443d
000001e0: f17a d83c 1945 a23b 3c2e fd3c 927b 97be
000001f0: df1a 8a3e 5e53 ad3e b0c4 67bd e525 b23c
00000200: c648 c13d 796f 32be 3210 8b3d bf53 1d3d
00000210: 42f0 843e 40d7 893c 7c48 643b f61b c33c
00000220: 6935 933e a8c3 2cbb 3f01 aa3c 72c1 933c
00000230: b250 f13d 297a 173c 768e 55be 3e4f cebd
00000240: 44ed 953c a904 95bc 5bca 6d3e 6950 fa3c
00000250: 1f4a 6dbe f253 bc3d 89e9 d43b fa68 c3bd
00000260: a17a 77be f35e 123b 6fb1 9c3d 9c71 103d
00000270: 6cde ef3b ce41 793e 787a 5fbc a3c4 efbc
00000280: 423c b1bc 6282 31bd e8af 8d3c 12d7 f7b9
00000290: 8957 be3c faab e33d 290b 953e 9db1 c63d
000002a0: 17b8 ef3c a506 493b 86bb d93c 3fb9 273e
000002b0: 7597 8c3d 0f66 4abe 970f cdbd 48ad 2f3d
000002c0: a2ec 23be b92b ad3c 72d2 ab3c 449a 1b3e
000002d0: 2d20 db3c 1515 c73c 005b 3b3e 4f64 8c3e
000002e0: 8186 443d 5d93 103e 61e7 013d 87ce 7e3e
000002f0: 009e 233d 0e53 09be 61b4 4ebe e989 d93c
00000300: d95d 433e 9dc6 be3c 57b5 a9bd 37f1 543c
00000310: f48d 52be 96db 3f3e 967f 373c f4a6 6c3c
00000320: ac57 f93d 12df bc3d dfbc 083e e737 923c
00000330: 0594 c03e c887 6b3c 4a5d 25bd d468 07bd
00000340: 2971 453d 0f32 c4be 61d7 3fbd 2abe 6e3e
00000350: ce1a e7bd 6e0b d13e c9f2 8a3b a450 28be
00000360: 1691 373e 127a e53c 6b20 223d 931a b2bc
00000370: 07c8 073c d907 3cbb b499 c9bd 5601 0ebe
00000380: 73e5 c5bd 0cdc 1f3d 1921 263d 3315 2fbf
00000390: 819e b8be 1b5d 903c d723 2b3d 72ce 43bd
000003a0: 8ecf 563e db92 183c 9540 46be 7109 093e
000003b0: dca7 01be 7d26 41bc b022 133d 9dca cd3e
000003c0: 2bf8 7c3e 63d0 8e3c db34 bbbd 6289 d93c
000003d0: d4f5 743d 437a 813c b2a2 123c 2f64 f03b
000003e0: 69db 273e 3a7d ab3c 960c 113d 7d95 333e
000003f0: eabf ac3e a78c b63e 0779 843c 130f fc3b

model.2.weight f4 [128, 256]
-0.10548584 -0.46789595 -0.25325647 -0.13376991 -0.26905692 -0.003049251 -0.046378307 -0.03962862
-0.031882912 -0.055323746 -0.026628794 0.44028854 -0.10065679 -0.088285625 -0.04907792 -0.5897669
-0.35754418 0.6209629 0.56875855 -0.23096924 -0.70939595 -0.033122774 -0.22976719 -0.73114264
-0.0034321602 0.40492034 -0.81115854 0.2363636 -0.08744382 -0.012836801 -0.14121574 0.46573272
-0.21946818 -0.028501466 0.5764328 -0.12615147 -0.0997426 -0.14416641 -0.7380116 -0.5824044
-0.05768043 -0.075017445 -0.049992934 -0.121320836 -0.022784319 -0.032889456 0.14784859 -0.75620466
-0.109113805 0.32583198 -0.57436454 -0.080779 -0.57412475 -0.15345442 -0.01849095 -0.026312767
0.2233357 -0.10236684 -0.33628005 -0.5946596 -0.01627001 0.47481787 -0.079122305 -0.1460644
-0.1096784 -0.06294503 -0.10084654 -0.08474 -0.12026622 -0.082888946 -0.20420639 -0.039272174
1.806246 -0.30762237 0.4508989 -0.06412158 -0.02404451 -0.082795955 -0.07134348 -0.08894333
-0.009271463 0.50339663 -0.007584291 0.011020846 -0.05673304 -0.5605517 0.17774026 -0.015264194
0.7066096 -0.16161746 0.05117707 -0.15029031 -0.0051027103 -0.18593782 -0.10888395 -0.71664125
-0.019336294 -0.02768429 -0.6963369 0.5936532 -0.40526378 -0.0076536927 -0.16212654 0.046403363
0.09664165 -0.051793993 -0.21803242 -0.014132683 -0.016912164 -0.0405345 -0.22628093 -0.009991957
-0.0072910157 -0.6250603 0.029062003 0.080641955 -0.43616644 -0.020222403 0.0047261477 -0.10744558
-0.10740943 -0.064178795 0.44241375 -0.24372678 -0.561011 -0.7388283 -1.6736065 -0.056734204
-0.06771339 0.34402028 -0.69935226 -0.01924616 -0.21393372 -0.04909608 -0.045215167 -0.07357684
-0.19350888 -0.017575694 -0.06846566 -0.12328467 -0.108159624 -0.0605009 0.14856312 -1.5399258
-0.0865001 -0.17611139 -0.26118279 -0.35619867 -0.1428563 -0.31529206 -0.050012935 -0.106813975
-0.19954349 -0.19866194 -0.4898477 0.18221824 -0.14864413 -0.0070326175 -0.095776364 -0.21189696
-0.18690665 0.65500253 -0.011546044 0.4426808 -0.003935069 -1.8451835 -0.29145887 -0.062033538
-0.056046307 -0.002211889 -0.0609419 0.45915842 -0.1188118 -0.15396087 -0.058867123 -0.04461089
-0.00068443763 0.9664409 -0.032770675 0.29516086 -0.08855459 -0.037924312 0.4805442 -0.48780298
-0.08816489 -0.14990716 -0.04291174 0.17792061 -0.06772224 -0.26797852 0.0647517 -0.081781656
-0.6620377 -0.1467665 -0.34612498 0.004567731 0.5207046 -0.57590175 -0.24634026 -0.064830005
0.33595946 0.44769248 -0.20853706 -0.0044951136 -0.8384635 -0.068709105 -0.13880917 -0.33594692
-0.07717011 -0.22585367 0.18507302 0.47469947 -0.0656994 -0.573449 -0.67143726 -0.07250105
-0.5329127 -0.104385704 0.3792606 -0.32030082 -0.09734174 -0.06052353 0.13489577 -0.008792778
0.9455959 -0.1086971 -0.09327745 -0.45136058 0.1650979 -0.060891803 -0.53124684 0.3861685
0.07192226 -0.019800635 0.44788048 0.6344278 -0.6298291 -0.048937306 -0.079761066 -0.52416825
0.36010092 -0.06164928 0.5045303 -0.052722353 -0.6178765 -0.06207594 -0.015937788 -0.09036265
0.6501124 -0.012455074 -0.08774148 -0.28281942 -1.0261674 -0.051530156 -0.107037336 -0.087783635
00000000: f608 d8bd 0f90 efbe d5aa 81be fbfa 08be
00000010: d4c1 89be f1d5 47bb 2ef7 3dbd 9f51 22bd
00000020: a897 02bd 279b 62bd a124 dabc 806d e13e
00000030: 2625 cebd 18cf b4bd ee05 49bd f7fa 16bf
00000040: 0810 b7be 6df7 1e3f 299a 113f 3383 6cbe
00000050: f99a 35bf bfab 07bd 1748 6bbe 2a2c 3bbf
00000060: 18ee 60bb b851 cf3e 16a8 4fbf 4d09 723e
00000070: bf15 b3bd 7251 52bc dc9a 10be 8574 ee3e
00000080: 44bc 60be e87b e9bc 1a91 133f da2d 01be
00000090: d945 ccbd 5ca0 13be 54ee 3cbf 7418 15bf
000000a0: 5142 6cbd bfa2 99bd 64c5 4cbd 0f77 f8bd
000000b0: 2ea6 babc 18b7 06bd 9f65 173e a196 41bf
000000c0: 0f77 dfbd 73d3 a63e 8e09 13bf 766f a5bd
000000d0: d7f9 12bf 2823 1dbe 557a 97bc df8d d7bc
000000e0: 1db2 643e b5a5 d1bd e62c acbe 9d3b 18bf
000000f0: af48 85bc 541b f33e e00a a2bd e891 15be
00000100: 129f e0bd 53e9 80bd a188 cebd 2a8c adbd
00000110: 234e f6bd aec1 a9bd 7b1b 51be dcdb 20bd
00000120: 1233 e73f ae80 9dbe 38dc e63e 2d52 83bd
00000130: fef8 c4bc ed90 a9bd 881c 92bd ec27 b6bd
00000140: 56e7 17bc 9ade 003f a585 f8bb c790 343c
00000150: e760 68bd 5180 0fbf 8b01 363e ac16 7abc
00000160: 5ee4 343f 0c7f 25be 0c9f 513d b4e5 19be
00000170: a334 a7bb 7c66 3ebe 8cfe debd cd75 37bf
00000180: 2667 9ebc 2aca e2bc 2343 32bf a8f9 173f
00000190: bc7e cfbe d4cb fabb 8004 26be 7411 3e3d
000001a0: 0fec c53d f025 54bd e443 5fbe c58c 67bc
000001b0: 618b 8abc 8107 26bd 30b6 67be 4eb5 23bc
000001c0: 79e9 eebb f403 20bf 7013 ee3c 9c27 a53d
000001d0: 3551 dfbe 74a9 a5bc cddd 9a3b 6e0c dcbd
000001e0: 7af9 dbbd 2c70 83bd 0e84 e23e 8393 79be
000001f0: 6b9e 0fbf da23 3dbf bd38 d6bf 2062 68bd
00000200: 51ad 8abd 6d23 b03e c008 33bf 1faa 9dbc
00000210: 7111 5bbe f918 49bd 8a33 39bd 74af 96bd
00000220: 3127 46be e7fa 8fbc b937 8cbd ac7c fcbd
00000230: cb82 ddbd cbcf 77bd ee20 183e 4a1c c5bf
00000240: f726 b1bd 8b56 34be c0b9 85be ac5f b6be
00000250: ec48 12be f66d a1be 5dda 4cbd 49c1 dabd
00000260: 2155 4cbe 096e 4bbe 51cd fabe 6b97 3a3e
00000270: 2b36 18be df71 e6bb 6626 c4bd 84fb 58be
00000280: 7564 3fbe 3fae 273f 9e2b 3dbc 0fa7 e23e
00000290: c0f1 80bb f92e ecbf 193a 95be e116 7ebd
000002a0: d090 65bd 57f5 10bb 379e 79bd d016 eb3e
000002b0: 9a53 f3bd eba7 1dbe a71e 71bd e9b9 36bd
000002c0: d56b 33ba ac68 773f 8b3a 06bd 531f 973e
000002d0: 1c5c b5bd 8656 1bbd e409 f63e 50c1 f9be
000002e0: cb8f b4bd 4381 19be 38c4 2fbd d230 363e
000002f0: f5b1 8abd 7b34 89be 8a9c 843d 247d a7bd
00000300: 4d7b 29bf f549 16be 4b37 b1be e8ac 953b
00000310: e64c 053f 4c6e 13bf 9f40 7cbe 98c5 84bd
00000320: e102 ac3e f337 e53e bd8a 55be bf4b 93bb
00000330: 8ba5 56bf 5cb7 8cbd fe23 0ebe 3c01 acbe
00000340: 5d0b 9ebd 2f46 67be c883 3d3e cf0b f33e
00000350: 688d 86bd 8ecd 12bf 50e3 2bbf 6e7b 94bd
00000360: f76c 08bf 2cc8 d5bd 722e c23e 78fe a3be
00000370: 1b5b c7bd 85e7 77bd 1e22 0a3e 950f 10bc
00000380: 9312 723f 969c debd 3f08 bfbd bc18 e7be
00000390: 6d0f 293e af69 79bd cbff 07bf e1b7 c53e
000003a0: fa4b 933d f134 a2bc 9750 e53e dc69 223f
000003b0: 7b3c 21bf 7c72 48bd c559 a3bd e42f 06bf
000003c0: 265f b83e f583 7cbd e628 013f 65f3 57bd
000003d0: 282d 1ebf 5743 7ebd f78f 82bc 0e10 b9bd
000003e0: c46d 263f 5e10 4cbc ceb1 b3bd b5cd 90be
000003f0: 7459 83bf 4911 53bd 6436 dbbd e8c7 b3bd

model.2.bias f4 [128]
-0.091603905 -0.04430397 -0.00785097 -0.031664614 -0.009008425 0.35006088 -0.04689394 -0.04979732
-0.04535692 0.005138096 -0.006696414 0.15052551 -0.04888193 -0.04691088 -0.01922413 -0.07925217
-0.20983817 0.13813461 -0.059864275 0.30329496 -0.038282666 0.17273818 0.4954245 0.26661795
-0.06384804 -0.42578414 -0.008057656 -0.072933175 -0.009022326 -0.021102855 -0.09195059 -0.05065805
-0.054281868 -0.033551022 0.020003602 -0.18170647 -0.0004875987 -0.027873851 0.1285383 -0.015728941
0.16341981 0.08149895 0.16600809 0.05941739 0.21449296 -0.04334975 -0.057421185 -0.3433512
-0.17643924 -0.026571896 -0.023617603 0.065578364 -0.021130556 -0.017926587 0.3764848 0.11462132
0.2556866 -0.17733301 0.091127045 -0.3219477 0.046177827 0.0018572847 -0.04348605 -0.12624867
0.74102515 0.21213268 -0.05199059 -0.05235317 -0.047122777 -0.06245498 0.110664956 -0.062324572
0.018533211 0.29178172 -0.040844884 -0.2479328 -0.03494639 -0.08040692 -0.11239779 -0.047272127
-0.01220669 -0.08016401 -0.11375894 -0.1427157 -0.046662893 -0.02253509 -0.05890634 0.064194255
-0.103819 -0.08933865 -0.05291353 0.14839639 -0.029377447 0.18331225 -0.07345196 -0.092917934
-0.045001972 -0.12006952 -0.057469413 -0.051830888 -0.027479703 0.010923183 -0.016324393 -0.048319217
0.25065246 0.2964121 -0.023845538 -0.0040965215 0.09702717 -0.034250267 -0.026400361 -0.030515125
0.07492638 -0.07895428 0.16511112 -0.28689522 -0.023832725 -0.017262263 0.008491368 -0.022216538
-0.06817841 -0.061819483 -0.02591851 0.6373805 0.076848395 -0.19311444 -0.013437681 0.14801532
00000000: d49a bbbd 1478 35bd 5ba1 00bc c1b2 01bd
00000010: 1398 13bc 2e3b b33e dc13 40bd 46f8 4bbd
00000020: 2ec8 39bd 795d a83b 986d dbbb 5c23 1a3e
00000030: 6b38 48bd 9f25 40bd ec7b 9dbc f64e a2bd
00000040: d1df 56be 2973 0d3e 3e34 75bd 7a49 9b3e
00000050: 49ce 1cbd 47e2 303e 48a8 fd3e 2682 883e
00000060: c3c2 82bd 6100 dabe 4204 04bc fd5d 95bd
00000070: 61d2 13bc e5df acbc 9750 bcbd d17e 4fbd
00000080: aa56 5ebd cc6c 09bd 98de a33c 4311 3abe
00000090: 64a4 ffb9 b457 e4bc 8b9f 033e fbd9 80bc
000000a0: 8657 273e ece8 a63d 06fe 293e a65f 733d
000000b0: 0ba4 5b3e 828f 31bd 7a32 6bbd bacb afbe
000000c0: 7dac 34be 4ead d9bc b479 c1bc f34d 863d
000000d0: fd19 adbc c7da 92bc 9ec2 c03e 95be ea3d
000000e0: 5be9 823e c996 35be d1a0 ba3d 54d6 a4be
000000f0: f624 3d3d 2270 f33a 6e1e 32bd 5547 01be
00000100: d3b3 3d3f 4f39 593e 16f4 54bd 4770 56bd
00000110: d003 41bd cbd0 7fbd 4fa4 e23d 0d48 7fbd
00000120: f6d2 973c 6a64 953e f74c 27bd 19e2 7dbe
00000130: f223 0fbd 62ac a4bd d030 e6bd 6ba0 41bd
00000140: 92fe 47bc 072d a4bd 72fa e8bd 1124 12be
00000150: 9721 3fbd 829b b8bc c647 71bd 4778 833d
00000160: 0e9f d4bd 2ff7 b6bd dcbb 58bd 39f5 173e
00000170: f9a8 f0bc 35b6 3b3e fb6d 96bd c24b bebd
00000180: fd53 38bd 02e7 f5bd 0c65 6bbd a04c 54bd
00000190: 1d1d e1bc 26f7 323c bcba 85bc 5fea 45bd
000001a0: 8555 803e 54c3 973e b857 c3bc 1d3c 86bb
000001b0: 2eb6 c63d 024a 0cbd 9245 d8bc dbfa f9bc
000001c0: 0073 993d c8b2 a1bd e412 293e eee3 92be
000001d0: d93c c3bc 9769 8dbc 611f 0b3c 75ff b5bc
000001e0: 1fa1 8bbd 6d36 7dbd 0e53 d4bc 5e2b 233f
000001f0: b162 9d3d cbbf 45be b829 5cbc 5491 173e

model.4.weight f4 [1, 128]
-0.25376108 -0.32955724 0.35939485 -0.33641285 -0.29378843 -0.30744904 -0.30247483 0.37263325
0.34678146 -0.28412008 -0.29607448 0.46969658 -0.33815393 0.40095603 -0.26560095 0.3098122
-0.0017398386 -0.2669304 -0.35912687 -1.1112074 -0.30100003 -0.04074026 -0.5393761 -0.37781364
0.42041242 0.026714092 -0.2961197 0.39494795 -0.32972634 -0.29837123 0.037276298 0.28973082
0.36657926 -0.33310622 -0.15569419 0.0014376125 -0.3396399 0.37962502 0.4125902 -0.35398957
0.5241571 0.41907033 0.45973006 -0.1450037 0.744095 0.33969375 -0.3253197 0.047520272
-0.2406224 0.35037246 -0.3625521 0.39075652 -0.33789787 0.008795153 -0.53238857 -0.28396606
-1.0002805 -0.00054682535 -0.29498127 0.005386086 -0.08394931 0.39632428 -0.32674596 0.002531166
-0.1420085 -0.075347394 -0.3314794 -0.3411154 -0.11883306 -0.32812867 -0.22843641 -0.35130137
0.02285097 -1.0019284 -0.3528889 0.0014493122 -0.3388101 0.35577166 -0.22275771 -0.29341263
-0.3410626 0.4201331 -0.20699103 -0.2648461 -0.3206751 -0.34995595 0.34041867 -0.19877714
-0.39537504 0.38427868 0.38885835 -0.22396208 -0.3025858 -0.43614137 0.35138664 -0.013246688
0.35326403 0.07293205 -0.2902483 -0.33078766 -0.32989785 -0.29445046 -0.31751823 0.38260308
0.60844684 -0.337011 -0.29467812 -0.31206587 0.34129167 0.37799644 0.14514506 -0.32035378
0.10269443 0.37809604 0.4191241 0.0067034336 -0.32077858 -0.3020544 -0.34927157 -0.31587145
0.3706047 0.3023654 -0.31945583 0.46377844 0.57507855 -0.0053244364 -0.32861298 -0.34798342
00000000: f9ec 81be babb a8be 9a02 b83e 4e3e acbe
00000010: 706b 96be f669 9dbe fbdd 9abe c9c9 be3e
00000020: 578d b13e 3078 91be 1397 97be 127c f03e
00000030: 8322 adbe 1c4a cd3e d9fc 87be b49f 9e3e
00000040: 4c0b e4ba 1aab 88be 7adf b7be 0b3c 8ebf
00000050: ad1c 9abe 42df 26bd 8d14 0abf ca70 c1be
00000060: 4c40 d73e 83d7 da3c 009d 97be 9e36 ca3e
00000070: e4d1 a8be 1dc4 98be 08af 183d 9957 943e
00000080: 47b0 bb3e e68c aabe 4c6e 1fbe 456e bc3a
00000090: 48e5 adbe 365e c23e 063f d33e 1f3e b5be
000000a0: 292f 063f 6390 d63e bd61 eb3e da7b 14be
000000b0: 037d 3e3f 57ec ad3e 4e90 a6be 9ea4 423d
000000c0: b865 76be 0564 b33e 6ea0 b9be 3d11 c83e
000000d0: f300 adbe 8c19 103c 9e4a 08bf 0064 91be
000000e0: 3109 80bf d458 0fba c907 97be c47d b03b
000000f0: 9eed abbd 04eb ca3e 3f4b a7be ebe1 253b
00000100: ad6a 11be bc4f 9abd abb7 a9be ada6 aebe
00000110: bf5e f3bd 7b00 a8be 3ceb 69be c6dd b3be
00000120: f531 bb3c 313f 80bf dbad b4be d9f6 bd3a
00000130: 8478 adbe b427 b63e 991a 64be 2e3a 96be
00000140: c29f aebe b01b d73e 75f5 53be e899 87be
00000150: 872f a4be 6d2d b3be 5b4b ae3e 3c8c 4bbe
00000160: 996e cabe 2dc0 c43e 7118 c73e 5156 65be
00000170: 87ec 9abe ec4d dfbe f3e8 b33e a308 59bc
00000180: 06df b43e 665d 953d 6d9b 94be 005d a9be
00000190: 5fe8 a8be 36c2 96be c091 a2be 8de4 c33e
000001a0: 2cc3 1b3f b58c acbe 0de0 96be 19c7 9fbe
000001b0: c8bd ae3e c088 c13e e8a0 143e 6905 a4be
000001c0: 7551 d23d ce95 c13e 6f97 d63e 7aa8 db3b
000001d0: 173d a4be e0a6 9abe b9d3 b2be e7b9 a1be
000001e0: e6bf bd3e a3cf 9a3e b78f a3be 5e74 ed3e
000001f0: 5938 133f 9c78 aebb f63f a8be e22a b2be
