discriminator_gan_br_base.pth (torch, 240572 bytes, 5 tensors)

model.0.weight f4 [256, 102]
00000000: 70f6 d9bf f110 78c0 8a63 c03f ef88 a13c
00000010: fbaf 84c0 f929 0940 5003 72be cc81 b4bf
00000020: 9f90 00c0 f7ec 68bd 7f52 1d40 dbdf b1bd
00000030: bcde 82be 73ed 36bf cd42 d0bf 9ca8 85bf
00000040: cc31 d83e 2a70 383f 9c8a b03e 894e dabf
00000050: c8b5 8c3e 1b62 61bf a62b bebf 1c06 2cbf
00000060: adbe 1540 6126 e83e eea0 adbe a240 c73e
00000070: 1d76 4f3f cb91 79bf 467d e03e e3a9 87bf
00000080: e617 393f 82f0 d83f 1569 fe3f 006e 0bbf
00000090: 9807 0840 5f2a 043f 5037 e1be b1e2 68bf
000000a0: 5bd4 a3bf cb2e 2c3e c555 ffbf a39a 5ebf
000000b0: 792c 473f 4d05 0a3e a2c2 00bf 73ef 28bf
000000c0: d5b3 bdbd ebba dabf d900 34c0 d365 c7bf
000000d0: f071 333c 9b19 26be c5e1 02bf ece9 f73d
000000e0: 2a06 253b e9bd 66bf 0e60 483f 2c8c 1d3e
000000f0: be5a 1dbf eba9 f73f 2d18 80bf a0cb 173f
00000100: cffd 5dbe 3b5b 8a3e 77c7 c43e 9fb9 953f
00000110: 2faf 47bf 3328 e33f 6516 2bbf 01e8 23bd
00000120: 7f1a 163e c45f 913e 9f2d b1bf 8d35 c53f
00000130: 6b3d 80bf 1fd4 10be 8642 973f 455d dd3f
00000140: 8842 6a3f 9253 9d3e 1884 30bf fa97 c63e
00000150: 9e68 533f 80b5 b83e 1dfc 59bf 994f 283f
00000160: d9a8 c6be f40c 73bf 4d1f 36be a0ee 1d3f
00000170: 296c 583e ea16 28bf e0e6 b33f b44c a63f
00000180: b791 a3be aa2c 003e fd93 c33f 6426 82be
00000190: f3b3 febe 2b2c 32bc 4312 efc0 668f 48c0
000001a0: 494b 873e 6513 6540 725a 0a41 6d33 e73f
000001b0: 0c3a 8140 459b 8f3f fb80 19c0 cb7f 8c3c
000001c0: f9f3 d9bf e26b d13f 6319 bbbf 19a4 6ebe
000001d0: bcb4 c13f 98f7 9a3f c4f2 823f f09b 923f
000001e0: 24a8 79c0 c4ea d43e ba57 c23f bfea 9a3c
000001f0: b241 34c0 4355 3a3f 008a 833d c999 e1bf
00000200: c8f5 c93e eed5 cf3f c0f9 18bf 638b a8bf
00000210: fcb9 003f 7fcc f6be 84ce be3e 748b 0a3f
00000220: 3e49 0abf ffd0 99be 749e a6bf 3448 8e3f
00000230: 1a6a 90bf 2c45 b73d 80e1 d53e 32a2 9bbe
00000240: 05fc 8d3f bf62 48bf 9e6d 9c3f 6efd 953e
00000250: 65c8 bb3d caf4 943f a0e8 15c0 fa26 18bf
00000260: 21c9 5bbe 6279 e5bd 0854 1c3e 2528 23bf
00000270: 7dc0 82bf eb36 e93e 38c7 f33f 6f15 1e3f
00000280: 0ab7 f3bf 107f 103f a32e 273f 1a82 6e3e
00000290: e248 013f c588 cf3e a816 88bf 190e 093e
000002a0: db7d 1e3e 96a7 123f ff30 bebe 91b8 04bf
000002b0: eaf5 ab3f cb52 72bd 7f90 ce3d c904 c3be
000002c0: 0240 843e 9411 0340 267d a0be f2c3 c5be
000002d0: fadd ecbf f81b ba3e 37a5 aabf cd33 3cbf
000002e0: ce27 0ebf 7170 403f 5445 ae3e 69a8 ee3d
000002f0: 8188 ba3f 7b62 27bf 4d9e ab3e 337f 803e
00000300: a56b 5b3f 8269 323c 3a1a 7b3f 06ff 08bf
00000310: b61f 103b 0329 56bf c854 913d 7886 08be
00000320: 2192 833f 33b0 8bbf dd7d c03e 5a89 e6bb
00000330: 2ed5 95bf afa4 cdc0 6de7 a0bf ee9f 473f
00000340: f536 c1bf 4cc8 19c0 7ec1 fa3f 27c2 58bf
00000350: 38c2 8fbf 7cdd a040 f011 cc3f a1da 26c0
00000360: 5f65 1ac0 1844 d3be dcdb 0d40 0e68 fbbf
00000370: bff6 9f3e 05b1 f2bf ad2a 6c3f 18d7 b7bf
00000380: b9e9 b8bf 47ab e4be 297f af3e abe7 763f
00000390: e58a b53e 189f bcbf 33a8 ea3b 0439 1fc0
000003a0: 1de4 943c d898 9d3d 613a 893f 2ec7 fe3f
000003b0: d376 30c0 6328 5e3f 1811 d63f dab4 1ebf
000003c0: 5ef1 28bf 4701 9a3f 6d8d df3e 7b43 5abf
000003d0: 3ae6 693f beec c53f ebac 5ebd 1398 1a3f
000003e0: 2958 193f 127d bfbf 7687 d3bf 0403 3dbf
000003f0: 72c8 fb3d 0a1c 4b3e 66fa f0bd 4736 13c0
-1.7028332 -3.876034 1.5030377 0.019718615 -4.146482 2.1431868 -0.23634076 -1.4102111
-2.008827 -0.056866612 2.4581602 -0.08685275 -0.25560558 -0.7145607 -1.6270386 -1.044208
0.42225492 0.7204615 0.3448075 -1.7055217 0.27482438 -0.8804032 -1.485707 -0.6719682
2.339763 0.4534178 -0.33911842 0.38916498 0.810396 -0.9748809 0.43845576 -1.059872
0.7230209 1.6948397 1.9875818 -0.5446472 2.1254635 0.51627153 -0.43987513 -0.90970904
-1.2799181 0.16814725 -1.994805 -0.86954707 0.77802235 0.13478585 -0.50296986 -0.6599037
-0.09262816 -1.7088293 -2.8125517 -1.5577949 0.010952458 -0.16220705 -0.51125747 0.12105164
0.0025180676 -0.9013353 0.7827157 0.15385503 -0.61466587 1.934873 -1.0007378 0.5929508
-0.21678852 0.27022728 0.3843343 1.1697272 -0.78001684 1.7746643 -0.66831046 -0.040016178
0.14658545 0.28393376 -1.3842047 1.5406967 -1.0018743 -0.14143418 1.1817176 1.7294089
0.9150777 0.30727822 -0.6895156 0.38787824 0.8258151 0.36075974 -0.8515032 0.65746456
-0.38800696 -0.9494164 -0.17785378 0.6169224 0.2113501 -0.65659964 1.4054832 1.2992158
-0.3194711 0.12517038 1.5279537 -0.25419915 -0.49746665 -0.010874788 -7.470979 -3.1337523
0.26424626 3.5793087 8.647081 1.8062569 4.038336 1.121926 -2.3984973 0.01715078
-1.702758 1.6361048 -1.4617122 -0.23304786 1.5133281 1.210681 1.0230336 1.1453838
-3.9008875 0.41585362 1.5183022 0.018910764 -2.8165097 0.7278635 0.06422806 -1.7625057
0.3944533 1.6237161 -0.5975609 -1.3167537 0.5028379 -0.48202893 0.37266934 0.5411904
-0.5401801 -0.30042264 -1.3017106 1.1115785 -1.128238 0.0894874 0.41773605 -0.30397183
1.1092535 -0.78275675 1.2220953 0.29294914 0.091690816 1.1637204 -2.3423233 -0.59434474
-0.21463443 -0.112047926 0.1526643 -0.6373313 -1.0214993 0.45549712 1.9045172 0.61751455
-1.9040234 0.5644388 0.65305537 0.23291817 0.50501835 0.40534034 -1.0631914 0.13384284
0.15477698 0.57286966 -0.37146756 -0.51844126 1.3434422 -0.05916099 0.10086154 -0.38089588
0.25830084 2.047948 -0.3134548 -0.38626057 -1.8505242 0.36349463 -1.333167 -0.7351654
-0.5552949 0.7517157 0.34037268 0.116532154 1.4572908 -0.65384644 0.3351921 0.25097045
0.8571113 0.010889413 0.98086894 -0.53514135 0.0021991557 -0.8365633 0.07096249 -0.13332546
1.027897 -1.0913147 0.37596026 -0.0070354166 -1.1705682 -6.426353 -1.2570626 0.7797841
-1.5094897 -2.4028502 1.9590299 -0.8467125 -1.1231146 5.0270367 1.5942974 -2.607094
-2.4124372 -0.4126289 2.2165442 -1.964113 0.3124294 -1.8960272 0.9225262 -1.4362516
-1.4446326 -0.44661924 0.34276703 0.9644725 0.3545753 -1.4736052 0.007161164 -2.487855
0.01817518 0.07695168 1.0720941 1.9904535 -2.7572525 0.86780375 1.6723967 -0.6199471
-0.659933 1.203164 0.43662587 -0.8525922 0.9136692 1.5462873 -0.054364126 0.60388297
0.59900147 -1.4960043 -1.6525714 -0.73832726 0.12294091 0.19834915 -0.1176651 -2.3001878

model.0.bias f4 [256]
00000000: 5fc4 98be b458 373f 941f babe 4755 0c3e
00000010: 3ce9 843e 2dd3 4d3b a2e6 493f 3226 6f3f
00000020: df94 01bf a0cf a13d d1d4 79be 7e3a 8fbe
00000030: 661e a43e 7777 90be a53d 5abf 1a4b b6be
00000040: 34e7 aebd 197f 84bf 957d a9be ae03 483f
00000050: 1021 613e b4e3 cbbe 1a0e 2d3f 4468 29bf
00000060: d6cd cd3e 4b98 ea3e 6711 623f d9ff b03e
00000070: 9c35 38be 3e02 603f 8dfc 333f d1f2 273e
00000080: 5390 a93e f163 a3be e406 86be 4631 a53e
00000090: 595d 2bbf bddb 833f 18c1 a4be c213 35bf
000000a0: 0957 f33d 1906 8ebf e23b 0a3e 1fd1 0b3f
000000b0: e7b3 ee3c 9201 57bd 8406 dd3e 2602 f43e
000000c0: 3c27 cdbe c2bd 1dbe 64ac 8b3d 8d7d 283f
000000d0: bb71 ebbd a290 a73f 42c4 993e 6b49 3dbe
000000e0: 07ec 443f bac1 2bbf 1859 24bf bcdb dc3b
000000f0: e781 e8be c81d 883e aa56 9ebf c6e6 e73e
00000100: 839a 3bbf 900c 633c 6418 143f ea4b 02be
00000110: e1d1 7b3e 95a1 f0be 57ab e1be 97d3 213c
00000120: 3b65 2abf 3234 e8bd 9171 013f ccd5 22bf
00000130: f4af 80be c31b 093e cfe4 8dbe 401f 2fbd
00000140: 925e f1bd dea6 283f e986 65bf fb8f 26bf
00000150: 119b a8be a6d0 953e ed30 72be db79 b03d
00000160: 4c92 703f 9743 2d3d 0462 1abe 33c2 86be
00000170: 1ac2 f93c 97e5 063f 2872 483f 6ec7 e03e
00000180: f9ce bc3e 81df 5b3f 4f1b 353d 86ab 883e
00000190: 59e3 673f cf8b a5be 5361 81be 773f 58bd
000001a0: f148 7cbe 6585 cbbe ad87 21bf c79b a43c
000001b0: 0e76 9e3f 4a3d 54c0 83aa 373e 7797 8bbd
000001c0: 2b8a 9e3e 2307 0d3f 2664 87bf 7d3f 84be
000001d0: ab04 993f 61e3 c6bf 5e37 e3bd 8bf5 ed3d
000001e0: f098 f9bd af23 6dbe 14d0 533e 6dfd 813e
000001f0: c485 193e 0bf3 31be 429b 3dbf 586c 8c3f
00000200: 7266 023f a671 e0be 0f8d ecbe ce75 c2bc
00000210: 8a63 8c3f b7ee 983e 57da 9c3c eea9 c83e
00000220: 3667 993e 4c5c a5bf 2532 c93d 523a 273f
00000230: 68d0 4fbf 0398 d9bd 6836 b13c b1ef 6cbe
00000240: 03ad 443f 541d 58bf a406 aebe acea 9d3d
00000250: 6762 543f 6791 843e 1731 34b9 6571 833d
00000260: 61ea 713f 1bf8 6abd 34bf 913e 3446 b2be
00000270: ae09 f13c b80b 0b3e 4c8f 18bf 87bc 863d
00000280: d39a 88bd 0e31 f5bc 5633 2f3e dd11 493f
00000290: 7bef 5cbf d3bc d03d d9db 0bbe 194f a43e
000002a0: 3fbc 0bbd 80c6 a8be ed84 f53c 02f1 863e
000002b0: fe18 7a3e 4d1f 813e 648d 563e 30a2 8b3f
000002c0: 1aac 11be 32e3 63be afde ac3e c1e4 2fbe
000002d0: 20eb 9abe c277 663e a2d2 5a3f 9e57 983f
000002e0: 1eaa 193d 4927 7a3d e49a 8bbd 6c88 bbbf
000002f0: 5a17 2a3e aaf4 f63d 0730 0dbf c3f5 c1be
00000300: d821 123e 5cb0 28bf 2ae3 bfbe ee12 58bd
00000310: 7a4b 73be 9b1a 97be bbc7 9dbe 518a c13e
00000320: db59 80be 2e4c d3be f3df 2b3f 34fb 633f
00000330: 58ab 143f 5003 42be 8876 01bf 062f c93f
00000340: a9ea 263e b3ac a0bd b7ba 2abe 8c73 e33e
00000350: f959 9b3e d50c 363f 4db6 b53f acd4 b23e
00000360: e558 69bf 658d 4cbe 82a5 f6bd d98b 313f
00000370: 8eb1 423f 5925 adbd 1a9d 05bf 1269 ef3e
00000380: 7752 fc3e ec57 fbbe 0ce5 27be 3e05 8d3e
00000390: 9656 323f 70f6 393e f64c 83be e196 94be
000003a0: 053e 99be 9012 9fbf 9b1a 2a3f a77f c7be
000003b0: 4268 d3be caa1 9cbf 2d3f 5d3e 0d2b 323d
000003c0: e196 81bd 0508 34bf b711 893f ac9a a83d
000003d0: 9ae8 7c3e 597b 9fbf 0832 12bf 58f8 fa3e
000003e0: d47b 4bbf 9566 0dbf 2d35 84be 86e0 9bbc
000003f0: b494 c8be 40b8 f83d e09b 67bf 2c54 1f3f
-0.2983732 0.71619725 -0.36352217 0.13704406 0.25959194 0.0031406388 0.7886754 0.93417656
-0.50617784 0.079009295 -0.2439759 -0.27974313 0.32054442 -0.28216144 -0.8525031 -0.35604173
-0.08540192 -1.0351287 -0.33103624 0.78130615 0.21985269 -0.3982216 0.6759964 -0.6617472
0.40196103 0.45819315 0.88307804 0.34570196 -0.179892 0.8750342 0.70307237 0.16401221
0.33117923 -0.31912187 -0.26177132 0.32264155 -0.6693931 1.0301434 -0.3217857 -0.70733273
0.11881835 -1.1095611 0.13499406 0.5461597 0.029138518 -0.052491732 0.43169034 0.4765789
-0.40068996 -0.15404418 0.0681999 0.65816575 -0.11496302 1.3091013 0.30032545 -0.18485038
0.7692265 -0.6709248 -0.64198446 0.0067400616 -0.45411608 0.2658522 -1.2370198 0.45293254
-0.7328264 0.013857976 0.5784972 -0.12724271 0.24591781 -0.46998277 -0.44076034 0.009877107
-0.66560715 -0.113380805 0.50563914 -0.6360748 -0.25134242 0.13389497 -0.2771363 -0.04275441
-0.11785616 0.6587962 -0.8965898 -0.65063447 -0.32930806 0.2926075 -0.23651476 0.08616992
0.9397323 0.042300787 -0.15076452 -0.26320037 0.030488063 0.52694076 0.7829919 0.43902153
0.36876658 0.85887915 0.044215497 0.26693362 0.9058128 -0.32333228 -0.25269565 -0.0527949
-0.246372 -0.3975021 -0.6309765 0.020093812 1.2379777 -3.3162408 0.17936139 -0.06815999
0.3096479 0.55089015 -1.0577438 -0.25829688 1.195455 -1.553814 -0.11094545 0.11619099
-0.12187374 -0.23158143 0.20684844 0.2538866 0.14992434 -0.1737787 -0.7406503 1.0970564
0.5093757 -0.43836707 -0.4620137 -0.023737814 1.0967877 0.29869625 0.019147081 0.39192146
0.29961556 -1.2918792 0.098240174 0.65323365 -0.8117738 -0.10624697 0.021632388 -0.2313831
0.76826495 -0.8441975 -0.3398944 0.07710776 0.8296265 0.25892183 -0.00017184425 0.06418113
0.9449826 -0.057365518 0.2846619 -0.34819186 0.029423561 0.13578689 -0.59593654 0.065789275
-0.066701554 -0.029930618 0.17109427 0.7854288 -0.8630292 0.10192265 -0.13658084 0.32091597
-0.034115072 -0.32963943 0.02997061 0.2635575 0.24423596 0.25219193 0.20952374 1.0908871
-0.14225808 -0.22254637 0.33763644 -0.17177106 -0.3025751 0.22506621 0.8547765 1.1901739
0.037515752 0.06107262 -0.068166524 -1.4651008 0.1661047 0.12058385 -0.5515141 -0.37882814
0.14270723 -0.65894103 -0.37478 -0.052752428 -0.23759261 -0.29512486 -0.30816445 0.3780084
-0.25068554 -0.41269058 0.67138594 0.8905518 0.5807395 -0.18946576 -0.5057149 1.5717475
0.16300453 -0.0784544 -0.16672789 0.44424093 0.3034208 0.7111333 1.4196259 0.3492788
-0.9115127 -0.19975813 -0.12043287 0.69354016 0.76052177 -0.08454389 -0.5219284 0.4675985
0.49281666 -0.49090517 -0.16395968 0.27543062 0.6966337 0.18160415 -0.25644654 -0.2902136
-0.2993013 -1.242754 0.66446847 -0.38964579 -0.4129048 -1.2236874 0.21606131 0.043498088
-0.06327606 -0.70324737 1.0708531 0.08232626 0.24698105 -1.2459518 -0.5710759 0.49017596
-0.7948582 -0.5523465 -0.2582182 -0.01902796 -0.3917595 0.12144518 -0.9047222 0.6223781

model.2.weight f4 [128, 256]
00000000: 7719 ec3e 06e8 4d3f 1406 c9bd 9cf0 473f
00000010: 980f 883e 51d3 e13d 66a3 a3bf eeaa 963e
00000020: 664b f33e b7ae 53be 25fa 67be fe76 aa3e
00000030: d24a e1be cfdf 3abf 091c fd3e 0029 48bf
00000040: 8886 543e 1fa8 1ebf f0e0 42bf 5b08 203f
00000050: 225f 1dbf f028 a4be d97e 893e 14bc bd3e
00000060: 6be2 a43f 85c3 9fbe 5b43 ecbe 30b8 e43f
00000070: 8b02 ed3e 415f 2ebf a198 0f3f f845 dbbe
00000080: 5484 24bf 2a92 8abe 6db0 34bd 13ba a9be
00000090: 660c 51bf f195 383e 16ec 483f 27c8 28bf
000000a0: cb9a e63e 4757 fc3d 166b a3b9 e09f cdbe
000000b0: 6858 e33e 6cda 8d3f 87f2 5a3e 449a 0cbe
000000c0: b47f 6fbe 60c9 5a3e 9123 aa3e 2e9e c13d
000000d0: 5f19 763f a6e9 013f 3a2e 363e 226b 813f
000000e0: 06a0 e5be 147e 52bf a0a7 9fbe 3ad7 23be
000000f0: bb9b 97be 537c bcbc 232e 353d 3117 8ebf
00000100: 9d95 c6be ee82 17be e728 ea3e c11b 2a3e
00000110: fd72 e2be 5847 9b3f f0de abbd 0fd2 f2be
00000120: e7e7 803e 77b8 37be d839 d43e b770 6a3f
00000130: 2087 df3e 625f e73e 792f a33f 7496 a03e
00000140: 480b 753f cd5d 89bf 66bb b0bd 0f52 b0bf
00000150: bfb9 b83d 7eb7 f7be d741 2c3d 4602 7abe
00000160: 68dc fa3d 5e57 b3be 2c8e 053e ba90 debd
00000170: faac 313d 887d 9f3e 0b9c 3dbf a2c1 c6be
00000180: 7a52 1a3e 6042 e4bf 55ab 413e 688b 2c3f
00000190: 8a41 3a3f dba7 9f3d 114d 8bbc fe40 10bf
000001a0: 84c8 3bbf bf8f 2bbf 7c3d 083f e373 b2bd
000001b0: d5b3 1f3e 448d 5cbf 3330 2f3e fb22 963d
000001c0: 58f9 e0be e09f e33d 2c75 223e 2d62 8bbe
000001d0: 3348 e53d dd7a b2be fd0b acbd 9299 d63e
000001e0: b9f6 833e dc45 8dbf a9b5 7e3f 68b1 723f
000001f0: 90f9 17bf 11a0 913e 97da 2e3f 9d52 b93d
00000200: 3eb6 ce3f 880b e8be 41af 343f 83a3 933d
00000210: 75ba 673e ac96 a53f 7741 303d de23 af3e
00000220: f364 8a3e 2c1e fc3e 4faf 85be fd93 9b3e
00000230: 53d1 19be 03fb 373e a2af 31bf 1970 1b3d
00000240: 43d0 1f3e 4182 343e 76b1 f2be b3c0 5dbe
00000250: ea02 c2be dee7 b0be 3896 193f 028d 68be
00000260: 7b42 33bc 73a3 76be 4cbd 48be 8322 63bf
00000270: 42c3 2bbe 43c2 21be d0b5 c53e 882a 673e
00000280: c2c8 bdbe 505e ba3e e1a1 34be c2e9 18bf
00000290: 9e6a 023f cef9 8a3f 47a0 2f3e 93ac 453f
000002a0: abc4 d2bd e5ea cabe 0a69 ad3d ebce 073f
000002b0: bf86 e3be 254d adbe c361 2cbf 5382 18bf
000002c0: 03a9 0cbe eab0 7f3e e58a f5be 2778 323d
000002d0: f050 503f a685 88be 31c6 c23e 6ead cc3e
000002e0: 30a8 323f 3bb5 09bd c60a 183d 4bb7 e13d
000002f0: ff1b 6d3f cd68 1abf 52df 94ba 41b1 ea3e
00000300: 3d32 693f e848 e33e 7006 023f 2a86 3b3f
00000310: 6700 073f 18d1 babe 6f15 963e c4cc 8bbf
00000320: 8c4f 8d3e b8d7 4e3f f5f7 47bf 97a9 173d
00000330: 9857 c4bd 76e0 d3be 3d96 993e d28d 1ebf
00000340: 10b0 40bf 0b08 a53e b2d3 423e b2ef 0e3b
00000350: a57a 3c3e 38d5 2cbf c604 9dbf 0164 dabd
00000360: 102f 583f 18b1 1e3e 54d8 9939 60ac 2abf
00000370: 9884 6ebf 3a7a 8fbf 61be 453e 2c22 b9be
00000380: 0f2a 72be 3e89 94be 54c1 dabe fbf5 c63e
00000390: c2a0 23bb c8d4 143e 1272 3b3e 044f b23e
000003a0: c201 173d 258c b5be c2aa 18bf 27dd 10bf
000003b0: a293 16bf a4e1 873f 6bcb d03d 9785 293f
000003c0: 8aa7 b13e 24bf 5d3e 3d98 b7be 49a2 3a3f
000003d0: 8d6c d4bd a13c 01be fa90 863e a707 33be
000003e0: 6b69 b4be 8109 f9ba 3eaf 81be 7ed6 a93f
000003f0: 5850 01bf 597e 703d c4ba db3e 4eea ecbe
0.46113178 0.80432165 -0.098156124 0.78101516 0.26574397 0.110266335 -1.278424 0.29427284
0.47518462 -0.20672117 -0.22654016 0.3329391 -0.44002396 -0.72997755 0.49435452 -0.7818756
0.20754445 -0.6197528 -0.7612448 0.6251275 -0.61473286 -0.32062483 0.2685459 0.37057555
1.2881597 -0.31203857 -0.46145138 1.786871 0.46291003 -0.68114096 0.5609227 -0.4282682
-0.64264417 -0.2706464 -0.044113565 -0.33149776 -0.81659544 0.18025948 0.7848524 -0.6593041
0.45039973 0.12321334 -0.00031169568 -0.40161037 0.44403386 1.1082282 0.2138158 -0.13730723
-0.23388559 0.21365881 0.3323026 0.094539985 0.96132463 0.50747144 0.17791072 1.0110819
-0.4484865 -0.8222363 -0.31182575 -0.16000071 -0.29611 -0.023008501 0.044233453 -1.1100827
-0.3878602 -0.1479604 0.4573433 0.1661215 -0.44228354 1.2131147 -0.08392131 -0.47425887
0.25176927 -0.17941462 0.4145038 0.9157824 0.4365778 0.4518996 1.2748863 0.31364787
0.9572034 -1.0731751 -0.086294934 -1.3775042 0.09019803 -0.4838218 0.042054977 -0.2441493
0.122490704 -0.35027593 0.13042516 -0.10867448 0.043377854 0.3115046 -0.7406623 -0.38819605
0.15070525 -1.7832756 0.18913014 0.6740022 0.72756255 0.07795688 -0.017004522 -0.5634917
-0.7335284 -0.67016214 0.5321882 -0.0871351 0.15595944 -0.86153054 0.1710823 0.07330891
-0.43940234 0.11114478 0.1586501 -0.2722334 0.111954115 -0.34859362 -0.08400724 0.4191404
0.25774172 -1.1036944 0.9949594 0.9480195 -0.5936518 0.28442433 0.6830229 0.0904896
1.6149366 -0.45321298 0.70579916 0.07208922 0.22629721 1.2936606 0.043031182 0.34207052
0.27030143 0.4924177 -0.26110312 0.30386344 -0.15021257 0.17966847 -0.6940862 0.0379487
0.1560679 0.17627813 -0.47401017 -0.2165554 -0.37892848 -0.345519 0.5999484 -0.2271004
-0.010941143 -0.24085788 -0.19603461 -0.88724536 -0.16773704 -0.15796761 0.38615274 0.22574818
-0.3706723 0.3640008 -0.17639877 -0.59731686 0.50943935 1.0857484 0.17150985 0.7721645
-0.10291418 -0.39632335 0.084673 0.53050107 -0.4443874 -0.3384792 -0.6733667 -0.5957386
-0.13736348 0.24969831 -0.4795753 0.043571617 0.813735 -0.26664466 0.38041833 0.39976066
0.69787884 -0.0336201 0.03711965 0.110212885 0.92620844 -0.60316163 -0.0011358059 0.4583836
0.9109228 0.4439156 0.5079107 0.73251593 0.5273499 -0.3648765 0.29313228 -1.0921865
0.27599752 0.8079791 -0.7811273 0.037026968 -0.0958702 -0.41382188 0.29997435 -0.6193515
-0.7526865 0.322327 0.19026068 0.002181035 0.1840616 -0.67512846 -1.2267082 -0.106636055
0.8444681 0.15497243 0.0002934361 -0.66669273 -0.9317107 -1.1209176 0.19310905 -0.36158884
-0.23648857 -0.29010957 -0.42725623 0.38859543 -0.0024967645 0.14534295 0.18305233 0.3482591
0.03686691 -0.35458484 -0.59635556 -0.5658745 -0.5881902 1.0615735 0.10195049 0.66219467
0.34698135 0.21654946 -0.35858336 0.7290388 -0.10372267 -0.12620784 0.26282483 -0.17483388
-0.35236678 -0.0019000025 -0.25329012 1.3268583 -0.5051322 0.058714245 0.42915928 -0.4627251

model.2.bias f4 [128]
00000000: 0f0a e9bd 54da c0be 4b46 48bf 86e9 a73c
00000010: d30e 8ebf 1c13 1cbf 62a2 c8be 65bc 5fbe
00000020: 5f8d a2be 3270 dabe ca49 9a3d 8a1d d0be
00000030: 2f14 babe 5f84 d03e 0436 f8be 9e75 72bf
00000040: 1e57 dcbd 9778 30bf 3a44 4e3d 647e 30bf
00000050: a4f5 8abe ecf8 22be 7b1b bcbe b7f8 43bf
00000060: f76c b8bd 0d15 adbe be97 efbe 9558 27be
00000070: ce3b 48bf de7a bebe 44c5 cbbe 2936 aabe
00000080: d38c 0dbd 942f 1fbf feb5 4dbf b5aa 5a3e
00000090: 46ce bbbe 0a86 cebe f699 babd 3a8c bbbd
000000a0: b4ee e7be c29e 1cbf f060 623e ef64 44be
000000b0: 6e38 10be b465 173d d105 293e 5bd5 a6be
000000c0: 9304 6bbd a996 38bf abc3 2cbe 0ec8 4cbf
000000d0: 907a 30bf 7e5e 44bf daf0 583d b35e 7cbf
000000e0: 3324 233e 27e0 5cbe 2693 37be bdc4 46be
000000f0: 6dea b9be 8ab8 3b3b dbdc 11bf 0cfe 4ebe
00000100: 6a82 c4be f991 4abf 3412 0d3d e524 6dbf
00000110: 1893 4fbe 5f89 02bf e16a a0be 5cd8 633e
00000120: fe78 73bf 5e25 50be 43f2 e0be 2246 6dbe
00000130: f067 48bf ba75 1dbf 8e2a 7dbf ff57 54bd
00000140: 9903 2cbf 5898 c8be 7ac9 e83c 1fc1 9c3c
00000150: 31e1 99be 969e 04bf 05f7 2fbf 778f 1ebf
00000160: c0e0 d9bc 3532 c7be f20b 73bf 3100 16bf
00000170: a61b ffbd ea7e ccbe 89a0 753c ff75 78be
00000180: 3980 4cbf 98e6 f2be 3a9a 163f d87e c1be
00000190: 82fc b93e aa20 8dbe 0832 9f3e 3434 abbe
000001a0: 6089 d2bd 18a6 e0bc 18b7 d63d 9db9 b5be
000001b0: 15e7 813f c6fc 5b3d 34ac 8abf c4e0 a9be
000001c0: 1732 04bf ae9a c0be 035b afbb f2fb a63d
000001d0: 6642 e73d a355 ab3e ccec 06bf 17fa 90be
000001e0: af8a d7be 958e aabd c3bf cfbe fb65 18bf
000001f0: 5bc4 633f 8acf 8a3e cc28 6bbf d6b8 88be
-0.11378872 -0.3766657 -0.7823226 0.020497095 -1.1098274 -0.6096666 -0.39186388 -0.2184921
-0.31748483 -0.42663723 0.075336054 -0.40647537 -0.36343524 0.4072599 -0.4847871 -0.9471072
-0.10758804 -0.68934005 0.050358035 -0.68942857 -0.27140534 -0.15915269 -0.36739716 -0.76551384
-0.090051584 -0.33805123 -0.46795458 -0.16342385 -0.78216255 -0.37203115 -0.3979894 -0.33244446
-0.03455813 -0.62181973 -0.80355823 0.21354182 -0.36680812 -0.4033664 -0.09111397 -0.091576055
-0.45299304 -0.61179745 0.22107291 -0.19179128 -0.14084026 0.036962226 0.16506125 -0.32584652
-0.05737741 -0.7210489 -0.16871516 -0.7999276 -0.68937016 -0.76706684 0.05296407 -0.98582
0.15931778 -0.21569882 -0.17927226 -0.19410987 -0.36311665 0.002864393 -0.56977624 -0.20214099
-0.38380748 -0.79128987 0.034441188 -0.9263442 -0.20270956 -0.5099086 -0.31331542 0.22250503
-0.95106494 -0.20326754 -0.4393483 -0.23171285 -0.78283596 -0.6150776 -0.9889306 -0.051841732
-0.6719299 -0.3917873 0.028416384 0.019135056 -0.3005462 -0.5180448 -0.68736297 -0.6193766
-0.026596427 -0.38905492 -0.949401 -0.5859404 -0.124564454 -0.39940578 0.014991888 -0.24263762
-0.7988315 -0.47441554 0.5882908 -0.37792087 0.3632546 -0.27563983 0.31092858 -0.33438265
-0.102801085 -0.02742295 0.10484141 -0.35493174 1.0148646 0.05370786 -1.0833802 -0.33179295
-0.5163893 -0.3761801 -0.0053514256 0.081535235 0.11291961 0.33463773 -0.52705073 -0.28315803
-0.42097995 -0.083279766 -0.4057599 -0.5953061 0.8897149 0.27111465 -0.91859126 -0.2670352

model.4.weight f4 [1, 128]
00000000: aaf3 02bc 2fdd 34bc cd45 f43d 048b de3d
00000010: fcba 22bd 04ce adbd 8c3e 9c3c de33 e5bc
00000020: 578e a33c 59a2 cd3d ba6b b1bb c62c 823e
00000030: 1b34 32bd 2047 41be c980 3e3c be8f 3dbd
00000040: 5a4a fdbd e2f3 5fb9 9f4a ecbd 71dc 8cbd
00000050: 86df 5b3b 7b02 a2bc 2980 493d 0948 03bd
00000060: 85d8 31bd dae1 163c c73b 563c bd9a 143d
00000070: 5cc4 2d3d b583 35bd d8c3 bcbb caf2 7fbd
00000080: 7857 11bd cfb5 44bc a8e9 41be b176 06bd
00000090: c7d4 ff3b bcdd 2fbe 5117 a23e cddc c6bc
000000a0: 16de 9f3d 37c4 e9bd af13 6c3f 9dd6 923e
000000b0: 3f08 8dbc d2ee 01be 981d f73c e3df 4fbe
000000c0: 7074 783c 8c2e 61bb dc55 743e 5a01 1cbc
000000d0: 293b 39bd c1d6 8a3e 1c26 67bd b888 43be
000000e0: 044d 22be d292 8bbd aee0 9d3c b79c 7f3e
000000f0: 2afa 29be f511 b1bc fe30 70bd 0d83 d3bd
00000100: 4b13 87bc 16e6 0b3d 2208 303b eba3 05bd
00000110: 9bf8 3a3d 7d2a ce3d f076 79bc 868f d73e
00000120: 5be3 35bd a01b c73d 1e41 a8bd 79eb debc
00000130: fcdd e23c 350f 67bd 081d 65bd 8f60 433d
00000140: a021 d2bd 22dd 703c 7c86 57be e9e1 f23c
00000150: 40aa a9bd 9b9c 833c 07be e83c 2ff3 02be
00000160: 5f04 febc 9644 133e 6a51 95bd 0ccf 2d3d
00000170: 4c76 ea3b ca78 3a3c 580b 13bc f109 953c
00000180: f07f 3ebe 5b75 82bd 0e8d f63e 545e b0bd
00000190: 9a1c e6bd 3094 b7bd f8fa 863b d500 143d
000001a0: 9eac 8b3e f12c 05bc 78a1 01ba 1f8b 383d
000001b0: 9900 2ebe f07b 5bbc bd34 77bc 5272 5b3c
000001c0: 94eb 0bbe 1e4d 8ebd ebc2 1b3d c814 a33c
000001d0: 372c 88bc d3be 65bd 9418 103d 968d 623c
000001e0: 5994 b0bd 0a5a 273f 57ed 11bc 2c8f cabd
000001f0: 6655 55be 153c a9bd 78bd e5bd 08a4 33bd
-0.007992664 -0.011039062 0.11927376 0.10866359 -0.039729103 -0.0848656 0.019072793 -0.027978834
0.019965334 0.10040731 -0.0054144533 0.25424784 -0.043506723 -0.18874788 0.011627384 -0.04627966
-0.12367697 -0.0002135779 -0.1153767 -0.06877983 0.0033549978 -0.019776573 0.04919449 -0.03205112
-0.04341938 0.009209121 0.0130757755 0.036280382 0.04242359 -0.04431506 -0.005760651 -0.0624874
-0.035483807 -0.012006237 -0.18936789 -0.032828037 0.0078073475 -0.17174429 0.31658414 -0.024275208
0.078060314 -0.11414378 0.92217535 0.28679362 -0.017215846 -0.12688759 0.030165479 -0.2030025
0.01516448 -0.003436002 0.23860878 -0.009521807 -0.045222435 0.2711697 -0.05643283 -0.19095123
-0.15849692 -0.06815113 0.019272175 0.24962126 -0.16599336 -0.021615008 -0.058640473 -0.1032773
-0.016488692 0.034154974 0.0026860316 -0.032627027 0.045647245 0.10066698 -0.015226111 0.42101687
-0.044406276 0.09722066 -0.08215545 -0.027211891 0.027693741 -0.056410987 -0.05593589 0.047699507
-0.1026032 0.01470116 -0.21047395 0.029648738 -0.08284426 0.016065886 0.028410925 -0.1278808
-0.031007944 0.14381632 -0.07290919 0.042433783 0.0071552154 0.011381337 -0.0089748725 0.018193217
-0.18603492 -0.0637004 0.4815449 -0.08611742 -0.11235924 -0.089638114 0.0041192733 0.036133606
0.27280134 -0.008128391 -0.000494502 0.04505455 -0.16992415 -0.013396248 -0.015088257 0.013393955
-0.13664085 -0.06948303 0.038027685 0.01990737 -0.016622646 -0.056090187 0.03517969 0.013827702
-0.08622045 0.65371764 -0.008906684 -0.09890589 -0.20833358 -0.08263413 -0.11217779 -0.043857604
