discriminator_gan_br_ts.pth (torch, 240552 bytes, 5 tensors)

model.0.weight f4 [256, 102]
0	0xbef8d7cf	-0.4860215
1	0x3fb56fbf	1.4174727
2	0x3fa9ce83	1.3266147
3	0x3e7d0a89	0.2471105
4	0xbe1fab9c	-0.15592808
5	0x3e0e37e8	0.13888514
6	0xbf7c98ee	-0.9867085
7	0xbf5957de	-0.848997
8	0x3e27da4e	0.1639187
9	0x401bddd1	2.4354136
10	0xbcf4fa3a	-0.029904474
11	0xbfe0b19c	-1.7554202
12	0xbf634e4a	-0.88791335
13	0xbe8f69d7	-0.28010437
14	0x3f878ed0	1.0590458
15	0x3e06918c	0.13141459
16	0xbd0cd0d7	-0.034378853
17	0xbe979d6a	-0.29612285
18	0xbf604e8e	-0.87619865
19	0x3e8565a2	0.26054102
20	0xbf51c94e	-0.8194779
21	0xbf0a5763	-0.5403959
22	0xbf445fc4	-0.76708627
23	0x3fffc4a2	1.9981883
24	0x3f779cea	0.96723807
25	0x3eae35a2	0.34025294
26	0xbf1f2b84	-0.62175775
27	0x3f27d88a	0.6556479
28	0xbfa33a03	-1.2752079
29	0x3e0b21c2	0.13587096
30	0xbf850977	-1.0393513
31	0xbf0348dc	-0.5128305
32	0x3f79c587	0.9756703
33	0xbec9d490	-0.39419985
34	0x3d9ad92c	0.075609535
35	0xbf332202	-0.69973767
36	0xbe99803b	-0.29980645
37	0x3f840493	1.0313896
38	0xbfacd299	-1.3501769
39	0xbe967d08	-0.29392266
40	0x3fada93a	1.3567269
41	0x3f4eff7a	0.80858576
42	0xbe983c80	-0.29733658
43	0x3e80c4a0	0.25150013
44	0xbf5f05fe	-0.8711852
45	0xbf44c834	-0.76867986
46	0xbd23718d	-0.039903212
47	0xbded6f2c	-0.1159347
48	0xbfcfc7f7	-1.62329
49	0x3db809ba	0.0898623
50	0x3ea6509e	0.3248338
51	0x3c82712e	0.015923109
52	0x3f8c7dda	1.0975907
53	0x3e78da6e	0.24302074
54	0xbeb89599	-0.36051634
55	0x3d82c27f	0.063847534
56	0xbe70afa8	-0.23504508
57	0xbf2e6a0a	-0.6813055
58	0x3f07319f	0.5281009
59	0x3b969b9f	0.004596188
60	0xbf8491a6	-1.0356948
61	0xbe9a70a5	-0.30164066
62	0x3f45aec8	0.7721982
63	0x3f198974	0.5997536
64	0x3ec14bac	0.37753046
65	0xbf6df413	-0.9295055
66	0x3e0b8abe	0.13627145
67	0xbf0dc92b	-0.5538508
68	0x3f5d10c2	0.86353695
69	0x3eb08b84	0.34481442
70	0x3ed91c33	0.42404327
71	0x3d9a4700	0.075330734
72	0xbf2c8ebc	-0.67405295
73	0xbf8f2f2b	-1.118627
74	0x3fa558be	1.2917707
75	0xbe8c72b5	-0.27431265
76	0xbd35e4a4	-0.0444075
77	0x3e2128df	0.15738247
78	0x3f19395a	0.59853137
79	0x3c51948a	0.012791762
80	0x3f520029	0.82031494
81	0xbed82d9a	-0.4222229
82	0xbf95529d	-1.1665837
83	0xbe41c256	-0.1892179
84	0xbef1f71e	-0.47258848
85	0xbda34fde	-0.07974218
86	0xbe8ad093	-0.27112255
87	0xbebe94e7	-0.37222978
88	0x3e074a45	0.13211925
89	0x3e8c77ea	0.27435237
90	0xbe2a6176	-0.16638741
91	0xbe0d8238	-0.13819206
92	0xbeb3d97d	-0.35126868
93	0xbfd34111	-1.6504232
94	0xbf0a1f27	-0.53953785
95	0x3d5c36d2	0.05376322
96	0xbfb37e49	-1.4022914
97	0xbf5c4f2a	-0.86058295
98	0x3e228fdd	0.15875192
99	0x3f30ad88	0.6901479
100	0x3ef1ba31	0.47212365
101	0x3c2ca724	0.010537896
102	0x3da1d413	0.07901778
103	0x3fc958a8	1.5730181
104	0x3f370f1c	0.7150743
105	0xbeb38170	-0.3505969
106	0xbfba1064	-1.4536252
107	0xbf46c408	-0.7764287
108	0x3f173d76	0.59078157
109	0x3f875076	1.057143
110	0xbf345c9a	-0.704538
111	0xbf698da3	-0.91231745
112	0x3e5bec99	0.21476974
113	0xbdb68042	-0.08911182
114	0x3e9edfac	0.31030023
115	0x3f245066	0.6418518
116	0x3f5fc826	0.8741478
117	0x3e744606	0.23854837
118	0xbf7e3864	-0.99304795
119	0x3ed5b2dc	0.4173802
120	0xbee347f7	-0.44390842
121	0x3f1797da	0.5921608
122	0xbf45f58d	-0.77327806
123	0xbf08a13f	-0.5337104
124	0xbd344a61	-0.044016246
125	0xbf6f51f7	-0.93484443
126	0xbee7701c	-0.4520272
127	0x3f04707c	0.5173414
128	0x3d4fdc12	0.050746985
129	0xbf5bcbd3	-0.85857886
130	0xbe333e25	-0.17504175
131	0x3dfb85f1	0.12281407
132	0x3f4dd1d1	0.8039828
133	0xbda067e8	-0.078323185
134	0xbeff0b0d	-0.4981312
135	0x3c220f7d	0.009891388
136	0xbf3d1e83	-0.7387468
137	0x3f88d052	1.0688574
138	0x3f5c0c67	0.85956424
139	0xbe90a3dd	-0.28250018
140	0xbfd92668	-1.6964846
141	0x3efb6796	0.49102467
142	0x3f2aa6ea	0.6666094
143	0x40068629	2.1019385
144	0x3d60c1b0	0.054872215
145	0xbfbd7457	-1.4801129
146	0xbec96fea	-0.39343196
147	0x3f26600b	0.649903
148	0xbde7d2a7	-0.113194756
149	0xbf311a71	-0.6918097
150	0xbde1c767	-0.11024361
151	0xbe4f8289	-0.20264639
152	0xbfaa40c2	-1.3301013
153	0x3e8b5cd7	0.2721927
154	0xbfbb50d1	-1.4634038
155	0xbe28558d	-0.16438885
156	0x3fdb8649	1.7150356
157	0xbfb87860	-1.4411736
158	0xbf35ef01	-0.71067816
159	0xbeb91f4e	-0.36156696
160	0xbf1ff0bc	-0.62476707
161	0xbf6be2de	-0.92143047
162	0xbf89d211	-1.0767232
163	0x3d549b0a	0.05190567
164	0x3f120694	0.5704129
165	0x3f06a4ef	0.5259542
166	0x3ddc256f	0.107493274
167	0xbf25049b	-0.6446015
168	0xbf6e08db	-0.9298226
169	0x3e004244	0.12525278
170	0x3f2aa496	0.6665739
171	0x3f0ea956	0.55727136
172	0xbf6554f7	-0.8958277
173	0x3f85692f	1.0422724
174	0xbec967b4	-0.39336932
175	0x3f7b1705	0.98082
176	0x3efd8788	0.49517465
177	0x3f288fc3	0.6584436
178	0x3bf92ef8	0.007604476
179	0x3d15eba1	0.036601666
180	0xbebd15d6	-0.36930722
181	0xbf10a81d	-0.5650652
182	0x3f88198d	1.0632797
183	0xbf623b81	-0.88372046
184	0x3f1be491	0.6089564
185	0xbf808082	-1.0039217
186	0x3e8a4061	0.27002242
187	0x3e32710e	0.1742594
188	0x3eda6b80	0.4266014
189	0xbe82ba41	-0.25532725
190	0x3ee06950	0.43830347
191	0x3e8030a7	0.2503712
192	0x3ed2f904	0.4120561
193	0xbf9b78cd	-1.214624
194	0xbe9980cd	-0.2998108
195	0x3f9271c1	1.1440965
196	0x3d7da469	0.061924372
197	0x3f5f86e6	0.87315214
198	0x3ec164d1	0.3777223
199	0x3f119e2f	0.56881994
200	0xbe5a178b	-0.21298043
201	0x3f5d6a53	0.8649036
202	0x3f724be6	0.9464706
203	0xbc977971	-0.018490525
204	0xbf716bea	-0.9430529
205	0x3f043a76	0.51651704
206	0x3ea600b1	0.32422403
207	0xbe5f57d9	-0.21810855
208	0x3d284364	0.041079894
209	0x3e8bc136	0.27295846
210	0x3f43d4b9	0.76496464
211	0xbeeb2092	-0.45923287
212	0xbd9e337a	-0.07724662
213	0x3ee8e795	0.45489183
214	0xbf4ac1de	-0.7920207
215	0x3f04092a	0.51576483
216	0xbded65aa	-0.115916565
217	0xbf410c16	-0.75409067
218	0xbebd0f81	-0.3692589
219	0x4006c6c5	2.105882
220	0x3e2fda9e	0.1717324
221	0xbf92e103	-1.1474918
222	0xbe3bbcf6	-0.18333802
223	0x3f40475e	0.751089
224	0x3e89f54d	0.26944962
225	0x3e52ba12	0.20578793
226	0x3f8e1733	1.110083
227	0x3f8e4942	1.1116107
228	0xbf04cd42	-0.518757
229	0xbf268699	-0.6504913
230	0xbfa08882	-1.2541659
231	0xbf478744	-0.77940774
232	0x3d2f985f	0.04286992
233	0x3fc16c49	1.5111171
234	0xbfa2b88f	-1.2712573
235	0xbefd70f1	-0.4950023
236	0xbf47dd84	-0.7807238
237	0xbe83b60b	-0.25724825
238	0x3f8a1919	1.0788909
239	0xbe686d05	-0.22697838
240	0x3fb3a638	1.4035101
241	0x3e910dc7	0.28330824
242	0x3fa0d15f	1.2563895
243	0xbdf74499	-0.12073631
244	0xbfc2a160	-1.5205498
245	0x3de6f687	0.1127749
246	0xbef3601e	-0.4753427
247	0x3f0d5a3e	0.55215824
248	0xbf3f814a	-0.74806654
249	0x3f0e77d4	0.55651593
250	0x3de428b0	0.11140573
251	0x3deb25b9	0.114818044
252	0xbfe00f80	-1.750473
253	0xbe70d344	-0.23518091
254	0xbea8c721	-0.32964423
255	0x3ee6d00f	0.4508061

model.0.bias f4 [256]
0	0x3f8f19cc	1.1179748
1	0xbe884ed2	-0.26622635
2	0x3ed5ed62	0.4178267
3	0x3e9a5215	0.3014075
4	0xbf8e933e	-1.1138685
5	0xc06038db	-3.5034702
6	0x408ca4c1	4.3951116
7	0xbec3ff26	-0.382806
8	0xbf085b14	-0.53263974
9	0xc0082711	-2.1273844
10	0x3d929eb3	0.07159176
11	0x3e825b55	0.25460306
12	0x3f27d89d	0.655649
13	0xbeee7bb7	-0.46578762
14	0xc04bf6c8	-3.1869373
15	0xbe088c96	-0.1333488
16	0x3db169ae	0.08662735
17	0xbf828ece	-1.019983
18	0xc073e41f	-3.8107984
19	0xbe7eef12	-0.24895886
20	0x3fe5cc72	1.7953017
21	0xbedbc228	-0.42921567
22	0xbf9659dc	-1.1746173
23	0xbfc5b3ec	-1.5445533
24	0x3eaf1453	0.34195194
25	0x3e1c7a18	0.1528095
26	0xbfc06163	-1.502972
27	0xbe94aa8b	-0.29036364
28	0xbf82801e	-1.0195348
29	0x4017b8a5	2.3706448
30	0xbfdcdeee	-1.7255533
31	0xbed60034	-0.4179703
32	0xbfc9d4d3	-1.5768074
33	0xbfde1e23	-1.7352947
34	0x3dedebd3	0.116172455
35	0xbfacaf00	-1.3490906
36	0xbf9c1c98	-1.2196226
37	0xbf3afd37	-0.73042625
38	0xbf90c33a	-1.1309578
39	0xbfa0fb7a	-1.2576745
40	0xbf188b6f	-0.5958776
41	0x3d82afd3	0.06381192
42	0xbf7181bc	-0.94338584
43	0xbfde2e77	-1.735793
44	0x3f479266	0.7795776
45	0xbe88c43e	-0.2671222
46	0xbf58f5c9	-0.8475004
47	0xbe9c2af6	-0.30501527
48	0xbfc26d57	-1.5189618
49	0xbfcd0d07	-1.6019601
50	0xbffec8f9	-1.9905082
51	0xbf9047f3	-1.1271957
52	0xbea0e5b5	-0.31425253
53	0xbfb2b28c	-1.3960738
54	0xbf1831ce	-0.59450996
55	0xbfb4da6a	-1.4129155
56	0x3eb99c88	0.36252236
57	0xbf2d6d5d	-0.67745
58	0xbed5514b	-0.41663584
59	0xc027aa16	-2.6197562
60	0xbf2bad7f	-0.6706161
61	0x3f8e0bd0	1.1097355
62	0xc0256424	-2.584237
63	0x3f16504b	0.5871627
64	0xbf151248	-0.5823102
65	0xbfe56900	-1.7922668
66	0xbe046b2e	-0.12931511
67	0xbe2e8251	-0.170419
68	0xbf600048	-0.8750043
69	0xbf919dcc	-1.1376281
70	0x3ea116d5	0.31462732
71	0xbf1c78c5	-0.6112178
72	0x3f2b92fb	0.6702115
73	0x3e9eac8a	0.30991012
74	0xbf64fdce	-0.89449775
75	0xbecc09d9	-0.39851263
76	0xbe662503	-0.22475056
77	0xbf9e8f8c	-1.2387557
78	0xbf1d8d2e	-0.6154355
79	0xbfbdaff9	-1.4819328
80	0xbec0b0a6	-0.37634772
81	0x4041047f	3.0158994
82	0x3faa1cc4	1.3290029
83	0xbfb54096	-1.4160335
84	0x3df21f89	0.11822421
85	0xbfc1beae	-1.5136316
86	0x40c5fd6e	6.1871862
87	0xbf6f4396	-0.934625
88	0xbfe0fc94	-1.7577081
89	0xbec28907	-0.3799517
90	0xbe5f3abb	-0.21799748
91	0xbf60b890	-0.8778162
92	0x3f35f8f0	0.71082973
93	0xbfc9ae0c	-1.575624
94	0x3dfa735c	0.12229034
95	0xbf53c589	-0.8272329
96	0x3fb9d424	1.4517865
97	0xc05e0010	-3.4687538
98	0xbf1c014c	-0.6093948
99	0xbe3824c6	-0.17982778
100	0xbed93645	-0.42424217
101	0xbd9b4bd9	-0.07582826
102	0xbfc36689	-1.5265666
103	0xbe5e1e84	-0.21691328
104	0x3f399c68	0.7250428
105	0xbf101f2a	-0.5629755
106	0xbf53cce5	-0.8273452
107	0x3e69c4ba	0.22828951
108	0xbdb54b67	-0.088522725
109	0xbf94788e	-1.159929
110	0x3e9a811d	0.3017663
111	0x3e86e794	0.26348555
112	0xbf53cf7b	-0.82738465
113	0xbdd59ed3	-0.10430684
114	0xbf0ebf49	-0.5576063
115	0xbf25d05f	-0.64771074
116	0xbeb10761	-0.34575942
117	0x3f27ad2d	0.6549862
118	0xbf5759e5	-0.84121543
119	0xbfe918c4	-1.8210683
120	0xbbc2127d	-0.005922614
121	0xbfbf6399	-1.495227
122	0xc018647e	-2.3811336
123	0x3f2c2b7a	0.6725384
124	0xc03317c6	-2.798326
125	0xbe7fcfd0	-0.24981618
126	0xbfc612fa	-1.5474541
127	0xbf95bd37	-1.1698369
128	0xbfc773e6	-1.5582244
129	0xbf2ea366	-0.68218076
130	0xbf0b8548	-0.54500246
131	0xbf4c376b	-0.7977206
132	0x3f5ee338	0.8706546
133	0xbe7bfc21	-0.24607898
134	0x3cfe8d06	0.031073105
135	0xbdf2fdf9	-0.11864848
136	0xbfa38a04	-1.2776494
137	0x3eec676a	0.4617265
138	0x3e6e823e	0.23291871
139	0xbe54aafc	-0.2076835
140	0xbc522bf3	-0.012827861
141	0xbea2f885	-0.3183023
142	0xbf249849	-0.6429487
143	0xc03f3254	-2.9874468
144	0xbf801ec8	-1.0009394
145	0xbf5e45b5	-0.86825114
146	0xbe0e126f	-0.1387422
147	0xbe96e6ab	-0.2947286
148	0xbfba21e3	-1.4541591
149	0xc03e1dab	-2.9705608
150	0xbf9b69ed	-1.2141701
151	0x3d57669a	0.052588083
152	0xbda0a816	-0.0784456
153	0x3fb9a5e3	1.450375
154	0x406a2e4f	3.6590765
155	0xbec422c6	-0.3830778
156	0xbef75af0	-0.48311567
157	0xc04f2f9b	-3.2372806
158	0xbdda6eef	-0.1066569
159	0xbe810169	-0.25196388
160	0x3fa35f17	1.2763394
161	0xbf3216f2	-0.6956626
162	0xbf583b6f	-0.8446569
163	0xbeea22d5	-0.457297
164	0xbf801241	-1.0005571
165	0x3f357d99	0.7089477
166	0xc01f2667	-2.486719
167	0x3c5fa8cc	0.013651084
168	0x3d501ce6	0.05080881
169	0xbfb70426	-1.4298141
170	0xbeca35de	-0.39494222
171	0x3f14902d	0.58032495
172	0x3eac18fb	0.3361281
173	0xbed57cd4	-0.416968
174	0x3ee16085	0.4401895
175	0xbf380d13	-0.7189495
176	0xbfc8714a	-1.5659573
177	0xbf9dde0c	-1.2333388
178	0xbf8bb396	-1.091418
179	0x3f4bebe1	0.796568
180	0xbf67cc68	-0.90546274
181	0x3eee520d	0.46546975
182	0x3db930ea	0.09042533
183	0xbf704777	-0.93859047
184	0xbff60aa7	-1.9222001
185	0xbee48d3d	-0.44639006
186	0xc037d669	-2.8724616
187	0xbeb45132	-0.35218197
188	0x3f4c03c3	0.7969324
189	0xbf8aad06	-1.0834053
190	0x3f012c39	0.50458103
191	0x3f249607	0.64291424
192	0xbed4a97f	-0.41535565
193	0x3e6cfb82	0.23142818
194	0xbe059695	-0.13045724
195	0x3f8e7e51	1.1132299
196	0xbfbd3bdb	-1.4783891
197	0x40305806	2.7553725
198	0xbf680314	-0.90629697
199	0xbfa63f47	-1.2988061
200	0x3fb239cc	1.3923888
201	0xbf82e5ce	-1.0226381
202	0xbfa3445b	-1.2755235
203	0xbf027a11	-0.5096751
204	0xbe96a453	-0.29422244
205	0xbfd647fb	-1.6740717
206	0xc016e840	-2.3579254
207	0x3f4fa24a	0.8110701
208	0x40239600	2.5560303
209	0xbefda867	-0.49542543
210	0xbfc06bdd	-1.5032917
211	0xbf1f8790	-0.62316227
212	0xbf2713a2	-0.6526433
213	0x3f6c2e03	0.9225771
214	0x3ecbe7b7	0.39825222
215	0xbf8e879c	-1.1135135
216	0x3f7a647b	0.9780957
217	0xbf8a308b	-1.0796064
218	0xbf309815	-0.6898206
219	0xbee79ded	-0.45237675
220	0xc0146e66	-2.3192382
221	0x3d84b88a	0.064805105
222	0x3eb6697a	0.35627347
223	0x3f2fe88d	0.6871422
224	0xbe1adb9c	-0.15122837
225	0xbf383b7c	-0.71965766
226	0xbf4bb8ae	-0.79578674
227	0x3e0772e8	0.13227427
228	0xbea54d4e	-0.3228554
229	0xc01c7388	-2.4445515
230	0xc02c3cb4	-2.691205
231	0x3f30ba12	0.6903392
232	0xbf0cc19a	-0.5498291
233	0xbf18590a	-0.5951086
234	0xbfeae62e	-1.8351495
235	0xc02345a5	-2.5511258
236	0xbe7ffb72	-0.24998263
237	0xbf699b38	-0.9125247
238	0xbf70373d	-0.93834287
239	0x3e938ae6	0.2881691
240	0x3ef85f4f	0.48510215
241	0xbfef0f67	-1.8676575
242	0xbef6eaaa	-0.4822591
243	0xbea9805e	-0.3310575
244	0xbf9dc6e5	-1.2326323
245	0xbe96e56a	-0.29471904
246	0xbfa5364e	-1.2907197
247	0x3f8646c9	1.0490352
248	0xbfaf6d07	-1.3705148
249	0xbf3160bd	-0.69288236
250	0x3f86f1d7	1.0542554
251	0xbf17fdd8	-0.5937171
252	0xbe7eb039	-0.24871911
253	0x3f462050	0.77393055
254	0xbf53dc8e	-0.82758415
255	0xbf64f044	-0.89429116

model.2.weight f4 [128, 256]
0	0x3f5764e5	0.8413833
1	0x3f39d8a6	0.72596204
2	0x3f27b4bb	0.6551015
3	0xbe03fe1b	-0.12889902
4	0x3ea48a43	0.32136735
5	0x3edb3156	0.42811078
6	0xbee624bf	-0.4494991
7	0x3a4791fd	0.00076130015
8	0x3f82c0e7	1.0215119
9	0xbdfbf79d	-0.12303088
10	0xbdf90a67	-0.12160187
11	0x3e61bc5f	0.22044514
12	0xbf80cd61	-1.0062677
13	0xbb97e352	-0.004635253
14	0x3ddd29a0	0.10798955
15	0x3e732991	0.23746325
16	0x3d8f57d7	0.06999176
17	0x3f23db82	0.6400682
18	0x3e620354	0.22071582
19	0x3cb1ebc6	0.02171887
20	0xbeaaff90	-0.33398104
21	0xbb4b8d90	-0.003105972
22	0x3eb2eb8a	0.34945327
23	0x3fc0ec20	1.507206
24	0x3cd422b8	0.025895461
25	0x3e294f50	0.16534162
26	0x3eeb04ac	0.45902002
27	0xbd9e895b	-0.07741042
28	0x3ed01b46	0.40645808
29	0x3e9c14eb	0.3048471
30	0xbe218a5d	-0.15775438
31	0x3e9b2640	0.3030262
32	0xbe6d256c	-0.23158807
33	0x3ef39979	0.47578028
34	0x3f178ca9	0.59199005
35	0xbd8e226c	-0.06940159
36	0x3d8be1b5	0.068301596
37	0x3f8303ad	1.0235497
38	0x3da69f14	0.081358105
39	0x3f487ac4	0.78312325
40	0xbed0091b	-0.40631947
41	0x3d90b20e	0.07065211
42	0x3eb9d52c	0.3629545
43	0xbe51557f	-0.2044277
44	0xbeb21ac6	-0.34786052
45	0xbd686ede	-0.056746356
46	0x3dd9ff7d	0.10644434
47	0x3e34525e	0.17609546
48	0x3f4752d5	0.77860767
49	0xbe2d40ce	-0.16919252
50	0xbe34ad94	-0.1764434
51	0xbf390460	-0.722723
52	0x3f355532	0.7083312
53	0xbf885a1c	-1.0652499
54	0x3e6818c3	0.22665696
55	0x3ecb79f5	0.39741483
56	0x3ed97c37	0.4247758
57	0xbf459ce8	-0.77192545
58	0x3e953040	0.29138374
59	0x3f296745	0.661732
60	0xbe9e712c	-0.30945718
61	0x3f055e07	0.520966
62	0x3ed9d35e	0.42544073
63	0xbe8aad38	-0.2708528
64	0xbc748f6d	-0.0149267735
65	0xbdceea75	-0.10103313
66	0x3ec0eed5	0.37682214
67	0xbe281955	-0.16415913
68	0xbefe4b5b	-0.49666867
69	0x3f047cb2	0.5175277
70	0x3f09de0c	0.5385444
71	0xbecc9b94	-0.39962447
72	0x3e99010a	0.29883605
73	0x3cef4544	0.029207833
74	0x3e8c6115	0.27417818
75	0xbd8baa9b	-0.0681965
76	0x3f6a5225	0.9153159
77	0xbf422a86	-0.75846136
78	0x3f321767	0.6956696
79	0xbb9e1829	-0.0048246575
80	0x3dca9078	0.098908365
81	0x3e8423f1	0.2580867
82	0x3e27115b	0.16315214
83	0xbe856328	-0.26052213
84	0x3e97bd8c	0.296368
85	0xbe2cb1e1	-0.1686473
86	0x3f1134c9	0.5672117
87	0x3eeeafde	0.4661855
88	0x3ebe1593	0.37125835
89	0xbf729f80	-0.9477463
90	0x3b19c65e	0.0023464183
91	0xbf3ce514	-0.73787045
92	0xbef5a824	-0.47979844
93	0x3eccbe31	0.39988855
94	0xbf1c95e6	-0.61166227
95	0xbdfabafa	-0.12242694
96	0xbf6321bf	-0.8872337
97	0x3ee15c2e	0.4401564
98	0x3e97f67d	0.29680243
99	0xbea0b39d	-0.31387034
100	0x3f00248b	0.5005576
101	0xbf1ac9f3	-0.604644
102	0x3f1322f0	0.57475185
103	0x3e931346	0.28725642
104	0x3dc6c6ad	0.09705863
105	0x3e8150b0	0.25256872
106	0x3ecfb4a2	0.405675
107	0x3d834614	0.06409851
108	0x3f130571	0.5743018
109	0x3ef7ad9c	0.4837464
110	0x3eac0833	0.33600006
111	0xbe87fef3	-0.26561698
112	0x3f38b0f7	0.72145027
113	0x3eb961b8	0.36207366
114	0xbe328d66	-0.17436752
115	0xbf814d46	-1.0101707
116	0xbd076adc	-0.033060893
117	0x3e9d65a5	0.3074161
118	0xbad9c67c	-0.0016614939
119	0xbe13a1e8	-0.14417231
120	0x3e9ba72e	0.30400985
121	0x3e3cedac	0.1845004
122	0xbf4cedea	-0.8005053
123	0x3e0046b4	0.12526971
124	0x3ee52403	0.44754037
125	0x3f2ef4b6	0.6834215
126	0x3e320f10	0.17388558
127	0xbdfbd2d2	-0.1229607
128	0x3a971340	0.0011526123
129	0x3f2e9fe9	0.68212754
130	0x3db5756d	0.08860288
131	0xbfb75efa	-1.432586
132	0xbe319b2d	-0.17344351
133	0xbcb374b3	-0.021906232
134	0xbe44d8ff	-0.19223402
135	0x3df778b8	0.12083572
136	0x3ea58122	0.32325083
137	0xbf821c8f	-1.0164965
138	0x3f36ece7	0.71455234
139	0x3ebfb9a4	0.3744632
140	0xbf04371d	-0.51646596
141	0xbe560aaa	-0.20902506
142	0x3ef31ea1	0.47484306
143	0xbeaad4c9	-0.33365467
144	0x3ecc2c45	0.39877525
145	0x3e995897	0.299504
146	0x3eeeb2b6	0.4662072
147	0x3ec635c2	0.3871289
148	0xbed22fe7	-0.41052172
149	0x3e9b4659	0.30327109
150	0xbe186f72	-0.14886263
151	0x3e3ecb64	0.18632275
152	0x3e5a8d16	0.21342883
153	0x3c85a0aa	0.016311962
154	0x3e8ddbd1	0.2770677
155	0xbf46b517	-0.7762007
156	0xbf743a10	-0.95401096
157	0x3ee51728	0.4474423
158	0x3e69ecf5	0.22844298
159	0xbec60400	-0.38674927
160	0xbf392715	-0.7232526
161	0x3ecf7589	0.4051936
162	0x3e0cda58	0.13755167
163	0xbecd772d	-0.40129986
164	0xbeeede20	-0.46653843
165	0xbd3bb070	-0.04582256
166	0x3c977aba	0.018491138
167	0xbe7f6e83	-0.249445
168	0xbf6bcb68	-0.9210725
169	0x3ea8409b	0.3286179
170	0xbee877a0	-0.45403767
171	0xbed443a3	-0.41457853
172	0x3ee5fe19	0.44920424
173	0x3e666e36	0.2250298
174	0xbee061dc	-0.4382466
175	0xbe582859	-0.21109141
176	0xbf08daf5	-0.534591
177	0x3f17c321	0.5928212
178	0x3f019cec	0.5063007
179	0x3ec59085	0.38586822
180	0xbf73407e	-0.9502028
181	0x3ef5ddf9	0.48020914
182	0xbebab3dc	-0.36465347
183	0x3f8a593d	1.0808483
184	0x3eef60cc	0.46753538
185	0x3f3d498c	0.7394035
186	0x3f160b86	0.58611333
187	0xbe728576	-0.23683724
188	0x3f08a850	0.53381824
189	0x3dd7d055	0.10537783
190	0x3f503e62	0.8134519
191	0xbf806c71	-1.0033094
192	0x3ec63679	0.38713434
193	0xbf506e7b	-0.8141858
194	0x3df6c156	0.12048595
195	0x3e4d20e5	0.2003208
196	0x3ea9fe4c	0.33201826
197	0xbea785db	-0.3271931
198	0x3e9b6d3f	0.30356786
199	0x3f122f1d	0.5710314
200	0x3c88414b	0.016632697
201	0xbe2683ff	-0.1626129
202	0xbe807159	-0.25086477
203	0x3f25823a	0.64651835
204	0x3f36db11	0.7142802
205	0x3f0d923f	0.5530128
206	0x3e4f5710	0.20248055
207	0x3da4b278	0.08041853
208	0xbe85d1f1	-0.26136735
209	0x3f123967	0.5711884
210	0x3e9a65b3	0.30155715
211	0x3ea0e9d0	0.31428385
212	0x3e54f170	0.20795226
213	0x3f03835f	0.5137233
214	0x3e7e8b4c	0.24857825
215	0xbec215be	-0.37907213
216	0x3df1cb79	0.118063875
217	0x3d26236b	0.04056112
218	0x3f2ab568	0.66683054
219	0x3f10f75a	0.5662743
220	0x3da007a2	0.07813956
221	0xbf12aac8	-0.5729184
222	0x3e9e272f	0.3088927
223	0xbed39fb2	-0.41332775
224	0x3f5def9a	0.8669373
225	0xbf007455	-0.5017751
226	0xbf4a9eab	-0.7914836
227	0x3f2e389b	0.68055123
228	0x3edb4eb2	0.42833477
229	0x3e9f6271	0.31129792
230	0xbe372845	-0.17886455
231	0xbec310b4	-0.3809868
232	0x3f0477ee	0.517455
233	0xbe5dd883	-0.21664624
234	0xbf16050f	-0.5860147
235	0x3f181d13	0.59419364
236	0x3ec6810d	0.38770333
237	0x3d84deeb	0.06487831
238	0xbeec34bf	-0.46133992
239	0xbe0b23ab	-0.13587825
240	0xbec4800a	-0.38378936
241	0x3f134965	0.57533866
242	0xbd1cfa2a	-0.038324513
243	0xbe8587a0	-0.26080036
244	0x3ebfad2c	0.37436807
245	0x3e8ae8fd	0.2713088
246	0x3e777796	0.24166712
247	0xbdb3d031	-0.08779944
248	0xbe91e3cf	-0.28494117
249	0x3dd6e123	0.1049216
250	0xbf9c813e	-1.2226942
251	0xbd995b8a	-0.07488163
252	0xbf12bcaa	-0.5731913
253	0xbf2151c9	-0.6301542
254	0x3ef0f702	0.47063452
255	0xbf1146d1	-0.5674868

model.2.bias f4 [128]
0	0xbca82172	-0.02052376
1	0xbe6e63c8	-0.23280251
2	0xbf05fe5c	-0.52341247
3	0xbf0fe6fc	-0.5621183
4	0xbdd93f66	-0.106077954
5	0xbea1378b	-0.31487688
6	0xbf4b55b8	-0.7942767
7	0xbe110707	-0.14162837
8	0xbe1e85c9	-0.15480722
9	0x3e9f081b	0.3106087
10	0xbecee390	-0.4040799
11	0xbe4abce0	-0.19798613
12	0xbf2a9bac	-0.66643786
13	0xbf500595	-0.8125852
14	0xbea12700	-0.31475067
15	0x3e7a27b6	0.24429211
16	0xbeaf2632	-0.34208828
17	0x3eedad73	0.46421394
18	0x3d6102b5	0.054934222
19	0xbe5a4a19	-0.21317329
20	0x3e58faa0	0.21189356
21	0xbe88206d	-0.2658724
22	0xbce87e05	-0.028380403
23	0x3d9668a2	0.07344176
24	0xbf120fcf	-0.5705537
25	0xbf2f87ea	-0.68566763
26	0xbecfb668	-0.40568852
27	0x3c0a6611	0.008447186
28	0xbd04de40	-0.032438517
29	0xbf08f37f	-0.53496546
30	0xbe938797	-0.28814384
31	0xbf8d433d	-1.1036144
32	0xbe65e73b	-0.22451489
33	0x3dff6ba1	0.124717005
34	0xbf25733d	-0.64628965
35	0xbe78e931	-0.24307705
36	0xbecb03e6	-0.39651412
37	0xbf25a0fe	-0.6469878
38	0xbe81af80	-0.25329208
39	0xbe6f4249	-0.2336513
40	0xbe5759bf	-0.21030329
41	0xbe5104ee	-0.20412037
42	0xbf3617ad	-0.71129876
43	0xbe80cf2e	-0.25158066
44	0xbe5f57fd	-0.21810909
45	0xbeeea2ee	-0.4660868
46	0xbf111e73	-0.56687087
47	0xbf1e6dd8	-0.6188636
48	0xbebd8838	-0.3701799
49	0x3e9a4b26	0.3013546
50	0xbe208920	-0.15677309
51	0xbef70d12	-0.4825216
52	0xbecda02f	-0.40161273
53	0x3e153de2	0.14574388
54	0xbd92d533	-0.07169571
55	0xbf09e3a5	-0.53862983
56	0x3f019e7d	0.5063246
57	0xbeb7c251	-0.3589044
58	0xbf0c8387	-0.54888195
59	0xbdef137f	-0.116736405
60	0xbe848c9f	-0.25888535
61	0x3f001aaa	0.50040686
62	0x3c54dfde	0.012992827
63	0xbeda21d9	-0.4260395
64	0x3f23e163	0.6401579
65	0xbe5e5e1d	-0.21715589
66	0xbe808363	-0.2510024
67	0xbf23c0e3	-0.63966197
68	0xbccd1d0b	-0.025038263
69	0xbf2e6c20	-0.68133736
70	0x3e74bfbe	0.23901269
71	0xbe6c5c82	-0.23082164
72	0xbe89a7bc	-0.26885784
73	0xbf377301	-0.7165986
74	0xbe1dbaa2	-0.15403226
75	0xbc6d9191	-0.014500038
76	0xbe452634	-0.19252855
77	0xbd0901e0	-0.033449054
78	0xbe881547	-0.26578733
79	0x3e443b9e	0.19163367
80	0xbeeeabdf	-0.46615502
81	0xbe9c4e50	-0.30528498
82	0xbef058c1	-0.46942714
83	0xbf17939f	-0.59209627
84	0xbe9446e8	-0.28960347
85	0xbef1932d	-0.471826
86	0x3e0a8130	0.13525844
87	0xbf292ff4	-0.66088796
88	0xbeec9dc6	-0.46214122
89	0xbf59022f	-0.84768957
90	0xbeaca5c2	-0.33720213
91	0xbe23ced0	-0.15996861
92	0x3cd37213	0.02581123
93	0xbd54c528	-0.051945835
94	0xc07907ac	-3.8910933
95	0xbe985591	-0.29752782
96	0xbe92e592	-0.28690773
97	0xbf2b3d48	-0.6689038
98	0x3e850554	0.25980628
99	0xbd633a5d	-0.05547558
100	0xbeb738dd	-0.3578557
101	0xbe6f2406	-0.23353586
102	0xbeab5c1b	-0.33468708
103	0xbdea881a	-0.114517406
104	0xbe86b093	-0.2630659
105	0xbe45bc07	-0.19310008
106	0xbebecafb	-0.37264237
107	0xbe0c923a	-0.13727656
108	0xbd67d955	-0.05660375
109	0xbefffdc3	-0.49998292
110	0xbeb60425	-0.35550037
111	0x3fcfec65	1.6244017
112	0xbf3fe9a6	-0.74965894
113	0xbf2e5329	-0.6809564
114	0x3ed9ffee	0.4257807
115	0xbeaab6f4	-0.33342707
116	0x3e8523de	0.26003927
117	0xbd9ed3bb	-0.07755228
118	0xbf5823b4	-0.8442948
119	0xbe8ffb4a	-0.28121406
120	0x396d60fc	0.00022638211
121	0xbea6adbb	-0.3255442
122	0xbebbc132	-0.36670834
123	0xbf5bd92f	-0.8587827
124	0xbf488362	-0.78325474
125	0x3e94f718	0.29094768
126	0xbc8fcaab	-0.017552694
127	0x3eaff54c	0.34366834

model.4.weight f4 [1, 128]
0	0x3cec9e4a	0.028884072
1	0x3b66f2f4	0.0035240026
2	0xbcd9cb3f	-0.026586173
3	0xbcb798aa	-0.022411663
4	0x3d5e1632	0.054220386
5	0x3c06c29e	0.008225111
6	0xbd0c1abd	-0.034205187
7	0x3c44daf3	0.012015092
8	0x3b93ce5a	0.004510683
9	0x3c2de6b8	0.01061409
10	0xbd375e02	-0.044767387
11	0xbbc07a1d	-0.005873932
12	0xbd6f4042	-0.05841089
13	0xbcb1afcf	-0.021690277
14	0xbc325e33	-0.010886717
15	0xbc4a9ff0	-0.012367234
16	0x3ca98b72	0.020696376
17	0x3d289eb2	0.04116697
18	0x3d650f93	0.055923056
19	0x3c8401d1	0.016114147
20	0x3db7e24c	0.089787096
21	0x3bb8b054	0.0056362543
22	0x3d4dc05e	0.050232284
23	0xbc330b31	-0.010927961
24	0xbce5390f	-0.02798131
25	0xbd05d14e	-0.03267031
26	0xbc64fb8e	-0.013975991
27	0xbc431c80	-0.01190865
28	0x3b7d7b80	0.0038678348
29	0xbd063d42	-0.032773264
30	0xbb17faf4	-0.0023190351
31	0xbc9a6d5a	-0.018850971
32	0xbbeed6a0	-0.007288769
33	0xbcdfe0aa	-0.027328808
34	0x3a2207a8	0.00061809504
35	0xbc2a5be8	-0.010397889
36	0x3c02c452	0.007981377
37	0xbc4fe10b	-0.012687932
38	0xbd2e958e	-0.042623095
39	0x3c9391f2	0.018013928
40	0xbd1d23df	-0.038364287
41	0x3c0e3b06	0.0086810645
42	0xbd235688	-0.039877445
43	0x3c22f918	0.009947084
44	0x3d22e4bd	0.039768923
45	0x3d493196	0.049119554
46	0xbd288ce4	-0.04114999
47	0xbc88a4cf	-0.01668015
48	0xbcf182ac	-0.029481255
49	0x3b191940	0.0023360997
50	0x3c414e9f	0.01179853
51	0xbd2be8ee	-0.041970186
52	0xbcdf2e2c	-0.027243696
53	0xba770130	-0.0009422479
54	0x3b53b559	0.0032304137
55	0x3c29f98a	0.010374436
56	0x3c0a4005	0.008438115
57	0xbb9deb04	-0.004819276
58	0xbbe4442f	-0.006966136
59	0xbd3e2764	-0.046424285
60	0xbd00b58e	-0.031423144
61	0x3c50366f	0.0127082905
62	0x3d4ff16a	0.05076734
63	0xbba2ddd2	-0.0049702907
64	0x3cf2661b	0.029589703
65	0x3aacb288	0.0013175765
66	0xbc9fd534	-0.019510843
67	0xbd3ebabd	-0.046564806
68	0xbc3282d8	-0.010895453
69	0x3a6284b4	0.000864099
70	0x3c6fff93	0.014648336
71	0x3b6fc3f8	0.0036585312
72	0xbb9b8e3b	-0.00474718
73	0xbcdc392b	-0.026882729
74	0xbd08c7ab	-0.033393543
75	0xbb3c122f	-0.0028697362
76	0x3b106639	0.0022033586
77	0xbcb4816f	-0.022034375
78	0x3c75901d	0.014987973
79	0x3d057f91	0.03259236
80	0x3cae2b90	0.021261007
81	0xbc770646	-0.015077179
82	0xbc9e4be6	-0.0193233
83	0xbc72829c	-0.0148016475
84	0xbcbf3096	-0.023338597
85	0x3bb96a82	0.0056584487
86	0x3c4bacc1	0.012431324
87	0x3d10ed27	0.035382416
88	0x3cec533a	0.02884828
89	0xbcd0e654	-0.025500454
90	0x3bf8cd62	0.007592843
91	0xbcd24ca6	-0.025671314
92	0xbc4f7821	-0.012662918
93	0x3c221f82	0.009895207
94	0xbdae1698	-0.08500403
95	0x3c0dfae0	0.00866577
96	0xbcec23fc	-0.028825752
97	0x3aa9eead	0.0012964808
98	0xbbbd5f0e	-0.0057791537
99	0xbcb4682b	-0.022022327
100	0x3c5b2897	0.013376377
101	0xbb6d3acc	-0.0036198376
102	0xbb4e8666	-0.0031513213
103	0x3cc65475	0.024210194
104	0x3d247852	0.04015381
105	0xbc6fb12a	-0.014629642
106	0x3d01a266	0.031649016
107	0xbd3f288e	-0.046669535
108	0xbc01581e	-0.007894544
109	0xbd69d960	-0.05709207
110	0x3d6ebc75	0.058285195
111	0xbe2992a5	-0.16559847
112	0xbcdbda01	-0.02683735
113	0xbc288e50	-0.010287836
114	0xbcae9a87	-0.021313919
115	0xbc0daedc	-0.008647647
116	0x3cb349be	0.021885749
117	0x3b869286	0.0041068224
118	0x3c20c13e	0.0098116975
119	0x3c75956d	0.014989239
120	0xbafba69e	-0.0019199436
121	0x3b71c6d4	0.0036892192
122	0xbcdde1cd	-0.02708521
123	0xbbc37128	-0.005964417
124	0x3c06581a	0.008199716
125	0x3ca0b977	0.019619687
126	0x3cb12b90	0.021627218
127	0xbbc1e035	-0.00591662
