discriminator_gan_ecv_ts_128_13.pth (torch, 397304 bytes, 5 tensors)

model.0.weight f4 [256, 255]
00000000: 8501 11c2 b541 d63f 647f 913f e6c8 f03d
00000010: c94b 8fbf 8dc2 dcbf e1c0 ccbf 032e 00c0
00000020: e0c4 1abf 4e5c 9dbf 7a22 40bf 8db0 22bf
00000030: 7b8c a2be d443 31bf 797f fbbe badb 2bbe
00000040: f462 27bf f475 21bc b7ea 3dbf 62c9 15bf
00000050: b2df 6bbf b187 91be 3fb9 d8be c232 57bf
00000060: b715 07bf e0bb f0be 3a2d e0be d17d 6fbe
00000070: d004 fcbd 616d 2dbf bcf5 21bf cdeb 27bf
00000080: 4f54 06bf 0348 92bf f86b 87bf 009e 90bf
00000090: 3826 59bf bfe0 1cbf 9993 aabf 0863 80bf
000000a0: aa66 65bf b894 60bf 0588 eebe b045 8abf
000000b0: 7034 66bf 8916 ffbe abd7 38bf 11ee c9be
000000c0: 5974 45bf 9e8f febe e8dd 6dbf ccf2 56bf
000000d0: c4d4 8dbf 9651 93bf 1549 babe 5a62 27bf
000000e0: ff91 3cbf 3bbc 60bf e4d5 10bf b560 28bf
000000f0: 46ff 39bf 5dc2 9ebe a4d3 d1be d4a8 fabe
00000100: 306e 5abf f17d 39bf 2669 44be f7c0 98bf
00000110: a05b 5abf b24b 21bf 6876 0ebf 382c 90bf
00000120: a9fe 11bf 8c19 ddbe 5fbf 13bf 1b61 7abf
00000130: db0a 6ebf 8261 43bf e7d7 65bf 3317 5dbf
00000140: 4d2c 24bf ef0e 8bbf c95f afbf 5236 c1be
00000150: e960 dfbe 0e80 8fbf 1d2e 26bf f9c2 02bf
00000160: 2113 87bf 5d39 b9be b129 d8be f9af 44bf
00000170: 59f9 46bf cc8b 18bf 7a95 34bf 18d7 8dbf
00000180: 5966 02bf 360e 10bf d90f b7be bf8d d0be
00000190: ee81 38bf 0387 dfbe c78f 04bf db63 06bf
000001a0: d7f5 d4be 420a 7fbf d18e 4dbf e10d 26bf
000001b0: 9e90 52bf b8c8 e3be a916 20bf 12e8 a0be
000001c0: 7fd5 d3be f4fb 77be a50e 10bf e312 fbbe
000001d0: 2a3b 6dbe 1087 10bf 238f 12bf 9f4a 7dbf
000001e0: fffb 8fbf de0d f2be 5281 58bf aaad 61be
000001f0: 55d6 36bf 27af 73bf d2df d8be 4825 2ebf
00000200: 1a01 f8be 0a2b 2ebe 525e 27bf e93b 35bf
00000210: ea61 89bf 6f77 83bf 44be 82bf 51b2 03bf
00000220: 8d83 36bf abc2 05bf 9903 4dbf e308 2bbf
00000230: 0911 5fbf 1121 3ebf 4bc3 f0be 5965 ecbe
00000240: ba7f 90bf 6f08 bebe a5b9 82bf f005 4abf
00000250: 1e81 41bf bc23 b3be abb1 82bf 71ee 3cbf
00000260: 3d4a d0be 46d2 4fbf 01c1 78bf 921a 76bf
00000270: 307e 72bf c44e 7cbf 3ac7 4dbf b08a 1cbf
00000280: cd3b 50bf d327 17bf 0192 44bf efb8 70bf
00000290: 591e 6bbf 7aab 6cbf 6bfa 91bf 9c66 61bf
000002a0: ebc2 bfbe 1be8 05bf 4c62 bfbe d121 5dbf
000002b0: 53f7 e2be c002 77bf 4677 85bf 74d8 13bf
000002c0: 9dbb 88bf e64d 79bf 9553 55bf d5da 82bf
000002d0: 3867 32bf 0311 4bbf 2e04 74bf c84d b3be
000002e0: 20ef 01bf 7c70 3abf 24b6 abbe c2a2 49bf
000002f0: a3d2 5ebf ce40 27bf 0558 82bf 5e72 acbe
00000300: dcb3 d3be 4fe4 70bf 2a39 77bf 842f 1abf
00000310: 4464 2abf d18b 12bf 9c50 1abf 38cf 71bf
00000320: 7604 3bbf 163a 4bbf 0e06 49bf b598 bcbe
00000330: 0e59 94bf b59d 9dbf b54d 47bf 51a5 70be
00000340: 73df c1be 6e28 1fbf e87d 9abf 245c 5ebf
00000350: 15fe 3fbf 21ef 43bf 4706 5bbf 39ff 71bf
00000360: 357d 80bf e19f 5fbf ef45 4ebf 47ff 32bf
00000370: 4b9a 43bf c2f2 2cbe 39c9 4fbf 96d9 46be
00000380: 80e1 7fbf 61b3 4abf 39a4 67be 346f 53bf
00000390: bff2 64bf 738c 203d a861 22bf 20c7 68bf
000003a0: 6913 53bf e39e 1cbf 42bd 82bf f949 0ebf
000003b0: 5b00 65bf ed80 80bf b9c2 29bf b5e4 1cbf
000003c0: 2e39 75bf 0c3c 7dbf 0879 48bf cde9 32bf
000003d0: d4d3 2abf 02f3 02bf 66c6 05be d608 1abf
000003e0: 5b3e 49bf 0133 f7be f7c9 cabe 5ab6 05bf
000003f0: 9b59 943d 429a b43e 37f2 16be add0 25c1
-36.251484 1.6738802 1.1367002 0.11757068 -1.1195003 -1.7246872 -1.5996362 -2.0028083
-0.6045666 -1.2293794 -0.7505261 -0.63550645 -0.31747803 -0.6924412 -0.4912069 -0.16783038
-0.65385365 -0.009854782 -0.7418627 -0.5851041 -0.92138207 -0.28423837 -0.42328832 -0.84061825
-0.5276751 -0.47018337 -0.43784505 -0.23387839 -0.123056054 -0.67745024 -0.63265586 -0.6559418
-0.52472395 -1.1428226 -1.0579824 -1.1298218 -0.8482394 -0.61280435 -1.3326293 -1.0030222
-0.8960978 -0.87726927 -0.4658815 -1.0802517 -0.89923763 -0.4982188 -0.72204083 -0.39439443
-0.7713066 -0.49718946 -0.9291673 -0.8396423 -1.1080556 -1.1509273 -0.36383882 -0.6538445
-0.7366027 -0.87787217 -0.5657637 -0.65772563 -0.7265514 -0.31007662 -0.4098178 -0.4895693
-0.8532438 -0.72457796 -0.19180736 -1.1933888 -0.8529606 -0.63006127 -0.55649424 -1.1263494
-0.57029206 -0.43183553 -0.57713884 -0.9780442 -0.92985314 -0.7632066 -0.89782566 -0.86363524
-0.641301 -1.0863932 -1.3701106 -0.37736756 -0.43628624 -1.1210954 -0.64914113 -0.51078755
-1.0552713 -0.36176577 -0.42219308 -0.7683101 -0.77724224 -0.59588313 -0.70540583 -1.1081266
-0.5093742 -0.56271684 -0.35754278 -0.40733144 -0.72073257 -0.43657693 -0.51781887 -0.5249612
-0.4159381 -0.9962503 -0.80296046 -0.6486493 -0.8225192 -0.44489074 -0.62534577 -0.31427056
-0.41373822 -0.24217206 -0.56272346 -0.49037847 -0.231671 -0.5645609 -0.5724966 -0.9894199
-1.1248778 -0.47276205 -0.8457233 -0.22038904 -0.71420795 -0.95189136 -0.4235826 -0.68025637
-0.4843834 -0.17008606 -0.65378296 -0.7079454 -1.0733006 -1.0270823 -1.0214314 -0.51443964
-0.7129448 -0.52250165 -0.80083615 -0.66810435 -0.8713537 -0.74269205 -0.47023997 -0.46171072
-1.1288979 -0.3711581 -1.0212904 -0.7891531 -0.7558764 -0.349882 -1.021047 -0.7380133
-0.4068164 -0.81180227 -0.971695 -0.96134293 -0.94723797 -0.98557687 -0.8038212 -0.6114912
-0.8134125 -0.5904514 -0.76785284 -0.94032186 -0.9184318 -0.9244915 -1.1404546 -0.88047194
-0.37453398 -0.5230729 -0.37379682 -0.86379725 -0.44329318 -0.9648857 -1.0427024 -0.57752156
-1.0682255 -0.9738449 -0.8333066 -1.0223032 -0.6968875 -0.7932283 -0.9531888 -0.3502028
-0.507555 -0.7282789 -0.335374 -0.78763974 -0.87040156 -0.6533326 -1.0183111 -0.33681005
-0.4134816 -0.9409837 -0.965716 -0.60228753 -0.66559243 -0.5724459 -0.6027925 -0.94456816
-0.7305368 -0.7938551 -0.78524864 -0.36835256 -1.1589677 -1.2313753 -0.77852947 -0.23500563
-0.3786579 -0.62171066 -1.2069674 -0.86859345 -0.74997073 -0.76536757 -0.85556453 -0.94530064
-1.003821 -0.8735333 -0.8057546 -0.6992077 -0.7640731 -0.1688948 -0.81166416 -0.1941894
-0.9995346 -0.7917996 -0.2262124 -0.8259156 -0.894329 0.039196443 -0.6343026 -0.9092884
-0.8245149 -0.6117994 -1.0214007 -0.55581623 -0.8945367 -1.0039345 -0.6631275 -0.6128648
-0.95790374 -0.9891975 -0.7830968 -0.69888 -0.66729474 -0.5115205 -0.13063964 -0.6016973
-0.7861077 -0.482811 -0.39607212 -0.5223137 0.072436534 0.3527394 -0.14740835 -10.363446

model.0.bias f4 [256]
00000000: d46f 053e 24bf 053e 4203 973e 28e6 0139
00000010: 9934 82bd 197d 3b3e 6e01 1bbe 78f0 0d3d
00000020: ac97 bbbc e917 993d 5be7 38ba de6b c43c
00000030: 17b1 8dbd bf84 74be 0005 fb3b a203 95bc
00000040: 200e 2a3d 761d 37be 4cc7 f03c c020 5e3e
00000050: be41 27bc 54cc c43b 95c3 d13c 5f0c 25bf
00000060: 37d9 28bd 9ce9 28bc c1ce 0b3e b900 07be
00000070: 7223 2dbc 663c 2d3c 0d8e a5be e88c f33d
00000080: 8c05 45be e7ad 1ebe 4fb8 9ebe cba3 27be
00000090: 0daf 523c 87d0 653c 6c63 893e d73b b9be
000000a0: f5b9 fb3a 9f6a 17bc fef2 03bf 785b 5abf
000000b0: e4c2 2bbd 6815 0abf 77ec 683b 63a5 60be
000000c0: 03fe 75bd ca59 6bbc 33a9 c03e 4149 c5bd
000000d0: 196e 883d 4d2a b2be d822 93bb dc2c 7cbc
000000e0: bca2 263b 4303 ee3e 8eb7 a8bc ba52 a3bc
000000f0: 923f 0d3e c7ee 20bd b08c cebb 2804 0cbd
00000100: a26b 8c3c bc69 513e fd1d 88bc b91f bbbb
00000110: 0390 843b 0199 cf3a 9e7a b23c 1c3f 023d
00000120: 8658 d33e 4ac4 c0bc 26a4 363e 27ec 3b3c
00000130: b0f5 54bc d673 dd3e 658c 12bc 513c 473e
00000140: 108c 0ebc ca2a 893e 414c 8b3e b690 303e
00000150: d826 40bd a5e7 e1bc 7fc9 4dbc f676 353b
00000160: 866e da3d 4527 96be 2112 35bf bc48 1d3e
00000170: 61f0 113d 3fc0 ce3c aa17 04bd 209f 6f3c
00000180: cf11 1f3e 6610 7c3e 517f b83e 991c 243d
00000190: 8ae3 a3bb bd04 82be 5d48 a73d 9454 80bd
000001a0: 18de aabe 8567 833c eed9 4b3a 79ea 48bd
000001b0: 0999 33bc afe1 7b3d 42ab ce39 175f 7e3c
000001c0: 6ad1 203e 026e f23a 7769 0f3e 47d4 c63c
000001d0: f68b 143c 432f 85bd 3e18 d8bc 465b 0dbf
000001e0: f5b3 f3bb c31b 04bd 89cf 4db9 7139 d9bb
000001f0: 0a98 d13e df65 91bd 6524 663d 248a ebbd
00000200: a92f 353c a8f4 b0bb 99de fa3b dade 153d
00000210: 22b0 413e 8abf a8bb 5e1c 4a3a e4b5 493b
00000220: 10b7 973c c381 073f 6101 12be 76a9 f7bb
00000230: 0af0 5dbc 6310 773e 2dbe df3c fff8 82bd
00000240: 642c e9bc ffe1 db3c 6b4e 00be ea7b 143e
00000250: 19d3 6d3c 07f1 f13e 19ec 14bf 5eba 893e
00000260: 49bc 1a3a c895 13bf 1ceb c3bb 32e8 67bf
00000270: 6183 dbbb a5ad b1bc a371 d13d b4d7 5fbe
00000280: 872e 853c 3daa 0a3c 42e0 9d3c 685d e3bd
00000290: be84 34bc d966 063d 1dfd 6bbd 996d fc3d
000002a0: 8573 d2be 7128 99be 1e20 e83b 5a35 16bf
000002b0: ad9a 203e 9fe6 0d3d b868 dd3c 3775 07bd
000002c0: 9e2c ce3e 2bb4 6dbc 07c4 81bc a1ed 873e
000002d0: 662a c23c ff01 613e f3c8 02bc aedd 8bbc
000002e0: d994 913c 9c1c 36bc d9ab e83c 47b2 223f
000002f0: 2c41 01bd 544e ae3c 618f 70bf 0b73 2fbe
00000300: 1af5 44bf ea65 a4bc 87ed ad3c dc63 b8bc
00000310: da20 dfbb 9f17 f9bc 7bc1 cfbd 5246 e9be
00000320: 4f4b bdbc 7a17 db3c 687a ba3c 2cff 093f
00000330: dec3 4039 6124 13bf 9e47 093c 11d6 04bf
00000340: ee63 b7bc 1a34 e4bd 2744 f3be 4413 b7bb
00000350: 7a99 3c3c c8a1 683d 6fba 1abe 0aea 56bd
00000360: 7d20 d23c 5487 c23c b154 1d3c 0fc8 a03d
00000370: 30b0 193d 3de1 bcbe 8330 71be 4e77 3e3a
00000380: ad6d 89bc b4d8 ad3c ec79 143d d74a 9bbd
00000390: b3c8 153e 2a27 4fbc aaae 23bc 5343 13bd
000003a0: 6e94 43bf c114 a9bc e667 14bf f633 27bd
000003b0: 9467 38bb 91d5 a9bc bdc8 bfbf e1c1 19bb
000003c0: e835 4f3d ded9 223d a6af cebb a630 16bb
000003d0: da84 5abb 1c5d 04bd 2410 83be a8e0 af3e
000003e0: 93c9 943c 56f8 7dbf f6f5 5fbe 92bc 25bd
000003f0: 2010 5f3d 68bc 643e a398 ebbe 17c1 a1bc
0.1303094 0.13061196 0.29494673 0.00012388139 -0.063576885 0.1830944 -0.15137264 0.034653157
-0.022899471 0.074752636 -0.00070535176 0.023977216 -0.06918543 -0.23878764 0.007660508 -0.018190209
0.041517377 -0.17882332 0.029391907 0.2169218 -0.010208545 0.006005803 0.025605956 -0.64472
-0.041222777 -0.010309603 0.13653089 -0.1318387 -0.010567533 0.010573482 -0.3233494 0.1189211
-0.19240397 -0.15496026 -0.3099999 -0.16371076 0.012859118 0.014026768 0.26833665 -0.36178467
0.00192052 -0.009241729 -0.5154265 -0.8529582 -0.04193391 -0.53938913 0.0035541335 -0.2193809
-0.060056698 -0.014364669 0.3762909 -0.09633113 0.066616245 -0.34797898 -0.0044902377 -0.015391555
0.0025426587 0.46486863 -0.020595338 -0.019936908 0.13793781 -0.039290216 -0.0063033924 -0.03418365
0.017141167 0.2045049 -0.016615862 -0.0057105687 0.004045488 0.0015838445 0.021786984 0.031798467
0.41278476 -0.023531098 0.17836055 0.011469877 -0.01299803 0.43252438 -0.0089446055 0.19456603
-0.008700386 0.26790458 0.27206615 0.17242703 -0.046912044 -0.027576277 -0.012560247 0.0027689314
0.10665612 -0.29326835 -0.7073079 0.15359777 0.035629634 0.025238154 -0.03224913 0.014625341
0.15534137 0.2461563 0.36034635 0.040066335 -0.00500149 -0.2539424 0.08168099 -0.06266132
-0.3337257 0.016040573 0.00077763095 -0.049051736 -0.010961779 0.061494526 0.0003941898 0.015525601
0.15704885 0.001849592 0.14005075 0.024271144 0.009066572 -0.06503155 -0.026378747 -0.552174
-0.007437224 -0.03225304 -0.00019627636 -0.006629162 0.4093631 -0.070995085 0.056187052 -0.115009576
0.011058726 -0.005400259 0.0076559302 0.03658948 0.18914846 -0.0051497864 0.00077099155 0.0030778581
0.018519908 0.52932376 -0.14258339 -0.007558043 -0.013545999 0.24127345 0.027312363 -0.063951485
-0.02846355 0.026841162 -0.12529914 0.14500394 0.014515662 0.47254202 -0.58172756 0.269
0.00059026905 -0.57650423 -0.005978955 -0.90588677 -0.006699011 -0.021689245 0.102267526 -0.21859628
0.016257538 0.0084634395 0.019271974 -0.111018 -0.011017976 0.032812927 -0.057614435 0.123255916
-0.4110376 -0.29913667 0.007083907 -0.5867516 0.15684004 0.034643766 0.027027473 -0.03307077
0.40268415 -0.014508287 -0.015840543 0.26548484 0.023701858 0.21973418 -0.00798248 -0.017073479
0.017771171 -0.011115219 0.028402256 0.6355328 -0.031556293 0.021277584 -0.9396878 -0.17133729
-0.76936495 -0.020068128 0.021231426 -0.022508554 -0.006809336 -0.030406771 -0.10144325 -0.45561463
-0.023107199 0.026744593 0.022763446 0.53904986 0.00018383513 -0.57477385 0.008378891 -0.5188914
-0.022386517 -0.1114275 -0.47512934 -0.0055870134 0.011511201 0.05679491 -0.15110181 -0.05246929
0.025650257 0.02374617 0.009602712 0.07850658 0.03752154 -0.36890593 -0.23553662 0.00072657026
-0.01677593 0.021221496 0.036249086 -0.07582634 0.14627342 -0.012643615 -0.009990374 -0.035952877
-0.7639836 -0.020639779 -0.57971036 -0.04082104 -0.002813791 -0.02073172 -1.4983135 -0.0023461508
0.05058852 0.039758556 -0.00630756 -0.002291718 -0.0033343346 -0.03231536 -0.25598252 0.34351087
0.018162524 -0.99207056 -0.2187117 -0.040463038 0.054458737 0.22337496 -0.4601489 -0.019745393

model.2.weight f4 [128, 256]
00000000: d9ce 14bf bd8c 70bf e047 8b3e 512f 6c3d
00000010: 2bc8 dabe c84b f23e e7fa c6be bf7c 2bbc
00000020: 886a 6ebd d742 4e3d a039 1ebe 9bf5 29bf
00000030: 2bca 35bf ce92 c9be e255 4e3f 888f 903d
00000040: fe86 cdbe 71bb e13d b25e b63e 8791 f0bd
00000050: bab2 9b3c 73af e03e e7fa 40bd 2e62 07bf
00000060: af41 cdbd ce77 2fbe 194e 663e 49fe bcbc
00000070: 3239 06be f674 2a3f d477 c33e 4e05 a23e
00000080: a952 a73c b2d1 843e ac9f 833f 3889 9ebc
00000090: f3bf dc3d e3b8 ba3e 2733 c93c 2f36 58be
000000a0: 76a9 2f3f 1cc0 5b3e e9c2 d93d e1bb 3bbf
000000b0: 986c 143e 101c 61be cb7d 073f 4d25 80bf
000000c0: 0dd6 d13e 0b28 f8bc 082e b73e 7f71 203e
000000d0: c17b 773e 01f1 44bf dc1c d9be 0623 11bf
000000e0: 75d4 8fbe 641a b83e 5af8 f63e dc54 ed3e
000000f0: 46d5 633e 5baa f63e a33b d0bf d75e 6a3f
00000100: 143d e23d 5405 9dbe 8204 e13d b461 9a3e
00000110: f954 dcbd fc99 f03d 1447 f03e 4aa8 f93d
00000120: e252 093f 3efd 22bf 71ad 7e3e 4eb3 63be
00000130: 8a47 553e 5eaa 2c3f 1d50 9dbe f955 9e3e
00000140: 256e de3b b294 4a3f 37e2 b13f 7ef3 75be
00000150: 1974 233f ab4b e7be 665e e93d 38ce 803e
00000160: fc10 a6be 86c2 cc3d aaf6 33bf 86ea 98bd
00000170: a1fd 89bd 2aac 18be 1aaa ba3e cd98 6d3e
00000180: 536a bd3e 0bac 753f ace3 b7bf 03e4 f73f
00000190: 35fb 39be 4dee 33bc a78f 11be 4d09 523f
000001a0: 81cb 9ebe d6ca 743e aa17 3dbe fe64 0640
000001b0: c384 64be 7228 5e3d 161b 4c3e e4a8 783e
000001c0: 27c0 1abd 5481 c63e 7522 babe bb75 76be
000001d0: 692f 72be 0afd ccbe de77 73bf 7e20 883d
000001e0: 01b1 3abe 97d6 de3e c63e 5abf a004 a8be
000001f0: 6e1b 9dbe 596c 633f 3766 753f 89b5 a83e
00000200: 8062 02bf e2f0 bcbf aa11 8a3f 8f69 00bf
00000210: a0ca 8b3b a244 f2be 674f 963e e08b 92bd
00000220: 762a 3abe 93d8 adbe c4e1 7c3d 4e8a 333f
00000230: 8121 75be 1ba9 c3be 9b70 e23d 6110 94be
00000240: 23bc cd3f 3ad4 abbe fde4 0fbf c032 e9be
00000250: ee4f 853e dc61 15bf ded2 25be af31 b8be
00000260: 052a 763f 6099 67bf 5b40 df3d fdf0 a1bf
00000270: 8e0b be3e 6dab 1b3f 3477 733d 2ba0 5a3f
00000280: 91f8 1a3f 2d4c 1ebe 827a c13e 5e31 16bf
00000290: e2d9 2b3f 3d7f c63d 80f0 adbe faa9 c93d
000002a0: 3b96 1cbd 138d 98be edff 92bc 9314 acbe
000002b0: f732 ed3e b9b8 9c3e 8fc3 ea3e 43b0 373f
000002c0: 8ee4 413f d874 0c3f 53a6 dfbe 6ecc 07be
000002d0: bda8 fbbd 7a15 24bf b20a 26be a92a 113e
000002e0: 0821 e0bd 62e4 b53e a021 123e 06f7 9fbf
000002f0: 9f3f 783f 5050 b23f a10e 29bf b0d7 c53e
00000300: 838a 033e e01d ba3d e6a9 113e f4b4 093f
00000310: 71fd c3bc 6cc5 453e c403 8c3e 29ce f4be
00000320: 79fe de3e 2a8c 203f e2ac 163f 3b7a 003f
00000330: afab 183f f0f7 45bf e89c 10be 1636 a4bd
00000340: 2258 143f 021e 13bf a6ce babe eca0 763e
00000350: 7ea1 31bd 56cd b03e 8ffc 2ebe dc12 103f
00000360: 9699 6f3f e85a 823f e064 5abf b081 16be
00000370: 9adc 943d acd3 54bf a90e 723f 6f37 2cbe
00000380: 8f28 03bf 99ec 8bbd ccb3 18bf 17e6 85be
00000390: 78f1 c03d 28b9 7bbd ebd2 643e e3b8 c5bd
000003a0: 3a61 5dbe 0fd8 273f 708f e1bf 3ccb 483c
000003b0: 28ff 053f 049b 133f 8df7 41be 36a8 123f
000003c0: d5f9 923c b4f1 aa3d c7a0 e3bd c9d7 093f
000003d0: 75e8 b43d 1059 483e 96ec 22be 6f28 3a3d
000003e0: f4ed a33e c930 12bf 0ea3 71bd 9bbc 9dbf
000003f0: a226 6e3f 46da e23e 43dc 5ebf 1d1b 33be
-0.58128124 -0.9396475 0.27203274 0.057662312 -0.4273084 0.47323442 -0.38863298 -0.0104667535
-0.058207065 0.050356712 -0.1545167 -0.6639039 -0.7101161 -0.39369816 0.80599797 0.070586264
-0.40142053 0.1102208 0.35619122 -0.11746507 0.019006122 0.43883857 -0.04711428 -0.52884185
-0.10022294 -0.17135546 0.2249073 -0.023070471 -0.13107756 0.6658472 0.3817736 0.31644672
0.020425158 0.25941235 1.0283103 -0.01935254 0.10778799 0.36469182 0.024560524 -0.2111442
0.6861795 0.21460003 0.10632879 -0.73333555 0.1449455 -0.21983361 0.5292632 -1.0011383
0.4098362 -0.030292531 0.35777307 0.15668295 0.24168302 -0.7693024 -0.4240483 -0.56694067
-0.2809178 0.35957634 0.48236352 0.46353805 0.22249326 0.48176846 -1.62682 0.91550964
0.11046806 -0.30668128 0.10987188 0.30152667 -0.10758395 0.1174812 0.46929228 0.12190302
0.53642094 -0.63667667 0.2487085 -0.22236368 0.20828071 0.6744746 -0.30725184 0.30924967
0.0067880326 0.7913314 1.389716 -0.24018666 0.63849026 -0.45174918 0.11394958 0.25157332
-0.32434833 0.0999804 -0.70298254 -0.07466607 -0.06737829 -0.14909425 0.36457902 0.2320282
0.3699518 0.9596564 -1.4366355 1.9366459 -0.18162234 -0.010982108 -0.14214955 0.8204544
-0.31014636 0.23905501 -0.18466058 2.099914 -0.2231627 0.05423779 0.19932207 0.24283177
-0.037780907 0.38770545 -0.36354414 -0.24068348 -0.23650898 -0.40036803 -0.9510478 0.066468224
-0.18231584 0.43523094 -0.85252035 -0.3281603 -0.3068499 0.888372 0.9585909 0.32951
-0.5093155 -1.4761012 1.0786641 -0.5016107 0.004266098 -0.47317988 0.29357454 -0.07155585
-0.1818026 -0.33954296 0.061738744 0.7013291 -0.23938562 -0.38214955 0.11056634 -0.28918746
1.607304 -0.33560354 -0.56208783 -0.45546532 0.26037544 -0.58352447 -0.1619372 -0.35975406
0.96157867 -0.90468407 0.10900947 -1.2651669 0.3711819 0.6080845 0.059439853 0.85400647
0.6053553 -0.15458746 0.3778878 -0.5866908 0.6712934 0.096922375 -0.3397255 0.098468736
-0.03822921 -0.2979513 -0.0179443 -0.33609447 0.46327946 0.30609682 0.45852324 0.7175333
0.7573937 0.5486579 -0.43681583 -0.13261577 -0.12288044 -0.6409527 -0.16215017 0.1417643
-0.109438 0.35525805 0.1427064 -1.249726 0.9697208 1.393076 -0.66037947 0.3864112
0.12845807 0.090877295 0.14224967 0.5379174 -0.023924561 0.19313592 0.27346623 -0.47813538
0.43553522 0.62713873 0.5885755 0.5018651 0.5963697 -0.7733145 -0.14122355 -0.080181286
0.5794698 -0.57467663 -0.36485785 0.24084824 -0.0433669 0.3453166 -0.17088531 0.5627878
0.9359373 1.0183992 -0.85310173 -0.1469791 0.07268639 -0.83135486 0.9455362 -0.16818021
-0.5123376 -0.06832237 -0.5964935 -0.26152107 0.094210565 -0.061455876 0.22346084 -0.09654405
-0.2161912 0.65564054 -1.7621899 0.012255486 0.5234246 0.5765841 -0.1894209 0.5728792
0.017941395 0.083468825 -0.1111465 0.53844887 0.088334 0.19565225 -0.15910563 0.045448717
0.3201748 -0.5710569 -0.05899339 -1.2323183 0.930277 0.44307154 -0.8705484 -0.17490812

model.2.bias f4 [128]
00000000: 9545 68bd a4fe dfbd 2070 403f 2ff7 61be
00000010: 57ec 1dbe 68b8 b9bd 2d7e 403d 3666 a4be
00000020: 19d3 143e 33e7 12be 07d5 9abf 62bf f73b
00000030: 099c 8a3e 4d11 bebd 75d3 6e3d b0bb 663d
00000040: 8fa8 a4bd fa93 0dbe b583 f0be 5349 a9bf
00000050: 43a3 1fbe 5933 49bd 0949 b6bd fa04 bc3d
00000060: a847 82bd 833f 003e ab4d 1c3e d0f2 133e
00000070: f646 d03d c7e5 8d3c 768f babe 9017 8ebe
00000080: 039f afbd c870 573d f98d 36bd 88a8 253d
00000090: 0493 853d dfa0 02bd f039 37bd 6118 86be
000000a0: 977d ffbd c382 473d cdbf ea3b 40ab 263d
000000b0: a279 95bf 43fe 63bd fd3b 20bd 2097 45bd
000000c0: 6ef8 84be 4fa3 3b3e 4406 253e fa02 1a3d
000000d0: 3c49 003e c738 e7bd 5d77 973e 7efb 11be
000000e0: fac5 5a3e 651e 223d bbaa cfbd dc01 663e
000000f0: 5d93 f33d 6bc6 533e 2e80 933d ef2f f83e
00000100: db58 0fbf 764d 143f ad0b 5a3e 3f08 63be
00000110: 4c62 e5bd fddd 45be 9cd5 843e 25c0 3bbd
00000120: 5ffc 04bd 5aed 17bd c6ae 5c3e dfd6 a6be
00000130: 11cf 73bd 76b3 66bf de76 dabe 4097 d93d
00000140: 36ed 4cbd bef1 c53e 30da 98bf 4fc1 51bf
00000150: 44ce dfbe fd37 8b3d cdb3 093c 5a05 d9bd
00000160: 6dd4 5b3e 6a83 f23d 0131 1b3d 1f05 cdbe
00000170: 2645 f5bb bea1 a2bf 42f2 483e 448f bd3e
00000180: 885d 213f 852b 54bf 4d7f 7cbe 1ec2 65be
00000190: f402 b83d a8e2 9a3e e318 abbf b810 23be
000001a0: 0284 80be 25fd 5cbf 9b70 e63e 6a18 c8bd
000001b0: 09f2 23bf 7f6f cc3e 92a7 c6bd e047 d8be
000001c0: 13a6 cb3e bd37 a2be 589c a63e 7329 8abe
000001d0: 0600 733d 4f41 6bbe db12 30bf a632 0a3e
000001e0: a53f 103e 644d 44bd 9e29 1b3e a936 8f3d
000001f0: 9e09 4bbf 1573 96be 2d66 ddbe c401 22be
-0.056706984 -0.10937241 0.7517109 -0.2206695 -0.15422188 -0.09068376 0.04699533 -0.3210923
0.14533652 -0.14346008 -1.2096261 0.0075606564 0.2707217 -0.092806436 0.05830713 0.056331336
-0.080399625 -0.1382598 -0.46975484 -1.3225502 -0.15589623 -0.049121235 -0.08900649 0.09180637
-0.063613236 0.12524228 0.15264003 0.14448094 0.10169785 0.01732148 -0.36437577 -0.27752352
-0.08575251 0.05259779 -0.04456899 0.040443927 0.06522182 -0.0318917 -0.044732988 -0.26190475
-0.12475126 0.04870869 0.0071639777 0.04069066 -1.1677744 -0.055662405 -0.03911971 -0.048239827
-0.25970787 0.18324016 0.16115671 0.037600495 0.12527937 -0.11290126 0.29583254 -0.14256093
0.21364585 0.039579768 -0.10139986 0.22461647 0.11893342 0.20681159 0.07202183 0.4847407
-0.5599496 0.57930696 0.21293516 -0.22171114 -0.11200389 -0.19322963 0.2594422 -0.04583754
-0.032467242 -0.03709159 0.21551046 -0.3258581 -0.059523646 -0.90117586 -0.42668813 0.10624552
-0.05003091 0.38660997 -1.1941586 -0.8193559 -0.43712056 0.06797788 0.008404684 -0.10596724
0.21467753 0.118414715 0.03788853 -0.4004297 -0.00748505 -1.270561 0.19623664 0.37023365
0.6303334 -0.82878906 -0.24657936 -0.22437331 0.08984938 0.3025105 -1.336697 -0.15924346
-0.25100714 -0.8632377 0.45007786 -0.097702816 -0.6404119 0.39928815 -0.0969993 -0.42242336
0.39775142 -0.3168315 0.32541156 -0.26984748 0.059326194 -0.22974132 -0.6877877 0.13495883
0.14086778 -0.047925368 0.15152594 0.069928475 -0.7931155 -0.29384676 -0.43242016 -0.15820986

model.4.weight f4 [1, 128]
00000000: dcd7 2bbe 94f3 31bd d332 22be 21d4 a33d
00000010: 42cd 91bf 2804 4cbf 234f 95bd 0f07 a13c
00000020: 49ed 323e 4e73 2c3e 03a2 4a3e 4451 64bf
00000030: 7af1 283f a46e 913e c136 20bf 863f d3be
00000040: 6623 49be 84ab 3dbd 5a54 61bc d9ba f13d
00000050: 1123 9abf 8cfc 513d 478c eebd f836 46be
00000060: 7a91 d93e fa69 df3e 50eb 15bf 402b 5ebe
00000070: e11d dfbe 17b7 03be 1184 c9be 2cd9 a4bd
00000080: b036 f73e fa68 25bf 2a07 01c0 1f78 2bc0
00000090: 399c 82be adf5 b93e 533b be3e 2953 30be
000000a0: acd0 c23e 8e20 f23e c449 ecbf f81a e5be
000000b0: 79e7 6c3c b90a c53e 763e 30be 269a c03e
000000c0: 3acb 213f f6f5 dc3e 2015 14be 29d5 cb3e
000000d0: 34d7 bf3c 8e4f 49bf 3e73 56be 9981 78bf
000000e0: ac4e 9dbd 7564 0fbe a7d7 d1bd 60d6 05bf
000000f0: 7169 34be 9a39 913d 0f5a f3be f3be 0abf
00000100: e083 fbbe d4c8 3dbe 1506 903e 0fdb 4a3e
00000110: dbe5 9bbf 20a2 80bf 4db4 cfbe a50f d7bd
00000120: 87e7 a1bd db41 8fbe e63f d6be 3fed d6bd
00000130: 370d d6bd 3321 6d3e fef0 b53e c578 91be
00000140: 79de 80bf e5ed d83e 18ab 573e a9d4 aa3e
00000150: 328b 03bf d7a1 813e a49c bc3e 75d9 86bf
00000160: ffad fb3e 4853 b43e 8991 aa3e 297c 5d3d
00000170: d92c 03be d7cd 413d f6cf 96be 71a4 adbe
00000180: 93ba d63e 6935 1c3e 4276 2abe 25d6 9cbe
00000190: bd78 64bf 8c3c d1bd b171 933e 16b4 f23e
000001a0: e8d5 fe3e d166 733e 9a55 a4be b87e 73bf
000001b0: e8a6 a23e 8086 c3bd 8e3d 5fbd 9a1a e13d
000001c0: c37b 04bf 7fb4 023f be08 ccbe e2e2 50be
000001d0: 35fb 48bf be91 44bd fa7f d63c 2f97 e83e
000001e0: 343c eb3e 44a9 ffbd 7d63 3c3e a07d a03e
000001f0: 6463 403e 8352 37be e5e7 843e e666 acbc
-0.16781563 -0.043445185 -0.158397 0.07999445 -1.1390765 -0.7969384 -0.07290485 0.019656686
0.1747333 0.1684086 0.19788365 -0.891865 0.65993464 0.28404725 -0.6258355 -0.41259402
-0.1964241 -0.04630615 -0.013753021 0.118032165 -1.2041951 0.051266238 -0.116478495 -0.19356906
0.42493802 0.4363554 -0.58562183 -0.21696186 -0.43577483 -0.12862812 -0.3935857 -0.08049235
0.4828391 -0.64613307 -2.0160623 -2.6792066 -0.25509813 0.36320248 0.37154636 -0.17219223
0.3804983 0.47290462 -1.8460011 -0.44747138 0.014459484 0.38484743 -0.17211327 0.37617606
0.63200724 0.43156403 -0.14461184 0.39811066 0.023418047 -0.78637016 -0.20942399 -0.9707275
-0.07681021 -0.14003165 -0.102462105 -0.52280235 -0.17618348 0.07091065 -0.47529647 -0.54197615
-0.4912405 -0.18533641 0.2812964 0.19810127 -1.2179521 -1.0049477 -0.40567246 -0.10501031
-0.079054885 -0.2797993 -0.41845626 -0.1049447 -0.10451739 0.23157196 0.35535425 -0.28412452
-1.0067893 0.42369 0.21061361 0.33365372 -0.5138427 0.25318787 0.36838257 -1.0535113
0.49156186 0.3521979 0.3331416 0.054073486 -0.12810077 0.047315445 -0.29455537 -0.3391452
0.4193922 0.1525475 -0.16646674 -0.3063213 -0.8924673 -0.102166265 0.28797677 0.4740302
0.49772573 0.2376969 -0.3209656 -0.9511523 0.31767964 -0.09547138 -0.054502062 0.10991402
-0.51751345 0.51056665 -0.3985042 -0.20399049 -0.7850831 -0.047990553 0.02618407 0.45427844
0.4594437 -0.12483457 0.18397327 0.31345844 0.18787915 -0.1790257 0.2595817 -0.02104516
