discriminator_gan_ecv_lstm.pth (torch, 397254 bytes, 5 tensors)

model.0.weight f4 [256, 255]
000000 65 07 0e c2 f7 7f d1 3e aa 19 95 bf 0a 96 57 bf
       -35.50722 0.40917942 -1.1648457 -0.84213316
000010 21 01 2b be 17 97 37 bd 69 57 6f bd 01 fc ac bd
       -0.1669965 -0.044821825 -0.05843297 -0.084465034
000020 72 59 10 be 97 ad 53 be 54 fb 9d be e0 d6 a3 be
       -0.1409662 -0.20671688 -0.3085581 -0.31999874
000030 d6 a1 9f be 33 ca e4 be f0 cb c0 be 28 da b2 be
       -0.3117816 -0.44685516 -0.37655592 -0.34932065
000040 b8 e0 a6 be 8a 88 82 be 5d d7 53 be 27 3d 8a be
       -0.32593322 -0.25494796 -0.20687623 -0.2699978
000050 af cf 80 be d8 3b c8 bd d6 19 c2 bd 27 c2 c7 bd
       -0.2515845 -0.09777039 -0.09477584 -0.097538285
000060 f2 e7 aa bd 43 a8 8d bd fe 1f b1 3d 86 71 ce 3d
       -0.08345021 -0.06916859 0.0864868 0.100802466
000070 8d 54 87 3d 1e c0 89 3e f9 38 9a 3e 9f 12 f4 3e
       0.06607924 0.26904386 0.30121592 0.47670457
000080 1e 3a 22 3f f6 f2 c8 be 51 eb b6 be 09 34 9e be
       0.6336993 -0.39247864 -0.35726407 -0.30899075
000090 30 af 3d be 68 09 86 be 83 41 4f be 7f 84 5d be
       -0.1852386 -0.2617905 -0.20239834 -0.21632574
0000a0 1c 5f 80 bc 88 a0 1e be 9d c9 c8 bd 52 be d8 bd
       -0.015670352 -0.15490925 -0.0980408 -0.10583176
0000b0 c2 0b b5 bd f9 d9 1e bd 51 89 6d bd e6 24 d5 bd
       -0.08840133 -0.038782094 -0.057992283 -0.104074284
0000c0 24 6b 2e bd 53 6c e3 3b a1 55 54 bd e2 d9 b6 bd
       -0.042582646 0.0069404035 -0.051839475 -0.089282766
0000d0 44 f1 6f 3d 9a d7 9b bd 35 ad 92 3d f1 66 8f 3d
       0.0585797 -0.07609482 0.07161943 0.070020564
0000e0 31 e4 55 bb 9c d9 9e bd 66 03 fb 3c e0 fc 10 3d
       -0.0032637233 -0.077563494 0.030641269 0.03539741
0000f0 71 3f c2 bd 20 eb 04 3c 9d d0 0d 3d 0b 51 36 bc
       -0.09484757 0.008112699 0.034622777 -0.011127721
000100 a9 0a 0c be ee 9f e9 bc 8f 84 5e bd 96 a4 50 bd
       -0.13675942 -0.028518643 -0.054325636 -0.05093821
000110 e8 c5 5a be 26 26 dc bd f9 0b a0 3b 6e d9 69 bd
       -0.21364558 -0.10749464 0.0048842398 -0.057092123
000120 e2 c3 b1 bc 50 83 be bd 9a 07 90 bd 0a fc 83 bd
       -0.02169985 -0.093023896 -0.070327 -0.06444557
000130 71 0e 3b bd ee dd 68 bd 7c 73 4f be d7 2d a0 bd
       -0.04566807 -0.056852274 -0.20258898 -0.07821243
000140 29 81 c4 bd c6 ff 2c be 04 81 d2 bd 81 a2 d5 bd
       -0.09594948 -0.16894445 -0.10278514 -0.10431386
000150 8e 68 44 bd ea e1 da bd 0a 2a 15 be 9f ac 0e 3d
       -0.047951274 -0.10687621 -0.14566818 0.034832593
000160 78 22 e4 bd fe 73 20 3d 5c e7 78 bc 42 32 9d bc
       -0.11139387 0.03917312 -0.015191879 -0.019189004
000170 fb 5a a5 bc c2 ac 8a bd 00 23 2f bd 79 25 14 be
       -0.020184984 -0.06771232 -0.042757988 -0.1446742
000180 7a 49 d8 bc 6a 57 a3 bd 81 bc 90 bd 08 d2 a2 bd
       -0.026402224 -0.07975657 -0.07067204 -0.079502165
000190 aa d9 93 bc 6d 4e 07 be 35 03 a8 bd bf 84 c1 3c
       -0.018048126 -0.13213511 -0.08203737 0.023622869
0001a0 ed cf ae bd 4f 65 f1 bd 3e d2 79 bb a2 23 bb bd
       -0.085357524 -0.11786901 -0.00381197 -0.09137656
0001b0 db c5 2b 3d d3 bb ed 38 26 43 1d bd ed 23 03 bd
       0.041936737 0.00011336026 -0.038394116 -0.032016683
0001c0 79 d0 ef bb 05 66 e7 bd a6 46 c7 bd 2c 26 98 bc
       -0.007318553 -0.112987556 -0.09730272 -0.01857289
0001d0 3e 29 6e 3c ab ed 4b bd 47 01 05 be 7f 00 cb bd
       0.0145362 -0.049787205 -0.12988769 -0.09912204
0001e0 75 51 e0 bd af be 08 be 08 87 eb 3c 96 08 f5 bd
       -0.10953037 -0.1335399 0.028750911 -0.11964528
0001f0 72 b5 b1 bb 0b d5 06 be 43 bc 81 bd e1 6e 57 bd
       -0.0054232413 -0.13167207 -0.06334736 -0.052595977
000200 ba b3 bf bd 29 68 0a 3c 00 2d bf bd 96 27 fd bc
       -0.09360452 0.008447685 -0.09334755 -0.030902665
000210 a0 ad 7e bb 2c b7 11 bd d5 28 0d bd 99 67 a3 bc
       -0.0038860813 -0.035575077 -0.03446277 -0.01994686
000220 28 e9 23 3b fd d0 fe bd 52 77 17 be e3 a2 14 be
       0.0025010798 -0.12442205 -0.14791611 -0.14515261
000230 1d 08 3e be 64 11 d2 bd ba 43 f2 bd 25 86 3b bd
       -0.18557782 -0.10257223 -0.11829324 -0.045782227
000240 e0 25 ae bd a2 37 a1 bd 66 57 bf bd 89 a6 18 bb
       -0.08503318 -0.07871939 -0.09342842 -0.0023292622
000250 ea 2c db bc a8 dc 81 3c fb d7 9c bd 16 38 03 3c
       -0.026754815 0.015852287 -0.076583825 0.008008977
000260 a8 99 50 bd 4e 37 e3 bd f9 47 80 bd c2 81 a2 bd
       -0.050927788 -0.11094533 -0.06263728 -0.079349056
000270 03 c4 a4 bd 78 cb e5 bd b6 65 c8 bd 9d 3f e2 bd
       -0.08045199 -0.11220449 -0.09785025 -0.110472895
000280 0d 13 4b be 12 65 75 bd 2a 04 2b be 93 1c ac bd
       -0.19831486 -0.05991084 -0.16700807 -0.084038876
000290 2b af ed bd 25 fd d7 bd fd 60 ca bd 5f 89 d4 bd
       -0.11605676 -0.1054633 -0.0988178 -0.10377764
0002a0 9c 52 31 be 33 49 0a be e8 4e 96 bd 49 5b ac bd
       -0.17316669 -0.13504486 -0.07339269 -0.08415849
0002b0 39 ab aa bd 74 d7 20 be d5 29 0f bd d3 6f bf bd
       -0.083334394 -0.15707189 -0.034952004 -0.09347501
0002c0 e0 0e a5 bc 52 c5 f7 bd 57 d0 0d be ad 72 97 bd
       -0.020148695 -0.12098183 -0.13849007 -0.073949195
0002d0 42 e0 1e be 4e 20 80 bd 6b 5a 28 be b9 35 9f bd
       -0.15515235 -0.06256162 -0.16440742 -0.07773919
0002e0 9e 3e 8c bd 6f 53 dd bc 13 de 1c be 4d 57 25 be
       -0.06847881 -0.027017323 -0.1531909 -0.16146584
0002f0 f6 5a 01 be eb b4 26 be d6 6b ff bd 50 2a 11 be
       -0.12632355 -0.16279952 -0.1247174 -0.14176297
000300 45 43 6d bd ab 29 be bd d1 23 79 bd a4 37 11 be
       -0.05792548 -0.09285291 -0.060825173 -0.14181381
000310 35 27 98 bd e4 29 ab 3d 59 9a 9d bd 92 d9 0b be
       -0.07429353 0.083575994 -0.07695455 -0.13657215
000320 ac 89 26 bd 33 e2 c6 bd 37 a3 64 3c bc fc 91 bd
       -0.040658638 -0.09711113 0.013954929 -0.071282834
000330 a0 7f 93 bd 6d dc cf bd 4f 0f d9 bd b6 3c 04 bd
       -0.07202077 -0.10149465 -0.10598623 -0.03228446
000340 cf 79 fc bc 9b 82 04 be c1 6c e9 bd d4 05 a1 bc
       -0.030819802 -0.12940447 -0.11397696 -0.0196561
000350 92 24 07 be 22 89 89 bb ce 46 9c bc 66 c1 95 bc
       -0.13197544 -0.0041972557 -0.019076731 -0.018280696
000360 b6 64 0c be 2e c3 11 be f5 7c 10 be 56 a3 86 bd
       -0.13710293 -0.14234611 -0.14110167 -0.065741226
000370 fb e4 d3 bd 71 c7 85 bd f5 13 27 be 69 fb 1c be
       -0.10346409 -0.06532181 -0.16316207 -0.1533028
000380 a0 ea 9f bd 60 41 42 be 02 80 28 bd bc cb c7 bd
       -0.07808423 -0.18970251 -0.041137703 -0.09755656
000390 29 18 bb bd f1 94 d3 bc 9b 66 6a be e4 be 2b be
       -0.091354676 -0.025827857 -0.22890703 -0.16772038
0003a0 e9 03 5c bd a4 da b6 bd 4f b8 e8 bd 68 a7 b3 bc
       -0.053714667 -0.08928421 -0.11363279 -0.021930411
0003b0 f7 1f 12 be 51 0d fe bc 17 32 7e bd 77 73 19 be
       -0.14270006 -0.03101221 -0.06205949 -0.14985453
0003c0 e3 95 07 be 76 cd a9 bd 58 15 fa bd d0 37 01 be
       -0.13240771 -0.08291142 -0.12211102 -0.12618947
0003d0 08 c2 df bd 39 dc 1d be 6a 9b 36 be f3 bd d3 bd
       -0.109256804 -0.1541604 -0.17832723 -0.10338964
0003e0 92 b1 22 be a2 07 6c bd 8a e7 d7 bd 6d fb f1 bd
       -0.1588805 -0.057624467 -0.105422094 -0.11815534
0003f0 25 0a 34 3d f9 74 fd 3e 16 4a 81 bd 1f 6b 21 c1
       0.043954987 0.49503306 -0.06312959 -10.088653

model.0.bias f4 [256]
000000 2e 51 f4 3c 03 e2 83 3e da 21 fa 3d b0 61 9a bb
       0.029823866 0.2575837 0.12213488 -0.0047113523
000010 c5 4c f3 3c 8e 3d 95 3b 5f 0d 4f bc 54 d8 ea bc
       0.029699693 0.004554457 -0.012637465 -0.028667606
000020 ed b3 b5 3a 53 2c a7 3b 52 bb bf bd 78 35 a5 3e
       0.0013862826 0.0051017194 -0.093619004 0.32267356
000030 7e b6 86 bb 8b fe 93 3b 3d 45 79 3d 71 3e 9f 3e
       -0.00411111 0.004516428 0.060857046 0.31102327
000040 0b f9 99 3d a9 0b 2d 3e 6f 40 2e 3e 6d 63 15 bd
       0.07518204 0.16898979 0.17016767 -0.036471773
000050 a8 0b 78 3e 67 d8 9d bd 1a b2 6d bc 7f 85 e6 3e
       0.24223197 -0.07707291 -0.014507795 0.45023724
000060 ec 05 8a ba 12 c3 88 3e 76 bf 49 3d 28 1c 08 be
       -0.0010530329 0.26711327 0.049254857 -0.13291991
000070 54 cf 8a 3c 4d 75 2c 3d 77 06 a3 bc 59 77 64 3e
       0.016944565 0.042104054 -0.019900544 0.22311153
000080 23 c6 4f bc 26 7f e1 3b 94 a3 8f 3d 19 8e 70 3d
       -0.012681517 0.0068816124 0.07013622 0.058729265
000090 ee f1 f9 bb 0a b3 5a bd 0f 59 30 3e 0b b6 dd 3c
       -0.007627717 -0.0533934 0.17221473 0.027064344
0000a0 bf 31 6f 3d 0b a1 a5 be c8 79 d7 3c 57 7d 49 3e
       0.05839705 -0.3234943 0.026303187 0.1967672
0000b0 7c 1e 10 be 30 b2 47 3d 6a 05 53 be ba 4d 09 3d
       -0.14074129 0.048753917 -0.20607534 0.03352139
0000c0 33 b3 58 bc fa 84 e0 bd 2f 78 11 3f 23 8e 83 3d
       -0.013226318 -0.10962863 0.5682401 0.06423595
0000d0 61 eb 4f be 97 3f 0d 3e db 86 a3 3c e8 fb 85 3b
       -0.20304634 0.13793789 0.019961765 0.0040888675
0000e0 8a cb 82 be be 08 fc 3b 35 56 b8 3e 5e e7 03 3b
       -0.25545913 0.007691472 0.3600327 0.002012692
0000f0 eb 68 23 3d f5 32 20 3e 50 5b a1 3d 8e 9a 26 be
       0.03989498 0.15644439 0.078787446 -0.16269895
000100 64 14 01 3d d8 05 af 3b 06 48 ab 3c 5b 99 ab 3b
       0.031513587 0.005341273 0.020908367 0.0052367873
000110 a4 2b cd be ad 58 c7 3e 50 23 52 bd 43 24 3e 3d
       -0.40072358 0.38934842 -0.051303208 0.0464213
000120 f4 4d 78 3c cc f2 15 be 87 b4 20 3e 8e c3 65 3c
       0.015155304 -0.14643401 0.15693866 0.014023675
000130 0d c3 38 bd 85 c9 23 3d 80 75 42 3c b8 f4 3a 38
       -0.04510789 0.039987106 0.0118688345 4.4573768e-05
000140 87 2e 12 bd cb 80 25 3e a1 57 05 3c 18 8e 87 bc
       -0.035688903 0.16162412 0.008138568 -0.016547248
000150 b4 d7 58 bc be 9a 1f bd bf 03 91 bd 4b b3 fb bc
       -0.013235021 -0.038965933 -0.07080793 -0.030725142
000160 f4 44 5c 3e 8c 15 d3 bd 65 33 08 3c b6 2c c4 3c
       0.21510679 -0.10306844 0.008313035 0.023947101
000170 5c d9 5b 3c 3f 9a a6 3c e8 7e 2b bf 9f 1d 55 3e
       0.013418522 0.020337222 -0.6699052 0.20812081
000180 61 0a a0 bc 7f ab 88 bc 35 69 b6 be 9a bf 66 3c
       -0.019536199 -0.016683338 -0.35627142 0.014083767
000190 aa 3f dc 3d f7 c4 55 bd 14 1b 30 be e1 e2 03 be
       0.107543305 -0.052189793 -0.1719783 -0.12879516
0001a0 ea 12 74 bd 15 28 82 3c 53 c3 39 3e 46 6b ca bc
       -0.05958835 0.015888253 0.18140917 -0.024709355
0001b0 ad 1e 8c bc 77 9c 1f 3c 02 1f 83 3d 1d 94 2b bc
       -0.017104471 0.009741894 0.06402399 -0.010472325
0001c0 80 e2 a9 3d d9 19 56 3e a0 cf a7 bb 51 68 d4 be
       0.082951546 0.20908298 -0.0051211864 -0.41485837
0001d0 a9 d8 78 3e c1 62 b1 3c 3d ce 24 bc ab 00 cc 3c
       0.243014 0.021653535 -0.010058937 0.024902662
0001e0 65 0f 91 3c 57 a0 d4 bb 8b 24 56 3c d7 b8 1c be
       0.017707536 -0.0064888406 0.013070236 -0.15304886
0001f0 85 00 a9 3e 57 8a 9a 3e 29 34 f7 bd d4 3b 18 3d
       0.3300821 0.3018367 -0.12070496 0.03716643
000200 cb 80 b6 3d 66 a6 ea bd 7c 39 a9 3d 0f a6 25 3d
       0.08911284 -0.11457519 0.082629174 0.04044157
000210 eb 95 89 3e 5e 40 37 bc 83 f6 a2 bc 7f 49 69 3b
       0.2687219 -0.01118478 -0.019892937 0.0035596786
000220 a1 9e a3 3e 1b 62 21 3c 87 c0 bd ba f8 d9 83 3c
       0.31956962 0.00985005 -0.0014476933 0.016095147
000230 9d 15 d9 3d 0e 3d 53 bc fe f0 58 be 75 29 2a be
       0.105998255 -0.012892975 -0.21185681 -0.16617377
000240 5e 5a 59 3c 0e 60 0b bd 82 3d 70 3e a1 e8 1f 3b
       0.013266174 -0.03402715 0.23460963 0.0024400132
000250 0c 0a 97 be c2 49 ee 3d a0 be 8c bc a9 52 e8 bb
       -0.29499853 0.11635162 -0.01718074 -0.007089932
000260 97 69 a5 bd 0a bc 0e bd 6a 87 26 3e c6 14 75 3c
       -0.0807678 -0.034847297 0.16262594 0.014958566
000270 56 06 1d bd 8d 59 9a 3e 38 27 ed bc 50 2b 46 bd
       -0.03833612 0.30146447 -0.028949365 -0.04838115
000280 51 64 27 be 52 7f 67 be d7 63 4d bb 61 d8 3c 3d
       -0.16346861 -0.22607163 -0.0031340027 0.046104793
000290 96 5d 9d 3c bf cb 0b 3d 1c 42 d1 3e dc 89 dd 3d
       0.019209664 0.034129854 0.4087075 0.1081731
0002a0 2e 5d 18 3d d9 06 a0 bc bc 6d 13 bb b2 34 4e 3e
       0.037198238 -0.019534515 -0.0022495827 0.20137289
0002b0 9e e7 44 3d 23 4d 05 be 39 83 41 bd 93 97 eb 3c
       0.04807245 -0.13017707 -0.047244284 0.0287588
0002c0 eb 57 3c be a4 d0 c5 3d 7b b8 b6 bb 9b 0b 53 3e
       -0.18392913 0.09658936 -0.005576191 0.20609896
0002d0 8a ff 54 3c 53 1c cb 3c 59 76 4b 3e 04 74 c3 3e
       0.013000378 0.02479378 0.19869365 0.3817445
0002e0 2a 7c 74 3d aa 7c 27 3e 38 a2 ce bb a7 3b 86 3e
       0.059688725 0.1635615 -0.006305959 0.26217386
0002f0 ec 6d d0 3c a5 ae 11 be fc 8c 0d be c7 fe c6 3c
       0.02544304 -0.14226778 -0.13823313 0.02429141
000300 e1 a1 17 3e 9d 30 95 bc dc f9 bf bd ce ac ac bc
       0.14807846 -0.018211657 -0.09373829 -0.021078493
000310 4e 80 6c be e3 e0 80 3e c7 72 34 bb b9 c8 97 bc
       -0.2309582 0.25171575 -0.0027534233 -0.01852833
000320 f1 0f 10 3e b6 8e 14 3e 7c a5 0a 3e 6a 4f 22 3c
       0.14068581 0.14507565 0.1353969 0.009906629
000330 3d 69 e8 3e 85 cc 4f 3b 2c ee ed bc 13 ec ef bd
       0.4539279 0.0031707596 -0.029044233 -0.117149495
000340 e6 3a f2 3c 54 bb c0 be e5 5b 1c bd 4b 0e 7c 3e
       0.0295691 -0.3764292 -0.038173575 0.24614827
000350 64 e1 d4 bd 46 ff 26 3f 87 c0 7b bc 34 0b 29 be
       -0.10394552 0.65233266 -0.015365726 -0.1650818
000360 cf 13 32 3e cb 95 af 3c 97 2b 85 3d 62 29 2c bd
       0.17390369 0.021433732 0.06502455 -0.042031653
000370 79 88 e3 3b d6 7a c5 bc 5e 1a 9e bd 3c 9f 99 bd
       0.006943759 -0.024106424 -0.07719873 -0.07501075
000380 46 47 10 be aa 70 c4 3c 06 77 ea 3c 60 cf 56 bf
       -0.14089689 0.023979504 0.028621208 -0.8391018
000390 de 4f f3 be 8c 66 2f 3d 32 0c 4f 3d a1 7d 15 bd
       -0.4752187 0.042822406 0.05054874 -0.036496762
0003a0 de 68 6b 3e 69 6d 50 bc db 28 43 be d7 71 0f 3e
       0.22989222 -0.012721398 -0.19058554 0.1400827
0003b0 c5 40 30 be 96 90 e3 bc 94 7c f3 3c fd 4f a5 3e
       -0.17212208 -0.027778905 0.02972249 0.3228759
0003c0 c4 01 83 3e 5c 54 60 3c 5a cc 97 bd e6 bb 40 3b
       0.25587285 0.013691988 -0.07412024 0.0029408871
0003d0 2f c5 84 3d c5 78 06 bb 93 00 6f bc ca 84 5e bc
       0.06482922 -0.0020518762 -0.014587539 -0.013581464
0003e0 f7 d1 38 3e f5 e7 48 3c 28 3c 9c 3c fa d0 40 3e
       0.18048845 0.012262334 0.019071653 0.18829718
0003f0 1c f7 e3 3e 10 6a ac 3e 19 f9 36 3c 78 d2 75 bc
       0.44524467 0.3367467 0.011167788 -0.015003793

model.2.weight f4 [128, 256]
000000 21 47 a3 bd e7 7a 01 bf 79 70 70 be db 2a cc be
       -0.07972551 -0.5057816 -0.23480405 -0.39876446
000010 cb 59 21 be 24 ff c2 b9 85 1c ed bd f5 4f 84 be
       -0.1575691 -0.00037192658 -0.11577705 -0.25842252
000020 48 4a a3 bd ea 83 38 bd 11 6b f7 3c 01 12 e2 3e
       -0.079731524 -0.045047678 0.03020242 0.4415436
000030 70 6e 0a be 94 7d f5 bd a7 e9 b1 bc bb 29 0c bf
       -0.13518691 -0.11986843 -0.02171786 -0.54751176
000040 6a 27 e3 bd 97 29 33 3f 42 9e 05 3f 5d 7d c5 be
       -0.11091502 0.69985336 0.5219461 -0.38572207
000050 db ce 53 bf 1a 75 18 3e eb c9 63 bd 62 ce 35 bf
       -0.8273751 0.1488842 -0.055612486 -0.7101804
000060 5b cf 9a bd fa d6 84 3e 9b 0f 49 bf f1 00 d3 3e
       -0.07559081 0.25945264 -0.7853944 0.41211656
000070 53 f5 cc bd 35 87 0e 3c 04 a1 4b be 06 76 17 3f
       -0.100077294 0.008699228 -0.19885641 0.59164464
000080 62 96 be bd 41 a4 80 bd 60 01 36 3f 67 f7 59 3d
       -0.09306027 -0.06281329 0.7109585 0.053214457
000090 f6 e8 10 be 5b 26 96 3d d2 55 4f bf 90 ef eb be
       -0.14151368 0.073315345 -0.80990326 -0.4608121
0000a0 ca 4e 2d 3e c6 ca 40 3c a2 d5 44 bd 0c c4 88 bd
       0.16924587 0.011767095 -0.0480553 -0.06678018
0000b0 65 d4 31 3e 88 eb 99 3d 23 1a 03 3e 6a eb 3a bf
       0.17366178 0.07515627 0.12802939 -0.73015463
0000c0 65 f0 d6 be 40 a9 31 3f d1 ba 1d bf 82 a9 4d bd
       -0.4198028 0.6939888 -0.61613184 -0.050210483
0000d0 e0 6d 38 bf 71 2f 7d bd 98 00 1b 3c 00 45 7a bd
       -0.72042656 -0.06181282 0.009460591 -0.06110096
0000e0 28 5a a1 3e 03 f5 09 be a8 5f fa be 09 ff 00 be
       0.31514096 -0.13472371 -0.48901105 -0.12597288
0000f0 11 71 40 3b c6 29 f6 3e 5a 93 63 bd 5d 8d c3 bd
       0.0029364268 0.48078746 -0.055560447 -0.09548447
000100 ce 27 79 3d 22 6e 08 be 52 aa dc bd 2c b3 b0 be
       0.060828976 -0.13323262 -0.107746735 -0.34511697
000110 80 7b a8 bd cf e3 fa bd c6 f3 8d be 33 ed 39 bd
       -0.08226681 -0.12250482 -0.27725047 -0.045392226
000120 16 97 3a 40 61 aa bb bd 96 a7 f2 3e 4a f1 ac bd
       2.9154716 -0.091633566 0.47393483 -0.0844446
000130 a3 30 7c bd 82 16 80 bd 7f fb bb bd a5 d4 11 be
       -0.06156982 -0.06254293 -0.091788284 -0.14241274
000140 44 cc da be e5 93 06 3f 6e 76 71 3c 30 d2 11 bd
       -0.42733967 0.5256942 0.0147377085 -0.03560084
000150 36 a7 0f be 0d 7c 25 bf 97 d5 a5 bd 0f db bb be
       -0.1402863 -0.6464241 -0.0809738 -0.36690566
000160 c1 8d 38 3f af 3d 25 3c d6 9e b8 3d c2 34 77 bd
       0.720913 0.010085507 0.090146706 -0.06035305
000170 6f 50 d4 bc 70 87 6d be 58 7f f2 bd 06 06 44 bf
       -0.02591726 -0.23196197 -0.11840695 -0.7657169
000180 7b 34 9b bd 8c e3 4b be 49 de 84 bf 2a 8e 69 3f
       -0.07578369 -0.19911021 -1.0380336 0.9123255
000190 0c a0 df be 14 1a 26 be 74 f1 ec be 60 f1 c3 bd
       -0.43676794 -0.16220886 -0.46277964 -0.09567523
0001a0 74 25 09 3f 06 b9 86 bd 42 2a 08 bf 80 9d 78 be
       0.53572774 -0.06578259 -0.5318948 -0.24278831
0001b0 6b 43 b7 be 52 ee 8c bd 1e b7 ee bd de c5 cb bd
       -0.35793623 -0.068813935 -0.116560206 -0.099498495
0001c0 75 c3 88 3c cf 72 1e bf da 55 1e bd 92 3e b9 3d
       0.016694764 -0.61893934 -0.038656093 0.090451375
0001d0 17 03 8d be 56 f7 44 be 9c 9e ba be c2 4c 02 be
       -0.2754142 -0.19234976 -0.36449134 -0.12724593
0001e0 28 f8 29 be 94 a1 93 bd b0 9d 1f 3f c1 14 40 bd
       -0.1659857 -0.07208553 0.6234999 -0.046894792
0001f0 d2 84 10 bf 92 7a 7c bf ef f8 ce bf 71 89 00 bd
       -0.5645267 -0.9862453 -1.6169719 -0.031381074
000200 0f 82 3a bd be 02 c3 3e 7d cf b5 3e 99 dd 54 3b
       -0.04553419 0.3808803 0.35509863 0.0032480715
000210 6b 39 f2 be 5f 24 ac bd 62 c3 06 be ed 00 8b bd
       -0.4730943 -0.08405375 -0.1316047 -0.06787286
000220 a2 e5 cd be 90 c0 a7 bd a3 c3 b5 bd 61 02 0a be
       -0.40214258 -0.08191025 -0.08875205 -0.1347747
000230 c9 b2 b0 bd 12 e4 81 be 71 82 34 3e 84 8f bc bf
       -0.086278506 -0.25369316 0.17627884 -1.4731297
000240 64 37 d0 bd ba 92 ee bd 73 54 1d bf 56 3f 38 bf
       -0.10166815 -0.116490796 -0.61456984 -0.7197164
000250 87 1a b1 be c5 e2 85 be bb ad 47 be c6 9a b1 bb
       -0.3459055 -0.26149574 -0.19499867 -0.0054200618
000260 ad 6d 3d 3c f5 41 96 be 76 72 d0 be 60 f1 ff 3e
       0.011561793 -0.29347196 -0.40712327 0.49988842
000270 d2 c6 1e bf d9 a1 5b bd 69 0f e7 be 8c 06 36 be
       -0.62022126 -0.053621147 -0.45128945 -0.17775935
000280 50 2b ad be da ea 84 3f 7f 08 52 bd 00 de c6 3e
       -0.33822107 1.0384171 -0.051277634 0.38841248
000290 76 45 7b bc 78 c8 dc bf cd 12 e0 be e9 74 18 bd
       -0.015336385 -1.7248678 -0.43764344 -0.03722087
0002a0 d4 51 dc bc fe 6c df bd 3e 42 02 be b1 97 1d 3f
       -0.026894487 -0.109094605 -0.12720582 0.6155959
0002b0 1c 9c b9 bd 65 e1 a5 3c 67 27 b6 bc ce 0e 2d bd
       -0.090629786 0.020249078 -0.022235585 -0.042250447
0002c0 84 6b 2f be 87 6d 81 3f af a6 b7 bb d6 86 ad 3e
       -0.17130858 1.011155 -0.005604587 0.33891934
0002d0 50 94 95 bd b5 56 14 bd 4d dc 2b 3f eb 2d fb be
       -0.07303679 -0.036215503 0.6713303 -0.4905847
0002e0 63 39 29 3e d0 6a de bd 5b 7a 9d bd 14 b1 3e 3d
       0.16525798 -0.108602166 -0.07689353 0.046555594
0002f0 44 f3 8e bd 76 c3 67 be e1 57 94 3e db b8 a1 bd
       -0.06979993 -0.22633156 0.28973296 -0.078965865
000300 0a 8b 2e bf 88 b3 14 be 3a 96 c7 be dc a5 70 bd
       -0.68180907 -0.1452161 -0.389818 -0.058751926
000310 df 10 3d 3f 6b 60 7d bf 97 8a 95 be bb 03 0c be
       0.7385387 -0.9897525 -0.29207298 -0.13673298
000320 6c 8f f8 3e a3 f9 ed 3e 03 bb e1 be 32 15 08 bd
       0.48546922 0.4647952 -0.4408799 -0.03322334
000330 95 12 56 bf a9 21 f5 bd bc dd d6 be 7d 4d f8 be
       -0.83622104 -0.11969311 -0.41966045 -0.4849662
000340 ad 95 ab bd 4b f1 3d be 9e 29 09 3f d1 0e fc 3e
       -0.08378158 -0.18549077 0.5357913 0.49230054
000350 c1 03 d7 bb aa ac 27 bf b5 a0 0e bf 36 94 d0 bc
       -0.006561727 -0.6549784 -0.5571397 -0.025461297
000360 5a 9f 05 bf 04 53 e0 bd c0 38 1c 3f 24 09 be be
       -0.52196276 -0.10953334 0.61024094 -0.3711635
000370 ce 54 4b be 44 6e ee bd 4c 9a f6 3e 8f 39 e4 3d
       -0.19856569 -0.11642125 0.48164594 0.11143791
000380 6e 4f 63 3f a5 43 b1 bd bf 5b b8 bd 60 d6 0c bf
       0.88793075 -0.0865548 -0.09001874 -0.5501461
000390 9c b3 32 bd 6d 87 fc bc b6 4d 13 bf d1 64 39 3f
       -0.04362832 -0.030826295 -0.5754045 0.7241946
0003a0 a5 5e 21 3e 29 04 9c be 57 31 fb 3e 24 e7 27 3f
       0.1575876 -0.30471924 0.4906108 0.6558707
0003b0 3f 60 17 bf db f6 d2 bd 1c 6d 93 bd 3f d0 0f bf
       -0.59131235 -0.1030099 -0.07198545 -0.56177133
0003c0 48 5f ad 3e e9 84 a6 bd f3 24 3e 3f 4f 3a 8f bd
       0.33861756 -0.08130819 0.7427513 -0.06993543
0003d0 70 cd cf be b6 ba a7 bd 0c 38 ed bd a5 b5 20 be
       -0.40586424 -0.08189909 -0.11582956 -0.15694292
0003e0 17 5b 2b 3f e4 dd 28 bd 70 f1 bf bd eb 0e 17 bf
       0.6693587 -0.041227236 -0.093722224 -0.5900714
0003f0 12 6c 79 bf e9 39 1c be 46 a6 08 be d7 a6 12 be
       -0.9743053 -0.15256466 -0.13344678 -0.14321457

model.2.bias f4 [128]
000000 c8 49 83 be 6c 62 83 bd f3 82 33 bb 18 5e 4c bd
       -0.25642228 -0.06415257 -0.0027391284 -0.049894422
000010 b9 25 6f bb bd 37 dc 3e d8 0c 03 bd 32 29 86 bd
       -0.003649099 0.43011275 -0.03199467 -0.06550826
000020 ed 7b 97 bd 30 42 1a 3c 6b f3 3c 3c b4 11 18 3e
       -0.07396684 0.009415194 0.011532645 0.14850503
000030 8a fc 69 bd 8d 22 6d bd fe d9 34 bc 3f b1 c4 bd
       -0.057125606 -0.05789428 -0.0110383015 -0.096041195
000040 f1 37 89 be fb ac e5 3d 27 0c b3 bd a8 1f 8c 3e
       -0.26800492 0.11214634 -0.08742552 0.27367902
000050 18 b5 5a bd ac 27 15 3e 32 8e 0b 3f 7b 57 a3 3e
       -0.05339536 0.14565915 0.5451385 0.3190268
000060 85 af bc bd c2 2d 5d bf d8 94 ed bc 6a c7 b0 bd
       -0.09213165 -0.86397946 -0.029001638 -0.08631785
000070 9f 5a f8 3b fc ec 01 bd 0e 9a bc bd f7 42 0d bd
       0.0075791623 -0.031720147 -0.09209071 -0.03448769
000080 84 0f 06 bd f0 c8 49 bd bc 18 a1 3d a2 ba 80 be
       -0.03272964 -0.049263895 0.07866046 -0.2514239
000090 99 6a 8d bc 30 2f d8 3a e0 c2 c2 3d b2 2e 16 bd
       -0.017262744 0.0016493555 0.09509826 -0.036665626
0000a0 f2 22 12 3e b3 a8 4e 3d 70 6b 10 3e ba 29 6f bd
       0.14271143 0.050453853 0.14103484 -0.058389403
0000b0 4e a4 68 3e 63 d4 96 bd 65 fe 90 bd dd 83 f7 be
       0.22718927 -0.07364728 -0.07079772 -0.4834279
0000c0 40 be 6b be 9b 76 6f bd 53 01 15 bd de e7 78 3d
       -0.23021793 -0.05846272 -0.036378216 0.060768
0000d0 d5 9a 9f bc 55 20 a2 be 15 80 bf 3e 8c 2d b7 3d
       -0.01948301 -0.31665292 0.37402406 0.08944234
0000e0 7d 2d 6b 3e f8 0a d1 be 70 2e d1 3d 62 fd ea be
       0.22966571 -0.4082868 0.102139354 -0.4589644
0000f0 87 50 d2 3c bc 19 a9 3c b0 22 3e bd 45 36 55 be
       0.025673164 0.020642154 -0.0464198 -0.20821483
000100 af ef 3c 3f b7 ef 52 3e b2 eb 87 bd b3 82 94 bd
       0.7380323 0.20599256 -0.06636752 -0.072514914
000110 0f db 31 be 3c 19 a9 bd f1 15 a5 3d 9f 8d 9d bd
       -0.1736872 -0.08256766 0.080608256 -0.07693028
000120 32 a9 cb bc a9 0d 9f 3e a3 72 62 bd 81 5d 9d be
       -0.024860952 0.3106511 -0.055285107 -0.307354
000130 a5 14 db bc 02 09 e1 bd 4b 6e 32 be 58 37 76 bd
       -0.026743243 -0.10988046 -0.17424886 -0.060111374
000140 f0 25 b3 bc 4e 38 ef bd b2 83 11 be 02 f5 49 be
       -0.021868676 -0.11680661 -0.14210394 -0.1972237
000150 da f4 82 bd 7f ec 37 bd 61 b6 ba bd bf 29 0c 3d
       -0.06394358 -0.044903275 -0.09116817 0.0342195
000160 93 cc a0 be 8b 95 f6 bd cc 46 2b bd 09 b6 0e 3e
       -0.31406078 -0.12040242 -0.041815564 0.13936628
000170 5b e1 00 bd ee d9 89 3d 3d 2e dc bd 4d e7 24 be
       -0.031464916 0.0673102 -0.10751007 -0.16103859
000180 6c b0 58 bd 0d 07 89 be 6e 8a 7e bd 41 d7 0c be
       -0.052902624 -0.26763192 -0.062143736 -0.13753988
000190 8d 4b cc bc e0 12 ad bb c6 ed 06 bd b8 81 9f bd
       -0.02493837 -0.005281791 -0.032941602 -0.07788414
0001a0 db df a3 3e f2 5c b2 3e df 81 13 bd 17 db 96 bb
       0.32006726 0.34836537 -0.036012527 -0.0046037543
0001b0 4d ae 87 3d 68 28 89 bc 3f a7 48 be f0 d0 26 bd
       0.06625042 -0.0167429 -0.1959505 -0.040726602
0001c0 32 58 5d 3e f2 d0 e2 bd 8c 25 20 3e 19 8d f6 be
       0.21615675 -0.110750094 0.15639323 -0.48154524
0001d0 4d 4e df bc 65 a5 05 bd c6 e1 14 3d a9 c7 27 bd
       -0.027259016 -0.032628436 0.036348127 -0.040961895
0001e0 53 3f b8 bd ed 71 52 bd 90 0b 17 bd 45 7b 3a 3f
       -0.08996453 -0.05137818 -0.03687626 0.72844344
0001f0 53 54 63 3d d9 e7 51 be af f5 f2 bc c7 1b 08 3e
       0.05550034 -0.20498599 -0.029658167 0.13291846

model.4.weight f4 [1, 128]
000000 b4 8e 63 be 03 4e e8 be e1 29 b9 3e cf 30 ea be
       -0.22222406 -0.45372018 0.36164764 -0.45740363
000010 ec 57 d9 be 08 3d bd be c3 c1 df be 8e b0 c1 3e
       -0.42449892 -0.36960626 -0.43702516 0.37830013
000020 5f 34 b5 3e 22 79 cf be 86 77 e0 be 8c 0a dd 3e
       0.35391518 -0.40522105 -0.4384119 0.4317211
000030 f0 16 f0 be d8 2e d0 3e 0e 25 c9 be e9 cd 9f 3e
       -0.468925 0.4066074 -0.39286083 0.31211784
000040 92 b6 7d bf ed 20 a9 be 4b 58 f3 be 35 58 88 bf
       -0.99106705 -0.33032933 -0.475283 -1.0651919
000050 e4 a6 d8 be 0d 72 30 be 18 46 30 bf 4e 0e cb be
       -0.42314827 -0.17231007 -0.68856955 -0.3965935
000060 47 4c da 3e d8 93 2e 3e fe 0e d0 be ea e3 cd 3e
       0.4263632 0.17048585 -0.40636438 0.40212947
000070 c0 6d f3 be 41 f5 d3 be de 6d 9b 3e e3 ee 93 3e
       -0.4754467 -0.4139805 0.3035726 0.28893194
000080 21 cd bf 3e 60 27 e8 be ed db da bd 7b 78 62 bd
       0.37461188 -0.4534254 -0.10686479 -0.05529068
000090 1a 8f ed be eb 68 c5 3e 54 6a d1 3e 88 c3 f3 be
       -0.4639824 0.3855661 0.40901434 -0.47610116
0000a0 2f bb 05 3f e1 38 d8 3e ff 9d e8 3e 97 e1 01 be
       0.52238744 0.42230895 0.4543304 -0.12683712
0000b0 6b 93 40 3f f0 6c b1 3e 17 61 e6 be 80 63 44 3e
       0.7522494 0.34653425 -0.4499595 0.19178581
0000c0 46 d6 a3 be dc 3c b6 3e 74 aa f6 be b6 90 cb 3e
       -0.31999415 0.35593307 -0.4817692 0.39758843
0000d0 55 1f f3 be f2 5f ce 3d 4d d3 19 bf 9b 5f b1 be
       -0.47484842 0.10076894 -0.60088044 -0.34643254
0000e0 60 f4 a1 bf bd 8a d4 3d 5e 88 e3 be dc f8 28 3d
       -1.2652702 0.10378025 -0.44439977 0.041252956
0000f0 f6 5e a0 bd 7f 40 cc 3e 30 bb ee be 29 20 5a be
       -0.07830612 0.39892957 -0.46627188 -0.2130133
000100 90 a9 15 be 80 e4 97 bd 73 d0 e8 be 97 9f ef be
       -0.14615464 -0.0741663 -0.45471534 -0.46801445
000110 9e 9e 6d be 08 00 e9 be b6 90 95 be c1 c9 f0 be
       -0.23205039 -0.45507836 -0.29211968 -0.47028926
000120 f2 66 c1 3a 1d 25 9c bf 9c 82 f4 be 86 ae bb be
       0.0014755412 -1.2198826 -0.47755897 -0.36656588
000130 1a 2f f1 be 5a b5 b8 3e 4b 01 95 be 91 0c d3 be
       -0.47106248 0.3607586 -0.2910255 -0.41220525
000140 de 88 f1 be 84 8e d9 3e 30 79 8f be 09 61 a7 be
       -0.47174734 0.42491543 -0.28022146 -0.3269122
000150 ab e1 e6 be 6f 96 f0 be b8 d7 b2 3e 1f 04 86 be
       -0.45094046 -0.46989772 0.34930205 -0.2617502
000160 ae 63 a1 be 42 90 c8 3e b0 a0 ca 3e 37 af ac be
       -0.31521362 0.3917256 0.3957572 -0.33727428
000170 a8 77 e1 be 69 2d 66 bf 1e 77 b7 3e ca 4c 12 bf
       -0.44036603 -0.8991304 0.35833067 -0.5714842
000180 86 a8 b7 3e 2c fd a8 3e c3 0c d4 be 67 54 99 be
       0.3587076 0.33005655 -0.41415986 -0.29947206
000190 43 ed ec be 9a 26 d3 be b8 3e de be 9c 05 c9 3e
       -0.46274766 -0.41240388 -0.43407226 0.39262092
0001a0 5b ca 1d 3f b3 3c b8 be 19 9f d3 be 5c ed e8 be
       0.61636895 -0.3598381 -0.4133232 -0.4549359
0001b0 23 26 ac 3e 73 7c c6 3e 19 ea 52 3f 16 37 e6 be
       0.33622846 0.38766822 0.82388455 -0.44963902
0001c0 d5 5f 38 3e f9 7e c4 3e c9 0b d4 3e 92 93 7f bc
       0.18005307 0.38378122 0.4141524 -0.015599148
0001d0 53 ed e6 be ad c5 d9 be 37 f1 fc be e8 2c df be
       -0.4510294 -0.42533627 -0.49402782 -0.43588948
0001e0 24 08 c0 3e 52 26 9c 3e 8b ff e1 be d3 40 80 3e
       0.3750621 0.30497986 -0.44140276 0.25049457
0001f0 7f d5 10 3f 2a 2c 00 bf 9d 75 e8 be 17 2e d2 be
       0.5657577 -0.5006739 -0.45402232 -0.4105079
