discriminator_gan_ff_ts_128_9.pth (torch, 295908 bytes, 5 tensors)

model.0.weight f4 [256, 156]
1.2512609 -1.2088672 -0.6432782 -0.81862 0.9886743 -1.5398836 0.24909882 2.5352833
1.0023284 -0.56587327 0.055585727 1.033618 -0.6578856 -0.024671204 0.05264879 0.8659911
0.1611736 -0.13879466 0.05334558 -0.15765183 0.045637697 -0.63264555 0.15818802 0.14352623
-0.012008797 -0.21640809 -0.14759022 0.40414003 -0.21577486 0.16919295 -0.081451826 -0.19236587
-0.12700656 -0.59270316 -0.8329493 -0.23402566 -1.1539764 -0.36341885 -0.23783365 -0.11591482
0.05938873 -0.18349347 0.39572337 0.17650287 -0.08800802 -0.21447597 0.27414387 -0.36778724
-0.26753134 -0.116853856 -0.18224147 -0.474581 -0.041771784 -0.39947826 0.21039674 0.226355
-0.13648787 -0.05759563 0.9853862 0.39815658 0.48499596 0.12540616 0.5331735 0.4064499
0.53422284 0.2903024 -0.3300619 0.3532338 0.08212701 -0.36555004 -0.20566317 0.05111843
-0.57140803 -0.48740953 -0.41009575 -0.05865761 -0.5546568 -0.17311074 -0.12391682 -0.18687755
-0.24644357 0.17593677 -0.26287735 -0.28846708 -0.1723603 0.015429655 -0.19498828 -0.11914342
-0.20416103 0.027935162 -0.4527432 -0.28882316 0.037014745 0.1259037 -0.100913644 0.30737814
0.4402042 0.41731435 0.31913224 0.07858319 0.4951731 0.11400582 -0.40134728 0.18186598
0.19123617 -0.104078636 -0.54235935 0.22244023 0.2758216 0.036283087 0.34143427 0.35558546
0.2471598 0.22181968 0.43975815 0.27818105 0.30564752 0.17004932 -0.26307744 0.014115178
0.24872968 0.49486428 -0.13732988 0.12901142 -0.3167749 0.127115 0.21388677 -0.026669785
0.10794433 -0.06612993 0.10128827 -0.3007383 -0.2199714 -0.28037953 0.22470126 -0.10885888
-0.3202886 0.18161924 0.2508106 0.058100995 0.6773398 0.5734338 0.041664235 -0.027480146
0.664002 -0.6033046 -0.41378447 -0.1346219 0.6168392 -0.38349554 0.48627657 0.31641653
0.23019426 0.7943688 -0.055098742 -0.11103337 -2.0846767 -2.0667088 -1.5652244 2.091912
-0.8770332 -0.32289734 0.5684135 2.6734588 -0.99908954 -1.6842564 -0.645317 -1.0005171
-0.40937358 -0.3019599 -0.013489445 1.0220544 -0.34742412 0.303822 0.6010668 0.7530008
0.45693204 -0.4478093 0.04928456 -0.7697753 0.4999527 -0.6396173 -0.3879863 -0.9525216
-0.24640346 -0.5326303 -0.100244656 -0.6385579 -0.83290523 -0.5580467 -0.3193055 0.6714555
-0.81779337 -0.67884064 -0.52226996 -0.46903214 -0.3998326 -0.22360714 0.408343 0.22197899
-0.36942852 -0.15167807 0.389039 -0.063545465 1.0109366 0.65697104 0.62476015 -0.15607226
0.49206024 0.32619074 0.4369578 -0.038908884 0.11856803 -0.39595503 0.49240872 0.24954255
-0.2046499 -0.99670243 -0.6936104 -0.2200765 -0.40661094 -0.59130216 -0.22238335 -0.18891756
0.5532619 -0.028254436 0.84095573 0.41914058 0.9468991 0.5683346 1.0398802 0.29979235
0.57697415 0.73003525 0.57983553 0.27588388 0.34064022 0.47865233 0.16182087 0.013352837
-0.39279458 -0.12383053 -0.31686476 -0.36188987 -0.28692967 0.014429827 -0.33726978 -0.3590005
-0.48210043 -0.37169987 -0.16435313 0.4288787 -0.23518866 0.17052296 -0.29799542 0.41659325
00000000: 5129 a03f 29bc 9abf e1ad 24bf 1591 51bf
00000010: c219 7d3f e81a c5bf c313 7f3e 1542 2240
00000020: 4c4c 803f 12dd 10bf dcad 633d 984d 843f
00000030: 316b 28bf 441b cabc 42a6 573d 98b1 5d3f
00000040: b10a 253e 3020 0ebe e580 5a3d 7b6f 21be
00000050: 98ee 3a3d 0ff5 21bf 0afc 213e 8af8 123e
00000060: 8cc0 44bc 159a 5dbe e421 17be 71eb ce3e
00000070: 16f4 5cbe eb40 2d3e 37d0 a6bd 8ffb 44be
00000080: 020e 02be 65bb 17bf 2a3c 55bf 6ca4 6fbe
00000090: 80b5 93bf 0912 babe aa8a 73be c064 edbd
000000a0: 9941 733d b6e5 3bbe 419c ca3e 2bbd 343e
000000b0: 8c3d b4bd 979f 5bbe 965c 8c3e 9c4e bcbe
000000c0: def9 88be 1351 efbd 829d 3abe 48fc f2be
000000d0: e418 2bbd 6a88 ccbe 3e72 573e 9bc9 673e
000000e0: 7ac3 0bbe 65e9 6bbd 4542 7c3f 2edb cb3e
000000f0: 6451 f83e 796a 003e 0f7e 083f 341a d03e
00000100: d4c2 083f 84a2 943e e0fd a8be 10db b43e
00000110: 3532 a83d 6029 bbbe 5e99 52be 8f61 513d
00000120: cc47 12bf be8d f9be 12f8 d1be f642 70bd
00000130: fdfd 0dbf f143 31be 1ac8 fdbd d45c 3fbe
00000140: b45b 7cbe c528 343e dc97 86be f5b1 93be
00000150: 387f 30be aacc 7c3c 02ab 47be 7701 f4bd
00000160: 970f 51be 48d8 e43c f5cd e7be a1e0 93be
00000170: c69c 173d e6ec 003e d0ab cebd ab60 9d3e
00000180: 7262 e13e 3aaa d53e 4d65 a33e 39f0 a03d
00000190: 5487 fd3e e27b e93d 647d cdbe 133b 3a3e
000001a0: 6ad3 433e 2e27 d5bd 10d8 0abf 5fc7 633e
000001b0: 7d38 8d3e 939d 143d 79d0 ae3e 4c0f b63e
000001c0: 7517 7d3e b324 633e fb27 e13e bf6d 8e3e
000001d0: d57d 9c3e 6921 2e3e 16b2 86be 5943 673c
000001e0: feb2 7e3e da5e fd3e 34a0 0cbe 921b 043e
000001f0: 5230 a2be 6f2a 023e 2205 5b3e 987a dabc
00000200: eb11 dd3d 216f 87bd 3970 cf3d 5ffa 99be
00000210: 2f40 61be e88d 8fbe 1618 663e 68f1 debd
00000220: defc a3be 65fa 393e 3f6a 803e 4ffb 6d3d
00000230: 2466 2d3f 8fcc 123f 1ea8 2a3d 0b1e e1bc
00000240: 09fc 293f 2c72 1abf 8fdb d3be 53da 09be
00000250: 2ce9 1d3f 8759 c4be 3ef9 f83e 5901 a23e
00000260: 0bb8 6b3e c15b 4b3f 38af 61bd 7765 e3bd
00000270: 586b 05c0 f544 04c0 4659 c8bf e3e1 0540
00000280: 3f85 60bf cd52 a5be 8c83 113f f319 2b40
00000290: 55c4 7fbf b795 d7bf 7f33 25bf f210 80bf
000002a0: 6a99 d1be 7d9a 9abe d502 5dbc aed2 823f
000002b0: 93e1 b1be 8f8e 9b3e 84df 193f a9c4 403f
000002c0: fff2 e93e 4347 e5be 9bde 493d fe0f 45bf
000002d0: cdf9 ff3e f6bd 23bf 24a6 c6be 75d8 73bf
000002e0: 3051 7cbe 765a 08bf 124d cdbd 8878 23bf
000002f0: 4739 55bf 26dc 0ebf 037c a3be 82e4 2b3f
00000300: e85a 51bf 80c8 2dbf 7cb3 05bf fb24 f0be
00000310: dcb6 ccbe 45f9 64be 5512 d13e 764e 633e
00000320: bc25 bdbe 7f51 1bbe 1f30 c73e 2024 82bd
00000330: 5f66 813f 412f 283f 48f0 1f3f 68d1 1fbe
00000340: 52ef fb3e 7902 a73e efb8 df3e ec5e 1fbd
00000350: ccd3 f23d 9eba cabe ff1c fc3e 1588 7f3e
00000360: be8f 51be e427 7fbf 7490 31bf bc5b 61be
00000370: 4f2f d0be 945f 17bf 76b8 63be 9b73 41be
00000380: 92a2 0d3f d975 e7bc e048 573f 9899 d63e
00000390: fb67 723f 607e 113f cb1a 853f 627e 993e
000003a0: 94b4 133f 97e3 3a3f 1a70 143f a740 8d3e
000003b0: 6568 ae3e eb11 f53e 5fb4 253e dcc5 5a3c
000003c0: 5f1c c9be dc9a fdbd 193c a2be a149 b9be
000003d0: 72e8 92be 156b 6c3c a0ae acbe eace b7be
000003e0: ded5 f6be 724f bebe 304c 28be fd95 db3e
000003f0: 4cd5 70be 929d 2e3e db92 98be b64b d53e

model.0.bias f4 [256]
-0.102008946 -0.007268517 -0.57948047 -0.10196503 -0.018558284 1.1078868 0.05704705 -0.17462362
-0.041983176 -0.39815056 0.06611651 0.02756093 -1.2309624 0.7805989 -0.41639587 0.06666011
1.7660875 0.003426099 0.0100510325 0.09424155 -0.004524761 -0.016371543 -0.38942114 -0.3218942
-0.15422545 0.014591772 -0.0046712602 0.049945023 -1.2235621 0.07450421 -0.01450669 0.03868938
0.23474537 -0.2578174 -0.0395035 1.7246847 -1.4169799 -1.3149061 -0.08266264 0.23660983
-1.0351622 -0.23830009 -0.87305576 -0.1063355 -0.0042718523 0.0015775553 -0.003199996 -0.053045772
0.08092803 2.0278149 0.019448182 -0.02018824 0.00293956 0.011334157 -0.08048457 0.12095534
-0.038265854 -0.005880603 0.91710037 -0.381768 0.034832492 -1.2943004 3.3356626 -1.2349051
-0.022956135 0.6536114 -0.010787569 0.5549527 -0.5088838 0.01666572 -0.033612374 1.5274293
0.013350295 0.68980736 2.1186178 0.6495519 -0.047402058 -0.006021044 -0.013107812 -0.17180733
-0.6499988 -1.4371984 -0.007948749 -0.19054432 -0.027274294 -0.150112 -0.0071332254 -0.43857974
0.01135101 -0.8256727 -0.0032574148 -0.59366614 -0.17776038 -0.01447829 0.014484896 -0.37796482
0.013790388 0.037006002 3.180576 0.76062834 0.2002484 0.1337723 0.09333925 0.05779911
-0.70768696 -0.32084817 -0.09060403 -1.1016186 0.5763358 -0.56134194 -0.042935327 0.17483756
-0.0074105747 -1.8777368 0.09898709 1.0274566 0.033910535 -0.05374169 -0.06703504 0.004034733
-0.093524836 0.14128676 -0.008720361 -0.4682691 -0.039783146 -1.6145252 -0.057781234 -0.12392706
-0.07215323 -0.5701372 -0.14050429 -0.010119942 -0.037668478 -1.1265781 0.20765369 -0.30857295
-0.0356982 0.9225358 -0.38696045 0.009407254 -0.0042079776 -1.9974972 -0.57756245 -0.007972573
0.07662984 -0.033809282 -0.0024885756 -0.13161582 1.2447896 0.28891632 -0.25454274 0.015330139
-0.7185291 0.82529515 -0.0030844682 -0.5087618 -0.041451287 -0.021219257 -0.06090891 0.007716617
0.05049921 -0.31881216 -1.2119144 0.0008515794 0.026083212 0.026723877 0.2598753 0.029575143
0.0012663873 -0.21631424 -1.2601855 0.0006775394 1.2748795 -0.021674305 0.90957254 -0.30840352
1.5801812 -0.88877124 0.06357315 -0.9473806 0.8574904 -1.2968712 -0.10389496 -0.13456035
1.2339265 0.007815536 0.0037262456 -0.9611596 -0.7876867 -1.2698503 -0.9768627 0.030277431
-0.073140346 -0.019589474 0.019663213 1.0985179 0.06584382 -1.3552474 -0.07739399 -0.040182833
-0.07989059 0.08362545 2.7676723 0.00064036134 -0.04704257 0.4927653 -0.61901695 0.0075196438
1.5742539 -0.41021526 0.0005410988 0.7533817 -0.031413805 0.024969915 -0.84704477 0.689202
-0.14345613 -0.97980034 0.0012195152 0.06321293 0.08400135 0.11489285 0.76371264 -0.16203381
1.1179518 -0.012044611 -0.22468814 -0.7948219 -0.77349436 -0.4114449 -0.078726634 -0.29115874
-0.09700206 1.0331388 -0.007911242 -0.1623531 -0.06408709 -0.010484742 0.054537427 0.026339546
0.023763018 -0.013037264 -1.0863315 1.1782696 1.0221747 0.022473533 -0.12856904 -0.012230343
1.803301 0.080840185 -0.104550734 -0.04197827 0.9037576 0.039204 1.2232934 1.0827099
00000000: 11ea d0bd bd2c eebb d558 14bf 0bd3 d0bd
00000010: 8b07 98bc 3ccf 8d3f 2baa 693d 89d0 32be
00000020: 8df6 2bbd 64da cbbe 1868 873d 76c7 e13c
00000030: 2d90 9dbf 54d5 473f d731 d5be 1985 883d
00000040: 280f e23f 6788 603b 16ad 243c b701 c13d
00000050: 7244 94bb 9d1d 86bc 3562 c7be 51cf a4be
00000060: 47ed 1dbe 5412 6f3c 5f11 99bb 2793 4c3d
00000070: af9d 9cbf aa95 983d 78ad 6dbc c178 1e3d
00000080: 1761 703e a400 84be 6cce 21bd 78c2 dc3f
00000090: 995f b5bf d84e a8bf 084b a9bd d949 723e
000000a0: 3280 84bf f004 74be 9580 5fbf 6dc6 d9bd
000000b0: e5fa 8bbb f9c5 ce3a 06b7 51bb 8646 59bd
000000c0: 98bd a53d b8c7 0140 cb51 9f3c cf61 a5bc
000000d0: a2a5 403b e6b2 393c 18d5 a4bd 6fb7 f73d
000000e0: a8bc 1cbd 13b2 c0bb 17c7 6a3f 1877 c3be
000000f0: 84ac 0e3d a3ab a5bf 7f7b 5540 5f11 9ebf
00000100: 810e bcbc 1453 273f 58be 30bc 6111 0e3f
00000110: 3546 02bf 8c86 883c 21ad 09bd ce82 c33f
00000120: 32bb 5a3c 3797 303f 6f97 0740 0949 263f
00000130: a928 42bd 2e4c c5bb 26c2 56bc 43ee 2fbe
00000140: 5266 26bf 1ef6 b7bf 783b 02bc 0d1e 43be
00000150: 576e dfbc f6b6 19be d5bd e9bb 868d e0be
00000160: 96f9 393c 495f 53bf 5a7a 55bb 81fa 17bf
00000170: d106 36be 5a36 6dbc 0f52 6d3c 9b84 c1be
00000180: 14f1 613c 9b93 173d 8f8e 4b40 8ab8 423f
00000190: eb0d 4d3e 9bfb 083e a628 bf3d c2be 6c3d
000001a0: f92a 35bf 3646 a4be 9b8e b9bd d701 8dbf
000001b0: be8a 133f 1bb4 0fbf f4dc 2fbd 9e08 333e
000001c0: 68d4 f2bb ae59 f0bf beb9 ca3d b383 833f
000001d0: c6e5 0a3d 3f20 5cbd ab49 89bd cb35 843b
000001e0: f389 bfbd 7aad 103e d8df 0ebc f8c0 efbe
000001f0: a7f3 22bd c3a8 cebf 04ac 6cbd 78cd fdbd
00000200: 13c5 93bd 83f4 11bf 5be0 0fbe 1dce 25bc
00000210: 434a 1abd b633 90bf 2ba3 543e 46fd 9dbe
00000220: 4738 12bd 4e2b 6c3f ae1f c6be e220 1a3c
00000230: 13e3 89bb fdad ffbf 22db 13bf 659f 02bc
00000240: 1bf0 9c3d 9a7b 0abd 5f17 23bb 4cc6 06be
00000250: 4455 9f3f d7ec 933e 6d53 82be 432b 7b3c
00000260: 86f1 37bf 8b46 533f ca24 4abb 373e 02bf
00000270: d3c8 29bd 02d4 adbc 9f7b 79bd addb fc3b
00000280: 42d8 4e3d 593b a3be 0320 9bbf 873c 5f3a
00000290: 76ac d53c 08ec da3c 600e 853e 9247 f23c
000002a0: e8fc a53a 7b81 5dbe c24d a1bf e69c 313a
000002b0: 402f a33f 508e b1bc bfd9 683f 11e7 9dbe
000002c0: 6143 ca3f 8386 63bf a432 823d 8987 72bf
000002d0: 7e84 5b3f e0ff a5bf e1c6 d4bd 30ca 09be
000002e0: 4ef1 9d3f bc0c 003c 0734 743b 8e0e 76bf
000002f0: d6a5 49bf 748a a2bf ad13 7abf 6008 f83c
00000300: 9bca 95bd 1b7a a0bc bf14 a13c 3c9c 8c3f
00000310: 20d9 863d bf78 adbf bd80 9ebd c196 24bd
00000320: ad9d a3bd d243 ab3d 8b21 3140 ecdd 273a
00000330: b6af 40bd bc4b fc3e e577 1ebf 5867 f63b
00000340: 2781 c93f bc07 d2be 87d8 0d3a a0dd 403f
00000350: c3ab 00bd b58d cc3c edd7 58bf 8b6f 303f
00000360: 2ae6 12be 32d4 7abf 24d8 9f3a c875 813d
00000370: e608 ac3d f14c eb3d ac82 433f 31ec 25be
00000380: 0b19 8f3f c356 45bc a614 66be 7379 4bbf
00000390: ba03 46bf e8a8 d2be 6e3b a1bd c212 95be
000003a0: 04a9 c6bd e43d 843f 279e 01bc e43f 26be
000003b0: 1840 83bd 32c8 2bbc a362 5f3d 08c6 d73c
000003c0: a9aa c23c 409a 55bc e90c 8bbf 8ad1 963f
000003d0: 9fd6 823f 6a1a b83c 9aa7 03be c761 48bc
000003e0: 91d2 e63f 8a8f a53d b21e d6bd 68f1 2bbd
000003f0: a85c 673f 6094 203d e194 9c3f 3d96 8a3f

model.2.weight f4 [128, 256]
0.038310017 1.8851337 0.033155847 -0.6735127 -0.23128797 -0.20992357 -0.011166098 0.40043336
0.42271754 0.06891413 0.044842474 1.6030334 -0.01331966 0.044430852 0.11560967 0.5342708
-0.17068113 0.11578253 0.7665431 0.08536973 -0.38184664 0.04728986 -0.24012023 -0.32693425
-0.29890573 -0.569671 -1.6510751 0.17789581 -0.6814332 0.98145 0.9679284 0.4041119
0.21215524 0.10293446 0.6481698 0.9601666 0.35786185 -0.10018254 1.2926813 0.22867104
0.13520272 0.69502175 -0.33809006 0.10806126 1.4696529 0.07406621 0.33215946 0.61807394
-0.09202986 -0.8430965 0.24669908 0.28323528 1.3425037 0.79861164 1.3291487 -0.35528898
1.0876391 0.53062475 0.03355485 0.57854044 0.7100474 -0.35564333 -0.5423164 0.41327098
0.3688928 -0.115167186 0.52603894 0.23299208 -0.09264976 0.77948433 0.61607105 -0.3688427
-0.099406205 0.67285746 -0.6718776 -0.34376815 -0.013062509 0.5002676 0.8916653 0.15763915
-0.059469834 -0.3877545 -0.3981922 -0.87424505 0.42969012 0.2006619 0.5889795 -0.35724068
0.806897 -0.26342225 0.5320893 0.021643566 0.2200716 0.58227724 1.3226973 -0.013833509
0.70221853 0.16397396 -0.501039 -0.29544878 -0.24470277 0.74068546 0.83430207 0.4254431
0.44453633 -0.32298633 -0.03345601 0.44359154 -0.4392028 0.45368674 1.0496197 -0.1951356
0.22353807 -0.19325453 0.34938315 -0.1346175 0.42238542 0.14785367 -0.047825787 -0.113178074
-0.006132646 -0.25670564 -0.11581211 0.37904012 0.138445 -0.15432468 -0.12917522 0.04994305
0.30884817 -0.23054779 0.8125425 0.5254483 0.72407204 -0.5031019 0.69569 0.01118002
1.1582952 0.20506468 -0.6860285 0.19568446 0.5113209 0.41213632 0.3828072 0.9459752
-0.07874095 -0.34532592 0.0048071453 0.13527109 -0.25679165 0.5098718 0.03858356 -0.7141041
0.08494954 0.1696775 0.3272453 0.34822026 -0.37578243 -0.0009852702 0.20279157 0.42402872
0.34128737 0.6125252 -0.7641897 0.4985606 0.082828514 -0.52187127 -0.09751249 0.2310459
0.29741436 0.35554633 0.30658892 0.36601046 0.1450739 0.40463138 0.22730035 0.058429006
-0.46822947 -0.8989668 -0.40855008 -0.3703293 -0.25027663 0.16776112 -0.02712896 -0.050664928
0.05936391 0.9372309 0.42202148 -0.028752182 -0.31117353 0.6530235 0.51862645 0.44187787
0.46294686 -0.14990523 0.7819068 1.0543787 1.3830336 0.26569167 -0.5929399 0.3140584
-0.1283144 0.12773928 1.7043731 0.09895566 0.45511237 -0.71467614 0.7130642 0.5078354
-0.51596075 0.14710525 1.0449429 1.6179771 1.3323971 0.2050892 -0.12019489 0.15487044
-0.043313224 -0.25273728 -0.01981746 -0.13467425 0.40567976 -0.008763708 -0.110792495 -0.689313
0.5982087 0.029320782 0.5117585 0.0502961 0.1076378 -0.06432513 -0.38505936 -0.24886537
0.6327742 -1.0971458 0.4428587 -0.063350156 -0.6907021 1.2301747 0.8868582 0.30974165
0.12960073 0.95133126 -0.22432584 0.90528595 0.9142793 0.3517828 0.44318995 0.5292138
-0.09905768 0.24158469 0.25996882 1.2736952 -0.12364177 0.8448112 -0.36697438 0.32139742
00000000: f7ea 1c3d 104c f13f 6dce 073d 546b 2cbf
00000010: c1d6 6cbe 34f6 56be 02f2 36bc 9a05 cd3e
00000020: 6f6e d83e da22 8d3d beac 373d 3330 cd3f
00000030: b43a 5abc 20fd 353d c3c4 ec3d f9c5 083f
00000040: 09c7 2ebe 641f ed3d 2b3c 443f 53d6 ae3d
00000050: 6781 c3be 03b3 413d 14e2 75be ed63 a7be
00000060: 2c0a 99be f5d5 11bf 6e56 d3bf 522a 363e
00000070: 6872 2ebf 4f40 7b3f 28ca 773f c1e7 ce3e
00000080: 393f 593e 4dcf d23d 75ee 253f 7acd 753f
00000090: ab39 b73e 812c cdbd 9576 a53f be28 6a3e
000000a0: 9572 0a3e f2ec 313f 241a adbe 394f dd3d
000000b0: 961d bc3f 06b0 973d ce10 aa3e 183a 1e3f
000000c0: 277a bcbd 2cd5 57bf af9e 7c3e 3704 913e
000000d0: 29d7 ab3f d071 4c3f 8b21 aa3f 70e8 b5be
000000e0: c237 8b3f 06d7 073f cf70 093d 3a1b 143f
000000f0: abc5 353f e216 b6be 3fd5 0abf 4198 d33e
00000100: 84df bc3e c6dc ebbd 7daa 063f 7a95 6e3e
00000110: 28bf bdbd 498c 473f d5b6 1d3f f3d8 bcbe
00000120: 7b95 cbbd 6340 2c3f 2c00 2cbf 6102 b0be
00000130: 2204 56bc 8a11 003f 2d44 643f 286c 213e
00000140: a496 73bd c287 c6be d9df cbbe 86ce 5fbf
00000150: 5800 dc3e 507a 4d3e 5cc7 163f 40e8 b6be
00000160: cd90 4e3f 48df 86be 0137 083f d94d b13c
00000170: 735a 613e 1f10 153f 254e a93f f1a5 62bc
00000180: 98c4 333f cae8 273e 1844 00bf 1045 97be
00000190: 5d93 7abe 909d 3d3f d294 553f aed3 d93e
000001a0: 449a e33e 775e a5be 2b09 09bd 6e1e e33e
000001b0: 30df e0be a149 e83e f059 863f a0d1 47be
000001c0: 2ae7 643e 84e4 45be 59e2 b23e 2bd9 09be
000001d0: e742 d83e f466 173e f9e4 43bd e8c9 e7bd
000001e0: 5df4 c8bb ec6e 83be e62e edbd 8c11 c23e
000001f0: 87c4 0d3e 4a07 1ebe 8246 04be 1591 4c3d
00000200: 5921 9e3e b814 6cbe c902 503f c883 063f
00000210: c95c 393f 49cb 00bf bd18 323f 672c 373c
00000220: 0443 943f 7afc 513e 909f 2fbf 8261 483e
00000230: ede5 023f 8803 d33e 4eff c33e 6e2b 723f
00000240: ef42 a1bd 8fce b0be 4285 9d3b 8184 0a3e
00000250: 327a 83be f586 023f cc09 1e3d 87cf 36bf
00000260: 06fa ad3d f0bf 2d3e b28c a73e ed49 b23e
00000270: 8e66 c0be 2f24 81ba 98a8 4f3e 4b1a d93e
00000280: 38bd ae3e 74ce 1c3f f0a1 43bf 5643 ff3e
00000290: ffa1 a93d 5b99 05bf a1b4 c7bd 4c97 6c3e
000002a0: b246 983e 2b0a b63e 39f9 9c3e b965 bb3e
000002b0: 418e 143e d82b cf3e 6cc1 683e 4153 6f3d
000002c0: c6bb efbe b022 66bf 7a2d d1be cd9b bdbe
000002d0: 4224 80be 92c9 2b3e 8d3d debc 0786 4fbd
000002e0: 9227 733d 5dee 6f3f 3313 d83e b289 ebbc
000002f0: 2352 9fbe 8c2c 273f b4c4 043f d13d e23e
00000300: 5f07 ed3e c280 19be 0b2b 483f e2f5 863f
00000310: 3f07 b13f bd08 883e e9ca 17bf 43cc a03e
00000320: da64 03be 16ce 023e e628 da3f 44a9 ca3d
00000330: 7d04 e93e 04f5 36bf 608b 363f 8001 023f
00000340: 0116 04bf c2a2 163e b0c0 853f e019 cf3f
00000350: fd8b aa3f e702 523e bd28 f6bd 5b96 1e3e
00000360: 3569 31bd c866 81be 3a58 a2bc 0ce8 09be
00000370: 42b5 cf3e a895 0fbc 2de7 e2bd d176 30bf
00000380: 3524 193f 2332 f03c 9b02 033f 4903 4e3d
00000390: 3571 dc3d e5bc 83bd 8026 c5be 90d6 7ebe
000003a0: 7dfd 213f 466f 8cbf 60be e23e babd 81bd
000003b0: dad1 30bf 5d76 9d3f 2409 633f 7596 9e3e
000003c0: 0eb6 043e 728a 733f acb5 65be d2c0 673f
000003d0: 350e 6a3f e01c b43e cbe9 e23e 8e7a 073f
000003e0: c1de cabd fa61 773e a21a 853e 7208 a33f
000003f0: e537 fdbd 8c45 583f 11e4 bbbe 348e a43e

model.2.bias f4 [128]
1.0229435 0.7347701 -1.1819079 -0.8741274 -1.1048669 -1.0182345 1.4724046 0.39644122
-0.9655617 -0.08316742 0.81589043 -0.9152658 -1.3733902 -0.33550382 1.0980868 -0.70184004
-0.6448396 0.742945 0.686623 0.27966604 0.13746136 -0.8008693 -0.046840187 0.31001332
0.49225616 0.04406933 0.9676627 0.5594097 1.0231801 0.27845156 -0.057267256 -0.11788408
0.52297586 0.95666426 0.6191722 -0.18821283 -0.76132274 -0.6409328 0.43627298 -0.3149169
-0.3888979 -0.46028903 -0.22180752 0.0027836668 -0.9201117 0.28804675 -0.8432958 -0.07693851
0.7623822 0.038194843 -0.20139417 0.42350888 0.31522742 -0.0911363 -0.6553714 -0.037618052
-0.5992584 -0.15322335 -0.27632898 0.08438183 0.45096278 -0.28139699 1.1027864 0.91816556
1.4740562 -0.2828631 0.32137784 -0.08031082 0.370604 -0.7602199 -0.14458296 -0.84806
0.76390487 0.2905803 -0.031744044 0.27614066 -0.40116504 0.55607325 -0.6166189 -0.39025202
0.30105594 -0.16986917 1.7700528 0.39889604 0.7229886 0.3537181 0.49599195 -1.3066694
1.310586 -0.3913129 -0.76205343 -0.67684746 -0.63140154 -0.061520632 -0.8702181 0.673684
0.57520133 -0.2819769 -0.911681 0.36707136 -1.0099419 0.31458902 0.25908646 0.20110089
1.1964573 0.08174772 -0.791353 0.8603668 -0.7450062 -0.9209579 -0.35336313 -0.14386898
0.6598842 0.875045 0.18845935 0.06290641 -0.41071787 0.58178365 0.47257274 -1.3347886
0.34900552 -0.42274275 0.13704269 0.019152656 -0.021458404 0.30750054 0.48445928 0.74534446
00000000: d0ef 823f e519 3c3f c248 97bf d0c6 5fbf
00000010: 476c 8dbf 8255 82bf c177 bc3f 58fa ca3e
00000020: 0d2f 77bf ae53 aabd 32de 503f dc4e 6abf
00000030: 40cb afbf 28c7 abbe 1c8e 8c3f caab 33bf
00000040: 3514 25bf a531 3e3f 86c6 2f3f 6330 8f3e
00000050: acc2 0c3e c505 4dbf 7fdb 3fbd 11ba 9e3e
00000060: 0009 fc3e 0b82 343d beb8 773f 7935 0f3f
00000070: 91f7 823f 3491 8e3e 1291 6abd 356d f1bd
00000080: bfe1 053f f3e7 743f 1282 1e3f ddba 40be
00000090: 0ce6 42bf 2c14 24bf 2c5f df3e ca3c a1be
000000a0: a01d c7be 01ab ebbe 8321 63be 2e6e 363b
000000b0: 718c 6bbf dd7a 933e 3ce2 57bf f091 9dbd
000000c0: 7b2b 433f 3272 1c3d 463a 4ebe 28d6 d83e
000000d0: 7d65 a13e aba5 babd 6cc6 27bf 6315 1abd
000000e0: 0069 19bf 95e6 1cbe fe7a 8dbe 62d0 ac3d
000000f0: 98e4 e63e 4413 90be 1b28 8d3f e60c 6b3f
00000100: e0ad bc3f 6fd3 90be a38b a43e 007a a4bd
00000110: cfbf bd3e c59d 42bf 8e0d 14be 761a 59bf
00000120: 458f 433f f1c6 943e 0b06 02bd 4f62 8d3e
00000130: 8165 cdbe d15a 0e3f bcda 1dbf 1dcf c7be
00000140: 0124 9a3e 2ff2 2dbe 1791 e23f 1a3c cc3e
00000150: c815 393f 8a1a b53e a8f2 fd3e f140 a7bf
00000160: 48c1 a73f 2a5a c8be ef15 43bf e045 2dbf
00000170: 88a3 21bf 0ffd 7bbd 9dc6 5ebf 8e76 2c3f
00000180: 6540 133f 475f 90be ed63 69bf c7f0 bb3e
00000190: c745 81bf d011 a13e fba6 843e 64ed 4d3e
000001a0: 8325 993f 596b a73d 1c96 4abf 0041 5c3f
000001b0: bab8 3ebf e6c3 6bbf 03ec b4be 6452 13be
000001c0: 2cee 283f f302 603f 7dfb 403e 13d5 803d
000001d0: 9d49 d2be c6ef 143f 0ef5 f13e 5ada aabf
000001e0: dab0 b23e bd71 d8be eb54 0c3e 08e6 9c3c
000001f0: 89c9 afbc b670 9d3e 0c0b f83e e5ce 3e3f

model.4.weight f4 [1, 128]
-0.17665592 0.22707 0.04384784 -0.0048058103 -0.0202088 0.14186783 -0.07071299 0.03552024
0.04360785 0.17666203 0.02047171 -0.090296246 0.3309327 0.05992671 0.035472136 0.07896888
-0.2574658 0.14630072 0.06995049 0.17156294 -0.09248538 0.035806183 0.14209065 0.18007532
0.09147687 -0.37091923 -0.00040514153 0.13741569 -0.13133815 0.04159357 0.23550792 -0.041804004
0.030069618 0.40945846 -0.081245415 0.34043574 -0.04472807 -0.22485416 -0.011553986 -0.02007393
-0.06787497 0.036244337 -0.37407857 0.014432881 0.09527859 -0.09339179 0.13499399 0.068509504
-0.15725724 -0.049029533 -0.005179879 -0.044142045 -0.004655224 -0.056074575 0.026610583 -0.2593777
0.15021823 -0.18384765 -0.28489837 0.12807259 0.04115123 0.14468756 0.13243411 -0.039469335
0.024159215 0.10447731 0.046961248 -0.07216306 -0.02567277 -0.3619394 -0.06594144 -0.03280731
-0.018412825 0.004201026 0.14387399 -0.09247956 -0.0114821615 0.10811231 -0.47764224 -0.022660604
-0.013782297 0.010153621 0.582096 0.0434073 0.049613353 0.047804464 0.0037997158 0.057342455
-0.016025975 0.013780813 0.056264494 -0.33761832 -0.018047156 0.13669209 0.024259027 -0.2398437
0.055717226 -0.00518598 0.15613137 -0.040126525 0.05218706 0.066114865 -0.09999809 0.08952958
0.3312219 0.11123568 0.011787717 -0.089457475 -0.062827066 -0.3549683 0.0429912 -0.070665
-0.032170877 0.35043776 -0.6218969 0.083005495 -0.21908462 -0.0031060807 0.00629435 -0.20240073
0.11773355 -0.18043135 -0.009351522 0.08750469 0.19173011 0.0023586345 -0.059176322 -0.021204269
00000000: 4ae5 34be 0a85 683e cb99 333d 0f7a 9dbb
00000010: ed8c a5bc cd45 113e f9d1 90bd ac7d 113d
00000020: 259e 323d e4e6 343e 4ab4 a73c 3ded b8bd
00000030: 0370 a93e b675 753d 3b4b 113d 70ba a13d
00000040: 8fd2 83be dbcf 153e 3442 8f3d 32ae 2f3e
00000050: fa68 bdbd 81a9 123d 3680 113e aa65 383e
00000060: 3a58 bb3d 20e9 bdbe 2d69 d4b9 b3b6 0c3e
00000070: 827d 06be 055e 2a3d fd28 713e ad3a 2bbd
00000080: 8f54 f63c 8aa4 d13e ff63 a6bd 984d ae3e
00000090: c834 37bd 2b40 66be ee4c 3dbc 1572 a4bc
000000a0: 0802 8bbd f174 143d 3a87 bfbe e477 6c3c
000000b0: 6c21 c33d 3244 bfbd dd3b 0a3e b64e 8c3d
000000c0: 0b08 21be 31d3 48bd f9bb a9bb 4ace 34bd
000000d0: d98a 98bb 74ae 65bd 70fe d93c 27cd 84be
000000e0: cfd2 193e 8f42 3cbe 33de 91be 7625 033e
000000f0: 318e 283d fa28 143e cf9c 073e 99aa 21bd
00000100: 8ce9 c53c 33f8 d53d 705a 403d 3aca 93bd
00000110: b34f d2bc 1f50 b9be 4e0c 87bd f560 06bd
00000120: 7ed6 96bc c3a8 893b b453 133e ec65 bdbd
00000130: ad1f 3cbc fd69 dd3d 868d f4be bba2 b9bc
00000140: 25cf 61bc 605b 263c 3e04 153f dacb 313d
00000150: 5f37 4b3d 9dce 433d a704 793b ecdf 6a3d
00000160: e848 83bc ebc8 613c 9975 663d 4fdc acbe
00000170: a1d7 93bc 03f9 0b3e deba c63c 9699 75be
00000180: bf37 643d 27ef a9bb e7e0 1f3e b65b 24bd
00000190: 19c2 553d 3b67 873d cccb ccbd 495b b73d
000001a0: eb95 a93e 88cf e33d 4521 413c 7b35 b7bd
000001b0: 7aab 80bd 68be b5be 8a17 303d d0b8 90bd
000001c0: 9cc5 03bd 946c b33e a334 1fbf c9fe a93d
000001d0: b857 60be 638f 4bbb d640 ce3b 2342 4fbe
000001e0: 4a1e f13d ffc2 38be 2037 19bc a935 b33d
000001f0: e654 443e 5293 1a3b df62 72bd 93b4 adbc
