discriminator_gan_ff_lstm_es.pth (torch, 295898 bytes, 5 tensors)

model.0.weight f4 [256, 156]
000000 39 03 43 c1 bd 04 d6 3f 28 8a cc 3f ec ff 1f 3f
       -12.188287 1.6720196 1.5979662 0.6249988
000010 fd 5f 9f be 15 33 dd be 8c 8a f7 be d0 40 c9 be
       -0.3112792 -0.43203035 -0.4834789 -0.3930726
000020 63 d1 b9 3c 85 08 06 3f e5 65 4d 3f de 74 46 3f
       0.022682851 0.5235675 0.80233604 0.77522075
000030 f7 db 0a 3f 38 93 95 3e f3 7d 08 3e 4c aa fa 3c
       0.5424189 0.29213881 0.13329296 0.030598782
000040 fe e0 3b bd f4 c7 71 be 41 02 fa be eb 9c 52 bf
       -0.045868866 -0.23611432 -0.48829845 -0.8227069
000050 be e5 82 bf 4c cd 7e bf c6 70 54 bf bf 78 27 bf
       -1.0226362 -0.9953201 -0.8298458 -0.6541862
000060 60 1f fd be 8c 1e ba be 75 6b 9f be cf 3f 99 be
       -0.49438 -0.3635143 -0.3113667 -0.29931495
000070 f5 77 d3 be 0e c1 6a be d7 d6 48 be 61 91 a6 bd
       -0.41302457 -0.22925207 -0.19613205 -0.081331976
000080 55 49 7f bd e9 33 fb bd 5c 5d be bd 2b b4 8a 3c
       -0.062325794 -0.122657605 -0.09295151 0.016931614
000090 2a b6 34 3e 16 f9 24 3e 99 49 6e 3e 94 0e 4d 3e
       0.17647615 0.16110644 0.23270263 0.20025092
0000a0 eb cf a3 3e 69 d1 5f 3e ba 8a 9e 3e 74 f6 87 3e
       0.31994566 0.21857227 0.30965215 0.26555216
0000b0 ca 08 61 3e 16 50 a3 3e 89 eb 61 3e 06 4d 99 3e
       0.21976009 0.31897038 0.22062506 0.29941577
0000c0 fc 54 80 3e b9 fa 8e 3e c0 cd 58 3e 4c 82 87 3e
       0.25064838 0.2792566 0.21172237 0.26466596
0000d0 ad b5 a9 3e 08 cc 84 3e 97 9e b3 3e d0 46 ad 3e
       0.3314642 0.25936913 0.35081932 0.33843088
0000e0 b4 03 7a 3e 26 94 55 3e f7 25 8d 3e 42 ad 8a 3e
       0.24415475 0.20857295 0.27568027 0.2708531
0000f0 de 3c 34 3e 27 b8 93 3e 56 fb 94 3e c0 12 a6 3e
       0.17601344 0.28851435 0.29098004 0.3243618
000100 48 18 45 3e 1f d2 6a 3e 7d a6 5c 3e 2e 05 67 3e
       0.19247544 0.22931717 0.21547885 0.2256057
000110 58 fe 05 3e 1c f5 0c 3e 10 1b 58 3e cb ff 1d 3e
       0.13085306 0.13765377 0.21104074 0.15429609
000120 5f fe 52 3e 2c 65 31 3e 18 3b 35 3e 6a ee 3c 3e
       0.20604847 0.1732375 0.17698324 0.18450323
000130 86 c0 38 3e 64 51 58 3e 0f 10 9a 3d d4 3d 42 3e
       0.18042192 0.21124798 0.07522594 0.18968898
000140 c8 fe 9e 3d a1 94 5f 3d 1f b3 d2 3d 2c b0 9b 3d
       0.077634394 0.054585103 0.10288071 0.076019615
000150 84 da ea 3d de 1b a4 3c 77 9b b4 bc 01 be 02 3e
       0.1146746 0.02003282 -0.022046788 0.12767793
000160 b0 86 42 3d 17 0f ee 3d fd 40 a9 3d bf 68 74 ba
       0.04749173 0.11623972 0.08264349 -0.000932347
000170 49 3e 63 3d 9b 60 89 3d a4 63 82 bc 50 4e 2d bc
       0.05547932 0.06707879 -0.015916653 -0.010577753
000180 1f 5b 59 3d c4 d2 1b 3d 1a 87 d7 bc 80 f2 24 bc
       0.053065415 0.0380428 -0.026309539 -0.010067582
000190 d0 21 88 3d 3c 33 a4 bc e9 62 06 3d 53 1c 7d 3c
       0.06647074 -0.020043962 0.03280917 0.015448648
0001a0 0a 7a a1 bd eb 01 c7 bd e2 a0 0a 3d a8 4a 0d bd
       -0.07884605 -0.09717163 0.033844836 -0.034495026
0001b0 fc 8e 05 bc 45 fd 7a bd a9 ca 94 bd 70 f4 10 bd
       -0.008151766 -0.061276693 -0.07265217 -0.035389364
0001c0 8e 69 0d bd d4 ff 27 be 4c 38 dc bd e1 15 69 bd
       -0.034524493 -0.16406184 -0.10752925 -0.05690563
0001d0 84 91 a4 bd d8 5c 8f bd 4a 61 39 be 9d a6 3c be
       -0.080355674 -0.070001304 -0.18103519 -0.18422933
0001e0 f0 ab 3b be c1 b4 0a be 24 c9 94 bd 05 43 5b be
       -0.18327308 -0.13545515 -0.07264927 -0.21412285
0001f0 2b 05 00 be fc a5 52 be 6a 9a 80 be 64 ab 40 be
       -0.12501971 -0.2057113 -0.2511781 -0.1881538
000200 2f 7e 0f be e6 d7 de bd f6 56 81 be 18 af 41 be
       -0.14012979 -0.10881023 -0.25261658 -0.18914449
000210 af 45 23 be 76 64 36 be 92 bf 3e be df a0 2f be
       -0.15944551 -0.1781176 -0.18627766 -0.17151211
000220 7a 9c 30 be d4 da 46 be 10 30 8b be 1d 80 99 be
       -0.17247191 -0.19419414 -0.27185106 -0.29980555
000230 05 68 95 be 9a 4a 82 be 0f b4 9a be 12 d0 4a be
       -0.29180923 -0.2544754 -0.302155 -0.19805935
000240 01 95 57 be 46 a7 81 be d8 f8 61 be 08 54 6d be
       -0.21052934 -0.25322932 -0.22067583 -0.23176587
000250 93 40 73 be 70 6b 70 be f0 9c a6 be b1 56 5f be
       -0.23755102 -0.23478484 -0.3254161 -0.21810414
000260 72 17 9d be 29 27 93 be a3 eb b6 be 0f 9f 95 3b
       -0.3068195 -0.28740814 -0.35726652 0.0045660804
000270 2c e5 b1 41 7e e0 3b 3f f8 ac 94 3e 12 65 45 3f
       22.2369 0.7338942 0.29038215 0.77107346
000280 49 81 4d 3d bb f1 09 bf 3d 23 29 bf a6 90 ab bf
       0.050172124 -0.53884476 -0.66069394 -1.3403518
000290 90 e2 60 bf ac 8e a0 3d e1 b1 a9 be a8 c8 8f bf
       -0.87845707 0.078397125 -0.33143523 -1.123311
0002a0 66 1d 74 be 4e 1a 03 3f b7 c8 c0 be b5 1b 1e 3f
       -0.2383934 0.5121201 -0.37653133 0.6176103
0002b0 20 81 8b 3f 47 4c d9 3f 8e 35 b4 3f 9c 0e 55 3e
       1.0898781 1.6976403 1.4078844 0.20806354
0002c0 21 74 f3 be 2b 3c 13 bf c0 c9 f6 be 46 d4 8f be
       -0.47549537 -0.57513684 -0.48200798 -0.2809164
0002d0 54 7d af be e2 16 8e be 56 87 7c be 0a fd ae bd
       -0.34275305 -0.27751833 -0.24661002 -0.08544357
0002e0 7f e1 c6 bc fd ff 0d 3e fc a3 9c bc 46 af be bc
       -0.024277447 0.13867183 -0.019121163 -0.023276936
0002f0 0f f0 93 3d a7 fb 93 3d d8 7e 4f 3e 89 c9 55 3e
       0.07223522 0.07225733 0.20263231 0.20877661
000300 c0 8b 7a 3e 45 85 9f 3e 2d e5 c9 3e 40 6b 96 3e
       0.24467373 0.31156364 0.3943266 0.293787
000310 75 ea d2 3e c9 d8 e4 3e 8d d6 f7 3e 3f 05 b9 3e
       0.41194502 0.44696644 0.48405877 0.36136815
000320 3e 99 e9 3e 72 cf c6 3e 2e 6d 06 3f a3 15 db 3e
       0.45624727 0.38830143 0.52510345 0.42789945
000330 86 0b fd 3e f6 3a df 3e 46 10 da 3e a4 21 d8 3e
       0.49422854 0.4359967 0.4259054 0.42213166
000340 38 f6 e3 3e 4d f5 f4 3e 0d 2f e4 3e a5 72 e8 3e
       0.44523787 0.478434 0.44567147 0.45399967
000350 25 45 b3 3e 20 32 e7 3e 14 c9 e3 3e 8a 75 df 3e
       0.3501369 0.4515543 0.44489348 0.43644363
000360 68 79 d3 3e f0 95 90 3e c3 14 9d 3e 46 ce c4 3e
       0.41303563 0.28239393 0.30679902 0.38438624
000370 22 64 6e 3e 5e d4 b2 3e d2 55 3e 3e c7 8f 37 3e
       0.23280385 0.34927648 0.18587425 0.1792594
000380 f2 0f 8a 3e f1 b6 1d 3e ce 40 41 3e f4 39 87 3e
       0.2696529 0.15401818 0.18872377 0.26411402
000390 fa b9 7c 3e 67 bd 77 3e bc 0b 0e 3e a2 85 92 3d
       0.2468032 0.24193345 0.13871664 0.07154395
0003a0 91 1e 4e 3e fb c3 cb 3d d8 01 91 3d 72 89 e3 3d
       0.20128848 0.0994949 0.0708043 0.111102
0003b0 2f 6b fa 3c 86 42 f4 3d 74 07 ce 3d b0 68 91 bc
       0.030568687 0.11926751 0.10060015 -0.017750114
0003c0 0d 91 d1 bc 73 ed d1 3c e3 41 6f 3d 1c a0 8f 3b
       -0.02558186 0.02562592 0.058412444 0.0043831
0003d0 89 86 5a bd 4b e7 dc bc f8 31 00 be 41 a4 f4 bd
       -0.05335096 -0.026965758 -0.12519062 -0.119453914
0003e0 42 cb e2 bd d0 84 80 3b 1d 56 81 3b f2 b6 c5 bd
       -0.110739246 0.0039220825 0.003947033 -0.09654035
0003f0 fb dd 97 bd c9 57 26 bd 18 9e 82 bd 84 dd f7 bd
       -0.07415386 -0.040611062 -0.0637781 -0.121027976

model.0.bias f4 [256]
000000 ac cb 66 be d9 fa 1b 3e 83 9c b8 3d 44 a2 01 3d
       -0.22538632 0.1523241 0.09014227 0.03164889
000010 89 ce cb be 2b 18 40 3e 48 e5 4c 3e 5c b0 dc 3e
       -0.3980601 0.1875922 0.20009339 0.43103302
000020 20 93 91 3e 90 61 df bd 0b a0 09 bf 62 50 b6 3e
       0.2843256 -0.109072804 -0.5375983 0.35608202
000030 4d 41 c0 bd 4b 3e 6e bf 66 74 ab 3e f9 4d 71 be
       -0.09387455 -0.930638 0.33487242 -0.235649
000040 ff fb e3 3e 3d f4 0e bf fa 9a bf 3e 67 96 66 3d
       0.44528195 -0.5584143 0.37422925 0.05629578
000050 44 ce 97 be 22 86 14 3e c7 b5 d1 be 7c 25 96 3c
       -0.29649556 0.14504293 -0.40958998 0.01832842
000060 84 0e 3a 3e 37 c9 03 3e 35 ac 16 be 04 4c 73 3d
       0.181696 0.12869726 -0.1471413 0.059398666
000070 d4 55 cd 3d 3f 12 8b bd 48 7b df 3c de bc c3 3c
       0.10026136 -0.067905895 0.027280465 0.02389377
000080 3c b4 66 bf 9b 4c fc bc 4d 09 9b 3c 8f bc 67 3e
       -0.90118766 -0.030798247 0.018925333 0.22630523
000090 aa 3f cf be 83 e9 81 3e 38 2a 97 3e 96 e4 c9 3e
       -0.4047826 0.25373468 0.29524398 0.3943221
0000a0 cb e9 39 bf a6 2e 04 3e 8f 64 8d 3e 1e 30 b2 3e
       -0.72622365 0.1290842 0.27615783 0.34802336
0000b0 9e 39 59 c0 ce ad 70 3d cb 8e 2b 3d 69 ae 4c bf
       -3.3941417 0.058759503 0.041884225 -0.7995363
0000c0 bb 4d bb 3e d3 82 93 3e ed 8d 82 bd da 6a be 3e
       0.3658274 0.28810748 -0.063747264 0.37190896
0000d0 00 36 01 bf e4 a0 29 bd 4e 86 98 3e 19 b7 a7 3a
       -0.5047302 -0.041413203 0.29789966 0.0012795656
0000e0 7e 46 15 c0 c8 b5 0a bf 54 86 86 3e 13 06 a4 3e
       -2.3324275 -0.54183626 0.2627436 0.32035884
0000f0 eb 8a e9 3e 6b 79 e1 3d 74 7d 35 3e 11 1f 31 3d
       0.45613798 0.11009487 0.17723638 0.043242518
000100 ee 4e 95 be 9b 7d a7 3e 33 15 3f 3e 18 09 3e bf
       -0.2916178 0.32713017 0.1866043 -0.74232626
000110 80 e7 b4 3e ea db e8 bd a4 b4 1e 3e 0a 4d 79 3e
       0.3533287 -0.1137007 0.15498596 0.24345794
000120 ae 70 24 3f 97 ab 0d 3d 41 19 19 bf 42 68 87 3f
       0.64234436 0.03458747 -0.5980416 1.0578692
000130 a1 30 df be eb a7 16 be 1e c9 62 bd df d1 45 3f
       -0.43591788 -0.14712493 -0.05536758 0.7727336
000140 ed 1b 15 be 16 e2 5f 3e 51 d3 22 bf 7e 4c e9 be
       -0.14561434 0.21863589 -0.63603693 -0.4556617
000150 d8 bc a0 3e cb 2d 1a 3d a2 31 a6 bc e7 f7 2a 3e
       0.31394076 0.037641328 -0.020287339 0.1669613
000160 0a be 9f 3e 87 90 9f be 94 57 b4 be 03 6e ca be
       0.31199676 -0.31164953 -0.35223067 -0.39537057
000170 1c d0 9c 3e 0b 29 6b bf 17 68 7a 3d 44 2e 14 be
       0.30627525 -0.918595 0.061134424 -0.14470774
000180 43 8b d5 3e c5 64 51 3e 79 11 60 3e 12 3c b9 3e
       0.4170781 0.20448597 0.21881665 0.36178643
000190 83 3e 9f 3e 84 3a b0 be 7c 42 51 3f b6 e6 e0 3e
       0.3110238 -0.34419644 0.8174207 0.43926018
0001a0 1f d9 1c 3f cb 39 13 be 67 fd 12 3f e7 35 7d 3e
       0.612688 -0.14377515 0.5741791 0.24727593
0001b0 4a cb 41 be 59 4c 5c 3e be 3a 0b 3d ae ee 1e be
       -0.18925205 0.215135 0.033991568 -0.15520737
0001c0 36 ec e4 bc ab 48 78 bd e8 f9 99 3e 49 61 8f 3e
       -0.027944665 -0.060616177 0.30073476 0.2800391
0001d0 92 d5 58 be a2 a2 21 3d b8 db 5a be aa 4a 94 3e
       -0.2117522 0.03946174 -0.21372879 0.28963214
0001e0 cb 0f 55 3f b5 7a 22 bb 1e 57 14 3e b0 a8 fc bc
       0.83227223 -0.0024792377 0.14486358 -0.030842155
0001f0 86 ad 93 3e 8b d3 8f 3c 21 d2 1e bf c7 60 94 bd
       0.28843325 0.017556926 -0.6203938 -0.07245021
000200 54 6e 88 3e 0c ce 28 3f 30 22 96 be 99 c5 91 3e
       0.26646674 0.659394 -0.29322958 0.28471068
000210 21 b3 7a bf 68 5b 53 3e 59 68 52 3e 49 f4 9a bf
       -0.9792958 0.20640337 0.20547618 -1.21058
000220 31 61 9a 3f 2f 4a 96 3d 89 66 56 3e e2 e4 b8 be
       1.206091 0.07338368 0.20937552 -0.36112124
000230 7a 7f 9d be 56 4c 92 3e 45 f5 c5 bb c4 69 2a be
       -0.3076132 0.28573865 -0.0060412013 -0.16641909
000240 35 4e db 3d cd 7a c1 3d a9 a1 eb 3e ed 8e e1 be
       0.10708276 0.094472505 0.46021774 -0.44054356
000250 8f 0e 33 bf f9 f8 42 be d1 fe dc be 96 e9 10 bf
       -0.6994409 -0.19040288 -0.4316316 -0.56606424
000260 c3 cf 95 be ef ff 95 3d 26 32 60 be 41 ba 60 be
       -0.29260072 0.07324206 -0.2189413 -0.2194605
000270 06 f2 bc 3d c6 ee db 3e 6a ae 22 be f0 e1 ae 3e
       0.0922585 0.42955607 -0.15886846 0.34156752
000280 a3 dc ea be 3c 0f e4 bd 60 9e aa 3e c7 9a b8 be
       -0.45871457 -0.11135718 0.33323956 -0.36055586
000290 62 b1 c1 3e ab 3c 18 be 32 bc 96 3e 62 cc 38 3e
       0.37830645 -0.14866893 0.29440457 0.18046716
0002a0 6a f2 e2 3d 00 fb f0 3d 69 05 6f 3e fd ee c0 3e
       0.11081393 0.117666245 0.23341908 0.37682334
0002b0 e6 64 3e 3e cc bf 0e 3e 18 8c d9 3c 53 b7 f2 3d
       0.18593177 0.13940352 0.02655606 0.118513726
0002c0 18 9a 82 3e d2 6c 80 3e 47 66 83 bf 78 65 b5 3e
       0.2550819 0.25083023 -1.0265588 0.35428977
0002d0 12 0e 36 3e c1 d1 b0 3e 2f 7d 1e 3f a9 e7 ed 3e
       0.17778805 0.3453503 0.61909765 0.46465805
0002e0 a3 cc 12 3e e6 26 8c 3e 5a 9d f9 bd 41 dc 81 bf
       0.14335875 0.27373427 -0.121882156 -1.0145341
0002f0 c5 66 3d 3e de ab 06 3f 88 67 31 be b0 6d ba bf
       0.18496235 0.52606 -0.1732465 -1.4564724
000300 60 ad 1d 3e a8 90 db bf 64 0f 3b 3e 82 4b 92 3e
       0.15398169 -1.715352 0.1826759 0.28573233
000310 a3 3b 9b 3e 23 23 8c bf 4c 3f 16 3d c0 0e 07 3e
       0.30318937 -1.0948223 0.03668146 0.1318922
000320 96 06 85 3e 09 6b 3d 3e 2a a3 eb 3e ed 4d ed bd
       0.25981587 0.18497862 0.46022922 -0.11587129
000330 6a ca a6 3c b8 e2 75 be c2 81 25 3d 50 3b 90 3b
       0.02036019 -0.24012268 0.04040695 0.004401602
000340 0b c6 3e bf be 4b 4b be 59 5d 9d 3e 4c dd 4d 3d
       -0.7452094 -0.19853112 0.3073528 0.050259873
000350 e0 e4 3d 3d 1b d6 94 3e 8a 2f 58 bf b5 a3 a3 3d
       0.04636085 0.290696 -0.8444754 0.07990209
000360 39 b1 11 bf 8e fc 2f c0 51 91 ff 3d 7d 65 83 bf
       -0.56911045 -2.7497897 0.12478889 -1.0265347
000370 6b 56 e3 3e 61 b3 ad 3e 82 50 27 bf ae 0d 0b bf
       0.4440187 0.33925918 -0.6535722 -0.5431775
000380 98 c9 a7 bb 51 bf f8 3d a7 6e 8b 3e 46 42 7e bd
       -0.0051204674 0.12145866 0.2723286 -0.062074922
000390 34 e5 da be c0 16 8d 3e 3f 03 b7 3d 45 6c 18 3e
       -0.42752993 0.2755642 0.08936166 0.14885052
0003a0 ec a8 85 3e 34 43 8e 3e c3 4b e5 3e 13 de 83 3e
       0.2610544 0.27785647 0.44784364 0.25755367
0003b0 fb be ba 3e 62 77 e7 3d cf 07 0f 3e 40 6c 59 3d
       0.36473832 0.11302067 0.13967822 0.05308175
0003c0 25 2b e4 3d 63 2c 87 3f 6c 08 04 bf 41 5a de be
       0.11141042 1.0560421 -0.5157535 -0.43428233
0003d0 2b c4 e2 be 77 c3 81 be 65 93 7d be 01 e7 8b be
       -0.4429029 -0.2534444 -0.24763258 -0.2732468
0003e0 2a 33 5c 3e 33 78 37 3e 71 41 bc 3e 84 3f ad 3d
       0.21503893 0.17916946 0.36768678 0.0845938
0003f0 90 41 e6 3e 88 44 e7 3d 01 9c b9 3e fe 47 30 bf
       0.44971895 0.11292368 0.36251834 -0.6885985

model.2.weight f4 [128, 256]
000000 e4 76 b8 bd 1d c3 ea bb 8c 1f a5 bd af 34 fb bc
       -0.090070516 -0.0071643726 -0.08062658 -0.03066477
000010 35 38 a5 3e da f8 1f 3b 13 41 01 3e d7 34 4e 3e
       0.32269445 0.0024409802 0.1262248 0.20137344
000020 b7 7d 59 bd 53 f0 b9 3d fc 70 9d 3d 94 76 40 3c
       -0.053098407 0.09079041 0.07687566 0.011747021
000030 79 53 57 bd e3 7f e5 bd 3d c0 cd bd 84 4e 00 be
       -0.05256984 -0.11206033 -0.10046432 -0.12529951
000040 85 75 89 3d 1d e4 14 be ab 7f 07 be 9c 0e 56 be
       0.06711868 -0.14540143 -0.13232295 -0.2090401
000050 dc 12 78 3e ef 59 d9 bb 6f 6c b1 3d 1d cf 9c bd
       0.24225944 -0.0066330354 0.0866326 -0.07656691
000060 50 6a 73 3e e2 78 27 be a4 b5 8a be 62 d2 a6 be
       0.23771024 -0.16354707 -0.27091706 -0.32582384
000070 eb 37 27 bc 0b d1 dc 38 9f 5f 8d be b3 13 6e 3e
       -0.010206203 0.00010529355 -0.27612016 0.23249702
000080 01 b1 c1 3d bd 80 b8 3d 1a b3 38 3d ba 27 c9 3d
       0.09457589 0.0900893 0.04509268 0.0982203
000090 40 cf 31 3e 41 43 8f 3d 7d d7 df bc 5f 92 b2 3d
       0.17364216 0.069952495 -0.027324433 0.08719324
0000a0 92 e0 d0 bd fe c4 ec be 97 79 9f bd e4 fd 44 be
       -0.101990834 -0.46244043 -0.07786863 -0.19237477
0000b0 e0 99 c0 3e 75 eb cb 3d 1c 08 90 bd ae 7f 8b 3e
       0.37617397 0.09957019 -0.07032797 0.2724585
0000c0 fa 15 87 be 40 ce 90 bd 55 58 18 be 10 63 f1 bc
       -0.26383954 -0.07070589 -0.14877446 -0.029466182
0000d0 3f 98 02 be 20 ad 79 be 74 a6 32 be 4a 4f a5 be
       -0.1275339 -0.24382448 -0.1744631 -0.32287055
0000e0 9d 29 6c 3e 1b 35 eb bd 0a d0 39 be dc 23 c6 3e
       0.23062749 -0.114847384 -0.18145767 0.38699234
0000f0 09 eb 4b 3e 59 0b 82 bc 51 8f 68 3e 4f 70 ba bd
       0.19913878 -0.015874552 0.22710921 -0.091034524
000100 f6 be 04 be 32 19 a6 3d dd 0b 80 be 3f f8 24 bd
       -0.12963471 0.081102744 -0.2500905 -0.04027581
000110 4a d5 ae 3d 8d 8f 14 be d4 03 6e 3d 8b 48 69 3d
       0.085367754 -0.14507885 0.05810912 0.056953948
000120 68 62 3e 3e 98 e7 57 be 72 d8 ff 3c 93 07 b0 3d
       0.18592227 -0.2108444 0.031231139 0.08595195
000130 e1 bb 3a 3e 08 a5 55 bd ec d7 9c be a0 21 1d be
       0.18235733 -0.05215934 -0.30633485 -0.15344858
000140 bd 97 db 3a ea 34 0f 3b 04 b6 34 be 70 9b 09 bd
       0.0016753596 0.0021851608 -0.17647558 -0.033595502
000150 f6 83 25 be 05 59 a9 be 3e 39 a4 3d c7 86 f8 3d
       -0.1616362 -0.3307573 0.080187306 0.12135082
000160 26 ae 31 be 17 43 a9 be 6e 55 20 be 52 57 1c bd
       -0.17351589 -0.33058998 -0.15657589 -0.038169213
000170 5b 33 2d 3e 5d f7 a3 3b 54 2a bf bd 5b 98 be be
       0.16914122 0.0050038532 -0.09334245 -0.37225613
000180 a2 bc be 3d 26 d0 a8 bd 83 dd a9 be 3f d5 78 3e
       0.093133226 -0.08242826 -0.33176813 0.24300097
000190 3b b6 dc bd cb ce d2 3d ea c2 51 3e c1 b5 82 3d
       -0.10776945 0.10293349 0.2048451 0.06382323
0001a0 9b 44 1c 3e 62 bb 90 3d ec 57 81 be d4 9e 8a 3e
       0.15260546 0.070669904 -0.25262392 0.270743
0001b0 a4 f6 b3 bd 9e 3b 0b be 24 11 00 be b1 d1 5f bd
       -0.08787277 -0.13596961 -0.12506539 -0.054643337
0001c0 59 85 9b bc 51 ce c7 bd 4c 42 94 be 7b 15 89 bd
       -0.018984484 -0.097561486 -0.2895683 -0.0669355
0001d0 8a a5 8b be 2c 6e 85 3d 23 f8 96 3d a9 04 b7 3c
       -0.27274734 0.06515154 0.07371547 0.02234109
0001e0 58 57 10 3e 76 cf db be ed 12 8b 3e 93 68 c7 bd
       0.14095819 -0.42931718 0.27162877 -0.09736743
0001f0 ac 3d 21 3d 69 18 ad 3c 1a 1e 02 3e 44 fe 81 3d
       0.039365456 0.021129804 0.12706795 0.063473254
000200 59 06 c0 be ef ee 3b bd 25 93 02 bd 1b 0c 0a 3e
       -0.37504843 -0.04588216 -0.03187861 0.1348118
000210 61 9b c2 bc 53 71 da bd dc bc 21 bd 43 4f 9a bd
       -0.023755731 -0.10666146 -0.03948675 -0.07534649
000220 08 8c 89 3e b3 8c 6f 3e ab fa d0 bc ea 06 3d be
       0.26864648 0.23393516 -0.025510153 -0.18459669
000230 bc 18 be bc 16 ad 7c 3d dd 4c 8a 3e 06 d8 d9 bd
       -0.023205154 0.061688505 0.27011767 -0.10636906
000240 91 a0 2b be 25 a5 29 3d ba 3e 04 bd 6d 07 ee be
       -0.1676047 0.04141726 -0.032286383 -0.4649004
000250 c4 c0 58 be 8a 47 98 bd 07 a0 a5 3e ee ee 1e 3e
       -0.21167284 -0.0743552 0.32348654 0.15520832
000260 60 d7 fa bd 20 5c c6 3d 71 e1 86 bd 96 c7 4c be
       -0.12248111 0.0968554 -0.06585968 -0.19998011
000270 46 0f 46 be a6 48 98 3d b4 d1 8a 3d 7c 99 64 be
       -0.19341764 0.074357316 0.06778279 -0.22324175
000280 b9 9d 01 3e 94 10 1f 3e e2 85 29 be 82 59 e8 bd
       0.12657823 0.15533668 -0.16554978 -0.11345197
000290 58 76 82 be b0 c3 07 be 6e 8f 3b 3e 33 37 f9 3d
       -0.25480914 -0.13258243 0.18316433 0.121687315
0002a0 59 b8 e1 bd 72 d9 b9 ba a0 87 a5 3e 3c fc a4 be
       -0.1102149 -0.0014179184 0.32330036 -0.3222369
0002b0 7f ac 29 bd 1b d6 e2 bd af 84 36 3d b8 a8 17 bd
       -0.04142427 -0.110759936 0.04456013 -0.037026137
0002c0 61 49 4c be 5a 9e f4 3c 0c 77 e2 3d 11 80 d8 3d
       -0.19949867 0.029860664 0.11057863 0.10571302
0002d0 a2 e1 04 bf b1 60 91 3c 5c 3b ef 3d 29 74 42 3e
       -0.5190679 0.017746301 0.11681244 0.18989624
0002e0 20 39 99 3d e2 ad 63 3e da 72 d7 3c 99 78 6f 3e
       0.07481599 0.222343 0.026299883 0.23385848
0002f0 01 53 06 be 82 52 8a 3c 71 4d be bd 79 74 fe 3c
       -0.13117601 0.016885046 -0.092921145 0.031061398
000300 61 69 1c be 92 8f 0b 3e b8 ad 15 3d 13 90 cd 3d
       -0.15274574 0.13628986 0.036542624 0.100372456
000310 db 5e 9e 3c 20 40 50 3d 51 78 62 3d 8e 3a e2 3c
       0.01933234 0.050842404 0.055290524 0.027615812
000320 87 46 bd be 3a 78 09 bd 20 0b c1 bd ed dc a7 bd
       -0.3696787 -0.033561923 -0.0942595 -0.08196435
000330 8f d6 6d 3e e2 98 69 be a7 c0 b4 be 31 aa e7 bc
       0.23226379 -0.22812226 -0.35303232 -0.028279396
000340 67 d6 f9 3d ef 08 30 3e 29 cc ab be f7 b6 92 3d
       0.12199097 0.17190908 -0.335542 0.07163804
000350 86 ac 87 3d f1 94 96 3e 57 af 8b 3e 58 b2 7c 3c
       0.06624703 0.29410508 0.2728221 0.01542338
000360 97 5b 45 bc 36 9c 83 bf da 36 53 3e 45 cf f5 3b
       -0.0120457625 -1.0282047 0.20626393 0.007501515
000370 7d 34 a2 be 1d 83 d1 3c c8 c9 b8 bd c2 4c 0b be
       -0.3168067 0.025575215 -0.09022862 -0.136035
000380 08 23 81 3d 55 e6 fa be 20 e9 11 3d b9 d3 84 3c
       0.0630551 -0.49003854 0.035622716 0.016214238
000390 30 d0 a7 3d 44 62 ef 3c c2 8b cb 3d 72 df a2 3e
       0.081940055 0.029221661 0.09938766 0.318111
0003a0 3b 48 9f bd d7 b3 c9 3d 4e 0e c6 3e 17 b7 98 be
       -0.07777449 0.09848755 0.3868279 -0.29827186
0003b0 80 60 1f bd 7c 7c 4c bd ea 07 32 bd 7b 6e c9 3d
       -0.03891039 -0.049923405 -0.04346458 0.098355256
0003c0 75 2d aa be 23 da 2b bd d9 3a ef bd 29 2c 95 3e
       -0.33237806 -0.04195608 -0.11681146 0.29135254
0003d0 13 86 d4 ba 73 a9 11 3e f8 02 10 3e 69 b1 fb bd
       -0.0016214274 0.14224796 0.14063632 -0.12289698
0003e0 c4 51 86 be 89 4b bc 3d 1f 9c 00 3e ff 94 19 3d
       -0.26234257 0.09194095 0.12559555 0.03749561
0003f0 fb 65 28 3d 4e 63 f8 3d 15 d0 fb be 46 52 15 be
       0.04111288 0.12128316 -0.49182191 -0.14582166

model.2.bias f4 [128]
000000 ab 0d c7 be c5 77 fc 3e 17 70 c8 3e 57 84 2d bd
       -0.38877615 0.49310127 0.39148018 -0.042362537
000010 07 ab 1f be 98 e5 20 3f db e7 1e bf 84 83 0f be
       -0.15592586 0.6285033 -0.62072533 -0.14015013
000020 e4 a4 ec be 98 04 df 3e 99 81 8e 3d 06 37 d0 3e
       -0.46219552 0.43558192 0.069583125 0.4066698
000030 eb af b6 3e fb a0 fb be ba 16 ce 3e 80 82 25 bf
       0.3568109 -0.49146256 0.40251714 -0.6465225
000040 60 57 25 bf d1 fa 34 be 2b 5e c4 3e f0 79 6c be
       -0.6458645 -0.17673804 0.38353094 -0.2309339
000050 20 4b dc bb 02 f8 60 3d f4 81 15 bf 04 fc 3b 3c
       -0.006722823 0.05492402 -0.5840142 0.011473659
000060 c0 42 ac 3e 66 d0 1a 3f 37 aa b0 3e bb ae 96 be
       0.33644676 0.6047424 0.34504864 -0.29430184
000070 fb 05 36 3f b7 e8 ee 3c 26 83 94 3e cf 96 a0 3e
       0.71102875 0.029163701 0.29006308 0.31365058
000080 36 c8 05 3e 34 38 5f 3e 77 ed 87 be 5d 50 b4 bd
       0.13064656 0.21798784 -0.2654836 -0.088043906
000090 fc 28 fe be aa 99 75 bd 6e e2 6f bf 70 80 d8 3c
       -0.49640644 -0.059961 -0.9370488 0.026428431
0000a0 78 9c d3 be 99 99 ad 3e 95 f7 04 bf 35 30 5a 3e
       -0.41330314 0.33906248 -0.5194028 0.21307452
0000b0 41 0a 49 be 44 19 eb be c5 02 48 bf 15 03 23 3f
       -0.19632818 -0.45917714 -0.78129226 0.6367658
0000c0 49 7a 94 be db 9e 85 bf b7 b3 ea 3d 38 7d 42 3f
       -0.28999546 -1.0439104 0.11460059 0.7597232
0000d0 91 d3 8d be a9 96 1d 3f c7 18 25 bf 20 53 9a bd
       -0.27700475 0.61558014 -0.6449093 -0.07535386
0000e0 52 5a 6e 3d f7 29 93 bf c5 6f da 3d d4 f3 a4 be
       0.058191605 -1.1497182 0.106658496 -0.32217276
0000f0 ae 9c 03 3e e2 12 aa be 3a 29 81 3d 93 5a 04 bf
       0.12852737 -0.3321753 0.063066915 -0.51700705
000100 3b 13 08 bf db 9a e7 bc 7c ab 83 3e 47 66 f5 3c
       -0.53154343 -0.028272083 0.2571677 0.029955996
000110 1b 4b 53 3e 0e 15 d1 3e 2a 9e 3e bf 34 a7 3c 3f
       0.20634119 0.40836376 -0.7446009 0.7369263
000120 49 d3 23 bf 14 2b 86 be 7e 4a 78 3e 8c 78 84 be
       -0.6399427 -0.2620474 0.24247167 -0.2587322
000130 15 26 d1 be a1 51 e4 3d 8a 74 1c 3e b5 f0 e8 3e
       -0.40849367 0.11148382 0.15278831 0.45496145
000140 0e 47 92 3e 47 21 96 be f7 f3 22 be 46 c4 4e 3e
       0.28569835 -0.29322264 -0.15913378 0.2019206
000150 f2 5e 4d bf 3a ee 36 3f 1b fd f5 be c9 5c 35 bf
       -0.80223 0.71457255 -0.48044667 -0.70844704
000160 ca a6 41 3e 4d 04 ee be f1 e4 0b 3f 45 1f fb 3e
       0.18911281 -0.46487656 0.5464621 0.49047294
000170 07 fe 0f 3f a9 2a bb bd 93 16 40 bf e2 49 75 3e
       0.5624699 -0.09138996 -0.75034446 0.23953965
000180 08 91 67 3d 71 91 c0 bd fd 08 a1 be 33 e7 5e 3f
       0.056534797 -0.09402741 -0.3145217 0.8707153
000190 a8 a7 44 bf 9d 57 1e 3f 6b 40 ca 3e 2c 41 77 3e
       -0.76818323 0.6185244 0.39502272 0.24145955
0001a0 04 87 6c be 70 36 cc 3d 1b b1 1f be 54 97 a4 bb
       -0.2309838 0.09971321 -0.15594904 -0.0050229225
0001b0 c7 78 4f 3e 8f d8 5e bf 67 fd 61 bf e9 37 89 3d
       0.20260917 -0.8704919 -0.88277286 0.06700117
0001c0 68 ef c0 be 2d 7a 23 bf b3 ed 7c be e9 5e 4c bc
       -0.37682652 -0.638583 -0.2470005 -0.0124738
0001d0 b3 8b 17 bf 39 a3 8a 3e fc cd 31 be 17 16 28 3f
       -0.5919754 0.27077654 -0.17363733 0.65658706
0001e0 a8 a3 0e bf 22 f5 e1 3e 38 51 57 bf 7f 1d 19 3f
       -0.5571847 0.44132334 -0.84108305 0.5981063
0001f0 98 8c 13 3f 73 e6 ba bc f2 1f 20 be 86 d4 d3 be
       0.57636404 -0.022814965 -0.15637186 -0.4137308

model.4.weight f4 [1, 128]
000000 6a 75 36 3a c2 1b 2b be 7c f7 1e be d1 68 69 3f
       0.0006960245 -0.16709808 -0.15524095 0.9117556
000010 e3 4c f5 3d 91 0d 08 bc 8d ee 67 3e cd ca a3 ba
       0.119775556 -0.008304016 0.22649594 -0.0012496352
000020 92 ee 63 3e b1 36 18 bc 8e e2 12 bf 7f ca e3 be
       0.22258976 -0.009290383 -0.57376945 -0.4449043
000030 13 28 0d bf d6 76 fe bb 31 4c af bb ec 4a 09 3e
       -0.55139273 -0.007765631 -0.005349659 0.13407487
000040 0e 59 48 3a bc a6 0d 3b 1c 8d 82 be 8d ec b2 3d
       0.0007642665 0.0021614274 -0.25498283 0.08736525
000050 40 94 77 3e 5f 7e f4 bd 9c 1d a8 3e cc a6 31 3e
       0.24177647 -0.11938166 0.3283509 0.17348784
000060 1a 6a 10 be e3 cd df be e1 25 cb be 84 d1 57 3e
       -0.14102975 -0.43711767 -0.39677337 0.21076018
000070 db 80 f5 be 49 08 00 3b d1 ab b1 be 27 62 e3 ba
       -0.4794987 0.0019536188 -0.34701398 -0.0017347977
000080 72 38 15 bb aa 12 42 3b 7a 14 bb bb d4 4c ae be
       -0.002276924 0.0029613175 -0.005709228 -0.3404299
000090 bf 41 71 3b 8a 73 8b be e0 92 b6 3d 0e 9c cd 3e
       0.003681287 -0.27236587 0.08914733 0.40158123
0000a0 88 6c ef ba 7a d3 46 be bf af 4a be 75 0f 93 be
       -0.0018266598 -0.1941661 -0.19793604 -0.2872273
0000b0 c0 9f 2c be 48 4a d2 bb d2 50 9f 3d e3 96 03 3c
       -0.16857815 -0.0064175464 0.07779087 0.00803158
0000c0 31 d5 7b 3d 0c 03 c9 ba 38 1f e4 3d e3 9f 18 bf
       0.061482612 -0.0015335991 0.11138767 -0.5961897
0000d0 a7 c0 51 3e 3d bc f2 be 53 db 0e 3d a1 45 9d 3e
       0.20483647 -0.4740924 0.034877133 0.30717185
0000e0 f9 cf 95 3e e1 6b 89 3a 51 a2 19 be 71 0c 7e 3e
       0.29260233 0.0010484421 -0.15003325 0.24809434
0000f0 87 af c6 be 64 4b 87 bd 3a ef 0d bf ec 36 80 bb
       -0.38805792 -0.066061765 -0.55443156 -0.003912797
000100 89 05 fe 3e ea 90 8e 3b 2d 4f 95 be a7 71 ae 3a
       0.49613598 0.004350771 -0.2916197 0.0013309018
000110 ae 87 77 bf 6f a0 61 bf ac 0d d5 3a 56 1d 28 bf
       -0.96691406 -0.8813543 0.0016254685 -0.65669763
000120 f2 7f 8d 3b bc 36 8f be 17 bd 16 bb 95 e7 af 3d
       0.004318231 -0.27971447 -0.002300089 0.08589093
000130 ca de 07 3b 9d b6 79 be 0b 79 28 bd 27 90 04 bf
       0.0020732158 -0.24386068 -0.04113106 -0.5178246
000140 3b 0c d7 be 66 82 a8 3e 45 8b 3d 3b 0b 7d 9d be
       -0.4200152 0.32911986 0.0028922122 -0.30759463
000150 5a 42 4f 3c 81 66 49 be 44 85 87 3d 8e 78 25 bb
       0.012650097 -0.19668008 0.06617215 -0.0025248858
000160 03 75 0d bf 50 c9 77 3d dd 02 5e bf b8 34 b5 be
       -0.5525667 0.06049472 -0.8672312 -0.35391784
000170 07 a2 6e bf 8c a0 09 3b 77 7e 1a bb d6 e7 da be
       -0.93215984 0.0021000234 -0.0023573914 -0.42755002
000180 13 8d f0 be 03 68 9a 3b 74 7e a1 3d a5 2e 4a be
       -0.4698263 0.004712106 0.07885447 -0.19744356
000190 af d1 9b 3e a5 7e f8 be b7 bc 7c bf 0e 55 17 be
       0.30433413 -0.48534122 -0.98725456 -0.1477854
0001a0 d5 66 12 be a1 ef 96 3e d9 1c ef ba f7 ab 0b be
       -0.1429704 0.29479697 -0.001824285 -0.13639818
0001b0 3a 70 25 bf a6 1a d0 ba ea c0 e3 39 2c 6c 7b be
       -0.6462437 -0.0015877082 0.00043440546 -0.24552983
0001c0 9b 90 04 be 25 19 ec 3d 88 3f 0a 3e f6 b6 80 be
       -0.12945788 0.115282334 0.13500798 -0.25139588
0001d0 07 56 81 3c 92 a0 09 bf 6f 6b b8 3a f2 90 c0 be
       0.015788091 -0.53760636 0.0014070104 -0.37610584
0001e0 d2 d5 90 bd f9 a3 b3 be 3f 57 8f 3b d9 c5 4a bd
       -0.07072033 -0.3508604 0.004374414 -0.04950509
0001f0 e3 e1 37 bf 75 83 33 bb 4d 77 48 be de a2 42 3e
       -0.7182905 -0.0027391587 -0.1957676 0.19007441
