generator_gan_br_base.pth (torch, 290964 bytes, 6 tensors)

model.0.weight f4 [128, 101]
0	0xbe261dd2	-0.16222313
1	0xbda046cf	-0.07826006
2	0x3c8a7255	0.01690022
3	0x3bad0632	0.0052802796
4	0xbda65948	-0.08122498
5	0x3c174f93	0.009235281
6	0xbc37e471	-0.011223898
7	0xbb8361a3	-0.004009442
8	0xbe1fbf3c	-0.15600294
9	0x3c740f40	0.014896214
10	0x3ba1f9c1	0.004943103
11	0x3e43c708	0.19118893
12	0x3e3128a6	0.17300662
13	0x3d54ee50	0.051985085
14	0x3d9a7e19	0.075435825
15	0x3e616a8c	0.220133
16	0x3dbcd40a	0.09220131
17	0x3d8391d1	0.06424297
18	0x3e3d7ffe	0.18505856
19	0xbe1612f5	-0.14655669
20	0xbe1f2fa9	-0.15545525
21	0x3d201e7a	0.039091565
22	0xbcffd4d5	-0.031229416
23	0xbd85f32e	-0.065405235
24	0xbe4f08cf	-0.20218204
25	0xbd4d5e3c	-0.050138697
26	0x3ddfd87e	0.109299645
27	0xbddc4db5	-0.10757009
28	0xbe3d836a	-0.18507162
29	0xbd1bc5d0	-0.038030446
30	0xbcc5a8b4	-0.024128295
31	0xbe6da6a7	-0.23208104
32	0x3c1d0d8a	0.0095857475
33	0xbdb771de	-0.08957265
34	0x3e8d06e7	0.2754433
35	0x3dc00f40	0.09377909
36	0x3d0625ed	0.032751013
37	0x3e18d8e6	0.1492649
38	0x3e0fcae5	0.14042242
39	0xbe22aba6	-0.15885791
40	0x3c4c6bd6	0.012476882
41	0x3de5e40a	0.112251356
42	0x3c939631	0.018015953
43	0xbe362858	-0.17788827
44	0xbdc6be63	-0.09704282
45	0x3e62c082	0.22143748
46	0x3e0c14df	0.13679837
47	0xbd623a17	-0.05523118
48	0xbc92d3b2	-0.01792321
49	0x3db76ced	0.08956323
50	0x3e864109	0.26221493
51	0x3dad7ae3	0.084707044
52	0x3da95e4d	0.082699396
53	0x3aaf32b1	0.0013366548
54	0xbe05198f	-0.12998031
55	0x3d765d90	0.060147822
56	0xbdce2772	-0.10066117
57	0x3dd77752	0.105208054
58	0xbe2417fa	-0.16024771
59	0xbb9c73d8	-0.004774552
60	0x3d68d7cb	0.05684642
61	0x3dff41da	0.12463732
62	0xbd4a9606	-0.04945948
63	0x3e2b19a0	0.16708994
64	0xbc85d663	-0.01633758
65	0xbe123bd9	-0.14280643
66	0xbd2a84c4	-0.04163052
67	0xbe0585da	-0.13039342
68	0x3d99986c	0.07499775
69	0xbdbf8529	-0.0935157
70	0x3d9dd792	0.077071324
71	0x3d68854a	0.05676774
72	0x3d48c59c	0.04901658
73	0xbe2e0dcb	-0.16997449
74	0x3e0d50a4	0.13800293
75	0xbcb29509	-0.021799581
76	0xbce566d5	-0.028003136
77	0x3d6cc3da	0.057803966
78	0x3e047c74	0.129381
79	0xbe29d192	-0.16583851
80	0x3e220aa0	0.15824366
81	0x3e66c4d7	0.22536026
82	0xbc25bad3	-0.010115343
83	0x3d0ba846	0.034096025
84	0xbd99fb0e	-0.07518588
85	0x3d1c8ca9	0.03822008
86	0x3d73bf80	0.0595088
87	0x3d57e31c	0.052706823
88	0x3e423fe0	0.18969679
89	0x3e011f87	0.12609683
90	0xbe9844eb	-0.2974008
91	0xbde3b771	-0.11118973
92	0x3e2b3328	0.16718733
93	0xbd64395a	-0.055718757
94	0xbe5d3bbd	-0.2160482
95	0xbd775f2e	-0.060393505
96	0xbd37a6ef	-0.044836935
97	0x3e0ff1e6	0.1405712
98	0xb98224be	-0.00024822907
99	0xbc7f95d6	-0.0155996885
100	0xbe2526ce	-0.16128084
101	0x3d7006fe	0.05860042
102	0xbd6b79bb	-0.057489138
103	0xbc997020	-0.018730223
104	0x3de2c2f0	0.110723376
105	0x3c07213b	0.008247669
106	0xbe1893ba	-0.14900103
107	0x3d970268	0.07373506
108	0x3d0608a6	0.03272309
109	0xbdd124a2	-0.10212065
110	0xbe13e8b3	-0.14444236
111	0x3daab569	0.083353825
112	0xbdecef06	-0.115690276
113	0xbdb65ef0	-0.08904827
114	0x3e541cb4	0.20714074
115	0x3daad50f	0.08341419
116	0x3e41e22c	0.18933934
117	0x3d8ce442	0.06879474
118	0xbb1e4472	-0.0024149683
119	0x3e60823d	0.21924682
120	0x3da28e92	0.079373494
121	0x3d470110	0.048584998
122	0xbe375f6b	-0.17907493
123	0xbe312047	-0.17297469
124	0xbce31690	-0.02772072
125	0xbdac115b	-0.08401748
126	0x3e3be7b2	0.18350103
127	0xbde5cd9f	-0.1122086
128	0x3dd1e191	0.102481015
129	0x3d314a46	0.043283723
130	0x3cbaf3d3	0.022821343
131	0x3d904de2	0.07046105
132	0x3cebcce6	0.028784227
133	0xbdb11fdd	-0.086486556
134	0x3d7007e5	0.05860128
135	0xbc11d14e	-0.0089
136	0x3e63df15	0.22253068
137	0xbd008103	-0.031373035
138	0x3dfc3d9b	0.12316438
139	0x3b912ada	0.004430157
140	0xbdc13f1c	-0.09435865
141	0x3d3040ca	0.043030538
142	0x3d86f158	0.065890014
143	0x3dd84ef5	0.10561935
144	0xbdcc18c1	-0.09965659
145	0xbdbbd392	-0.09171213
146	0x3dddb379	0.10825247
147	0x3db07d35	0.08617631
148	0x3e5ad497	0.21370159
149	0x3e06377a	0.131071
150	0xbccc7c77	-0.024961693
151	0xbc8a77a4	-0.016902752
152	0x3e116171	0.14197327
153	0x3cdf63ef	0.027269332
154	0xbc4607f1	-0.012086854
155	0xbd9fa271	-0.07794655
156	0x3b4cbea4	0.003124156
157	0xbe17bfd5	-0.14819272
158	0x3c025b72	0.007956373
159	0x3d7c2c8c	0.06156592
160	0xbde67ad1	-0.11253894
161	0xbd2d0ed0	-0.042250454
162	0x3ce25eac	0.027633034
163	0x3e3211a1	0.17389537
164	0xbbaed0b5	-0.0053349384
165	0x3e1f2752	0.15542343
166	0xbdb8db84	-0.09026244
167	0x3d860275	0.065434374
168	0x3e90e8db	0.28302655
169	0xbe557d06	-0.20848474
170	0xbd213a3e	-0.039362185
171	0xbe31e1f7	-0.17371355
172	0xbe2e379c	-0.17013401
173	0x3d8c076c	0.06837353
174	0xbda23a1d	-0.079212405
175	0xbbcc0a78	-0.006226834
176	0xbda74362	-0.08167149
177	0x3e7b8234	0.24561387
178	0x3d8ffea7	0.07030993
179	0x3d97b46e	0.07407461
180	0x3e5136de	0.20431086
181	0xbe430ca8	-0.19047797
182	0x3c165171	0.009174691
183	0xbdbb7386	-0.09152894
184	0x3d5795e5	0.052633185
185	0xbe03ad7f	-0.12859152
186	0x3d9c158c	0.07621297
187	0x3c46718d	0.012112034
188	0xbd4c018d	-0.049806166
189	0x3ce72b79	0.028218972
190	0xbdae78df	-0.08519148
191	0x3c7b1144	0.015323941
192	0x3dd62277	0.104557924
193	0x3e19b3e7	0.15010034
194	0x3d8155e9	0.06315214
195	0x3dec248c	0.11530408
196	0x3b915292	0.004434892
197	0x3d5885c6	0.05286195
198	0x3d3940be	0.04522776
199	0xbdeb5dd4	-0.11492506
200	0x3c843000	0.01613617
201	0xbe25b8af	-0.16183732
202	0xbe4c4faa	-0.19952264
203	0x3d214458	0.03937182
204	0xbd815ffb	-0.06317135
205	0x3db291ca	0.08719213
206	0x3db18440	0.08667803
207	0x3dd8e4c3	0.10590508
208	0x3d6aa532	0.05728645
209	0x3e14f033	0.14544754
210	0xbe2d9397	-0.16950832
211	0x3e56cf0f	0.20977424
212	0xbd24ef86	-0.04026749
213	0xbe4b3ae2	-0.19846681
214	0xbcd2bb64	-0.02572412
215	0x3d8ac8e4	0.06776598
216	0xbe824b72	-0.25448185
217	0xbdf173d7	-0.11789673
218	0xbb896852	-0.004193344
219	0xbe89e5f7	-0.26933262
220	0xbd8e8290	-0.069584966
221	0x3d533e17	0.051572885
222	0x3e6ef725	0.23336466
223	0xbe868b35	-0.26278082
224	0xbe80867d	-0.25102606
225	0x3e130333	0.14356689
226	0xbe6f34dd	-0.2336001
227	0x3e066014	0.13122588
228	0xbe35bff5	-0.17749007
229	0x3e4bcb1e	0.19901702
230	0xbe2f39f7	-0.17111956
231	0xbd0ecc1c	-0.034862623
232	0x3e8f86b0	0.28032446
233	0xbe2e0d4b	-0.16997258
234	0x3d00ae24	0.031416073
235	0xbbd9a3f8	-0.006641861
236	0x3cec0d73	0.028815007
237	0xbbb1774a	-0.0054158317
238	0xbdd20cbb	-0.102563344
239	0x3dd07cdb	0.10180064
240	0x3dbad647	0.091229014
241	0xbe1438d9	-0.1447481
242	0x3d8bfd57	0.0683543
243	0xbd8b9f61	-0.068175085
244	0x3d76becd	0.060240556
245	0xbe5a04dc	-0.21290916
246	0x3e1c1620	0.15242815
247	0x3d0aa585	0.033849258
248	0x3cee92ff	0.029122828
249	0xbe3a0c3b	-0.18168728
250	0x3c5161e5	0.0127796875
251	0xbd90c843	-0.07069447
252	0xbd38c841	-0.045112852
253	0xbd057abd	-0.032587755
254	0x3e0b571d	0.1360745
255	0xbe95a3a6	-0.29226416

model.0.bias f4 [128]
0	0xbec24f5f	-0.3795118
1	0x3f2996ff	0.66246027
2	0xbe529d58	-0.20567834
3	0x3f3e10db	0.7424447
4	0x3ec133c1	0.37734798
5	0xbea80ec6	-0.3282377
6	0x3f1cbfb7	0.61230034
7	0x3edbd0e3	0.42932805
8	0x402609e0	2.5943527
9	0x3f2e276d	0.6802891
10	0x3f3d26e8	0.7388749
11	0xbe411b89	-0.1885816
12	0x3d65b3b2	0.056079574
13	0x3f1f21a2	0.62160695
14	0x3efdfadf	0.49605462
15	0x3f4d4f40	0.8019905
16	0xbdc37f62	-0.09545781
17	0x3f6c7b5f	0.9237575
18	0xbdb0f337	-0.086401395
19	0xbe631cd3	-0.22178964
20	0x3ed9b325	0.4251949
21	0xbe73cc58	-0.2380842
22	0xbe0c1693	-0.13680486
23	0xbdaf95b6	-0.08573477
24	0x3dc17964	0.094469815
25	0xbea03901	-0.3129349
26	0xbe525c5f	-0.2054305
27	0xbd390845	-0.045173902
28	0xbd94ae42	-0.072597995
29	0xbe1f4422	-0.15553334
30	0x3f39e8b5	0.7262071
31	0x3f4d0278	0.8008189
32	0xbdb89fc1	-0.09014846
33	0x3ecd374d	0.40081254
34	0xbe64cd07	-0.22343837
35	0x3e288452	0.16456726
36	0x3ed07a01	0.40718082
37	0x3f78cb62	0.9718534
38	0x3fd16624	1.6359296
39	0x3d95a9d2	0.07307781
40	0xbe832cb3	-0.2562004
41	0xbeaef5c4	-0.3417188
42	0x3f3abb41	0.72941977
43	0x3a7b9afd	0.0009597985
44	0x3ff45d91	1.9091054
45	0xbdbf8ead	-0.09353385
46	0x3e08f0e8	0.13373148
47	0xbe9a043b	-0.30081353
48	0x3fad241d	1.3526646
49	0xbe6d71a8	-0.23187888
50	0xbdfaa3e4	-0.12238291
51	0x3efa57d3	0.4889513
52	0xbe0b07ac	-0.13577145
53	0xbe7c4385	-0.24635132
54	0x3e570891	0.20999362
55	0xbe922868	-0.28546453
56	0x40403819	3.003424
57	0xbead705c	-0.33874786
58	0x3de5ad05	0.112146415
59	0x3e004039	0.12524499
60	0x3f783ebb	0.9697072
61	0x3fafc3d2	1.3731635
62	0x3cd77d1a	0.02630477
63	0xbe343204	-0.17597204
64	0x3d809ea8	0.06280261
65	0xbea6a34f	-0.3254647
66	0x3f351a2b	0.70743054
67	0x3e190a09	0.14945234
68	0x3f053428	0.5203271
69	0xbe79aff9	-0.24383534
70	0x3db24396	0.08704297
71	0x3f06b0cb	0.52613515
72	0x3f0d2a21	0.5514241
73	0xbe5258e0	-0.20541716
74	0x3f19047e	0.5977248
75	0x3ed46d07	0.4148943
76	0xbe05b4a5	-0.13057192
77	0x3e5b8250	0.21436429
78	0xbea73155	-0.32654825
79	0xbd71431d	-0.058901895
80	0xbeaa1471	-0.3321872
81	0x3fa6165e	1.2975576
82	0xbe4b942f	-0.19880746
83	0x3e6156d7	0.22005783
84	0x3ea71804	0.3263551
85	0xbe71b93e	-0.2360582
86	0x3fd40d5c	1.6566577
87	0x3f13e2d2	0.57767975
88	0x3ed6fe47	0.41990873
89	0xbe153b4e	-0.14573404
90	0xbdc5b268	-0.09653169
91	0x3c3d2d34	0.011546422
92	0xbe98264e	-0.29716724
93	0x3e945cab	0.2897695
94	0x3c3e7377	0.011624209
95	0x3c422838	0.011850409
96	0x3c1c3351	0.009533719
97	0xbc4df284	-0.012570027
98	0xbdc6c6e5	-0.09705905
99	0x3eb42821	0.35186866
100	0x3f91fe53	1.1405739
101	0x3f051b20	0.51994514
102	0xbc999fe6	-0.018753003
103	0xbe62272e	-0.22085258
104	0x3e36418b	0.1779844
105	0x3a441ad5	0.0007480805
106	0xbeb323e6	-0.34988326
107	0x3e0b47f7	0.13601671
108	0x3e9d655f	0.30741403
109	0x3ed39541	0.4132481
110	0x3e5f19b7	0.21787153
111	0x4080ff56	4.031169
112	0x3fa80b8e	1.3128526
113	0x3f0663e6	0.5249618
114	0xbe711bcd	-0.23545761
115	0x3d92e9b8	0.071734846
116	0xbea00f1d	-0.3126153
117	0xbec233fb	-0.37930283
118	0xbea701cc	-0.32618558
119	0x3e292f54	0.1652196
120	0xbf03cd45	-0.5148509
121	0x3e8e2480	0.27762222
122	0x3d12b9b6	0.03582164
123	0x3f0e967d	0.55698377
124	0xbea8723e	-0.3289966
125	0x3d6f7fba	0.05847142
126	0xbf010b34	-0.5040772
127	0xbe88a036	-0.2668473

model.2.weight f4 [256, 128]
0	0xbe0c5898	-0.13705671
1	0xbd1efa9c	-0.03881322
2	0xbcfe39c2	-0.0310334
3	0xbd6809b1	-0.056649867
4	0xbde4b98d	-0.111682035
5	0xbe4c4475	-0.1994799
6	0xbe388214	-0.18018371
7	0xbddb0b91	-0.106955655
8	0xbdb90e6d	-0.090359546
9	0xbe28fc12	-0.16502407
10	0xbdc44bb0	-0.09584749
11	0xbe321fdd	-0.17394967
12	0xbd942728	-0.07234031
13	0xbdf9104f	-0.12161314
14	0xbe234a3a	-0.15946284
15	0x3d3834a7	0.04497209
16	0xbe0adbfb	-0.13560478
17	0xbcbafd52	-0.02282587
18	0x3b7c5f38	0.0038508903
19	0x3aa7fc5e	0.00128163
20	0xbd90c506	-0.07068829
21	0xbe32724a	-0.1742641
22	0xbd8a5318	-0.0675413
23	0xbd492d82	-0.049115665
24	0xbd402501	-0.04691029
25	0xbda7a8f6	-0.081865236
26	0xbd189fa4	-0.03726162
27	0xbe6011cb	-0.21881787
28	0x3c008cdc	0.0078460835
29	0xbdab04ff	-0.08350562
30	0x3d52fe3a	0.05151198
31	0xbb88bc55	-0.0041728416
32	0x3cf094b1	0.029367777
33	0x3c58ec03	0.013239863
34	0xbdc0cb30	-0.09413755
35	0xb9d075ca	-0.0003976061
36	0x3c371c98	0.011176251
37	0x3c2d6825	0.010583912
38	0xbc401e8b	-0.011726032
39	0xbe0fe1a8	-0.14050925
40	0xbb87d9b8	-0.004145827
41	0xbdd8adbf	-0.105800144
42	0xbd776417	-0.060398187
43	0xbd996c85	-0.074914016
44	0xbd9309f3	-0.07179632
45	0xbde7b1ee	-0.11313234
46	0xbe3796f0	-0.17928672
47	0xbaf03148	-0.0018325234
48	0xbdcb7bd3	-0.09935727
49	0xbd12cf07	-0.035841968
50	0xbdc751a9	-0.09732372
51	0xbd8b97dc	-0.06816074
52	0xbe37b2f7	-0.17939363
53	0x3dbd34ee	0.09238611
54	0xbd9c5233	-0.07632866
55	0x3d3797ab	0.044822376
56	0x3b589634	0.0033048512
57	0xbda84a34	-0.08217278
58	0xbdc685dc	-0.096935004
59	0xbdf0ca4d	-0.11757336
60	0xbdc45e79	-0.09588332
61	0xbd8008bd	-0.06251667
62	0xbd8c94f2	-0.068643466
63	0xbc302a7b	-0.010752316
64	0xbe56eb5f	-0.20988224
65	0xbdcf2e17	-0.10116213
66	0x3c6e74b0	0.014554188
67	0xbe04f25e	-0.1298308
68	0xbdcdaf0f	-0.100431554
69	0xbdda2640	-0.10651827
70	0xbcac864c	-0.021060131
71	0xbdcf4ac1	-0.1012168
72	0xbe782d39	-0.24236001
73	0xbe10101b	-0.14068644
74	0xbcd537b7	-0.026027543
75	0xbe166593	-0.14687185
76	0xbd81f04c	-0.06344661
77	0xbe11a924	-0.14224678
78	0xbde13813	-0.109970234
79	0x3c3af65e	0.011411278
80	0xbd232877	-0.039833512
81	0xbd05196b	-0.032494944
82	0xbd6694a7	-0.05629411
83	0xb9ae7a90	-0.00033279182
84	0xbb7c3e32	-0.003848922
85	0xbd0e46dc	-0.034735546
86	0xbd8ded05	-0.069299735
87	0xbe099c78	-0.13438594
88	0xbe860b5e	-0.26180547
89	0xbdd64058	-0.10461491
90	0xbdefed8b	-0.117152296
91	0xbd2d09b7	-0.042245593
92	0xbdb65625	-0.089031495
93	0x3c2eee83	0.010676983
94	0xbbeeaa2a	-0.0072834687
95	0xbe7380a5	-0.23779543
96	0x3d05fbf6	0.03271099
97	0xbe23f610	-0.16011834
98	0xbdfbdf9b	-0.12298509
99	0xbbbde7c7	-0.0057954523
100	0x3d3d9709	0.046286616
101	0xbc0a408e	-0.008438243
102	0x3b3c0e77	0.0028695145
103	0xbddd261d	-0.10798285
104	0xbca3e4d0	-0.020006567
105	0x3cc18190	0.02362135
106	0xbc333c4e	-0.010939671
107	0xbe48389c	-0.19552845
108	0xbd440e0b	-0.047864955
109	0xbd616ddc	-0.05503641
110	0xbdf1e874	-0.11811915
111	0xbe2808d7	-0.16409622
112	0xbe1d53c1	-0.15363981
113	0x3c9db0d4	0.019249357
114	0xbe1da461	-0.15394737
115	0xbd067c9f	-0.03283369
116	0xbde425e6	-0.11140041
117	0x3d1b7ccc	0.037960812
118	0xbe5907f1	-0.21194436
119	0xbd27e9b3	-0.040994357
120	0xbd34eb1c	-0.04416953
121	0xbd213287	-0.039354827
122	0x3dc107a3	0.09425285
123	0xbe286a72	-0.16446856
124	0xbd20be05	-0.039243717
125	0xbe26d18e	-0.16290876
126	0xbb0c3820	-0.0021395758
127	0x3e4a1684	0.19735152
128	0xbd3a4b4a	-0.045481957
129	0xbcdabf82	-0.026702646
130	0xbd0a676d	-0.03379004
131	0xbc9b6060	-0.018966854
132	0xbc9301c8	-0.017945185
133	0xbd3f8b0e	-0.046763472
134	0xbbee469f	-0.0072716023
135	0xbd4c2ef5	-0.04984947
136	0xbc9b42b2	-0.018952701
137	0xbd64a302	-0.05581952
138	0xbd6093a2	-0.054828294
139	0xbd3e9308	-0.04652694
140	0xbe3d909d	-0.18512197
141	0xbd0278a4	-0.031853333
142	0xbbc443ee	-0.005989543
143	0xbd8c3dbd	-0.06847713
144	0xbbe2f000	-0.006925583
145	0x3c773594	0.015088458
146	0xbd692fb7	-0.05693027
147	0x3dcafc83	0.09911444
148	0xbd9ff688	-0.07810694
149	0xbdedea6c	-0.11616978
150	0xb98eef76	-0.00027262763
151	0xbcdcd12b	-0.026955208
152	0xbe670f8e	-0.22564527
153	0x3d401bc5	0.046901483
154	0x3de32525	0.11091069
155	0xbddbf70a	-0.10740478
156	0x3c1a291a	0.009409213
157	0xbc34b3aa	-0.011029163
158	0xbd642f3b	-0.055709105
159	0xbb14ac8e	-0.0022685858
160	0xbce8e191	-0.028427871
161	0xbb603ea4	-0.0034217024
162	0xbcdc69f7	-0.026905997
163	0xbd840f32	-0.06448211
164	0xbd35d979	-0.04439685
165	0xbd31fec8	-0.04345587
166	0x3c5cce36	0.013476899
167	0xbd36f49d	-0.044666875
168	0xbd1213db	-0.035663467
169	0xbc006b3a	-0.007838065
170	0xbd06ea7d	-0.03293847
171	0xbd76bb3d	-0.060237158
172	0xbce7e3e2	-0.028306905
173	0xbddff03f	-0.10934495
174	0x3c32d5ab	0.0109152
175	0xbcdc4518	-0.026888415
176	0xbd41d64c	-0.04732351
177	0x3c3347e3	0.010942432
178	0xbd453e58	-0.04815516
179	0xbd101124	-0.035172597
180	0xbdc94618	-0.098278224
181	0xbcab1e19	-0.020888375
182	0x3c495d7f	0.012290358
183	0xbdcf8a71	-0.101338275
184	0xbe1c30e7	-0.1525303
185	0x3ddb3a41	0.107044704
186	0xbd872a86	-0.065999076
187	0xbdda79ec	-0.10667786
188	0xbda49747	-0.08036666
189	0xbd11b762	-0.035575278
190	0xbb051ef8	-0.0020312648
191	0xbbfa032a	-0.0076297717
192	0xbe1b85e0	-0.15187788
193	0xbe510f56	-0.20416006
194	0xbe230658	-0.15920389
195	0xbd39e39e	-0.04538309
196	0xbe0029f5	-0.12516005
197	0xbb8822ea	-0.0041545527
198	0xbd5a91de	-0.053361766
199	0xbd3b11b0	-0.045671165
200	0xbd8c02f8	-0.06836504
201	0xbe03f951	-0.12888075
202	0xbdc11166	-0.094271466
203	0xbc955e2d	-0.018233383
204	0xbe47da25	-0.1951681
205	0xbd83eb0e	-0.064413175
206	0xbca5d1ed	-0.020241702
207	0xbd1bdc44	-0.03805186
208	0xbcdd39ec	-0.027005158
209	0xbe2e10a4	-0.16998535
210	0x3c40382e	0.011732144
211	0x3d3dc267	0.046327975
212	0xbd9062bd	-0.07050083
213	0xbd99e1b5	-0.07513753
214	0xbd97c4f6	-0.07410614
215	0xbd34e4e7	-0.04416361
216	0xbbed092d	-0.00723376
217	0x3d129dd1	0.035795037
218	0xbd2c1228	-0.042009503
219	0xbdb8ae0c	-0.09017572
220	0xbd32d3e2	-0.0436591
221	0xbdccf2bc	-0.100072354
222	0x3c60a5dd	0.01371142
223	0xbcd2fee9	-0.025756316
224	0x3b09c126	0.0021019666
225	0xbd43642f	-0.047702964
226	0xbd963a39	-0.07335324
227	0xbdbdf32e	-0.092748985
228	0xbd913bfb	-0.070915185
229	0xbe18345f	-0.14863728
230	0xbdc62d39	-0.09676594
231	0xbcf2c0b7	-0.02963291
232	0xbcd487ae	-0.025943603
233	0x3d0de376	0.03464075
234	0xbdd3416c	-0.103152126
235	0xbd2d7738	-0.042350024
236	0xbc642087	-0.013923771
237	0xbe36a9db	-0.17838232
238	0xbe5cca0d	-0.21561451
239	0xbd8208b9	-0.0634932
240	0x3a13c127	0.0005636387
241	0x3b0ffafe	0.0021969671
242	0x3dabc89d	0.08387873
243	0xbd791ac5	-0.060816545
244	0xbd6da7a2	-0.058021195
245	0xbd33a16d	-0.04385512
246	0x3d8fb73f	0.07017373
247	0xbc7e73ab	-0.015530507
248	0xbd5683c0	-0.05237174
249	0xbe080bad	-0.13285704
250	0xbcc1d373	-0.023660397
251	0xbd621582	-0.055196293
252	0xbe628e68	-0.22124636
253	0xbe6aabdf	-0.22917126
254	0xbcdf18bb	-0.027233472
255	0xbe263346	-0.16230497

model.2.bias f4 [256]
0	0xbebf76b4	-0.3739525
1	0xbea1b5ac	-0.31583917
2	0xbe926b4f	-0.28597495
3	0xbefdabc1	-0.495451
4	0xbe810675	-0.2520024
5	0xbd9e7054	-0.07736269
6	0xbedfe51a	-0.43729478
7	0xbd5dbfd1	-0.05413801
8	0xbe9d01fb	-0.30665573
9	0xbeaf97f3	-0.34295616
10	0x3dadb21c	0.08481237
11	0xbe2386e9	-0.15969433
12	0xbe49f854	-0.19723636
13	0xbe9001a4	-0.28126252
14	0xbe5e21c5	-0.2169257
15	0xbe9310bb	-0.28723702
16	0xbea2d05f	-0.317996
17	0xbceda756	-0.029010456
18	0xbef355bd	-0.4752635
19	0xbef666cd	-0.48125306
20	0xbe896874	-0.26837504
21	0xbbee5f6b	-0.0072745583
22	0xbeebc17c	-0.46046054
23	0xbd9f1a55	-0.07768694
24	0xbd584480	-0.0527997
25	0xbee6ded9	-0.45091894
26	0xbebf3b61	-0.3734999
27	0xbde5300b	-0.11190804
28	0xbef10e4d	-0.47081223
29	0xbed28129	-0.41114166
30	0xbe928e23	-0.28624067
31	0xbecf5d68	-0.4050095
32	0xbea053fd	-0.31314078
33	0xbe49e0ba	-0.19714633
34	0xbec47285	-0.3836862
35	0xbec84d2b	-0.39121374
36	0xbf0d56c6	-0.5521053
37	0xbe9ecbfd	-0.31015006
38	0xbe88b7f9	-0.2670286
39	0xbd3b2c6d	-0.045696665
40	0xbe69449d	-0.2278008
41	0xbe843093	-0.2581831
42	0xbeeb9e7f	-0.4601936
43	0xbda3dbe5	-0.08000926
44	0xbeef46c2	-0.4673367
45	0xbe5508eb	-0.20804183
46	0xbe8e3d53	-0.27781162
47	0xbea4fca4	-0.32224
48	0xbef79be7	-0.48361132
49	0xbf048c6b	-0.5177676
50	0xbdcc24cb	-0.09967955
51	0xbec625e9	-0.38700798
52	0xbed2c999	-0.41169432
53	0xbf057252	-0.52127564
54	0xbea748ab	-0.3267263
55	0xbdc81926	-0.09770422
56	0xbebc4708	-0.36772943
57	0xbeba2245	-0.3635427
58	0xbd2fd226	-0.042925023
59	0xbe6a0f03	-0.22857289
60	0xbf096c67	-0.53681034
61	0xbcdafa6d	-0.02673074
62	0xbeb81436	-0.3595292
63	0xbe7f14fc	-0.24910349
64	0xbe3673c2	-0.17817596
65	0xbf02c671	-0.5108405
66	0xbeff2766	-0.49834746
67	0xbe973a4b	-0.29536662
68	0xbd5297ce	-0.051414303
69	0xbeb8bbc0	-0.36080742
70	0xbf00d187	-0.50319713
71	0xbec339ad	-0.3812994
72	0xbe90f4da	-0.28311807
73	0xbe71419a	-0.23560181
74	0xbebfe575	-0.3747975
75	0xbedd439b	-0.4321564
76	0xbf159f8a	-0.5844656
77	0xbf0e6ebd	-0.55637723
78	0xbf1da461	-0.6157895
79	0xbebf3239	-0.37343004
80	0xbe83b56d	-0.25724354
81	0xbe9cfca7	-0.30661508
82	0xbec07efd	-0.37596884
83	0xbf01494f	-0.50502485
84	0xbe276de1	-0.16350509
85	0xbefe3115	-0.49646822
86	0xbefba615	-0.49150148
87	0xbe994cb2	-0.29941326
88	0xbe08fc2f	-0.1337745
89	0xbebd9be3	-0.37032995
90	0xbee59d5b	-0.44846615
91	0xbea97e05	-0.33103958
92	0xbe76c592	-0.24098805
93	0xbe8d9900	-0.27655792
94	0xbe711de8	-0.23546565
95	0xbebc9bda	-0.36837655
96	0xbe6af13c	-0.22943586
97	0xbea0e3cd	-0.31423798
98	0xbe7019ad	-0.23447295
99	0xbec90e14	-0.39268553
100	0xbe8a451f	-0.2700586
101	0xbec30d9d	-0.38096324
102	0xbee790b8	-0.452276
103	0xbefe90af	-0.4971976
104	0xbea07e69	-0.31346443
105	0xbe8cef83	-0.27526483
106	0xbdfef4fa	-0.12449069
107	0xbdf1900d	-0.11795054
108	0xbef90f14	-0.48644316
109	0xbedd8f69	-0.43273476
110	0xbe03c41b	-0.12867777
111	0xbea8991f	-0.32929322
112	0xbe40666a	-0.18789068
113	0xbf070d2b	-0.5275447
114	0xbe962a6e	-0.29329246
115	0xbe41eef5	-0.18938811
116	0xbec1ea77	-0.37874195
117	0xbe7d35e7	-0.24727593
118	0x3e418e5d	0.18901964
119	0xbee80c0d	-0.45321694
120	0xbd9d55fb	-0.07682415
121	0xbe650065	-0.22363432
122	0xbe45b2b8	-0.19306457
123	0xbec0d332	-0.3766113
124	0xbed550b4	-0.41663134
125	0xbebda70d	-0.37041512
126	0xbe4d0452	-0.2002118
127	0xbe9e1f4b	-0.3088325
128	0xbe8bd348	-0.27309632
129	0xbe82b28d	-0.25526848
130	0xbee5d762	-0.44890887
131	0xbed49e7b	-0.4152716
132	0xbe6d8901	-0.23196794
133	0xbee55369	-0.447902
134	0xbe1fb495	-0.1559623
135	0xbe720f65	-0.23638685
136	0xbecb174a	-0.39666206
137	0xbe252ffd	-0.16131587
138	0xbef2a163	-0.47388753
139	0xbe40724f	-0.18793605
140	0xbe96dd9a	-0.29465944
141	0xbf17ee99	-0.59348446
142	0xbe8fbb0f	-0.28072402
143	0xbebfc6e8	-0.3745644
144	0xbe9610df	-0.29309747
145	0xbde6d71f	-0.112715
146	0xbdf8b4b0	-0.121438384
147	0xbed7a8b9	-0.42120913
148	0xbe9cd6b3	-0.30632553
149	0xbed67a3d	-0.41890135
150	0xbd7db59c	-0.061940774
151	0xbe9a4ad7	-0.30135223
152	0xbe819e7d	-0.2531623
153	0xbed40875	-0.41412702
154	0xbeafacce	-0.34311527
155	0xbf2500f6	-0.6445459
156	0xbeb67e2f	-0.35643145
157	0xbed31383	-0.41225824
158	0xbeda3772	-0.42620426
159	0xbe98dcc5	-0.29855934
160	0xbeb6e095	-0.35718217
161	0xbeaf6461	-0.3425627
162	0xbe22bdfe	-0.15892789
163	0xbe9f2364	-0.31081688
164	0xbe67bcfc	-0.22630686
165	0xbf03c48c	-0.5147178
166	0xbe6eac7b	-0.23307984
167	0xbeba66b6	-0.36406487
168	0xbea6c0c4	-0.32568944
169	0xbd37b71e	-0.04485237
170	0xbf080819	-0.53137356
171	0xbe839858	-0.25702167
172	0xbd3786ae	-0.044806175
173	0xbce04484	-0.02737642
174	0xbec8f788	-0.3925135
175	0xbeea93c2	-0.45815855
176	0xbee6d5fd	-0.45085135
177	0xbeb47edc	-0.35253036
178	0xbea7a71f	-0.3274469
179	0xbf0cc2b4	-0.54984593
180	0xbec6dae4	-0.38838875
181	0xbce5a293	-0.028031623
182	0xbf142b7b	-0.57878846
183	0xbe3b3b1a	-0.18284264
184	0xbf1b24f1	-0.60603243
185	0xbeab716b	-0.3348497
186	0xbf13d2ef	-0.57743734
187	0xbeef34f2	-0.46720082
188	0xbee9b44e	-0.45645374
189	0xbec78fc3	-0.3897687
190	0xbe613152	-0.2199147
191	0xbee6dfa1	-0.4509249
192	0xbe3d65c3	-0.1849585
193	0xbe8c292b	-0.2737516
194	0xbe18b552	-0.14912918
195	0xbeeed7d4	-0.4664904
196	0xbed75950	-0.42060328
197	0xbe781da7	-0.24230061
198	0xbd90dbb0	-0.07073152
199	0xbe03b72d	-0.12862845
200	0xbea48a77	-0.3213689
201	0xbe207fc0	-0.15673733
202	0xbe64123e	-0.22272584
203	0xbe9fde09	-0.31224087
204	0xbeee8a75	-0.4659001
205	0xbec02a93	-0.37532482
206	0xbdd42fa4	-0.10360649
207	0xbed152be	-0.4088344
208	0xbe6e4a19	-0.23270454
209	0xbe19fb23	-0.15037207
210	0xbf1204db	-0.5703866
211	0xbcbc384e	-0.022976067
212	0xbe35022b	-0.17676608
213	0xbe76106f	-0.24029706
214	0xbe970c0d	-0.29501382
215	0xbe17b0dc	-0.1481356
216	0xbe490ccf	-0.19633792
217	0xbee5d539	-0.44889238
218	0xbed22ab5	-0.41048208
219	0xbe90822a	-0.28224307
220	0xbeaca19b	-0.33717045
221	0xbe8aa8c5	-0.27081886
222	0xbe8cbf80	-0.27489853
223	0xbe7f6c2f	-0.24943613
224	0xbe578470	-0.21046615
225	0xbe9815b5	-0.2970406
226	0xbe8231eb	-0.2542871
227	0xbe4b2d7f	-0.19841574
228	0xbe451e1b	-0.19249766
229	0xbe9abe82	-0.3022347
230	0xbea80e8a	-0.32823592
231	0xbdb12094	-0.08648792
232	0xbec4e91f	-0.38459107
233	0xbdecd229	-0.11563522
234	0xbea795f2	-0.32731587
235	0xbed87cd2	-0.4228273
236	0xbd5b89e9	-0.05359832
237	0xbf07c4e6	-0.5303482
238	0xbe7635b5	-0.24043925
239	0xbe6a560d	-0.22884388
240	0xbecd6de0	-0.4012289
241	0xbebc158e	-0.36735195
242	0xbef5e1f3	-0.48023948
243	0xbef51b4a	-0.47872382
244	0xbdfef3ea	-0.12448867
245	0xbe97375d	-0.29534426
246	0xbea77c9b	-0.32712254
247	0xbefed56f	-0.49772212
248	0xbeab6c81	-0.3348122
249	0xbee28fe1	-0.44250396
250	0xbe2edeef	-0.1707723
251	0xbe7f39b4	-0.24924356
252	0xbea4a7fc	-0.32159412
253	0xbf295750	-0.66148853
254	0xbe892dc8	-0.2679274
255	0xbeb7cc78	-0.35898185

model.4.weight f4 [101, 256]
0	0xbe30481c	-0.17215008
1	0x3e1eff6f	0.15527128
2	0x3e6d7e58	0.23192728
3	0xbda8b097	-0.08236807
4	0x3e3f3237	0.18671499
5	0x3e06f64c	0.13179892
6	0x3d92d41c	0.07169363
7	0x3e51ee7e	0.20501134
8	0x3d0e291c	0.034707174
9	0xba050c4d	-0.00050753803
10	0x3de308c8	0.11085659
11	0x3e0f766c	0.14010018
12	0x3dd39472	0.10331048
13	0x3e267b05	0.16257866
14	0x3c301772	0.010747777
15	0x3d9f0301	0.07764245
16	0xbdc8cc2b	-0.09804567
17	0xbda0217e	-0.07818888
18	0xbd148035	-0.03625508
19	0x3c352230	0.011055514
20	0x3e5ae51e	0.21376464
21	0x3eba7200	0.364151
22	0x3dbffa66	0.093739316
23	0xbe3d710e	-0.18500158
24	0xbe3a24ff	-0.18178175
25	0xbe955c58	-0.29172015
26	0xbe2fba9e	-0.17161033
27	0xbeaa30ab	-0.33240256
28	0xbe26f58f	-0.1630461
29	0xbe25efa9	-0.16204704
30	0x3e551f1d	0.2081265
31	0x3e8b17af	0.27166507
32	0xbecf4456	-0.40481824
33	0xbefa2940	-0.48859596
34	0x3eb71d34	0.35764468
35	0xbd935673	-0.07194223
36	0xbe55a87a	-0.2086505
37	0x3d32bb6c	0.04363577
38	0xbf14a0a7	-0.58057636
39	0xbe338e61	-0.17534782
40	0xbe96b22a	-0.29432803
41	0x3edbd1a3	0.42933378
42	0x3e054441	0.13014318
43	0xb74a5a38	-1.2061144e-05
44	0x3e329bd3	0.17442255
45	0x3dcdd7fe	0.10050963
46	0x3b9ab5fe	0.004721402
47	0xbe13e2b5	-0.1444195
48	0x3c2b39f0	0.010450825
49	0x3e4be271	0.199106
50	0xbe06f3d1	-0.13178946
51	0xbd8fab40	-0.07015085
52	0x3dcfc64e	0.101452455
53	0xbe303fde	-0.17211863
54	0x3d4cdfbb	0.050018054
55	0x3eeabb1d	0.4584588
56	0xbe5556a2	-0.20833829
57	0x3e147bd2	0.14500359
58	0xbe917d2e	-0.28415817
59	0x3e9c1231	0.3048263
60	0x3dba956c	0.09110531
61	0x3e324a9e	0.17411277
62	0xbea50bad	-0.3223547
63	0xbe3b4feb	-0.18292205
64	0x3dad83e8	0.08472425
65	0xbdb9534d	-0.090490915
66	0x3dcd132f	0.100134246
67	0x3e254c4b	0.16142385
68	0x3de69819	0.11259479
69	0xbd37f8eb	-0.04491512
70	0xbdebff25	-0.11523274
71	0x3ddb31db	0.107028686
72	0xbdeca0bb	-0.115540944
73	0xbe87b52d	-0.26505414
74	0x3e3fd9f8	0.18735492
75	0xbd7e168e	-0.06203323
76	0xbe7baf64	-0.24578625
77	0xbdda61e7	-0.10663205
78	0x3e1ba492	0.15199497
79	0xbd8f6fcd	-0.07003746
80	0x3d456a8e	0.04819732
81	0x3c318375	0.010834564
82	0x3e455951	0.19272353
83	0x3ec92f1b	0.3929375
84	0xbd29493d	-0.04132961
85	0xbbf8acad	-0.007588944
86	0xbebb2f7d	-0.36559668
87	0x3e22ae32	0.15886763
88	0xbe539b4b	-0.20664708
89	0x3e94591e	0.2897424
90	0xbd597dc7	-0.053098466
91	0xbe8f573e	-0.27996248
92	0xbed62dce	-0.4183182
93	0x3e1f9d1f	0.1558728
94	0xbde04239	-0.10950131
95	0x3c85d18c	0.016335271
96	0x3e9b405b	0.30322537
97	0xbe86ea63	-0.26350698
98	0x3e5c51d8	0.21515596
99	0xbe40116e	-0.18756649
100	0x3efa4353	0.4887949
101	0x3ebef793	0.3729826
102	0x3deb1908	0.11479384
103	0xbe4bb780	-0.19894218
104	0x3ed433c9	0.4144576
105	0xbdb92600	-0.09040451
106	0x3eb8b123	0.36072645
107	0xbcba8770	-0.02276966
108	0xbec9bb4c	-0.3940071
109	0x3d14d738	0.03633806
110	0x3e1823b6	0.14857373
111	0xbe81dd5b	-0.25364193
112	0xbe10679e	-0.14102027
113	0xbeb96f31	-0.36217645
114	0xbd0ec5ad	-0.034856487
115	0xbe5645db	-0.20925085
116	0xbdb51749	-0.08842332
117	0x3b914d91	0.0044342955
118	0x3d75f6da	0.06004987
119	0xbddde7bb	-0.10835215
120	0x3c1a1009	0.009403237
121	0xbe90351c	-0.2816552
122	0xbe2e6afe	-0.17033002
123	0x3ba578db	0.0050498075
124	0xbe009add	-0.12559076
125	0x3e3382ad	0.17530318
126	0xbe8c3288	-0.27382302
127	0xbd176a89	-0.036966834
128	0xbe0126c6	-0.12612447
129	0x3e0d1d6d	0.13780756
130	0x3e469be8	0.19395411
131	0x3e63085c	0.22171158
132	0x3dad87b0	0.08473146
133	0x3d719ab7	0.05898544
134	0xbe1262ec	-0.14295548
135	0xbdc5bb8b	-0.096549116
136	0xbe349d15	-0.17638047
137	0x3d05c99c	0.032662973
138	0x3e183f1a	0.14867821
139	0x3e966194	0.2937132
140	0x3c79d842	0.015249314
141	0x3e81eb1e	0.25374693
142	0xbe3a60a7	-0.18200932
143	0xbe479035	-0.19488604
144	0x3d848cd2	0.06472172
145	0x3e86eaed	0.2635111
146	0x3dbfb03f	0.09359788
147	0xbd936cab	-0.07198461
148	0xbdb51919	-0.088426776
149	0x3c43480b	0.011919032
150	0x3ea780dd	0.32715502
151	0xbd81b412	-0.06333174
152	0x3d913ba1	0.070914514
153	0xbe9aef82	-0.30260855
154	0x3c6ddb76	0.014517656
155	0x3ec628da	0.38703042
156	0x3e9e6b45	0.30941215
157	0xbd464bc9	-0.048412118
158	0xbe13496b	-0.14383475
159	0xbec13f36	-0.3774354
160	0xbea16a96	-0.3152663
161	0x3c7ec680	0.015550256
162	0xbd214a73	-0.03937764
163	0xbd386659	-0.04501948
164	0x3da72fce	0.08163415
165	0xbe92330c	-0.2855457
166	0x3e1b65a9	0.15175499
167	0xbdc1c49c	-0.094613284
168	0xbd863ba0	-0.06554341
169	0x3da5c5d6	0.08094375
170	0xbdb0db31	-0.086355574
171	0xbd84eac8	-0.064900935
172	0xbf21f133	-0.63258666
173	0xbcd62117	-0.026138825
174	0xbde70e82	-0.11282064
175	0xbdcb64b4	-0.09931317
176	0x3d33c4b5	0.043888766
177	0x3cc434f9	0.02395104
178	0xbe4c7175	-0.19965155
179	0x3e02a533	0.12758331
180	0xbe506188	-0.20349705
181	0x3dc41e20	0.095760584
182	0xbcc88396	-0.024476808
183	0xbe468fb1	-0.19390751
184	0x3dd5cec1	0.10439826
185	0x3e57d460	0.21077108
186	0xbe513836	-0.20431599
187	0x3cff7cff	0.031187532
188	0x3e6acacf	0.22928928
189	0xbd77a6d7	-0.060461845
190	0xbeca20a3	-0.39478025
191	0xbc7bcae7	-0.0153682
192	0xbe6149b9	-0.22000779
193	0xbd8832b8	-0.06650299
194	0xbe6c5ab8	-0.23081481
195	0xbea63457	-0.32461807
196	0x3dfd28c6	0.123612925
197	0xbe8363ea	-0.25662166
198	0xbe191a8d	-0.14951535
199	0xbf00baa5	-0.50284797
200	0x3e8d4a0f	0.27595565
201	0xbd9eaa4a	-0.07747324
202	0x3f16e636	0.58945024
203	0xbe07e188	-0.13269627
204	0x3df5c58d	0.120005704
205	0xbccd32c8	-0.025048628
206	0x3e8952f0	0.2682109
207	0x3ea486f8	0.32134223
208	0xbd7a84c3	-0.061161768
209	0xbe972d82	-0.29526907
210	0xbc7a5b63	-0.015280577
211	0xbc174e4d	-0.009234977
212	0xbe4feae3	-0.20304446
213	0x3ec17675	0.37785688
214	0x3c125ff7	0.008934013
215	0xbe66cf15	-0.22539933
216	0xbe0c6268	-0.13709414
217	0xbe2cee77	-0.16887842
218	0x3e99185d	0.299014
219	0xbd6568d7	-0.056008186
220	0x3e1698d6	0.1470674
221	0xbe3abdad	-0.18236418
222	0xbef23b56	-0.47310895
223	0x3e01dd5e	0.12682101
224	0xbe886357	-0.2663829
225	0xbd87a943	-0.06624081
226	0xbcc05ce6	-0.023481797
227	0x3ed2986d	0.41131917
228	0x3ca07ca0	0.019590676
229	0x3e89c4a5	0.2690784
230	0x3d18985f	0.037254687
231	0xbe1659ed	-0.14682741
232	0xbc7462ba	-0.014916116
233	0xbdeaf85d	-0.11473153
234	0xbe0dc9d5	-0.13846524
235	0xbd135317	-0.035967913
236	0x3dad0cdc	0.08449718
237	0x3e17ffb3	0.14843635
238	0xbd2f3d65	-0.04278316
239	0xbe6b450f	-0.22975563
240	0xbd6876bf	-0.05675387
241	0xbec6ae0e	-0.38804668
242	0x3f040f92	0.5158626
243	0xbe058b2e	-0.13041374
244	0xbd0031ec	-0.03129761
245	0xbe5830c8	-0.21112359
246	0x3e9b94df	0.30387017
247	0xbdc1be4d	-0.09460125
248	0xbe5f7253	-0.21820955
249	0x3d8e4411	0.069465764
250	0x3e81f86b	0.2538484
251	0x3d84110a	0.064485624
252	0x3b9d4c72	0.0048003728
253	0x3d32701a	0.04356394
254	0x3e2964cf	0.16542362
255	0xbed72191	-0.42017797

model.4.bias f4 [101]
0	0x3c97f476	0.018549185
1	0x3c0231df	0.0079464605
2	0x3cb4ab29	0.022054272
3	0x3ca83a60	0.020535648
4	0xbc347eb5	-0.011016537
5	0x3c9797f2	0.01850507
6	0xbbfdbd48	-0.0077435113
7	0x3cc1b293	0.023644721
8	0x3d0c82de	0.034304492
9	0x3d8157ef	0.063156
10	0x3d90b118	0.07065028
11	0x3d8338e6	0.06407337
12	0x3e00eed4	0.12591106
13	0x3d7f06e2	0.062262423
14	0x3dfe1eae	0.124081954
15	0x3df9f40a	0.1220475
16	0x3d688f51	0.056777302
17	0x3dde6de4	0.10860804
18	0x3e207469	0.15669407
19	0x3e1f445d	0.15553422
20	0x3d9ce5b9	0.076610036
21	0x3da80b7f	0.08205318
22	0x3de2b489	0.110695906
23	0x3e420c78	0.18950069
24	0x3e21f83f	0.15817355
25	0x3e14d75f	0.14535283
26	0x3e2feb61	0.17179634
27	0x3e16a4d2	0.14711311
28	0x3e29d951	0.16586806
29	0x3e5d7495	0.21626504
30	0x3e24e662	0.16103509
31	0x3e320468	0.17384493
32	0x3e194cae	0.14970657
33	0x3e4d8b80	0.20072746
34	0x3e42614d	0.1898243
35	0x3e60c18b	0.21948831
36	0x3e73ae75	0.23797019
37	0x3e5644e5	0.20924719
38	0x3e8a0add	0.26961413
39	0x3e344e13	0.17607908
40	0x3e5bcb5f	0.21464299
41	0x3e661947	0.2247058
42	0x3e805892	0.25067574
43	0x3e5586de	0.20852229
44	0x3e6b0289	0.22950186
45	0x3e71ec92	0.236254
46	0x3e851581	0.2599297
47	0x3e84d0a8	0.25940442
48	0x3e6f80bb	0.2338895
49	0x3e7906d2	0.24319008
50	0x3e556a96	0.2084144
51	0x3e7c0028	0.24609435
52	0x3ea15128	0.3150723
53	0x3e8d6423	0.2761546
54	0x3e6d287c	0.23159975
55	0x3e7cb4f9	0.2467841
56	0x3e6a24a3	0.22865538
57	0x3e598cdc	0.2124514
58	0x3e8de2cb	0.27712092
59	0x3e688a7a	0.22709075
60	0x3e8d7b59	0.2763317
61	0x3e50d94f	0.20395397
62	0x3ea7ab98	0.32748103
63	0x3e910c0c	0.28329504
64	0x3e47021c	0.19434398
65	0x3e821507	0.25406668
66	0x3e7ecbf5	0.24882491
67	0x3e8b5ce7	0.27219316
68	0x3e59f157	0.2128347
69	0x3e760f19	0.24029197
70	0x3e45906c	0.19293374
71	0x3e6b8625	0.23000391
72	0x3e82feff	0.25585172
73	0x3e619e6f	0.22033094
74	0x3e6cb3d0	0.23115468
75	0x3ea13e53	0.31492862
76	0x3e508640	0.20363712
77	0x3e60163e	0.21883485
78	0x3e4e940d	0.20173664
79	0x3e67b2e6	0.22626838
80	0x3e79f10f	0.24408363
81	0x3e8be79d	0.27325144
82	0x3e60dbc3	0.21958832
83	0x3e9bdbd9	0.30441168
84	0x3e6c6950	0.23087049
85	0x3e92dc7e	0.28683847
86	0x3e790199	0.24317016
87	0x3e95dda2	0.29270655
88	0x3e53af51	0.20672347
89	0x3e9b27b8	0.3030374
90	0x3e9c4801	0.30523685
91	0x3e98fb87	0.298794
92	0x3e7d3b1d	0.24729581
93	0x3e98543c	0.29751766
94	0x3e953da1	0.29148582
95	0x3ea8bbd4	0.329558
96	0x3e8c84de	0.2744512
97	0x3ea18524	0.3154689
98	0x3e847bc1	0.25875667
99	0x3e912896	0.28351277
100	0x3e9aa02b	0.30200323
