generator_gan_ecv_ts_128.pth (torch, 447948 bytes, 7 tensors)

fc.0.weight f4 [128, 103]
-0.04877246 0.0058277403 -0.11239184 -0.036995273 -0.07113357 0.08000545 0.01778549 -0.016560338
-0.00066996977 -0.09977542 -0.07219049 -0.002543681 0.074039 -0.01961953 0.017926674 0.026216319
0.043733314 -0.022645965 0.020795053 -0.003313946 0.053089175 0.053221088 0.14082646 -0.068604775
0.027478606 0.03909599 -0.02383388 -0.028322726 0.010256589 -0.03604455 -0.06840994 -0.08464923
0.03656784 0.034356236 0.04344092 -0.08726291 -0.070132084 0.020602133 0.02681374 0.02263735
-0.011688417 0.088654995 -0.026596572 -0.11912417 0.0970982 0.047706947 0.15277907 0.02170237
0.021983948 -0.03741199 0.023624402 0.03520774 -0.010115602 -0.08405096 0.043713942 0.031351637
0.027923075 0.05598667 0.022327164 0.006660423 -0.06566032 0.121639915 0.06901564 0.012812099
0.08647578 0.09175015 0.014889359 0.050988052 0.040543064 0.061644927 0.053663004 -0.13724916
0.027727902 0.023894785 -0.082982704 -0.03277405 0.008544143 -0.042039946 0.016548842 -0.10302426
-0.0139304595 -0.11574874 -0.016120898 -0.057119396 -0.110284775 -0.12639874 0.075272486 0.013526981
0.020628199 -0.042300753 -0.029549202 0.04126324 -0.024514135 0.018485088 -0.14985833 0.052646715
0.010632448 -0.029657878 -0.00029943965 -0.00078125607 -1.000645 -4.845906 -1.6337554 -0.102767505
-0.041574802 0.082650565 -0.010401874 0.0138922045 0.096444316 -0.019020187 0.03310462 -0.23790927
0.0075543886 -0.0041692676 0.023570107 -0.22194159 0.07337062 -0.059921756 0.044459764 0.12164771
-0.12872885 0.17537616 0.005726213 -0.06443532 0.13685219 -0.071823575 0.13783744 0.12101697
-0.044723157 0.13930061 0.062132742 -0.03167698 0.03362467 -0.02355134 0.0039820126 0.10538378
0.034238026 -0.15064034 -0.062101346 -0.074305385 0.12686566 -0.042208254 0.08798731 -0.07715924
0.006420475 0.06851898 -0.16783923 -0.17686099 0.06924193 0.011689591 0.14614324 0.036088664
0.10088062 0.29560918 -0.1674698 0.015317423 0.12952724 -0.04364362 -0.014850477 0.17532432
-0.17649 -0.06319693 -0.04598786 0.0962954 -0.07164208 -0.037238896 0.11994146 -0.13736483
-0.014816612 0.09568325 0.0666429 -0.09748474 -0.110742554 0.009457997 0.18465602 0.20306973
-0.073534936 -0.043222792 -0.042283982 -0.06434371 -0.0733395 0.043557066 0.10805828 0.06503152
-0.094014704 -0.017256932 -0.04563301 0.010902206 0.076239206 0.06438588 -0.21644312 0.006351496
-0.057219643 0.18334444 0.08741464 -0.033933993 -0.08571863 0.1447411 -0.11891895 -0.015107171
0.10983294 -0.18891947 -0.053867962 -1.852388 -1.9844509 -1.6103623 -0.00017119345 -0.030585269
-0.023700098 0.017009808 0.11187506 0.05382583 0.008501918 -0.20487325 0.025020536 -0.038058706
0.038618565 -0.025806481 0.042180147 -0.0050476636 -0.096223645 0.11495673 -0.0318827 0.090100616
0.03348159 0.06667219 -0.10206437 0.028390761 0.007215116 -0.08687764 -0.086550556 -0.009114446
0.060966417 0.06713969 -0.057454728 0.02273376 0.120657116 0.06316937 0.087373815 -0.06759552
-0.02812425 -0.07173938 0.013329567 0.042672884 -0.0069179856 0.09420469 -0.06332917 -0.0019702308
-0.0073153996 0.04767795 -0.12386097 -0.045751352 0.018493116 0.037160013 -0.009767579 0.10406943
00000000: a2c5 47bd a1f6 be3b b12d e6bd 5b88 17bd
00000010: 7aae 91bd e6d9 a33d e0b2 913c 8ca9 87bc
00000020: e9a0 2fba 0e57 ccbd 9cd8 93bd e3b3 26bb
00000030: c2a1 973d 23b9 a0bc f6da 923c 9bc3 d63c
00000040: b421 333d 0884 b9bc 635a aa3c ca2e 59bb
00000050: 0974 593d 5bfe 593d d034 103e a980 8cbd
00000060: d01a e13c 1e23 203d 453f c3bc 1005 e8bc
00000070: 410b 283c 73a3 13bd 831a 8cbd 935c adbd
00000080: 29c8 153d 20b9 0c3d 1bef 313d e6b6 b2bd
00000090: 69a1 8fbd cec5 a83c 7da8 db3c f771 b93c
000000a0: c680 3fbc c090 b53d 0ee1 d9bc 5ff7 f3bd
000000b0: 6cdb c63d 5c68 433d 1e72 1c3e 2bc9 b13c
000000c0: ae17 b43c 513d 19bd f687 c13c fe35 103d
000000d0: e9bb 25bc e922 acbd 640d 333d 936a 003d
000000e0: efbe e43c 4752 653d 75e7 b63c ad3f da3b
000000f0: eb78 86bd 591e f93d 1258 8d3d d7e9 513c
00000100: 371a b13d 81e7 bb3d 7ff2 733c d9d8 503d
00000110: 7c10 263d 647f 7c3d bdcd 5b3d 0b8b 0cbe
00000120: a025 e33c ffbe c33c d6f2 a9bd 153e 06bd
00000130: bcfc 0b3c 1432 2cbd 7091 873c 62fe d2bd
00000140: 953c 64bc ad0d edbd f90f 84bc 07f6 69bd
00000150: fcdc e1bd ac6e 01be 7628 9a3d 45a0 5d3c
00000160: 78fc a83c 8e43 2dbd 2b11 f2bc a503 293d
00000170: ded1 c8bc 0a6e 973c 7674 19be 15a4 573d
00000180: b833 2e3c 14f5 f2bc 1cfe 9cb9 35cd 4cba
00000190: 2315 80bf a911 9bc0 e61e d1bf c577 d2bd
000001a0: 574a 2abd b344 a93d 9f6c 2abc 219c 633c
000001b0: 9984 c53d 39d0 9bbc b698 073d 7d9e 73be
000001c0: ce8a f73b 5a9e 88bb 1916 c13c a844 63be
000001d0: 5643 963d 8470 75bd 711b 363d 6f22 f93d
000001e0: 7fd1 03be cf95 333e f5a2 bb3b aaf6 83bd
000001f0: fb22 0c3e 3d18 93bd 4225 0d3e bfd7 f73d
00000200: a12f 37bd d2a4 0e3e e77e 7e3d b9bf 01bd
00000210: 06ba 093d bdee c0bc 8b7b 823b 74d3 d73d
00000220: 2c3d 0c3d 7641 1abe fb5d 7ebd 6c2d 98bd
00000230: 12e9 013e 90e2 2cbd b132 b43d aa05 9ebd
00000240: d962 d23b ae53 8c3d 0cde 2bbe 0c1b 35be
00000250: b7ce 8d3d b385 3f3c 93a6 153e b5d1 133d
00000260: 809a ce3d 165a 973e 347d 2bbe eef5 7a3c
00000270: caa2 043e a7c3 32bd 6a4f 73bc 3888 333e
00000280: cbb9 34be 646d 81bd c45d 3cbd 8636 c53d
00000290: 15b9 92bd d087 18bd dea3 f53d 5ea9 0cbe
000002a0: 60c1 72bc 94f5 c33d 137c 883d 14a6 c7bd
000002b0: fecc e2bd b7f5 1a3c 7816 3d3e 83f1 4f3e
000002c0: 7c99 96bd 620a 31bd f831 2dbd a3c6 83bd
000002d0: 0533 96bd e568 323d a94d dd3d 3f2f 853d
000002e0: c88a c0bd 695e 8dbc aee9 3abd 2b9f 323c
000002f0: 4d23 9c3d bfdc 833d 44a3 5dbe 3620 d03b
00000300: 255f 6abd a5be 3b3e 7206 b33d 5ffe 0abd
00000310: 408d afbd 0337 143e c78b f3bd 1184 77bc
00000320: 18f0 e03d 1b74 41be a7a4 5cbd 0d1b edbf
00000330: 7d02 febf 5a20 cebf 6482 33b9 f58d fabc
00000340: b526 c2bc 2758 8b3c c01e e53d 7978 5c3d
00000350: a14b 0b3c 4bca 51be def7 cc3c 72e3 1bbd
00000360: 802e 1e3d 1d68 d3bc 17c5 2c3d df66 a5bb
00000370: e710 c5bd 6f6e eb3d 6f97 02bd ac86 b83d
00000380: fe23 093d 6e8b 883d 2007 d1bd be93 e83c
00000390: c86c ec3b e7ec b1bd 6b41 b1bd c254 15bc
000003a0: ecb7 793d 8980 893d a655 6bbd 263c ba3c
000003b0: 141b f73d f15e 813d 0bf1 b23d 856f 8abd
000003c0: d464 e6bc 19ec 92bd 4264 5a3c c3c9 2e3d
000003d0: 45b0 e2bb 63ee c03d b9b2 81bd fd1e 01bb
000003e0: 05b6 efbb f449 433d d2aa fdbd c565 3bbd
000003f0: e07e 973c 1935 183d 3208 20bc 5a22 d53d

fc.0.bias f4 [128]
-1.8066316 -1.6559424 -1.6588097 -1.8786381 -1.6893616 -1.559906 -1.7114105 -1.636114
-0.31887582 -1.5666366 -1.5413454 -1.8960769 -1.068395 -1.813556 -1.2435101 -1.6949266
-1.7325972 -1.5761667 -1.635556 -1.4303496 -1.6928384 -1.8795084 -1.4848298 -1.4868425
-0.8688708 -1.6660888 -1.7926745 -1.6734663 -1.4883779 -1.712399 -1.7357446 -1.4767325
-1.4421165 -1.69005 -1.6787317 -1.6368229 -1.1207362 2.1863153 -1.1247606 -1.3974764
-1.6836387 -1.4604056 -1.373984 -1.4677072 -1.6907291 -1.5033365 -1.162487 -1.6930897
-1.4652348 -1.6675478 -1.3578012 -1.5798901 -1.696911 -1.754363 -1.506868 -1.748134
-1.2960598 -1.700485 -1.4493071 -1.6210508 -0.36776102 -1.5585083 -1.1186278 -1.4982816
-1.7052441 -1.6305838 -1.6999974 -1.5719597 -1.5951132 -1.2785497 -1.5450283 -1.7958766
-1.8028624 -1.6527767 -1.3283255 -1.5334609 -1.6206905 -1.6328524 -1.3526217 -1.6433959
-1.6281229 -1.7285029 -1.5072389 -1.6471173 -1.5217686 -1.4701413 -1.3188938 -1.5660423
0.91626996 -1.6314782 -1.2911621 -1.6622373 -1.5301151 -1.575911 -1.0171221 -1.5830048
-1.5359694 -1.8385187 -1.465061 -1.9422375 -1.5727041 -1.7645555 -1.0071837 -1.8743306
-1.4713674 -1.6176047 -1.6178572 -1.7997891 -1.5067848 -1.4619375 -1.4423717 -1.6031866
1.3316687 -1.6496462 -1.5579668 -1.2887542 -1.6958083 -1.4178897 -1.7533641 0.01893153
-1.5617199 -1.2537377 -1.55386 -1.6493995 -1.6639602 -0.0962458 -1.292826 -1.244317
00000000: b43f e7bf ecf5 d3bf e053 d4bf 3777 f0bf
00000010: 003d d8bf 00ab c7bf 800f dbbf 2f6c d1bf
00000020: b143 a3be 8c87 c8bf ce4a c5bf a6b2 f2bf
00000030: 2bc1 88bf 9a22 e8bf 572b 9fbf 5bf3 d8bf
00000040: bfc5 ddbf d5bf c9bf e659 d1bf b215 b7bf
00000050: eeae d8bf bb93 f0bf e70e bebf db50 bebf
00000060: 516e 5ebf 6642 d5bf 5c76 e5bf 2534 d6bf
00000070: 2b83 bebf e42f dbbf e12c debf 9205 bdbf
00000080: 4697 b8bf 8f53 d8bf aee0 d6bf 6a83 d1bf
00000090: 4974 8fbf 97ec 0b40 28f8 8fbf 82e0 b2bf
000000a0: 7981 d7bf 92ee babf b5de afbf d4dd bbbf
000000b0: d069 d8bf 556d c0bf 60cc 94bf 2ab7 d8bf
000000c0: d08c bbbf 3572 d5bf 6ecc adbf d739 cabf
000000d0: 6134 d9bf f78e e0bf 0de1 c0bf dbc2 dfbf
000000e0: 4ae5 a5bf 7ea9 d9bf e582 b9bf 987e cfbf
000000f0: 2c4b bcbe 337d c7bf 322f 8fbf b1c7 bfbf
00000100: 7045 dabf f8b6 d0bf 8499 d9bf fa35 c9bf
00000110: ab2c ccbf 84a7 a3bf 7dc3 c5bf 49df e5bf
00000120: 32c4 e6bf 308e d3bf 9206 aabf 7248 c4bf
00000130: c972 cfbf 4f01 d1bf b522 adbf cc5a d2bf
00000140: 5566 d0bf 953f ddbf 34ed c0bf bdd4 d2bf
00000150: 50c9 c2bf 972d bcbf 83d1 a8bf 1374 c8bf
00000160: ab90 6a3f 47d4 d0bf cd44 a5bf 31c4 d4bf
00000170: d0da c3bf 74b7 c9bf 0f31 82bf e79f cabf
00000180: a59a c4bf 9554 ebbf 1e87 bbbf 3d9b f8bf
00000190: 5e4e c9bf f4dc e1bf 65eb 80bf 11ea efbf
000001a0: c455 bcbf ac0d cfbf f215 cfbf 7d5f e6bf
000001b0: 53de c0bf c520 bbbf a39f b8bf 3835 cdbf
000001c0: 1f74 aa3f 9b27 d3bf 756b c7bf e6f5 a4bf
000001d0: 3f10 d9bf 697d b5bf 3c6e e0bf 4c16 9b3c
000001e0: 70e6 c7bf 7a7a a0bf e2e4 c6bf 861f d3bf
000001f0: a6fc d4bf 851c c5bd 537b a5bf c845 9fbf

fc.2.weight f4 [256, 128]
0.13269924 0.026226912 -0.12482855 -0.07409155 -0.19101143 -0.24433959 -0.2579771 -0.24878317
-1.2876334 -0.47937548 -0.12547703 0.06413456 -0.25758687 -0.18100701 0.028371882 -0.42431653
-0.471829 0.057285085 0.002495125 0.026790198 0.25874487 -0.054122295 -0.03865616 -0.9035577
0.2792586 -0.27117613 -0.27046648 0.03526211 -0.08075251 0.2930418 0.19319643 0.18700105
0.12837902 0.018086212 -0.31296054 -0.23268236 -0.61369723 0.1365312 0.33392304 -0.59151703
-0.33737332 0.0666183 0.12325636 0.41576517 -0.3223996 0.41056278 -0.014069991 -0.952182
-0.41196826 -0.33088022 0.40135214 0.37800077 -0.18080941 -0.013804918 -0.3644308 -0.13610221
-0.06284716 -0.38703775 -0.37042627 -0.119658105 -0.18489821 -0.4487609 0.0556762 -0.24748097
-0.41457918 -0.05557662 0.11539961 -0.5696593 -0.30386147 -0.14009972 -0.28089333 0.045544796
-0.1578676 -0.11589191 -0.15336925 -0.14040086 -0.4205966 -0.48264128 -0.6396276 0.018812284
-0.34693524 -0.14406061 -0.41723475 0.07676212 -0.1551933 -0.17440848 -0.20541237 0.083025284
-0.3414847 -0.47828746 0.22122118 -0.041894555 -0.40433744 -0.21363647 -0.13690057 -0.06667146
-0.5209476 0.07965817 -0.35999057 0.22845425 -0.6419117 0.4372123 -0.2663905 -0.21309851
-0.4611401 -0.25961763 0.15498511 -0.35623518 -0.19343537 -0.41858423 -0.55680305 -0.56063956
-0.13775867 -0.072929054 -0.2648519 0.031874936 -0.06685119 0.059537303 -0.47266248 0.50653386
0.0023983442 0.115149796 -0.17190409 0.12803598 -0.24126169 0.23665191 0.14388523 -0.09511568
0.11208671 -0.20664667 -0.27309054 0.014065296 0.06314649 -0.08782799 0.0444079 -0.13250084
-0.2664249 0.019083854 -0.34101227 -0.08301138 -0.19860095 -0.28518608 -0.085472584 -0.0007739489
-0.3737483 -0.41565105 -0.39961746 -0.057116684 0.14019653 -0.01680293 -0.006522655 -0.20180917
0.23333913 -0.21896103 -0.19430241 -0.18144041 -0.046674177 -0.23515488 0.0892933 0.35464054
0.09519033 -0.47335052 -0.118772745 -0.55211544 0.2778051 -0.22889292 -0.020657163 -0.1111932
-0.3575447 -0.21477352 -0.091126725 -0.14004402 0.11552625 -0.031494115 -0.03159629 -0.37834367
-0.08295463 -0.10852222 0.05545765 -0.06067497 -0.10112305 -0.13489732 -0.028010102 -0.019665446
0.27484795 -0.25051576 0.04255976 0.07081481 -0.25247407 0.022778248 0.0319619 -0.014678733
0.0012445042 0.0048614936 -0.1250229 -0.09660377 -0.26096386 -0.05673895 -0.24815193 0.07396458
-0.08632896 -0.024223253 -0.19203387 -0.15330411 -0.31865647 -0.16608953 -0.2888324 -0.09213319
-0.2437025 0.1336155 0.3545707 -0.3127644 0.05509528 0.07543015 -0.2381898 -0.14806254
-0.16192722 0.22065388 0.15715662 -0.061044786 0.00061309896 -0.07951694 -0.17887197 0.009095519
-0.09267345 -0.06727103 0.07570116 0.13462213 0.14773451 0.14355303 0.06562757 -0.33858433
0.01837386 -0.18174286 -0.072636686 0.020175131 0.039080746 -0.108777426 -0.20986976 -0.0074059493
-0.055490803 0.22413746 0.09167929 -0.3661351 -0.34988657 0.52649856 -0.2649397 0.43434978
-0.31384596 0.009141788 -0.08972941 -0.22141246 -0.22045153 0.42482492 0.12226618 -0.28775182
00000000: 4fe2 073e d2d9 d63c 1ca6 ffbd 50bd 97bd
00000010: 8098 43be 2834 7abe 9315 84be 04c1 7ebe
00000020: 2cd1 a4bf b470 f5be 0d7d 00be fb58 833d
00000030: 6de2 83be e759 39be 266c e83c 0440 d9be
00000040: 9293 f1be c4a3 6a3d 4085 233b 1e77 db3c
00000050: 357a 843e 57af 5dbd ec55 1ebd 8f4f 67bf
00000060: fcfa 8e3e 99d7 8abe 957a 8abe 016f 103d
00000070: 9261 a5bd 9309 963e 49d5 453e 347d 3f3e
00000080: ca75 033e 8929 943c 5d3c a0be 4944 6ebe
00000090: 431b 1dbf d6ce 0b3e f6f7 aa3e a96d 17bf
000000a0: 32bc acbe 2d6f 883d d56d fc3d 2cdf d43e
000000b0: 8f11 a5be 4935 d23e d285 66bc 33c2 73bf
000000c0: 81ed d2be 2269 a9be 077e cd3e 5189 c13e
000000d0: 1a26 39be 062e 62bc ac96 babe 615e 0bbe
000000e0: 03b6 80bd d029 c6be 83a8 bdbe 4f0f f5bd
000000f0: f555 3dbe fdc3 e5be ba0c 643d a76b 7dbe
00000100: b943 d4be 4fa4 63bd a156 ec3d 31d5 11bf
00000110: bb93 9bbe 4d76 0fbe 40d1 8fbe 2e8d 3a3d
00000120: 0ba8 21be bd58 edbd d40c 1dbe 3ec5 0fbe
00000130: 7058 d7be c21c f7be a2be 23bf 381c 9a3c
00000140: 7fa1 b1be a084 13be cb9f d5be 7535 9d3d
00000150: feea 1ebe 2398 32be 9f57 52be 2909 aa3d
00000160: 15d7 aebe 18e2 f4be ce87 623e a099 2bbd
00000170: 5105 cfbe 85c3 5abe aa2f 0cbe 0c8b 88bd
00000180: d25c 05bf d323 a33d af50 b8be e9ef 693e
00000190: 5354 24bf 4ada df3e 5664 88be 7f36 5abe
000001a0: 8e1a ecbe 9aec 84be 6bb4 1e3e 7564 b6be
000001b0: ec13 46be ac50 d6be a58a 0ebf 1386 0fbf
000001c0: 9c10 0dbe d45b 95bd ab9a 87be 4b8f 023d
000001d0: 47e9 88bd 63dd 733d d100 f2be 34ac 013f
000001e0: 8a2d 1d3b a8d3 eb3d a007 30be dd1b 033e
000001f0: 4e0d 77be e154 723e a656 133e 02cc c2bd
00000200: b88d e53d 2f9b 53be 86d2 8bbe 2172 663c
00000210: f252 813d 29df b3bd 0fe5 353d 4dae 07be
00000220: d868 88be be55 9c3c 2999 aebe df01 aabd
00000230: 0c5e 4bbe e903 92be 400c afbd d5e2 4aba
00000240: f05b bfbe 37d0 d4be a99a ccbe 2ff3 69bd
00000250: ae8f 0f3e 4ca6 89bc ffbb d5bb 10a7 4ebe
00000260: 74f0 6e3e 5237 60be 36f7 46be 84cb 39be
00000270: 6c2d 3fbd 71cc 70be 68df b63d 7293 b53e
00000280: 26f3 c23d 005b f2be 203f f3bd 7057 0dbf
00000290: 783c 8e3e e862 6abe 3639 a9bc 43b9 e3bd
000002a0: 1910 b7be 97ed 5bbe a6a0 babd b367 0fbe
000002b0: 0799 ec3d f9ff 00bd 1d6b 01bd 43b6 c1be
000002c0: 1ee4 a9bd e640 debd 9027 633d 5186 78bd
000002d0: 9a19 cfbd 8622 0abe 7175 e5bc 6e19 a1bc
000002e0: dfb8 8c3e 9a43 80be 2553 2e3d 5b07 913d
000002f0: 4844 81be 7399 ba3c 7bea 023d 127f 70bc
00000300: a21e a33a 2a4d 9f3b 0106 00be 33d8 c5bd
00000310: 0e9d 85be 1a67 68bd 8a1b 7ebe be7a 973d
00000320: 3dcd b0bd d86f c6bc 87a4 44be c1fb 1cbe
00000330: f126 a3be 6013 2abe d7e1 93be 53b0 bcbd
00000340: 268d 79be 80d2 083e 4a8a b53e a822 a0be
00000350: 97ab 613d 1f7b 9a3d 07e8 73be b59d 17be
00000360: 40d0 25be 17f3 613e aaed 203e 190a 7abd
00000370: 60b8 203a c7d9 a2bd 372a 37be 5f05 153c
00000380: 94cb bdbd 65c5 89bd 3609 9b3d 62da 093e
00000390: b747 173e 91ff 123e bf67 863d ed5a adbe
000003a0: c784 963c cd1a 3abe 8bc2 94bd 5146 a53c
000003b0: 2213 203d b3c6 debd 19e8 56be 9bad f2bb
000003c0: 534a 63bd 4a84 653e 5ac2 bb3d 0f76 bbbe
000003d0: 5524 b3be 9cc8 063f 2da6 87be 1863 de3e
000003e0: 6bb0 a0be 70c7 153c 0ec4 b7bd f3b9 62be
000003f0: 0cbe 61be a782 d93e b166 fa3d 3554 93be

fc.2.bias f4 [256]
-0.7052264 -0.07365642 -0.041044675 -0.33289728 -0.34757861 -1.1779642 0.010153939 0.3049164
-0.8839283 -0.33570388 -0.15656897 -0.1112198 -0.024686238 -0.5728685 0.3308928 -0.51168174
-0.06676675 -0.09681947 -0.40534016 -0.06032019 -0.004561274 -0.30930588 0.09248993 -0.05290005
0.35030326 -0.1924737 0.5643803 -0.08678811 -0.08626529 -0.45386118 -0.8456487 0.17364739
-0.81934017 0.14181365 0.06460234 0.54116523 0.23693655 0.17178462 -0.10638999 0.24289873
0.1519191 -0.5057142 -0.42441803 -0.4693804 0.0037639402 -0.5694245 -0.33260286 -0.79730797
-0.5091271 0.54541487 -0.4164086 -0.0701038 -0.071933344 -0.69572 -0.057212085 -0.49561968
-0.16733621 -0.27066022 -0.36614177 -0.15801468 -0.10634278 -0.37991795 -0.3667684 -0.5402079
-0.016414545 -0.4107581 -0.14221081 -0.26069427 -0.38352227 -0.11117594 -1.0050496 -0.32080996
-0.4569868 -0.46313083 -0.79682577 -1.025804 -0.26205403 -0.52865666 -0.28301382 -0.14597623
-0.047287326 -0.55958694 0.25913417 -1.3989516 0.020302089 -0.59445626 -0.73303753 -0.41799787
0.1023452 -0.07392896 -0.4912354 0.072140895 0.12802455 -0.15739207 -0.038384084 -0.6746918
0.08341486 -0.26255897 0.2754421 0.0031649896 0.039060257 0.06026825 -0.026339205 -0.43639663
-0.3590696 -0.025481906 -0.49159205 -0.06438776 -0.6344873 -1.1540062 0.24917626 -0.56756186
0.007341863 -0.25365108 -0.53775424 0.18034737 0.4950147 0.22075032 -0.13051967 0.058746047
-0.5913831 -0.49887305 0.70338297 -0.26185608 -0.38893497 -0.28722426 -0.9571633 -0.7571758
-0.21583566 -0.5672143 -0.39126992 -0.43385348 -0.67088246 -0.5331701 -0.037702493 0.5373763
-0.55926913 -0.30283627 0.61708194 -0.3497858 -0.5159789 -0.44682297 0.32110533 0.36815676
-0.5020754 -0.7953374 -1.0496143 -0.23888612 -0.36229578 -0.7434642 -0.07640633 -0.09676245
-0.30315292 -0.4223648 -0.073529355 -0.59392107 -0.5690087 -0.5371974 -0.5511625 -0.61156696
-0.46684176 -0.35700086 0.07493202 -0.5472916 -0.8103571 0.1327356 0.19083947 -0.3047009
-0.06701883 -0.078150794 -0.5131523 -0.3991779 -0.44501638 0.026760273 -0.28790465 -0.3408183
-0.520142 -0.4599832 -0.38789955 -1.1839135 -0.520821 0.25968742 -0.2983318 0.19792266
-0.07470177 -0.36585218 -0.75107044 -0.3084733 0.1153058 -0.40624407 0.5654317 -0.16506064
0.039568428 -0.3232756 -0.9743633 -0.7926417 -0.65688634 -0.33938646 -0.45565525 -1.0922555
-0.7235857 0.13857955 -0.207291 -0.3839603 -0.22656164 -0.53829473 -0.5213351 -1.0635248
-0.40742642 -1.054137 -0.3581639 -0.62096345 -0.28629225 -0.23613349 -0.13050058 -0.04798335
-0.16656378 0.48380354 -0.78842145 -0.3227982 -0.2000674 -0.03693785 -0.1509078 -0.12817174
-0.67204493 -0.87685895 -0.3329929 0.27733758 0.46213654 -0.0913223 -0.18070124 -0.7157609
0.06080838 -0.40973008 0.008582165 0.1072717 0.03294541 0.04463994 -0.45897573 -0.21436849
-0.2531294 -0.5391353 -0.038395442 -0.4303317 -0.42611584 -0.119636886 -0.99048346 -0.59765726
-0.36792538 -0.5086302 0.17273636 0.28526294 -0.018369881 -0.20792124 -0.42302766 -0.41261786
00000000: b889 34bf 2dd9 96bd 761e 28bd 8371 aabe
00000010: d3f5 b1be 88c7 96bf b55c 263c 011e 9c3e
00000020: 2049 62bf 61e1 abbe 9e53 20be 35c7 e3bd
00000030: cb3a cabc 83a7 12bf c86a a93e 93fd 02bf
00000040: 01bd 88bd 4949 c6bd bf88 cfbe 4e12 77bd
00000050: bd76 95bb 575d 9ebe 5c6b bd3d b9ad 58bd
00000060: f35a b33e d317 45be 3a7b 103f f7bd b1bd
00000070: dbab b0bd 7e60 e8be 6f7c 58bf 9fd0 313e
00000080: 47c0 51bf 9937 113e 3b4e 843d ce89 0a3f
00000090: 7f9f 723e 4fe8 2f3e ffe2 d9bd 72ba 783e
000000a0: ae90 1b3e 7c76 01bf 524d d9be a152 f0be
000000b0: 70ac 763b cec5 11bf ec4a aabe 601c 4cbf
000000c0: 2756 02bf 4fa0 0b3f 8233 d5be 9592 8fbd
000000d0: ca51 93bd b51a 32bf 3857 6abd ddc1 fdbe
000000e0: 2f5a 2bbe fa93 8abe ef76 bbbe 9ace 21be
000000f0: 3eca d9bd 9b84 c2be 11c9 bbbe 114b 0abf
00000100: cc77 86bc e34e d2be b69f 11be b879 85be
00000110: 085d c4be 36b0 e3bd 77a5 80bf 3441 a4be
00000120: 2dfa e9be 7c1f edbe c6fc 4bbf 8c4d 83bf
00000130: f22b 86be 0b56 07bf 30e7 90be cb7a 15be
00000140: 5bb0 41bd 1741 0fbf 3cad 843e d910 b3bf
00000150: 9150 a63c 492e 18bf 59a8 3bbf d103 d6be
00000160: 5c9a d13d 1168 97bd 3583 fbbe 9bbe 933d
00000170: de18 033e 632b 21be a138 1dbd 9ab8 2cbf
00000180: 69d5 aa3d 216e 86be bf06 8d3e b76b 4f3b
00000190: a6fd 1f3d d7db 763d 51c5 d7bc 616f dfbe
000001a0: f8d7 b7be 6ebf d0bc f4b1 fbbe bbdd 83bd
000001b0: c26d 22bf 7ab6 93bf 1028 7f3e bc4b 11bf
000001c0: 0394 f03b 8ede 81be 43aa 09bf fbac 383e
000001d0: 9172 fd3e 5f0c 623e f3a6 05be b29f 703d
000001e0: e264 17bf 4a6c ffbe e810 343f 0012 86be
000001f0: 7c22 c7be 0f0f 93be a708 75bf 46d6 41bf
00000200: 0604 5dbe f534 11bf 8854 c8be 0b22 debe
00000210: f4be 2bbf d67d 08bf ee6d 1abd 7e91 093f
00000220: 432c 0fbf 5b0d 9bbe 15f9 1d3f 2017 b3be
00000230: 3117 04bf fbc5 e4be eb67 a43e 0b7f bc3e
00000240: 0388 00bf 3b9b 4bbf c359 86bf 909e 74be
00000250: d57e b9be ab53 3ebf ec7a 9cbd 642b c6bd
00000260: dc36 9bbe 3340 d8be 8f96 96bd 360b 18bf
00000270: 8eaa 11bf c585 09bf fc18 0dbf a78f 1cbf
00000280: e205 efbe d1c8 b6be f575 993d 4d1b 0cbf
00000290: 9073 4fbf d7eb 073e 6c6b 433e c201 9cbe
000002a0: 2b41 89bd 860d a0bd f35d 03bf 0c61 ccbe
000002b0: 30d9 e3be 5c38 db3c 3d68 93be bc7f aebe
000002c0: 0728 05bf eb82 ebbe c59a c6be 7a8a 97bf
000002d0: 8654 05bf c0f5 843e f2be 98be 3dac 4a3e
000002e0: 3efd 98bd fa50 bbbe 2746 40bf 36f0 9dbe
000002f0: 7325 ec3d 39ff cfbe 22c0 103f a805 29be
00000300: 8112 223d 6184 a5be e06f 79bf 91ea 4abf
00000310: b429 28bf 10c4 adbe a54b e9be 07cf 8bbf
00000320: ea3c 39bf cce7 0d3e 1844 54be 7296 c4be
00000330: c6ff 67be afcd 09bf 3876 05bf 9521 88bf
00000340: 329a d0be f6ed 86bf 4261 b7be 76f7 1ebf
00000350: e694 92be facc 71be f2a1 05be 308a 44bd
00000360: b28f 2abe 19b5 f73e fdd5 49bf ce45 a5be
00000370: 78de 4cbe 254c 17bd 9387 1abe 743f 03be
00000380: 230b 2cbf d479 60bf 0c7e aabe 31ff 8d3e
00000390: 299d ec3e 3007 bbbd bf09 39be 1b3c 37bf
000003a0: 3512 793d 24c8 d1be 369c 0c3c 44b1 db3d
000003b0: c4f1 063d 5fd8 363d defe eabe 6a83 5bbe
000003c0: 2d9a 81be c504 0abf 8a44 1dbd 7054 dcbe
000003d0: db2b dabe 2f04 f5bd 5390 7dbf 1100 19bf
000003e0: b760 bcbe 9735 02bf cde1 303e fc0d 923e
000003f0: 6f7c 96bc 4ee9 54be 1597 d8be a642 d3be

fc.4.weight f4 [252, 256]
-0.33111194 -0.17374031 -0.078673765 -0.09389077 0.58549476 -1.6950945 0.11800842 -1.0268934
-0.8904898 0.41441935 -1.7545028 0.685528 0.35638326 -0.35250562 0.5915724 -0.35359156
-0.37187263 -0.87914854 -0.49888524 -1.493536 -0.96200186 1.322815 -1.5683525 -0.10822443
-0.3034529 -0.8555062 -2.0312693 0.43694854 -0.85723996 0.30720663 -0.1477565 0.07107655
-0.6972946 0.4481542 0.8805129 -0.37138572 -1.2513131 -0.97305 -0.22103636 -0.1399053
0.8245407 0.58091164 0.6642363 -0.3046757 -4.826865 0.45421284 -0.9944704 -0.72098196
1.5103999 0.91713107 -1.0472981 -0.6183691 -2.765018 -0.21033636 -0.37803912 -0.60613537
-0.76054883 -1.2832594 -0.2978925 -0.3665839 -0.21729648 -0.4745006 -1.5577781 -0.31266412
-1.0486844 0.23113963 1.7126737 0.355485 -0.083183594 -1.4194082 -1.1816847 0.49697292
-0.16523415 -0.09860656 0.033434648 -0.08634517 0.3058829 0.49056256 -1.0524087 -0.7933818
-2.1180816 0.2139867 0.0071993065 -1.1177373 -3.4181724 -0.14990066 0.50428563 0.37530848
-1.1583697 0.22302862 0.032920476 0.28938797 0.5636546 -0.16755211 1.4330579 -0.6944373
-0.72868776 -0.12879743 0.5378084 0.34280947 0.6530081 0.3800372 -0.063886635 0.6915958
-0.30967906 0.04493785 -0.28049764 -3.6056256 0.43402922 -0.8659978 0.45367435 -0.36103427
-0.40015534 0.27127123 0.7903652 -0.9517928 0.579226 0.7597468 -0.56219846 -0.8032491
-0.5299743 -0.58016133 0.9778237 0.7918275 0.30211613 -0.34110692 -0.79589957 0.41413724
0.13053347 0.18765995 0.38765818 -1.2958771 0.99209267 -0.20670153 -0.474086 -0.8181654
-0.47926918 -1.6398937 -1.3467336 -0.30582905 -0.47085837 0.3407549 -0.33946276 1.0524893
-0.69150054 -0.2844374 -0.33651286 -1.1757449 -0.70474225 0.03761499 -0.73242766 0.0792836
0.00964569 0.4586485 -0.6226171 -0.29552704 -0.1962687 -0.57247174 0.051123764 0.19433217
1.0429567 -1.22087 0.65068406 0.22022878 -0.12881097 5.6917953 -0.37447843 1.4583646
-0.70894325 -0.8506613 -0.17240025 0.19577356 -0.023464212 1.6672118 -0.19771615 0.21330054
0.19228892 -0.83677596 0.43560025 -0.63541514 -0.3734207 0.040658463 -0.5726892 -0.17899108
-0.18219703 -0.42442703 0.67336273 -0.14019276 -0.5731459 0.4788735 0.99299765 -0.7030246
3.2833803 0.1183603 -0.8971284 -1.4297109 0.2737308 0.11955752 -0.90588486 -0.62770003
-1.1077682 -0.20843127 -1.4290601 -0.22031815 -0.54599595 -0.21327706 0.10678422 -0.951002
-0.28769085 -1.6822172 0.38995573 -0.558786 -0.6212751 0.2988416 0.22168534 -1.2797785
-0.22197661 0.43100196 0.30214274 -0.8109119 -0.16935728 0.063672476 0.3102546 -0.84307325
-0.2814918 -0.11889569 -0.47090104 1.2580093 -1.352583 -0.09876903 1.4979969 -0.14658923
0.64292204 0.56288475 0.18810943 -1.4251055 -5.0241723 0.81605744 0.20164871 -0.005442944
-0.09018474 -0.44676107 -0.9631381 0.22740795 0.4357903 -1.8845954 0.16459174 0.24929312
0.6875491 -0.9749298 -0.6966969 -0.5946372 0.14595942 0.2768522 1.4432406 -0.29591748
00000000: 8187 a9be fbe8 31be b61f a1bd ce49 c0bd
00000010: fce2 153f dbf8 d8bf 66ae f13d 3e71 83bf
00000020: 24f7 63bf c62e d43e 8c93 e0bf c37e 2f3f
00000030: de77 b63e 9e7b b4be 4a71 173f f409 b5be
00000040: 1766 bebe e10f 61bf e36d ffbe 302c bfbf
00000050: c145 76bf 0052 a93f c6bf c8bf c5a4 ddbd
00000060: 2e5e 9bbe 7402 5bbf 5100 02c0 b8b7 df3e
00000070: 1474 5bbf 304a 9d3e 7b4d 17be 9590 913d
00000080: e681 32bf 7874 e53e 4b69 613f 4526 bebe
00000090: 072b a0bf ce19 79bf 5b57 62be 5643 0fbe
000000a0: 1915 533f a0b6 143f 640b 2a3f 74fe 9bbe
000000b0: ae75 9ac0 968e e83e 9d95 7ebf 4692 38bf
000000c0: c954 c13f 1ac9 6a3f dd0d 86bf 704d 1ebf
000000d0: 0ef6 30c0 6a62 57be 588e c1be b02b 1bbf
000000e0: 54b3 42bf d841 a4bf 5e85 98be e3b0 bbbe
000000f0: f882 5ebe bef1 f2be 4665 c7bf 8315 a0be
00000100: 4a3b 86bf deaf 6c3e e438 db3f 2102 b63e
00000110: 295c aabd 2baf b5bf 7241 97bf 3c73 fe3e
00000120: 2433 29be 3cf2 c9bd c5f2 083d bdd5 b0bd
00000130: af9c 9c3e 042b fb3e 54b5 86bf 121b 4bbf
00000140: a68e 07c0 541f 5b3e 29e8 eb3b 0412 8fbf
00000150: 56c3 5ac0 8f7f 19be dd18 013f 6f28 c03e
00000160: 7545 94bf 9d61 643e 9fd7 063d a92a 943e
00000170: ab4b 103f c892 2bbe 716e b73f a5c6 31bf
00000180: 488b 3abf 79e3 03be d0ad 093f b984 af3e
00000190: 8a2b 273f 3c94 c23e ffd6 82bd 6c0c 313f
000001a0: 418e 9ebe c010 383d 639d 8fbe 92c2 66c0
000001b0: 1439 de3e 08b2 5dbf 0148 e83e 7cd9 b8be
000001c0: 29e1 ccbe 10e4 8a3e 6055 4a3f b1a8 73bf
000001d0: 2848 143f c47e 423f 3dec 0fbf bca1 4dbf
000001e0: 65ac 07bf 7485 14bf a752 7a3f 35b5 4a3f
000001f0: f7ae 9a3e 91a5 aebe 13c0 4bbf cc09 d43e
00000200: 91aa 053e ee29 403e 227b c63e 4ddf a5bf
00000210: c9f9 7d3f 91a9 53be 66bb f2be 4a73 51bf
00000220: c562 f5be 09e8 d1bf c461 acbf a095 9cbe
00000230: 5914 f1be 6d77 ae3e 10ce adbe f8b7 863f
00000240: 2e06 31bf c7a1 91be 6a4b acbe cf7e 96bf
00000250: fd69 34bf 2d12 1a3d 6180 3bbf 715f a23d
00000260: f508 1e3c fad3 ea3e d663 1fbf 524f 97be
00000270: a9fa 48be 828d 12bf 2767 513d 03ff 463e
00000280: 9b7f 853f 7845 9cbf 3b93 263f a783 613e
00000290: 06e7 03be 3023 b640 a3bb bfbe b1ab ba3f
000002a0: 4e7d 35bf f0c4 59bf b189 30be dd78 483e
000002b0: 0538 c0bc 3267 d53f 1a76 4abe 756b 5a3e
000002c0: 63e7 443e f336 56bf ff06 df3e 91aa 22bf
000002d0: ff30 bfbe 7d89 263d c29b 12bf 7049 37be
000002e0: dc91 3abe 804e d9be 8061 2c3f b18e 0fbe
000002f0: b1b9 12bf e82e f53e 1835 7e3f 6cf9 33bf
00000300: e722 5240 e366 f23d 35aa 65bf c400 b7bf
00000310: 7226 8c3e 93da f43d 12e8 67bf f3b0 20bf
00000320: 59cb 8dbf 026f 55be 71eb b6bf 159b 61be
00000330: 64c6 0bbf 4d65 5abe afb1 da3d de74 73bf
00000340: 374c 93be e552 d7bf 47a8 c73e 990c 0fbf
00000350: e30b 1fbf c401 993e 7b01 633e c8cf a3bf
00000360: d64d 63be 4aac dc3e 74b2 9a3e ec97 4fbf
00000370: ff6b 2dbe b766 823d b1d9 9e3e a6d3 57bf
00000380: b11f 90be 957f f3bd f119 f1be 7306 a13f
00000390: 7121 adbf 6b47 cabd 5dbe bf3f 7d1b 16be
000003a0: 8a96 243f 3719 103f c29f 403e db69 b6bf
000003b0: 05c6 a0c0 24e9 503f 007d 4e3e b95a b2bb
000003c0: c7b2 b8bd debd e4be 3890 76bf a1dd 683e
000003d0: e81f df3e 6c3a f1bf bd8a 283e b246 7f3e
000003e0: 3803 303f 0095 79bf ba5a 32bf 253a 18bf
000003f0: 6376 153e 92bf 8d3e 1cbc b83f 7f82 97be

fc.4.bias f4 [252]
-0.825007 0.70939946 0.20296004 0.22547917 -0.11535125 -0.41207528 0.01700181 -0.31655508
-0.011646646 0.025097705 0.060139902 -0.039257817 -0.084303655 -0.13001475 -0.045610208 -0.20929708
-0.017644688 -0.14758255 -0.06500075 -0.17154694 0.022318421 0.006575652 -0.005940185 -0.023408929
0.08157516 -0.1144458 0.026799947 -0.21286944 -0.08634127 -0.1569822 -0.012487745 -0.05234983
0.22869065 -0.01217414 -0.110261105 -0.006980091 -0.036929037 0.017058937 0.04774822 0.1136666
-0.16366392 -0.05044529 -0.10957755 0.074747935 -0.26429337 0.106526315 -0.21554533 -0.24779715
0.06165986 -0.102363706 -0.06508102 -0.063443765 -0.033945326 0.017646156 -0.22748911 -0.08612368
0.011330723 0.039595682 0.027021667 0.015232993 0.08872343 -0.017977785 -0.21857144 -0.013922738
-0.1462106 0.05033788 0.20496552 0.046468012 -0.10707508 -0.18373887 -0.02039861 -0.06185465
-0.10556786 -0.0604246 -0.026543893 0.09457932 -0.005728891 -0.059064794 -0.013080399 -0.055676743
-0.025577143 0.12641293 -0.067815445 -0.06928037 -0.15046321 -0.11657512 -0.12981158 -0.098666094
0.030034035 -0.08025765 -0.11263505 -0.050608892 -0.11014979 -0.046247367 0.063142195 0.04555521
-0.06784783 -0.1056287 -0.03177312 -0.14216752 -0.18294597 -0.108948134 -0.035362028 0.016571388
0.032939073 -0.19144683 -0.041240573 0.1349664 0.042223245 -0.044505112 -0.08441493 0.09007788
-0.10339997 -0.095034935 -0.30896384 -0.017999422 -0.059780385 -0.008230112 0.01770421 -0.094834015
-0.10110818 -0.05087471 0.007857305 -0.2162131 -0.013768045 -0.09047705 0.14491528 0.021456297
0.07530372 -0.044657167 -0.091176614 0.016095253 -0.14423223 -0.107948676 0.05055302 -0.01344261
-0.053775992 0.14672874 -0.022681199 0.003548831 -0.0071603707 0.056167707 -0.119002596 -0.046542104
-0.062495235 0.18049689 0.019292358 -0.06986594 0.05582058 -0.04783847 0.1266143 -0.017628562
0.0019017411 -0.12064186 -0.10303391 0.025167555 0.103520036 -0.11609294 -0.18825288 0.07949525
0.11012419 -0.13585533 -0.038184874 0.019218724 0.03829435 0.043403894 -0.010694367 0.1463625
-0.19030073 0.04437916 0.036111444 0.051864732 -0.14027815 0.10111335 -0.11822852 -0.12216788
0.039129104 -0.0105750505 0.18203056 -0.26462972 -0.046016484 -0.14597537 -0.0015947623 -0.0044794115
-0.025405487 0.02748216 -0.041453965 -0.103082165 0.016402371 -0.23019353 -0.030581063 0.06774196
-0.03805877 -0.09286896 -0.07097618 -0.014674403 0.097075276 -0.018994253 -0.06281386 -0.084475376
-0.057851665 0.0845633 -0.14032519 -0.15383117 -0.2208512 -0.17939673 -0.042692076 -0.006935831
-0.030909315 -0.12220023 -0.07286177 -0.015052942 -0.11702548 -0.103758864 -0.1652196 -0.13884719
-0.06374725 -0.058789555 0.05266247 0.028959421 -0.086303234 -0.14426655 0.062290035 -0.04329423
-0.07814269 0.013476298 0.070867084 -0.039174665 -0.1394573 -0.1787593 0.05374968 0.010361783
-0.12241259 -0.08090103 0.095367014 -0.12842041 -0.012478562 -0.07908185 -0.16280165 -0.03800454
-0.091787875 0.13800794 -0.10102482 0.23870867 -0.1873387 -0.041950244 -0.1361207 0.13301614
-0.1148629 -0.06227805 -0.045476858 -0.16501693
00000000: a933 53bf 349b 353f c2d4 4f3e 03e4 663e
00000010: 473d ecbd 88fb d2be 6147 8b3c 8213 a2be
00000020: 93d1 3ebc b499 cd3c 4255 763d cecc 20bd
00000030: 65a7 acbd 9622 05be c5d1 3abd f951 56be
00000040: 988b 90bc e11f 17be 1d1f 85bd 00aa 2fbe
00000050: 1fd5 b63c 9178 d73b e2a5 c2bb 15c4 bfbc
00000060: e110 a73d 8f62 eabd 908b db3c 72fa 59be
00000070: b1d3 b0bd f1bf 20be 6699 4cbc c66c 56bd
00000080: e22d 6a3e 0b76 47bc 93d0 e1bd 3fb9 e4bb
00000090: e742 17bd 2fbf 8b3c a393 433d 09ca e83d
000000a0: 8497 27be b89f 4ebd 326a e0bd 7215 993d
000000b0: 7651 87be 782a da3d eab7 5cbe 89be 7dbe
000000c0: 0d8f 7c3d 10a4 d1bd 3349 85bd ceee 81bd
000000d0: 410a 0bbd ac8e 903c e8f2 68be 9d61 b0bd
000000e0: 7fa4 393c 152f 223d 8b5c dd3c ce93 793c
000000f0: a1b4 b53d 2646 93bc 31d1 5fbe 321c 64bc
00000100: 3bb8 15be 182f 4e3d 7be2 513e 3e55 3e3d
00000110: 2e4a dbbd 0b26 3cbe fc1a a7bc 4d5b 7dbd
00000120: f633 d8bd c97f 77bd 9472 d9bc cdb2 c13d
00000130: 6cb9 bbbb eded 71bd 2b4f 56bc 4c0d 64bd
00000140: 2887 d1bc 6472 013e d3e2 8abd dee2 8dbd
00000150: 0713 1abe f0be eebd 54ed 04be 7311 cabd
00000160: f009 f63c 1f5e a4bd 35ad e6bd 454b 4fbd
00000170: 3796 e1bd e16d 3dbd b250 813d 1a98 3a3d
00000180: cef3 8abd dc53 d8bd 8824 02bd 5d94 11be
00000190: 3056 3bbe 3320 dfbd c6d7 10bd b8c0 873c
000001a0: 1feb 063d a30a 44be e0eb 28bd a234 0a3e
000001b0: 48f2 2c3d fe4a 36bd bce1 acbd c07a b83d
000001c0: 5dc3 d3bd ada1 c2bd 8230 9ebe 8673 93bc
000001d0: 47dc 74bd 97d7 06bc 6b08 913c 5638 c2bd
000001e0: ce11 cfbd 0062 50bd edbb 003c f866 5dbe
000001f0: 5e93 61bc 084c b9bd ac64 143e 1ec5 af3c
00000200: d638 9a3d 6fea 36bd ceba babd 31da 833c
00000210: 9db1 13be 3214 ddbd af10 4f3d 653e 5cbc
00000220: 3744 5cbd 0f40 163e eccd b9bc 8193 683b
00000230: 8ba1 eabb 1c10 663d a2b7 f3bd efa2 3ebd
00000240: 01fb 7fbd 2dd4 383e 020b 9e3c e015 8fbd
00000250: 1fa4 643d 46f2 43bd 2ea7 013e c669 90bc
00000260: d843 f93a 1413 f7bd 7103 d3bd 302c ce3c
00000270: 5002 d43d 23c2 edbd 5dc5 40be 68ce a23d
00000280: cb88 e13d a91d 0bbe be67 1cbd 9670 9d3c
00000290: 89da 1c3d 48c8 313d 6d37 2fbc 0de0 153e
000002a0: 32de 42be ecc6 353d 98e9 133d 1d70 543d
000002b0: 13a5 0fbe 8414 cf3d cb21 f2bd 2733 fabd
000002c0: d745 203d fa42 2dbc 3866 3a3e 8c7d 87be
000002d0: c87b 3cbd 917a 15be 5807 d1ba 07c8 92bb
000002e0: 2b1f d0bc 4422 e13c a2cb 29bd be1c d3bd
000002f0: 445e 863c dab7 6bbe 2385 fabc 4cbc 8a3d
00000300: 83e3 1bbd 1532 bebd f65b 91bd e86c 70bc
00000310: 67cf c63d d699 9bbc 8ea4 80bd 6d01 adbd
00000320: def5 6cbd 862f ad3d 68b1 0fbe eb85 1dbe
00000330: d126 62be c7b3 37be e3dd 2ebd f845 e3bb
00000340: 8835 fdbc 1d44 fabd 8d38 95bd 9da0 76bc
00000350: 0eab efbd 877f d4bd 542f 29be f52d 0ebe
00000360: eb8d 82bd 51cd 70bd 9ab4 573d 4f3c ed3c
00000370: c0bf b0bd 9cba 13be d623 7f3d 4a55 31bd
00000380: 4609 a0bd b1cb 5c3c c322 913d 9d75 20bd
00000390: e5cd 0ebe ae0c 37be a028 5c3d 78c4 293c
000003a0: 74b3 fabd 70af a5bd c84f c33d a480 03be
000003b0: e272 4cbc aaf5 a1bd 7ab5 26be a6aa 1bbd
000003c0: 48fb bbbd f451 0d3e 1ae6 cebd 0c70 743e
000003d0: b7d5 3fbe 05d4 2bbd 3a63 0bbe 6235 083e
000003e0: 3d3d ebbd 4517 7fbd f145 3abd 33fa 28be

temporal_smoother.weight f4 [1, 1, 5]
0.0076566604 -0.012379997 0.014137086 0.01316627 0.0028704274
00000000: b9e4 fa3b 79d5 4abc 3d9f 673c 57b7 573c
00000010: c81d 3c3b
