generator_gan_ecv_base.pth (torch, 447262 bytes, 6 tensors)

model.0.weight f4 [128, 103]
0	0x3d975435	0.07389108
1	0xbdb15719	-0.08659191
2	0x3d0af961	0.033929233
3	0x3d45b0c7	0.04826429
4	0x3d309ccc	0.043118283
5	0x39e48046	0.0004358312
6	0xbba5e349	-0.005062495
7	0x3daa896d	0.08326993
8	0x3c8bff48	0.017089501
9	0x3c7bc2e2	0.015366288
10	0xbd00fdb0	-0.031491935
11	0xbc97c563	-0.018526739
12	0x3d198c68	0.037487417
13	0xbd789e3a	-0.06069777
14	0x3d39b6a3	0.04534019
15	0x3c6758ce	0.014120294
16	0xbd11048c	-0.035404727
17	0xbb8302e0	-0.0039981455
18	0xbd634c9d	-0.055492986
19	0xbe0736d1	-0.13204505
20	0xbd1b9e87	-0.03799298
21	0x3d018845	0.031624097
22	0x3c3fd4cc	0.01170845
23	0xbd9098dc	-0.070604056
24	0xbc6a215a	-0.014290178
25	0x3cef250e	0.029192474
26	0xbc4270d9	-0.011867725
27	0xbd39a3b7	-0.045322146
28	0x3d0dcaa3	0.034617078
29	0xbc9198dc	-0.017773084
30	0xbd82cdcf	-0.06386911
31	0xbbf8b13f	-0.0075894888
32	0x3ce93f5f	0.0284726
33	0xbd55ca10	-0.052194655
34	0xbd81e02c	-0.063415855
35	0xbc7cfdb3	-0.015441346
36	0xbc64e5ba	-0.013970787
37	0x3d11e385	0.03561737
38	0xbc963ba3	-0.018338984
39	0xbbb519cb	-0.0055267564
40	0x3cf28396	0.02960376
41	0xbd1fe60f	-0.03903776
42	0xbc8ae16d	-0.016953195
43	0xbcebf1f9	-0.028801905
44	0x3d4807a4	0.04883541
45	0x3cc41e25	0.023940155
46	0xbb50c3fc	-0.0031855097
47	0xbd3d5773	-0.046225976
48	0x3d2932f1	0.041308347
49	0x3c8d46f1	0.017245742
50	0xbc999a95	-0.018750468
51	0x3cae92d5	0.02131025
52	0xbd3ce0b5	-0.046112735
53	0x3c441742	0.011968436
54	0xbd13c55e	-0.036076896
55	0xbcce0590	-0.025149137
56	0x3b026c87	0.0019901113
57	0x3d9b4ce7	0.07583027
58	0xba74cb77	-0.000933818
59	0xbd9239bc	-0.07139918
60	0x3c27d6a7	0.010244048
61	0x3d848ed0	0.06472552
62	0x3d0518b6	0.03249427
63	0x3d77e179	0.06051776
64	0xbc38ce22	-0.011279615
65	0xbdcdd93b	-0.10051199
66	0x3cb481b3	0.022034502
67	0x3b4a2960	0.0030847415
68	0xbc3413f8	-0.010991089
69	0x3ce2c606	0.027682316
70	0xbdb7bd9d	-0.08971713
71	0xbd61cbea	-0.05512611
72	0x3cc3fb13	0.023923432
73	0x3cf2254f	0.029558806
74	0xbd6290aa	-0.055313744
75	0xbca5261d	-0.020159775
76	0x3d7d823f	0.06189179
77	0x3c482be8	0.012217499
78	0x3b6d92ff	0.0036250947
79	0xbd3fd22a	-0.046831287
80	0xbc4c9935	-0.012487699
81	0x3c0944e7	0.008378244
82	0xbd7c1e9e	-0.061552636
83	0x3da7e004	0.081970245
84	0xbdb4fdb8	-0.088374555
85	0xbc253d70	-0.010085449
86	0x3ced3e9c	0.028960519
87	0x3aaa3c74	0.0012987987
88	0x3bedcb63	0.0072569116
89	0x3d7ecac0	0.062205076
90	0x3d1ad74e	0.037802987
91	0x3b689233	0.0035487532
92	0xbd426c4a	-0.047466554
93	0x3c85480a	0.016269702
94	0x3cd9b3fc	0.026575081
95	0xbcc36d9b	-0.023855975
96	0x3c8009a9	0.015629606
97	0xbd005963	-0.031335246
98	0xbaf3bf76	-0.0018596489
99	0xbb61b0a8	-0.003443757
100	0xbfa0d7bf	-1.256584
101	0xbee1232c	-0.43972147
102	0xbf83a557	-1.0284833
103	0xbc2bb109	-0.01047922
104	0x3d260cb5	0.040539462
105	0x3c6c09f4	0.01440667
106	0xbdd38bc8	-0.103293955
107	0x3db60d35	0.08889238
108	0xbdcc4348	-0.099737704
109	0x3d517290	0.051134646
110	0xbd2ba702	-0.041907318
111	0x3daa6920	0.08320832
112	0xbe0263c8	-0.12733376
113	0xbd027ab3	-0.031855296
114	0x3d968bf8	0.07350916
115	0xbca1fd8f	-0.019774226
116	0x3bbe03c8	0.0057987906
117	0x3d224a63	0.039621722
118	0xbd3cf1da	-0.046129085
119	0x3cb92ec8	0.022605315
120	0x3c2feac3	0.010737124
121	0x3d4ea098	0.050446123
122	0xbcfb2644	-0.030657895
123	0xbe133add	-0.14377923
124	0xbd3df40b	-0.046375316
125	0x3d9d9a23	0.07695415
126	0xbd9279a7	-0.071521096
127	0x3b2169dc	0.0024629747
128	0x3d218ff6	0.039443932
129	0xbd875c07	-0.0660935
130	0xbd6bcf72	-0.057570882
131	0xbd1b7746	-0.037955545
132	0xbbaa3c07	-0.005195144
133	0xbb3702e8	-0.0027925316
134	0x3cdaac1a	0.026693393
135	0x3d76d0bc	0.06025766
136	0xbb0f8861	-0.0021901357
137	0x3caf546d	0.021402562
138	0x3db8d393	0.090247296
139	0x3d4fc186	0.050721668
140	0x3cc83db3	0.024443483
141	0x3d7ba62d	0.061437774
142	0xbcf35a6e	-0.029706206
143	0x3cab5336	0.020913702
144	0x3de3ad8c	0.11117086
145	0xbd0eb3c9	-0.034839425
146	0xbdb81a36	-0.08989374
147	0x3db7351b	0.08945676
148	0xbc6f3527	-0.014600075
149	0x3ce4e810	0.027942687
150	0x3dab41a9	0.08362133
151	0x3d4d2b7b	0.050090294
152	0x3bcbd9e8	0.006221045
153	0xbd583649	-0.052786145
154	0xbdb63cdf	-0.08898329
155	0x3bdd02fc	0.0067447405
156	0x3d2e72ac	0.04258983
157	0xbce4b3cd	-0.027917767
158	0xbc8c6722	-0.017139021
159	0xbddffbbf	-0.10936689
160	0x3d2998e5	0.041405577
161	0x3d05c6d1	0.03266031
162	0x3c791a7f	0.015204071
163	0xbd4a51ef	-0.049394544
164	0xbd49fe3f	-0.049314734
165	0xbd43f3bb	-0.04783986
166	0x3c09ff5c	0.008422699
167	0xbd1ff795	-0.039054472
168	0x3ce0c955	0.027439753
169	0xbd37b82e	-0.04485338
170	0xbcca34d7	-0.0246834
171	0xbd6b851b	-0.057499986
172	0x3d215f4a	0.039397515
173	0xbd366f4d	-0.04453974
174	0x3d60c84c	0.054878518
175	0xbd3b10f7	-0.045670476
176	0x3c919e55	0.017775694
177	0xbd46099b	-0.048349004
178	0x3d97af4f	0.07406484
179	0x3dbee488	0.093209326
180	0x3d80bde8	0.06286222
181	0xbc04c595	-0.008103748
182	0xbd16b7ec	-0.036796495
183	0x3da6593f	0.08122491
184	0x3d018093	0.03161676
185	0x3d827c20	0.06371331
186	0x3d81a7ce	0.06330834
187	0x3cd6a673	0.026202416
188	0xbc10c4ca	-0.008835981
189	0x3ab32377	0.0013667186
190	0xbdabf531	-0.08396376
191	0xba3874f9	-0.0007036473
192	0x3c8a240f	0.016862897
193	0xbae4f924	-0.0017469269
194	0xbcd8d6fc	-0.0264697
195	0xbd8426c3	-0.06452706
196	0x3a137d4d	0.0005626276
197	0x3d2f1dd7	0.042753067
198	0xbb92199e	-0.00445862
199	0xbe0b007a	-0.135744
200	0xbdadedcd	-0.084926225
201	0x3ce31674	0.027720667
202	0x3d50d514	0.050984457
203	0xbfa07f98	-1.2538939
204	0xbfb86b39	-1.4407722
205	0xbf9e48ea	-1.2366002
206	0xbd8cb180	-0.06869793
207	0x3d0e7992	0.034783907
208	0xbb99dfe5	-0.0046958798
209	0x3de03bc2	0.10948898
210	0x3ca24a1d	0.01981073
211	0x3d7c6429	0.061618958
212	0x3dc4ab88	0.096030295
213	0xbc4b2f1b	-0.012401368
214	0xbd200935	-0.03907128
215	0x3aecd33e	0.0018068326
216	0x3c29709b	0.010341789
217	0xbdba164f	-0.09086286
218	0x3b67b897	0.0035357827
219	0x3c7bf963	0.015379283
220	0xbccf6ed7	-0.025321407
221	0x3c902663	0.01759643
222	0xbd10a33b	-0.03531192
223	0x3c7bb793	0.015363592
224	0x3cc9ce8d	0.024634624
225	0x3dddb0cf	0.10824739
226	0x3d15bac2	0.03655506
227	0xbce546e0	-0.027987897
228	0xbcfe59a2	-0.0310486
229	0xbc5ca010	-0.013465896
230	0xbc512935	-0.012766172
231	0xbd75eb49	-0.06003884
232	0xbd1e801e	-0.0386964
233	0x3c27b19f	0.010235219
234	0xbba8da07	-0.005152944
235	0x3cf07f8a	0.02935769
236	0x3d0e7d5d	0.034787524
237	0xbdaa051e	-0.08301757
238	0x3dc963d8	0.09833497
239	0x3ca551ff	0.0201807
240	0xbd0d61ff	-0.034517284
241	0xbd8ebc47	-0.06969505
242	0xbd3e0033	-0.04638691
243	0xbd143fa1	-0.036193494
244	0xbb45eaf6	-0.0030199862
245	0x3d733115	0.05937298
246	0xbd9cd656	-0.07658069
247	0x3da75539	0.08170552
248	0x3da5bdc4	0.080928355
249	0x3ddabfe5	0.10681132
250	0xbc68f2a5	-0.014218007
251	0xbd647a9e	-0.055781
252	0xbc9747dd	-0.018466884
253	0x3c922e1b	0.01784425
254	0x3d83a677	0.06428235
255	0xbd560320	-0.052249074

model.0.bias f4 [128]
0	0xbf87aae7	-1.059903
1	0xbfa17e8a	-1.2616742
2	0xbfa35bc0	-1.2762375
3	0xbf9267a4	-1.1437879
4	0xbfbb3992	-1.4626944
5	0xbfa48ae4	-1.2854886
6	0xbfc99b5f	-1.575054
7	0xbf8f8af0	-1.1214275
8	0xbfa6df86	-1.3036964
9	0xbf984149	-1.1894923
10	0xbf870e29	-1.0551196
11	0xbfa90006	-1.3203132
12	0xbf8755f5	-1.0573107
13	0xbf9604fe	-1.1720273
14	0xbfc299c1	-1.5203172
15	0xbf93f9fd	-1.1560665
16	0xbfa8147b	-1.313125
17	0xbfb28907	-1.3948067
18	0xbfa6fd68	-1.3046083
19	0xbf9d5200	-1.229065
20	0xbfa2f09a	-1.2729676
21	0xbf96f4f5	-1.1793505
22	0xbf802155	-1.0010172
23	0xbfa1fd99	-1.2655517
24	0xbfbd34f5	-1.4781786
25	0xbfab6afd	-1.3392025
26	0xbfb7ddd8	-1.4364576
27	0xbfc85f0e	-1.5654008
28	0xbfb846d5	-1.4396616
29	0xbfbefd0f	-1.4920977
30	0xbfbfa1a4	-1.4971204
31	0xbfb7c55d	-1.4357105
32	0xbfc4d284	-1.5376744
33	0xbfbcf772	-1.4763014
34	0xbfb6f7ce	-1.4294374
35	0x3f85848b	1.0431074
36	0xbf97c894	-1.1858087
37	0xbfacb871	-1.3493787
38	0xbf9f9d5d	-1.2469898
39	0xbf943e56	-1.1581523
40	0xbfa78725	-1.3088118
41	0xbf896a9a	-1.0735657
42	0xbfa9c074	-1.3261857
43	0xbfd77c3e	-1.6834791
44	0xbf98fb7e	-1.1951749
45	0xbfb9db6f	-1.4520091
46	0xbfcf4820	-1.6193886
47	0x3f290ca2	0.660349
48	0xbfa17067	-1.2612427
49	0xbfa313fb	-1.2740473
50	0xbfc411b7	-1.5317906
51	0xbf7a55f8	-0.9778743
52	0xbfaeb77e	-1.3649747
53	0xbfabe559	-1.3429366
54	0xbfc93957	-1.5720624
55	0xbf981f70	-1.1884594
56	0xbfa55f64	-1.2919736
57	0xbf9b0b94	-1.2112908
58	0xbfa6db88	-1.3035746
59	0xbfc5b025	-1.544438
60	0xbfc4cfd3	-1.5375923
61	0xbfa1965b	-1.262401
62	0xbfb1947a	-1.3873436
63	0xbfb32ba1	-1.399769
64	0xbfb2874e	-1.3947542
65	0xbfa5a7a5	-1.2941786
66	0xbfac8ba2	-1.3480113
67	0xbfa714f0	-1.3053265
68	0xbfb0ad29	-1.3802844
69	0xbfa84568	-1.3146181
70	0xbfc3a9d0	-1.5286198
71	0xbfa03411	-1.251589
72	0xbfb46519	-1.4093353
73	0xbfa1e104	-1.2646794
74	0xbfb7db80	-1.4363861
75	0xbf4b2b40	-0.7936287
76	0xbfa254d1	-1.2682134
77	0xbf946b0e	-1.159517
78	0xbf7cc8e0	-0.9874401
79	0xbf97abd0	-1.1849308
80	0xbfe39dcd	-1.7782532
81	0xbf9aa834	-1.2082582
82	0xbfb5cee6	-1.4203765
83	0xbf8be4bb	-1.0929178
84	0xbf4de0d9	-0.80421215
85	0xbfb149a9	-1.3850604
86	0xbfac7f2b	-1.3476309
87	0xbfb4fb55	-1.41392
88	0xbfb4b437	-1.4117497
89	0xbfc4cec5	-1.5375601
90	0xbfe4f05e	-1.7885854
91	0xbfaebc75	-1.3651263
92	0xbfa0df8d	-1.2568222
93	0xbfc033c2	-1.5015795
94	0xbfb15aca	-1.3855832
95	0xbf9532f3	-1.1656173
96	0xbfa05d9a	-1.2528565
97	0xbf981b3a	-1.1883309
98	0xbf931737	-1.149146
99	0xbfab0d9b	-1.3363527
100	0xbfdeae1c	-1.7396884
101	0xbfc130a4	-1.5092969
102	0xbf90d0f9	-1.1313773
103	0xbf81a080	-1.0127106
104	0xbf96a326	-1.1768539
105	0xbfb1e50a	-1.3898022
106	0xbfa4ded3	-1.28805
107	0xbf618b5c	-0.8810327
108	0xbf992f0f	-1.1967486
109	0xbfb36d84	-1.4017797
110	0xbf868d62	-1.0511897
111	0xbf8e7244	-1.1128621
112	0xbf74cf85	-0.9562915
113	0xbf9954a7	-1.1978959
114	0xbfcac975	-1.584273
115	0xbfa4d468	-1.2877321
116	0xbfbb61a5	-1.4639174
117	0xbf984f56	-1.1899211
118	0xbf94f20c	-1.1636367
119	0xbf9e56fa	-1.2370293
120	0xbfb10993	-1.3831047
121	0xbf999883	-1.1999668
122	0xbfb2a053	-1.3955177
123	0xbfc725ba	-1.5558388
124	0xbfb00c2d	-1.3753716
125	0xbf9ac848	-1.2092371
126	0xbf6c5527	-0.9231743
127	0xbf90e74b	-1.1320585

model.2.weight f4 [256, 128]
0	0xbdbfa641	-0.09357882
1	0xbd0b06ba	-0.03394196
2	0xbe190d93	-0.14946584
3	0xbd947a34	-0.07249871
4	0x3d1879ba	0.037225462
5	0xbdf82dbb	-0.121180974
6	0xbcf3d50c	-0.029764675
7	0xbe22682a	-0.15860048
8	0x3bfcba62	0.0077126483
9	0xbe27096d	-0.1631219
10	0xbda5626f	-0.08075415
11	0x3b48b997	0.0030628198
12	0xbd6e3591	-0.058156554
13	0xbcf80471	-0.030275555
14	0xbdb9ee41	-0.090786465
15	0xbe123697	-0.14278637
16	0xbe05f8a3	-0.13083129
17	0xbe1a92ff	-0.15095137
18	0xbe4b1d73	-0.19835453
19	0x3d619f8d	0.0550838
20	0xbd015638	-0.031576365
21	0xba2a8b86	-0.0006505776
22	0xbe44514b	-0.19171636
23	0xbd87e0c1	-0.06634665
24	0x3c72bfaa	0.014816204
25	0xbd96702c	-0.07345614
26	0x3d57fccc	0.05273132
27	0xbdedc80a	-0.1161042
28	0xbd5b1152	-0.053483315
29	0xbdac3e6d	-0.08410344
30	0xbe02068e	-0.12697813
31	0xbd09e56b	-0.033666056
32	0xbd8fc0c0	-0.07019186
33	0xbdf80785	-0.12110809
34	0x3c8ec635	0.017428497
35	0xbdc6a90a	-0.097002104
36	0xbdda939d	-0.10672686
37	0x3e177b0f	0.14793037
38	0xbd3810fc	-0.044938073
39	0xbdeb5fdc	-0.11492893
40	0x3e1811ea	0.14850584
41	0xbdd0e974	-0.10200778
42	0xbe1c6661	-0.1527343
43	0xbdc789a6	-0.09743051
44	0xbda65169	-0.081209965
45	0x3df050ca	0.11734159
46	0xbd3a8be2	-0.04554356
47	0xbebbabbd	-0.36654463
48	0x3c60e34e	0.013726069
49	0xbdceba62	-0.100941435
50	0xbcb7d7b5	-0.022441724
51	0xbe719454	-0.23591739
52	0xbe0a12a6	-0.13483676
53	0x3d54a557	0.051915493
54	0x3c0ea2fe	0.008705853
55	0xbe1670ed	-0.14691515
56	0xbe5b588d	-0.21420498
57	0x3deaf0e0	0.114717245
58	0xbe0ec487	-0.13942157
59	0x3c328d7e	0.010897992
60	0xbe0d0975	-0.13773139
61	0x3d8292dc	0.063756675
62	0xbd83f138	-0.06442493
63	0xbd84883f	-0.064712994
64	0xbe11f70d	-0.14254399
65	0xba547316	-0.00081043073
66	0xbe187bc4	-0.14890963
67	0xbe130d19	-0.14360465
68	0xbc86d060	-0.016456783
69	0xbcca1278	-0.02466701
70	0xbe0c7665	-0.13717039
71	0xbe0637ca	-0.1310722
72	0xbe20bf25	-0.15697916
73	0xbe38e996	-0.18057856
74	0x3cfe3831	0.031032654
75	0xbddd6d93	-0.10811915
76	0xbd671581	-0.056416992
77	0xbdc5a2a4	-0.09650162
78	0xbd8d5be8	-0.06902295
79	0x3d4cf1f6	0.05003544
80	0xbdb86c38	-0.09005016
81	0xbc98c9f0	-0.018650979
82	0x3e5291d7	0.20563446
83	0x3e5cc691	0.21560122
84	0xbe62743a	-0.2211465
85	0xbc6e431e	-0.014542369
86	0xbe467906	-0.19382104
87	0xbe15dde0	-0.1463542
88	0xbc77586e	-0.015096767
89	0x3da1d2a5	0.079015054
90	0xbc89ca79	-0.01682018
91	0x3b6f293b	0.003649308
92	0xbd23ce4d	-0.039991666
93	0xbcc47ed5	-0.02398626
94	0x3dc861e1	0.09784294
95	0xbdf6e27c	-0.12054917
96	0xbd616b8a	-0.055034198
97	0x3c0196aa	0.007909456
98	0xbe2a797f	-0.1664791
99	0xbe6dc9ae	-0.23221466
100	0xbd084faf	-0.033279117
101	0x3d4eb7dd	0.050468314
102	0x3c4acd83	0.012378099
103	0x3b9c4347	0.0047687623
104	0xbdeff322	-0.11716296
105	0x3c674805	0.014116292
106	0xbe093502	-0.13399127
107	0xbe3d935e	-0.18513247
108	0xbc7548a8	-0.014970936
109	0xbe366491	-0.178118
110	0xbc7e830f	-0.0155341765
111	0xbd2a8cac	-0.04163806
112	0xbc6e0fe5	-0.014530157
113	0xbc8758eb	-0.016521892
114	0x3bb9d2fd	0.0056709037
115	0xbd6f9fad	-0.058501888
116	0x3c8af758	0.016963646
117	0xbdfd2ac4	-0.123616725
118	0x3d44bc0c	0.048030898
119	0xbb67fdfa	-0.0035399185
120	0xbd05f7fb	-0.032707196
121	0x3c713286	0.014721518
122	0xbe0be637	-0.13662039
123	0xbe138e75	-0.14409812
124	0x3dfa4071	0.122193225
125	0xbe86f733	-0.26360473
126	0xbe7b6045	-0.24548443
127	0x3c85ba28	0.016324118
128	0x3cb4d9d6	0.022076529
129	0xbbcdc677	-0.0062797624
130	0x3da3c847	0.07997184
131	0xbb416e64	-0.002951526
132	0x3e0e4372	0.13892916
133	0xbd488fe8	-0.048965365
134	0x3bdfc048	0.0068283416
135	0x3acec6cb	0.0015775798
136	0xbc26a2f3	-0.010170686
137	0xbe19b210	-0.15009332
138	0xbde27d8b	-0.11059102
139	0x3bcbbc89	0.0062175435
140	0xbc955870	-0.018230647
141	0xbd9739b4	-0.07384053
142	0xbc93308d	-0.017967487
143	0xbd0e5156	-0.034745537
144	0xbd4cb06c	-0.049972937
145	0xbd2d4c98	-0.042309374
146	0x3c88a074	0.016678073
147	0xbdaaaaa8	-0.08333331
148	0xbe03c457	-0.12867866
149	0x3d3c4179	0.045960877
150	0x3d21b11e	0.039475553
151	0xbd600538	-0.054692477
152	0x3c9c1ff7	0.01905821
153	0xbcde6415	-0.027147332
154	0x3bd58276	0.0065157963
155	0xbe102332	-0.14075926
156	0xbd15cdcc	-0.036573216
157	0x3cec3f7c	0.028838865
158	0xbd4f54b7	-0.0506179
159	0xbda2df19	-0.07952709
160	0x3c2b6302	0.010460617
161	0xbd9aff7e	-0.075682625
162	0xbdc2057d	-0.09473703
163	0xbdac4964	-0.08412436
164	0xbcf5bb5d	-0.029996568
165	0x3cd12007	0.025527967
166	0x3d2eb160	0.042649627
167	0xbc9b449f	-0.01895362
168	0xbd254914	-0.040352896
169	0xbd14555b	-0.036214214
170	0xbc444c90	-0.011981145
171	0xbd80e688	-0.0629397
172	0xbd663486	-0.056202434
173	0xbb3cd229	-0.0028811789
174	0xbc341c96	-0.010993144
175	0x3e04e6a5	0.12978609
176	0xbca97b7c	-0.020688765
177	0xbd88f060	-0.06686473
178	0xbe5fea15	-0.21866639
179	0x3d5694bc	0.052387938
180	0xbd426f4e	-0.04746943
181	0xbd26cf40	-0.040724993
182	0xbe0191df	-0.12653302
183	0xbd52cb7e	-0.051463597
184	0xbde0691f	-0.1095755
185	0x3e8cb6b5	0.27483144
186	0x3c8c9f05	0.01716567
187	0xbd9ac21b	-0.07556554
188	0xbd10fb2b	-0.035395782
189	0xbd50f253	-0.05101235
190	0xbb8e1b10	-0.004336722
191	0x3c382bbd	0.011240897
192	0xbcd0a9d3	-0.025471603
193	0x3da4483c	0.0802159
194	0xbe03d8d6	-0.12875685
195	0xbd5f6a19	-0.054544542
196	0x3a4dc84c	0.0007849976
197	0xbe1ac38c	-0.15113658
198	0x3d635e00	0.055509567
199	0xbcd57f37	-0.026061637
200	0xbdaf1c58	-0.08550328
201	0xbd5d34ff	-0.05400562
202	0xbd204101	-0.039124493
203	0xbd02eca9	-0.031963978
204	0xbd0d6408	-0.034519225
205	0xbde53be5	-0.111930646
206	0xbcf547dd	-0.029941494
207	0xbd1aad0f	-0.037762698
208	0x3cfe73c1	0.031061055
209	0xbcfe3189	-0.03102948
210	0xbcc723d8	-0.024309084
211	0xbe0242d7	-0.1272081
212	0xbe478967	-0.19486009
213	0x3c403392	0.011731045
214	0x3e201018	0.1563114
215	0xbd9e3283	-0.07724478
216	0xbb68fd8a	-0.0035551512
217	0xbcd71285	-0.026253948
218	0xbdaff1c7	-0.08591037
219	0xbcab09e7	-0.020878745
220	0xbd97b7f8	-0.07408136
221	0x3c2fa73f	0.010721027
222	0xbd5a495e	-0.053292625
223	0xbe8c350b	-0.2738422
224	0xbe02d60f	-0.1277697
225	0x3c930a9a	0.017949391
226	0xbd25636f	-0.04037803
227	0x3d63fdb5	0.055661876
228	0xbd327cb8	-0.043575972
229	0xbd0ae5ac	-0.03391044
230	0x3bff3dfc	0.0077893715
231	0xbdf94d0d	-0.121728994
232	0x3d17621f	0.03695881
233	0xbd819c92	-0.063286915
234	0xbdb9e679	-0.09077162
235	0xbe099f92	-0.13439777
236	0x3d10f04b	0.03538541
237	0xbdf14b31	-0.1178192
238	0x3d026602	0.031835563
239	0xbdbe9f06	-0.09307675
240	0xbd886a19	-0.066608615
241	0xbdab6ea9	-0.08370716
242	0x3e3fdf51	0.18737532
243	0xbdcf34be	-0.10117482
244	0x3d04c7e9	0.03241721
245	0x3cc4e87e	0.024036642
246	0xbd81acb2	-0.06331767
247	0xbd2da0b8	-0.0423896
248	0xbd3103b5	-0.043216426
249	0xbd499940	-0.049218416
250	0xbc17381c	-0.009229686
251	0xbd72ff53	-0.059325527
252	0xbce85901	-0.028362753
253	0xbbd2818c	-0.0064241346
254	0xbc74fb41	-0.014952482
255	0x3da8adb0	0.08236253

model.2.bias f4 [256]
0	0xbe16330b	-0.14667909
1	0xbe3b22e2	-0.18275025
2	0xbe6114e2	-0.21980622
3	0xbeb5fea0	-0.35545826
4	0xbcd522ea	-0.026017625
5	0xbe7cbe44	-0.24681956
6	0xbdda18e1	-0.106492765
7	0xbe879bfe	-0.264862
8	0xbdfdde9b	-0.12395974
9	0xbe6a2b60	-0.22868109
10	0xbe7a3e1a	-0.24437752
11	0xbbfb1354	-0.007662216
12	0xbe852028	-0.26001096
13	0xbde2ce92	-0.110745564
14	0xbd98d6ce	-0.07462846
15	0xbe28657d	-0.16444965
16	0xbeabaccd	-0.33530274
17	0xbe39a6c9	-0.1813003
18	0xbe861519	-0.2618797
19	0xbe9ab3e2	-0.30215365
20	0xbe3ec939	-0.18631448
21	0xbdd1b8f5	-0.10240356
22	0xbe3e5726	-0.18587932
23	0xbe03f05c	-0.12884659
24	0xbd7332ab	-0.059374493
25	0xbdcdf5ef	-0.10056674
26	0xbe6b9146	-0.23004636
27	0xbe7005ff	-0.23439787
28	0xbe9e9e3f	-0.30980107
29	0xbe11088a	-0.14163414
30	0xbe851378	-0.25991416
31	0xbdea9767	-0.11454659
32	0xbe43de46	-0.1912776
33	0xbe116a9b	-0.14200823
34	0xbe706060	-0.23474264
35	0xbe79a1d7	-0.24378143
36	0xbeda3370	-0.4261737
37	0xbe098b3b	-0.13432018
38	0xbe453d3b	-0.19261639
39	0xbe7eaf21	-0.24871494
40	0xbde2af7e	-0.11068629
41	0xbdf0f166	-0.11764793
42	0xbe0ea149	-0.13928713
43	0xbe61fd07	-0.22069179
44	0xbe2244cd	-0.15846558
45	0xbdf8c2a1	-0.121464975
46	0xbe932623	-0.28740034
47	0xbe64ec4e	-0.22355768
48	0xbe8b4657	-0.27202103
49	0xbe44654f	-0.19179271
50	0xbdeba6f8	-0.11506456
51	0xbe87a182	-0.26490408
52	0xbe4a3d9a	-0.19750062
53	0xbdff1f78	-0.12457174
54	0xbdbb2f83	-0.091399215
55	0xbe7515e6	-0.23934135
56	0xbe5831cf	-0.2111275
57	0xbd000450	-0.031254113
58	0xbe3b702f	-0.18304513
59	0xbdad958e	-0.08475791
60	0xbe7d61af	-0.24744295
61	0xbe31dd67	-0.17369615
62	0xbdb62603	-0.08893969
63	0xbe8a8a56	-0.27058667
64	0xbd931d54	-0.07183328
65	0xbe7adb41	-0.24497701
66	0xbe7923b2	-0.24330023
67	0xbe1d2067	-0.15344392
68	0xbe625786	-0.221037
69	0xbe63a13d	-0.22229476
70	0xbe23bdaf	-0.15990327
71	0xbeaa3a6c	-0.33247697
72	0xbcf980ad	-0.030456865
73	0x3a74498a	0.00093188195
74	0xbdffb30e	-0.12485324
75	0xbe66f166	-0.22553024
76	0xbe968096	-0.29394978
77	0xbe6d4951	-0.23172499
78	0xbe151132	-0.1455734
79	0xbe07f4c6	-0.13276967
80	0xbd8460f9	-0.064638086
81	0xbe78cf88	-0.24297917
82	0xbd64f25d	-0.055895198
83	0xbe4b663d	-0.1986322
84	0xbe63067b	-0.22170441
85	0xbe77b322	-0.24189427
86	0xbe94d94f	-0.29072043
87	0xbe1bd814	-0.15219146
88	0xbd754a58	-0.059885353
89	0xbdf2834c	-0.11841449
90	0xbdcafa6d	-0.09911046
91	0xbe3a555a	-0.18196622
92	0xbd8b193f	-0.06791925
93	0xbddd30c5	-0.10800318
94	0xbe359abb	-0.17734806
95	0xbe839ec2	-0.2570706
96	0xbe5cdc9c	-0.21568531
97	0xbdbcb327	-0.09213858
98	0xbe8039ed	-0.25044194
99	0xbe3fdbca	-0.18736187
100	0xbe43e33e	-0.19129655
101	0xbe7c5f80	-0.24645805
102	0xbe7be055	-0.24597295
103	0xbdd3e277	-0.10345929
104	0xbd3d9647	-0.046285894
105	0xbd14d5e2	-0.036336787
106	0xbdadb3b8	-0.08481544
107	0xbe338219	-0.17530097
108	0xbe45d7ca	-0.19320598
109	0xbe000802	-0.12503055
110	0xbe3c4841	-0.18386938
111	0xbe291399	-0.16511382
112	0xbd8cd454	-0.06876436
113	0xbde8b97c	-0.11363503
114	0xbe10b360	-0.14130926
115	0xbe28108f	-0.16412567
116	0xbe8b2f7a	-0.2718466
117	0xbe30e693	-0.17275457
118	0xbe1b8ce1	-0.1519046
119	0xbdd67748	-0.1047197
120	0x3c0b2219	0.008492016
121	0xbe451216	-0.1924518
122	0xbe87e74a	-0.26543647
123	0xbe8f47e4	-0.27984536
124	0xbe8f3ab6	-0.2797448
125	0xbe86fbd9	-0.2636402
126	0xbe5305f7	-0.20607744
127	0xbe4338d0	-0.19064641
128	0xbe2feab7	-0.1717938
129	0xbd0733d3	-0.033008408
130	0xbe90a05e	-0.2824735
131	0xbe39002a	-0.18066469
132	0xbc9678e9	-0.018368201
133	0xbe89258e	-0.26786464
134	0xbe4d8e96	-0.20073923
135	0xbdc63241	-0.09677554
136	0xbe0c2b7f	-0.13688467
137	0xbe7cf049	-0.24701037
138	0xbe291a0e	-0.16513845
139	0xbd5f7464	-0.054554358
140	0xbe6e9256	-0.2329801
141	0xbda6dec7	-0.0814796
142	0xbe9e5825	-0.30926624
143	0xbee1380b	-0.4398807
144	0xbea91b65	-0.33028713
145	0xbe3525df	-0.17690228
146	0xbe97dc91	-0.29660466
147	0xbdba5b90	-0.090994954
148	0xbe9e67b1	-0.30938485
149	0xbe874950	-0.2642312
150	0xbe946b67	-0.2898819
151	0xbe448648	-0.19191849
152	0xbe1d0cfb	-0.15336983
153	0xbd37ebc8	-0.044902593
154	0xbe718858	-0.23587167
155	0xbdc03e42	-0.09386875
156	0xbe311c18	-0.17295873
157	0xbe36459d	-0.17799993
158	0xbe89f324	-0.26943314
159	0xbe8d1385	-0.27553955
160	0xbe7e6728	-0.24844038
161	0xbd9cdbd5	-0.07659117
162	0xbe814e96	-0.2525527
163	0xbe85e35e	-0.2615003
164	0xbd9a41e6	-0.075321004
165	0xbe62b788	-0.22140324
166	0xbe09abe4	-0.13444477
167	0xbe2d2efb	-0.16912453
168	0xbe9b9390	-0.3038602
169	0xbe196e57	-0.14983498
170	0xbddc0aba	-0.107442334
171	0xbe071e31	-0.13195111
172	0xbe787804	-0.24264532
173	0xbd8692d5	-0.06570975
174	0xbe23c619	-0.15993537
175	0xbd15c4f2	-0.036564775
176	0xbe157991	-0.14597155
177	0xbdec85a5	-0.11548928
178	0xbe1de917	-0.15420948
179	0xbe126e77	-0.14299951
180	0xbeaa1c61	-0.33224776
181	0xbe9c5939	-0.3053682
182	0xbd42fca8	-0.047604233
183	0xbdd8ac98	-0.10579795
184	0xbe5bcb2f	-0.21464227
185	0xbe32ac5f	-0.17448567
186	0xbd84e303	-0.064886115
187	0xbdd8a587	-0.10578447
188	0xbe2e3870	-0.17013717
189	0xbe1b526d	-0.15168162
190	0xbdb5aede	-0.08871244
191	0xbe11d239	-0.1424035
192	0xbe8dbe04	-0.27684033
193	0xbe2eb91f	-0.17062806
194	0xbcbcbdbe	-0.023039695
195	0xbeae19fd	-0.34004202
196	0xbe20b8fb	-0.15695564
197	0xbdf65e2c	-0.120296806
198	0xbe4740e1	-0.19458343
199	0xbe3e0f5b	-0.18560545
200	0xbe53b745	-0.2067538
201	0xbe82a63e	-0.25517458
202	0xbe7bec95	-0.24601968
203	0xbe2e9159	-0.17047633
204	0xbe5cd514	-0.21565658
205	0xbe825c31	-0.2546096
206	0xbe85e1d5	-0.2614886
207	0xbd2c67ef	-0.042091306
208	0xbc4a2974	-0.012338985
209	0xbe6d38c7	-0.2316619
210	0xbe2e5dc0	-0.1702795
211	0xbd65b92e	-0.056084804
212	0xbe3fbbc0	-0.18723965
213	0xbe8930a2	-0.26794916
214	0xbdbf3d0b	-0.09337815
215	0xbe6d87dd	-0.23196359
216	0xbdd68cd8	-0.104760826
217	0xbde8783f	-0.1135106
218	0xbe7d4f22	-0.24737218
219	0xbdf08042	-0.11743213
220	0xbe5fb909	-0.21847929
221	0xbd319124	-0.043351308
222	0xbe6a8450	-0.22902036
223	0xbdb26327	-0.08710318
224	0xbe3e6ef9	-0.1859702
225	0xbe956448	-0.2917807
226	0xbd68d7b6	-0.056846343
227	0xbd91319e	-0.07089542
228	0xbe55e3c6	-0.2088767
229	0xbe267a1c	-0.16257519
230	0xbcf2ee85	-0.02965475
231	0xbda1c0bd	-0.0789809
232	0xbe10ae59	-0.14129008
233	0xbe5cda47	-0.21567641
234	0xbe8ef284	-0.279194
235	0xbe7a6a33	-0.24454574
236	0xbdd51b03	-0.10405543
237	0xbdf59536	-0.1199135
238	0xbe71f2c1	-0.2362776
239	0xbbaf1dc2	-0.0053441236
240	0xbe3bc937	-0.18338476
241	0xbe831fd4	-0.2561022
242	0xbe81465a	-0.25248986
243	0xbe6d73b6	-0.23188671
244	0xbebe5445	-0.37173668
245	0xbe768456	-0.2407392
246	0xbeb835e6	-0.3597862
247	0xbe41d41e	-0.18928573
248	0xbde00139	-0.10937733
249	0xbeb03209	-0.34413174
250	0xbe1d1e4f	-0.15343593
251	0xbe5ba3a3	-0.21449141
252	0xbda1fc13	-0.079094075
253	0xbe2248ed	-0.15848131
254	0xbe90a237	-0.2824876
255	0xbe5f5511	-0.21809794

model.4.weight f4 [252, 256]
0	0x3d29edfa	0.041486718
1	0xbebb09a8	-0.36530805
2	0xbe8c35c5	-0.27384773
3	0xbe23ca3b	-0.15995114
4	0xbd824fdb	-0.063628875
5	0x3d974921	0.07386995
6	0xbae5fdfd	-0.0017547008
7	0xbe1dc93e	-0.15408799
8	0x3df0dc8b	0.11760815
9	0x3e381151	0.17975356
10	0x3d9bf1cd	0.07614479
11	0xbdc1f3a2	-0.094702974
12	0x3ddc2626	0.10749464
13	0x3e45e73c	0.1932649
14	0xbd9f2805	-0.07771305
15	0xbd86ea02	-0.06587602
16	0xbe0ce798	-0.13760221
17	0x3e930da3	0.28721341
18	0x3e23d2a5	0.15998323
19	0x3b3568b3	0.0027680814
20	0xbe049a75	-0.12949546
21	0xbe3067ef	-0.17227148
22	0xbd9a0341	-0.07520152
23	0xbdb4e695	-0.088330425
24	0xbd9ec3fa	-0.07752223
25	0xbc1e49bc	-0.009661134
26	0xbc75fc99	-0.015013837
27	0x3d00352d	0.031300712
28	0x3e2645e7	0.16237603
29	0x3d37a1b4	0.044831946
30	0x3e1deab7	0.15421568
31	0x3c1857fd	0.009298322
32	0x3e5bcf64	0.21465832
33	0x3d1a9dbd	0.037748087
34	0x3e2debcc	0.1698448
35	0xbd5c4d31	-0.053784553
36	0x3e3af55e	0.18257663
37	0x3e608999	0.2192749
38	0xbd36561a	-0.044515707
39	0xbe4606bd	-0.19338508
40	0xbcdab140	-0.026695848
41	0xbe900f5e	-0.28136724
42	0x3e4acca5	0.19804628
43	0x3d964533	0.073374175
44	0xbea4d48c	-0.3219341
45	0x3d57fccc	0.05273132
46	0x3e4c833f	0.19971941
47	0xbe7a090d	-0.24417515
48	0xbdb91199	-0.090365596
49	0xbd162257	-0.036653843
50	0x3db5d8d7	0.088792495
51	0xbe6132a8	-0.2199198
52	0xbdef7d71	-0.11693848
53	0x3ea7a1eb	0.3274072
54	0x3e931b8b	0.2873195
55	0xbd3d4ab3	-0.046213817
56	0xbe8bfa8e	-0.27339596
57	0x3d6d1468	0.05788079
58	0xbe0d7919	-0.13815726
59	0x3e3379f3	0.17526989
60	0xbe9ed795	-0.3102385
61	0xbe08bd55	-0.13353474
62	0x3e1307ec	0.1435849
63	0x3e11f5c9	0.14253916
64	0xbe930c06	-0.2872011
65	0x3e4f5eef	0.20251058
66	0x3e9b7f40	0.30370522
67	0x3e28294e	0.16422006
68	0x3d9af4fb	0.075662576
69	0x3b784472	0.0037882593
70	0x3e860186	0.26173037
71	0x3e823796	0.25433034
72	0x3e300c19	0.17192115
73	0x3d82052b	0.06348642
74	0x3d510702	0.051032074
75	0x3eefb666	0.46818846
76	0x3e4ca2cd	0.19983979
77	0x3e589950	0.21152234
78	0xbd978e66	-0.07400207
79	0x3dc87f29	0.09789879
80	0x3e61614d	0.22009774
81	0x3bfdaa3e	0.0077412417
82	0x3e939775	0.2882649
83	0xbe0a90ab	-0.13531749
84	0xbd91ca79	-0.07118697
85	0x3cd768ed	0.02629515
86	0xbd8d8fba	-0.06912179
87	0xbdf76d49	-0.12081391
88	0x3ddafb92	0.106925145
89	0xbd1bfd88	-0.038083583
90	0xbe88f4e2	-0.2674933
91	0x3c01c231	0.007919834
92	0xbdd3003e	-0.103027806
93	0xbd0f41b7	-0.03497478
94	0x3bd7a6e5	0.0065811747
95	0xbd9072c7	-0.07053142
96	0xbdb116c9	-0.08646924
97	0x3e19e465	0.15028532
98	0x3dd37e7a	0.10326858
99	0xbdc5b05f	-0.09652781
100	0xbd69d235	-0.057085235
101	0xbe01f53d	-0.12691207
102	0x3d836b4f	0.06416952
103	0x3c8c7fd7	0.017150803
104	0x3d006e3a	0.03135512
105	0xbcf078ed	-0.029354537
106	0xbe51a96f	-0.2047479
107	0x3dc3659e	0.09540866
108	0x3ee292ad	0.4425253
109	0xbc6d225c	-0.014473524
110	0xbec8846c	-0.3916353
111	0x3e021687	0.12703906
112	0xbe970156	-0.29493207
113	0xbccf233d	-0.025285358
114	0xbd84fc51	-0.06493438
115	0x3e561cae	0.20909378
116	0xbe2b2673	-0.16713886
117	0x3db3a3a0	0.08771443
118	0xbc959b06	-0.018262397
119	0xbc8f9f88	-0.017532125
120	0x3ea85bed	0.32882634
121	0x3994fabb	0.00028415569
122	0x3dc80af6	0.09767716
123	0xbde51693	-0.11185946
124	0x3e39024c	0.18067282
125	0xbe49c595	-0.19704278
126	0xbd161a6a	-0.036646284
127	0xbe2ec98b	-0.1706907
128	0xbdbdbdac	-0.09264693
129	0x3e26256e	0.16225216
130	0xbe01c6c9	-0.12673487
131	0xbd500b41	-0.050791983
132	0xbd0fb09d	-0.03508054
133	0x3bf7c805	0.007561686
134	0x3ce15472	0.027506087
135	0xbd31508a	-0.0432897
136	0xbe7aa0b6	-0.24475369
137	0x3e31699a	0.1732544
138	0x3e421961	0.18954994
139	0x3bd363cc	0.0064511057
140	0xbdb91751	-0.090376504
141	0x3e790d7d	0.24321552
142	0xbebd949d	-0.37027445
143	0x3e3e9815	0.18612702
144	0x3d1e19d1	0.03859884
145	0x3de24991	0.11049188
146	0x3c7b14b7	0.015324763
147	0xbea1d1a6	-0.31605262
148	0x3e6f2d95	0.23357232
149	0x3dd42c36	0.10359995
150	0xbda0cc1d	-0.078514315
151	0xbe5a32aa	-0.2130839
152	0x3d209145	0.03920104
153	0xbe0989e4	-0.13431507
154	0xbddbe51b	-0.10737058
155	0xbdab7ff1	-0.08374012
156	0xbe775674	-0.24154073
157	0x3da21b32	0.07915343
158	0x3df3965d	0.11893914
159	0xbe90f924	-0.2831508
160	0xbe64852d	-0.22316428
161	0xbcc0fa00	-0.02355671
162	0xbedd1e06	-0.4318697
163	0xbd82e0eb	-0.06390556
164	0x3da80549	0.08204133
165	0xbe10d8fb	-0.14145271
166	0xbe967c43	-0.2939168
167	0x3e5929c7	0.21207343
168	0x3e8d1aeb	0.275596
169	0xbe2e47a4	-0.17019516
170	0xbd9f0831	-0.07765234
171	0xbd9332eb	-0.07187446
172	0xbe86be94	-0.26317275
173	0x3de35561	0.11100269
174	0xbe2b360e	-0.16719839
175	0x3e8a5b64	0.2702285
176	0x3c1210cc	0.0089151375
177	0x3e45c670	0.19313979
178	0xbdcf0778	-0.101088464
179	0x3cb6f396	0.022332948
180	0x3e1bb279	0.152048
181	0xbde64147	-0.112429194
182	0x3d8052c7	0.062657885
183	0x3e18d719	0.14925803
184	0x3cba1849	0.022716658
185	0x3bcd2c65	0.0062613958
186	0xbd54acff	-0.051922794
187	0x3c4d1ddd	0.012519327
188	0xbe8a02c7	-0.26955244
189	0x3e19ed70	0.15031981
190	0xbe32c38c	-0.17457408
191	0x3e83cf0d	0.25743905
192	0xbdb3ffa2	-0.087889925
193	0xbda7124a	-0.08157785
194	0x3ccf561c	0.025309615
195	0xbea740b5	-0.32666555
196	0x3e28f35c	0.16499084
197	0xbe22ef63	-0.15911631
198	0x3e434e42	0.19072822
199	0x3d8ff1c8	0.07028538
200	0xbde85c05	-0.11345676
201	0xbe04ed71	-0.12981202
202	0x3d5c249f	0.053745862
203	0xbd18b6ce	-0.03728371
204	0xbd9dbada	-0.07701655
205	0xbbaa71fe	-0.005201577
206	0x3bcf6dcc	0.0063302275
207	0xbeacbbbd	-0.33736983
208	0xbd553316	-0.052050672
209	0x3db360ed	0.087587215
210	0xbd3bc6fc	-0.045844063
211	0x3eda4615	0.42631593
212	0xbefa5bd5	-0.48898187
213	0x3e8862c0	0.2663784
214	0x3e4f0672	0.20217302
215	0x3d89b940	0.06724787
216	0x3d876049	0.06610162
217	0x3da4a682	0.08039571
218	0x3d241902	0.04006291
219	0xbc249a39	-0.010046535
220	0xbdcbc8c0	-0.099503994
221	0x3e400576	0.18752083
222	0x3dd97bf1	0.10619343
223	0x3d2096ab	0.03920619
224	0xbe06b7af	-0.13156007
225	0xbd2ce491	-0.042210165
226	0xbe07118c	-0.13190287
227	0x3d4a2173	0.049348306
228	0x3da63613	0.081157826
229	0xbef1838b	-0.47170672
230	0x3e48276c	0.19546288
231	0xbe8f53a0	-0.27993488
232	0xbe7cf851	-0.247041
233	0x3eb4a22c	0.35279977
234	0x3aacf412	0.0013195297
235	0xbeca6da9	-0.3953679
236	0x3e358832	0.17727736
237	0x3be704ed	0.0070501477
238	0x3cfe6063	0.03105182
239	0x3e064500	0.13112259
240	0x3db7c909	0.08973891
241	0xbe00cb0e	-0.12577459
242	0x3e19d1b5	0.15021403
243	0xbe4b67c2	-0.19863799
244	0xbe993f36	-0.2993104
245	0xbec8f319	-0.3924797
246	0x3d9e550f	0.077310674
247	0xbd4072a3	-0.046984326
248	0xbed397c1	-0.41326717
249	0xbdbc0805	-0.09181217
250	0x3de4203e	0.11138962
251	0x3e2ad5bb	0.16683094
252	0x3ae6332b	0.0017562857
253	0x3e3a6f40	0.18206501
254	0x3e723234	0.23651963
255	0xbda6ad88	-0.08138567

model.4.bias f4 [252]
0	0xba671a5c	-0.00088158785
1	0x3cc03fc8	0.023467913
2	0xbdce5032	-0.1007389
3	0xbd5b09b8	-0.053476065
4	0xbc3cb7b1	-0.011518405
5	0x3dd9f7a2	0.10642935
6	0xbd01fd6f	-0.031735834
7	0x3d4df21b	0.050279718
8	0x3c587f15	0.0132138925
9	0x38bebd70	9.0951915e-05
10	0xbdd0d5a4	-0.10196999
11	0xbdbf6027	-0.093445115
12	0x3d473024	0.048629895
13	0xbb6b2bf8	-0.0035884362
14	0x3c97474e	0.018466618
15	0x3d5fe635	0.054662902
16	0x3d4aba2c	0.049493954
17	0x3c2ccac5	0.010546391
18	0xbd107895	-0.035271246
19	0x3d810065	0.062989034
20	0x3ab0ed4d	0.0013498456
21	0x3c5d9712	0.0135247875
22	0xbd0f1b2e	-0.03493803
23	0x3cc139ab	0.023587069
24	0x3b42672e	0.002966355
25	0x3c99d514	0.018778361
26	0x3b9bb900	0.0047522783
27	0x3cd860a3	0.026413267
28	0xbb89df3d	-0.0042075203
29	0x3bf723d8	0.0075421147
30	0x3ceda5f5	0.029009799
31	0xbc16da49	-0.009207317
32	0xbc24c1a3	-0.010055932
33	0xbcd3b86f	-0.02584478
34	0xbd6aae66	-0.057295226
35	0xbd0f96da	-0.035055973
36	0xbc29bf12	-0.010360496
37	0xbc97394b	-0.018459937
38	0x3c8d6bb5	0.017263273
39	0xbc8d88be	-0.017277118
40	0x3bd10476	0.0063787056
41	0xbcdc4388	-0.02688767
42	0x3716d840	8.991046e-06
43	0x3d6d72a3	0.057970654
44	0x3b57665c	0.0032867407
45	0xbd096786	-0.033545993
46	0x3c7ffd95	0.0156244235
47	0xbc6450cf	-0.013935282
48	0x3c31f2e5	0.010861133
49	0xbb38c17e	-0.0028191502
50	0x3d23a2b1	0.039950076
51	0xbc8307a8	-0.015994862
52	0xbd0623c4	-0.032748953
53	0x3a958cef	0.0011409799
54	0x3bf75881	0.0075483923
55	0x3c9001fa	0.017579067
56	0x3c0070fa	0.007839436
57	0x3c84129c	0.016122155
58	0x3c3f787b	0.01168644
59	0xbc29a298	-0.010353707
60	0x3c5d0773	0.013490546
61	0xbd1cf2c1	-0.038317446
62	0x3cf7f3bb	0.030267587
63	0xbb5e3deb	-0.0033911418
64	0xbbe3425a	-0.0069354
65	0x3c8a5605	0.01688672
66	0xbd35f98f	-0.04442745
67	0xbbb203b4	-0.0054325704
68	0x3c807e33	0.015685176
69	0x3d157de2	0.036497004
70	0xbc51fde6	-0.012816882
71	0xbc8827a5	-0.016620466
72	0xbc8ae016	-0.016952556
73	0x3d432e25	0.04765143
74	0x3cad6fdd	0.021171505
75	0xbcad75ef	-0.0211744
76	0xbba99a84	-0.0051758904
77	0xbc34a91a	-0.011026645
78	0xbc931bcd	-0.017957592
79	0xbc884268	-0.016633227
80	0x3cda912d	0.026680553
81	0x3a83b388	0.0010048011
82	0xbc08bac4	-0.00834531
83	0xbd360ffa	-0.04444883
84	0x3c564f68	0.013080455
85	0xbcb409cc	-0.021977328
86	0x3ce0b50f	0.027430085
87	0x3d32b24e	0.043627076
88	0x3c5e3557	0.013562522
89	0xbc2a6bd8	-0.0104016885
90	0xbcc0d3fd	-0.023538584
91	0x3c741bd6	0.014899215
92	0xbcd31f19	-0.025771664
93	0x3c1532f6	0.009106388
94	0xbd268251	-0.040651623
95	0xbc08c840	-0.008348525
96	0x3cec6226	0.028855395
97	0xbcb6b4ad	-0.02230295
98	0x3c708c54	0.014681894
99	0x3cd8a2bd	0.026444787
100	0x3d7e0b5e	0.06202256
101	0xbad72056	-0.0016412835
102	0x3cb4dd59	0.022078203
103	0x394cd134	0.0001953289
104	0x3caee9eb	0.021351775
105	0x3cfe25cc	0.031023882
106	0x3d5078e6	0.050896548
107	0x3d3ec040	0.046570063
108	0x3c89e255	0.016831556
109	0x3e004837	0.12527548
110	0x3d57c995	0.052682478
111	0xbc0e7931	-0.0086958865
112	0x3cdeaed0	0.027182966
113	0x3c2ff3e6	0.010739302
114	0xbb7caf84	-0.0038556764
115	0x3d5f597f	0.05452871
116	0xbd36cdae	-0.044629745
117	0xbcbd9c0f	-0.023145704
118	0x3c0b767b	0.008512135
119	0x3be88cec	0.0070968773
120	0x3c42d177	0.011890761
121	0xbb46f2ad	-0.0030357048
122	0xba2faae0	-0.00067011826
123	0xbc1381bc	-0.009003099
124	0x3d0849a6	0.03327336
125	0xbd0416a1	-0.032248143
126	0x3ce83a80	0.028348207
127	0xba67b668	-0.00088391313
128	0xbb91ce73	-0.0044496595
129	0x3b48411c	0.0030556386
130	0x3cdb1ec3	0.026748067
131	0xbc9b0a48	-0.0189258
132	0xbc191c50	-0.009345129
133	0x3ba1c3e0	0.00493668
134	0xbb65ee84	-0.0035084793
135	0x3cde0a78	0.027104601
136	0x3ca62159	0.020279573
137	0x3d283af3	0.041071843
138	0x3c7ff212	0.015621679
139	0x3d3e1a4d	0.0464118
140	0xbc20460b	-0.009782325
141	0x3c81a07f	0.0158236
142	0x3c077964	0.008268688
143	0x3cf16828	0.02946861
144	0x3d18d5fc	0.037313446
145	0xbd558b22	-0.05213464
146	0x3c705277	0.014668099
147	0x3cf0ab0d	0.029378438
148	0xbc8f41b2	-0.01748738
149	0x3b246420	0.0025084093
150	0x3c440a68	0.011965372
151	0x3bd7855c	0.006577177
152	0xbcd2ea44	-0.025746472
153	0xbc23e9f6	-0.010004511
154	0xbc976ffa	-0.018486012
155	0xbd812290	-0.063054204
156	0x3c239d88	0.009986289
157	0xbc522a03	-0.012827399
158	0xbcee620e	-0.02909949
159	0x3c715f8a	0.014732251
160	0xbcc18afc	-0.023625843
161	0xbcd875e1	-0.026423397
162	0xbc96be4d	-0.01840129
163	0xbd7ea2dd	-0.062167037
164	0x3bb5c74f	0.005547441
165	0xbd075958	-0.03304419
166	0xbae5cfcc	-0.0017533242
167	0xbd980874	-0.07423487
168	0x3ca37688	0.019953981
169	0xbcf64a6a	-0.03006478
170	0x3c97fc3e	0.018552896
171	0xbce02bc9	-0.027364628
172	0x3ceca4dc	0.028887205
173	0x3cf311ca	0.029671568
174	0x3d0aa8da	0.033852436
175	0xbcb135cb	-0.021632096
176	0x3afd2be8	0.0019315453
177	0xbcfa701a	-0.030571032
178	0xbcf86555	-0.030321756
179	0x3bb56e20	0.0055368096
180	0xbcab96a8	-0.020945862
181	0x3c9ab269	0.0188839
182	0x3c6f5141	0.014606775
183	0xbccc1238	-0.024911031
184	0x3cc3621f	0.023850499
185	0xbcc78d85	-0.024359474
186	0x3cd99bb0	0.026563495
187	0x3cba17ff	0.02271652
188	0x3c585c20	0.013205558
189	0xba8a638f	-0.0010558235
190	0xbca538fc	-0.020168774
191	0xbc1d7aed	-0.009611827
192	0xbbeb2e30	-0.007177137
193	0x3bd82d55	0.006597201
194	0xbcba8f97	-0.022773547
195	0x3c9e41c1	0.019318463
196	0xbb72122f	-0.0036937108
197	0xbc109801	-0.008825303
198	0x3d32a04e	0.04360991
199	0xbd1e0252	-0.03857643
200	0xbcefa666	-0.02925415
201	0xbd4f0773	-0.050544214
202	0x3c0ce94b	0.008600543
203	0xbd68ba88	-0.056818515
204	0x3ac32fe6	0.0014891594
205	0xbd2ef17f	-0.042710777
206	0x3b1b0313	0.0023652955
207	0xbcb84daf	-0.02249798
208	0x3c29c333	0.0103614805
209	0x3bfd7848	0.007735286
210	0xbcf900ae	-0.030395832
211	0xbcdf90d1	-0.027290734
212	0xbbc0ced3	-0.0058840304
213	0x3c23bfa3	0.00999442
214	0xbc2bc895	-0.010484834
215	0x3bcd6a90	0.0062688068
216	0x3cbe5b3e	0.023236867
217	0xbc772232	-0.015083836
218	0xbc301efe	-0.010749577
219	0x3d04547e	0.03230714
220	0x3cb2c4d0	0.021822363
221	0xbcca677b	-0.024707546
222	0x3b0f0fc5	0.0021829468
223	0xbcd9bf1e	-0.02658039
224	0xbccb8f94	-0.024848737
225	0x3cd5cecd	0.026099587
226	0x3cba5947	0.022747649
227	0x3ba076f6	0.0048969937
228	0x3d61b049	0.05509976
229	0xbc8da893	-0.017292297
230	0xbcb9ab94	-0.022664823
231	0x3c73766c	0.014859777
232	0x3b67c72f	0.0035366525
233	0xbc5f92af	-0.013645812
234	0xbce0dfb7	-0.027450426
235	0xbb0d86fe	-0.0021595354
236	0x3c1e7314	0.009670991
237	0x3be3aa71	0.0069478084
238	0xbc784b2b	-0.01515464
239	0xbc8fe430	-0.017564863
240	0x39332940	0.00017086137
241	0x3b839918	0.004016053
242	0xbcc67dc7	-0.024229897
243	0xbcf67408	-0.030084625
244	0xbb697847	-0.003562467
245	0x3a847459	0.0010105475
246	0xbc37c976	-0.011217466
247	0x3d04f4d1	0.032460038
248	0x3c8b79dc	0.01702588
249	0x3d237804	0.039909378
250	0xbcb68ee9	-0.022284942
251	0x3c1e256d	0.009652478
