generator_gan_br_lstm.pth (torch, 162856 bytes, 7 tensors)

input_proj.weight f4 [64, 101]
0.0137554845 0.09638974 -0.07149291 0.2880793 0.23800819 0.10352561 -0.03421205 0.07747745
-0.049812593 -0.14886558 -0.19477433 0.0069371 -0.16130476 -0.009665104 0.55771536 -0.12423362
-0.13015842 0.38875186 -0.019837594 -0.005089984 -0.38616133 0.011925607 0.15348092 0.099452645
0.19102651 0.24525599 -0.053914372 0.10091443 -0.14077142 -0.1491514 -0.081760496 0.1614247
-0.23506601 -0.03602099 0.02615308 -0.9117351 -0.29529864 0.09413358 -0.17234254 -0.058439925
-0.0010550496 0.055147547 -0.03621732 -0.044101067 0.21863489 0.076741725 -0.26609924 0.05214588
0.42373782 0.091843575 -0.3714347 -0.12810372 -0.09144197 0.11116661 0.034658253 -0.068086065
-0.12898757 -0.23489705 -0.07066007 0.030073777 -0.060856674 0.0376541 -0.19762334 -0.09426115
0.044836864 0.110159606 -0.047891878 0.30516425 0.15094301 -0.23263256 -0.3960428 0.012218255
0.11358532 0.04379261 0.00719776 -0.104425624 0.74609095 -0.002437891 -0.15470715 0.5456619
0.08184187 -0.017811643 -0.05628351 -0.011076886 0.047003526 0.1436778 -0.23737946 0.0874631
-0.1939315 0.18013704 0.1700222 0.14616391 0.06865413 0.17325886 -0.31051937 0.10831194
0.15991582 0.071811534 -0.006332179 0.35993627 0.1742817 0.049340352 -0.20482005 0.08349461
0.25057954 0.018844992 -0.29835084 0.27794948 0.018564226 -0.012326618 0.07787235 0.011953533
-0.10534774 0.28106815 0.108156584 -0.108774014 0.2541411 0.06417701 0.2262422 0.11620266
0.024428623 0.021938672 -0.24835263 -0.20740297 0.20865986 -0.22081894 0.14841971 0.05994549
0.084508725 -0.31596485 -0.14471464 0.117307276 0.2189437 0.16238533 -0.097422495 -0.23320928
0.15875888 -0.11364306 0.05970516 0.17961995 -0.148872 -0.19342837 -0.26520273 0.18268616
0.16620868 0.20232701 -0.2708435 -0.09641304 -0.10076044 0.012392593 -0.10536501 -0.23951866
-0.11445 0.19146319 -0.085723825 -0.10742178 0.27694857 -0.09126109 0.24478106 -0.0747054
-0.26305038 0.16465782 -0.16087511 -0.022266893 -0.0030995335 0.33108285 -0.04499716 0.07529368
0.34467348 -0.3429511 -0.06382532 -0.41441223 -0.12562373 0.022080215 0.28270754 0.06238933
0.20128554 -0.30311477 -0.2614584 0.23887393 -0.19263993 -0.2399962 0.2005904 -0.09683117
-0.026440797 0.19777495 0.19829153 -0.08000318 0.22642067 -0.13337499 0.01848982 -0.02159881
-0.037575904 -0.032317154 0.10649842 0.13460201 -0.07644726 0.00801074 0.3725593 0.068453684
-0.0442712 0.10975005 -0.12879962 -0.034237724 0.218708 -0.19138494 -0.4360785 -0.20365432
0.17176674 -0.34149766 0.17796162 -0.10830511 -0.21756229 -0.06811455 0.37510678 -0.033861663
-0.39438462 0.03864923 -0.21110556 -0.1370628 0.022013139 -0.07730238 0.15253295 0.0674639
-0.027859323 -0.11736669 -0.27975854 -0.05485698 0.090437375 -0.10139655 0.13237013 -0.011300634
-0.05247988 0.031565636 -0.08667566 0.19351406 -0.046079256 0.52653545 0.103078805 -0.07639931
-0.0029863205 -0.04344006 -0.23973227 0.012911452 -0.016953973 0.025293123 -0.11895265 0.27109176
0.24035545 -0.20754224 -0.22362092 -0.045549266 0.28339806 -0.12772866 -0.15387301 0.025726743
00000000: af5e 613c fc67 c53d e06a 92bd 217f 933e
00000010: 6bb8 733e 3c05 d43d ef21 0cbd 7fac 9e3d
00000020: 4a08 4cbd 3870 18be ec72 47be 9d50 e33b
00000030: 132d 25be 625a 1ebc 6fc6 0e3f 326e febd
00000040: 4048 05be 7c0a c73e 7382 a2bc e1c9 a6bb
00000050: f0b6 c5be 9f63 433c 1a2a 1d3e d4ad cb3d
00000060: 749c 433e 6324 7b3e 51d5 5cbd 3aac ce3d
00000070: 6226 10be 25bb 18be 0c72 a7bd 844c 253e
00000080: 25b5 70be bf8a 13bd fc3e d63c 7967 69bf
00000090: 6231 97be 1bc9 c03d 907a 30be b45e 6fbd
000000a0: 9749 8aba 65e2 613d 9d58 14bd 52a3 34bd
000000b0: d3e1 5f3e c42a 9d3d 293e 88be eb96 553d
000000c0: 2af4 d83e 7c18 bc3d b02c bebe 9f2d 03be
000000d0: ed45 bbbd 52ab e33d d0f5 0d3d b570 8bbd
000000e0: 5115 04be da88 70be 3ab6 90bd 485d f63c
000000f0: d944 79bd 303b 1a3d c65d 4abe fd0b c1bd
00000100: dca6 373d 5c9b e13d 462a 44bd 7d3e 9c3e
00000110: ce90 1a3e 3b37 6ebe 1fc6 cabe 132f 483c
00000120: 6c9f e83d e15f 333d 30db eb3b 1add d5bd
00000130: d1ff 3e3f 06c5 1fbb 8d6b 1ebe 80b0 0b3f
00000140: b69c a73d b9e9 91bc 8a89 66bd d47b 35bc
00000150: c586 403d 4620 133e 9a13 73be db1f b33d
00000160: fb95 46be d875 383e 4d1a 2e3e feab 153e
00000170: 899a 8c3d c56a 313e 65fc 9ebe a7d2 dd3d
00000180: f9c0 233e ed11 933d 2b7e cfbb 9149 b83e
00000190: e776 323e 1c19 4a3d 59bc 51be 39ff aa3d
000001a0: f64b 803e d060 9a3c 71c1 98be 654f 8e3e
000001b0: 0114 983c 95f5 49bc 8a7b 9f3d c0d8 433c
000001c0: 8ec0 d7bd 2ae8 8f3e 3381 dd3d e9c4 debd
000001d0: c81e 823e 3c6f 833d 09ac 673e a9fb ed3d
000001e0: 891e c83c bbb8 b33c 2750 7ebe 7261 54be
000001f0: eeaa 553e 5c1e 62be 56fb 173e 6789 753d
00000200: e912 ad3d 25c6 a1be 1330 14be cc3e f03d
00000210: c732 603e 5748 263e 7285 c7bd 6ace 6ebe
00000220: b091 223e b1bd e8bd 668d 743d 4bee 373e
00000230: e771 18be 1612 46be a7c8 87be 1512 3b3e
00000240: 9c32 2a3e d02e 4f3e 00ac 8abe 3374 c5bd
00000250: 7d5b cebd 4d0a 4b3c 9cc9 d7bd 6144 75be
00000260: c364 eabd ed0e 443e f98f afbd f3ff dbbd
00000270: 34cc 8d3e 18e7 babd e3a7 7a3e 25ff 98bd
00000280: 8aae 86be 0f9c 283e 72bc 24be 0f69 b6bc
00000290: 8b21 4bbb b183 a93e f14e 38bd 9333 9a3d
000002a0: 0b79 b03e 4997 afbe d9b6 82bd d72d d4be
000002b0: 82a3 00be 91e1 b43c 0bbf 903e f48b 7f3d
000002c0: cc1d 4e3e dc31 9bbe e0dd 85be 5e9b 743e
000002d0: 6743 45be 90c1 75be 9267 4d3e 6c4f c6bd
000002e0: 5f9a d8bc 8485 4a3e ef0c 4b3e b5d8 a3bd
000002f0: d2da 673e 7493 08be f777 973c fdef b0bc
00000300: 31e9 19bd fe5e 04bd d81b da3d 1cd5 093e
00000310: 6290 9cbd 7b3f 033c 18c0 be3e 7231 8c3d
00000320: b855 35bd a2c4 e03d 0ce4 03be db3c 0cbd
00000330: fdf4 5f3e 6afa 43be ae45 dfbe c28a 50be
00000340: 9fe3 2f3e c8d8 aebe 923b 363e 12cf ddbd
00000350: a6c8 5ebe a47f 8bbd ff0d c03e 87b2 0abd
00000360: c8ec c9be a84e 1e3d 0e2c 58be 315a 0cbe
00000370: e654 b43c b650 9ebd 9931 1c3e 832a 8a3d
00000380: 3c39 e4bc f25d f0bd 833c 8fbe b6b1 60bd
00000390: 3b37 b93d ffa8 cfbd 098c 073e 4b26 39bc
000003a0: 25f5 56bd f84a 013d 0283 b1bd 8d28 463e
000003b0: 9abd 3cbd 07cb 063f fb1a d33d 3e77 9cbd
000003c0: 25b6 43bb 34ee 31bd 607c 75be 8e8a 533c
000003d0: 0fe3 8abc 8633 cf3c 729d f3bd 8acc 8a3e
000003e0: bd1f 763e f485 54be e2fc 64be de91 3abd
000003f0: 8d19 913e 4dcb 02be e390 1dbe e4c0 d23c

input_proj.bias f4 [64]
0.6433975 0.1478666 -0.22419108 -0.35755616 0.16542332 -0.6373227 -0.70050853 -0.45152643
0.035598703 0.22293359 -0.46353108 0.55667835 0.29164988 0.26278457 0.46465304 -1.0163627
0.06369227 -0.19983086 -0.50289625 0.21470228 0.46662137 0.6009529 0.26148796 -0.71070784
-0.49081093 -0.1466057 0.3835043 -0.41653863 -0.56990755 -0.31086585 0.803438 0.16900924
0.9032756 0.32250267 -0.6772684 -0.6817399 -0.8923587 0.082601644 0.22033235 -0.64574873
0.10063004 -0.670412 0.8296048 -0.15637927 0.4488228 -0.422143 -0.60453314 -0.64971155
0.4896838 -0.7093547 -0.6287816 0.014978854 -0.3573753 0.6132826 -0.979668 0.55396354
-0.23300263 0.06152828 -0.7074605 -0.28195214 0.28687966 -0.31827042 -0.4287549 -0.4818217
00000000: b3b5 243f 586a 173e 5992 65be 9a11 b7be
00000010: bb64 293e 9527 23bf 8754 33bf 792e e7be
00000020: f2cf 113d b448 643e f253 edbe 7982 0e3f
00000030: 2253 953e b38b 863e 01e7 ed3e 2c18 82bf
00000040: 1871 823d 76a0 4cbe cfbd 00bf eada 5b3e
00000050: ffe8 ee3e 0dd8 193f c0e1 853e f3f0 35bf
00000060: 924b fbbe ce1f 16be ad5a c43e 8d44 d5be
00000070: 76e5 11bf cf29 9fbe 1dae 4d3f c210 2d3e
00000080: 123d 673f 121f a53e 7661 2dbf 8286 2ebf
00000090: 9f71 64bf 0d2b a93d ce9e 613e ca4f 25bf
000000a0: 1f17 ce3d 1fa0 2bbf fb60 543f e321 20be
000000b0: 1acc e53e 2123 d8be afc2 1abf 7f53 26bf
000000c0: d6b7 fa3e 4598 35bf d5f7 20bf de69 753c
000000d0: e5f9 b6be 1700 1d3f 86cb 7abf 8ed0 0d3f
000000e0: 3e98 6ebe 1405 7c3d 221c 35bf 085c 90be
000000f0: e4e1 923e 57f4 a2be c385 dbbe 55b1 f6be

lstm.weight_ih_l0 f4 [256, 64]
0.24927996 0.15399484 -0.4122344 0.14451867 0.31329188 -0.049778152 -0.06851319 -0.09273717
0.045771256 -0.08530954 -0.20115355 -0.17638224 0.12013609 0.13549703 0.068821415 -0.4223856
-0.15092683 -0.18433587 -0.09822038 0.05783738 -0.015646074 0.2852061 -0.21870852 -0.29321986
-0.2179425 -0.03085286 0.08800165 0.11834771 -0.08993248 0.13199341 0.08252538 0.13667224
0.22381802 0.28567016 -0.07510676 -0.04341355 0.3197725 0.35944134 0.43476263 -0.04047912
-0.23995174 -0.012680177 0.32000393 -0.07479626 0.05173445 0.08036931 0.11312104 -0.40011242
0.1785077 -0.01582905 0.22359842 -0.18893933 -0.07426307 -0.12688036 -0.01605462 -0.05162263
0.28370896 0.2239599 0.058155473 -0.44832006 0.33427355 -0.031007888 0.3125958 -0.21562451
-0.1288769 0.019456308 0.131701 0.00788442 -0.09856093 -0.10390574 0.052362993 0.13015541
0.15386988 -0.030301996 -0.12356125 0.2211474 0.019758394 0.07660829 -0.1417355 -0.014567702
-0.1526482 0.13854788 -0.22166882 -0.1903231 -0.08254198 -0.055916086 0.040178444 0.17706509
-0.05361305 -0.011041431 -0.12569395 -0.025824381 0.11701549 -0.02305466 -0.09801869 0.10392641
-0.004971678 0.15036577 -0.11150454 -0.08589657 -0.13220486 -0.026939685 -0.11681372 0.107750684
0.0009888525 0.16305286 -0.17236133 0.062677264 -0.12509945 -0.034289822 0.05453343 -0.07418351
-0.0047119567 0.02923793 0.19093378 -0.029158337 -0.19376686 0.005750539 -0.10628274 -0.15761563
0.037399024 0.0016095021 0.2121489 0.05778266 0.033819236 -0.29507124 0.051673163 0.2742125
0.05998449 -0.17261504 0.19867048 0.08233244 -0.28982592 -0.12506518 0.20606123 0.39622945
0.23834297 -0.32820535 0.071527876 -0.4482144 -0.35471275 -0.18143982 -0.14438099 0.039237645
0.122586496 0.12008762 0.00366305 -0.07677999 0.10437967 -0.13048124 0.14860557 0.24666312
0.1350514 0.16931868 -0.10259305 -0.038913697 0.17096317 0.28898057 -0.12974335 -0.109424576
-0.26988196 -0.09227612 0.22970848 0.35234252 0.41480216 -0.13443415 -0.30646437 0.07875715
0.2529463 0.10612726 -0.2133023 -0.2234664 -0.19876517 0.251111 0.080192156 0.23138407
-0.24206842 -0.08431478 -0.05563448 -0.2119047 -0.06413562 0.0016765848 0.024586562 -0.17871743
0.032583695 0.116068095 0.07358177 0.3551582 -0.093347035 0.04239483 -0.10530667 -0.15716968
0.14138179 0.11507088 0.19054735 0.09036943 0.04008842 0.21105611 -0.25418055 -0.3720948
0.049488105 0.035046272 -0.33947757 0.15548106 0.49467137 -0.24959596 -0.018099213 -0.051532604
0.06748108 0.009279451 -0.12490422 -0.005280418 0.2108831 0.14125201 0.24143973 -0.22787605
-0.06287065 0.053867992 -0.28144678 0.16848665 -0.02890609 -0.18202135 -0.33075398 0.069611035
0.17741935 0.16344362 0.0671839 0.14362457 0.14577228 0.10892419 -0.027881352 0.15991704
-0.10276898 -0.006527305 0.17258985 0.32631242 -0.32006514 -0.12586321 0.21382143 0.040276043
-0.05726096 0.34773365 -0.115255184 -0.15947662 0.09348809 0.24648365 0.13094224 0.07982209
0.045731384 -0.12910008 0.11462092 0.40938854 -0.17469755 -0.13541089 0.13810569 -0.14423428
00000000: 3f43 7f3e d3b0 1d3e 6310 d3be b4fc 133e
00000010: cb67 a03e 2de4 4bbd a550 8cbd fcec bdbd
00000020: a47a 3b3d c5b6 aebd 32fb 4dbe 8c9d 34be
00000030: e909 f63d bcbf 0a3e 3ef2 8c3d ed42 d8be
00000040: 908c 1abe 8bc2 3cbe c427 c9bd e3e6 6c3d
00000050: 322c 80bc 8906 923e 20f5 5fbe ea20 96be
00000060: 522c 5fbe 23bf fcbc 363a b43d 4960 f23d
00000070: 852e b8bd 4829 073e 1103 a93d cff3 0b3e
00000080: 8d30 653e 5c43 923e 93d1 99bd 68d2 31bd
00000090: 39b9 a33e b208 b83e 3599 de3e 6fcd 25bd
000000a0: e9b5 75be 84c0 4fbc 8ed7 a33e c82e 99bd
000000b0: 81e7 533d aa98 a43d 01ac e73d 89db ccbe
000000c0: b9ca 363e edab 81bc fcf6 643e 5079 41be
000000d0: 3d17 98bd edec 01be fa84 83bc 4072 53bd
000000e0: 4d42 913e be55 653e 6f34 6e3d 358a e5be
000000f0: e725 ab3e 4104 febc 8f0c a03e accc 5cbe
00000100: 4ef8 03be d662 9f3c a0dc 063e a82d 013c
00000110: 50da c9bd 88cc d4bd 947a 563d 7647 053e
00000120: 1190 1d3e e43b f8bc ae0d fdbd 7774 623e
00000130: 5bdc a13c cfe4 9c3d 1c23 11be 5fad 6ebc
00000140: cf4f 1cbe 7fdf 0d3e 27fd 62be 0fe4 42be
00000150: c50b a9bd 4408 65bd 2792 243d 8d50 353e
00000160: 5c99 5bbd 1ee7 34bc eab5 00be a78d d3bc
00000170: d1a5 ef3d 20dd bcbc 06be c8bd 5fd7 d43d
00000180: 75e9 a2bb 7cf9 193e 7e5c e4bd 8aea afbd
00000190: b660 07be 9db0 dcbc 083c efbd 64ac dc3d
000001a0: 629c 813a 54f7 263e 7d7f 30be f05c 803d
000001b0: 121a 00be 7c73 0cbd 725e 5f3d 86ed 97bd
000001c0: c266 9abb 6284 ef3c 2584 433e 77dd eebc
000001d0: d26a 46be 046f bc3b c4aa d9bd fe65 21be
000001e0: b82f 193d eef5 d23a 903d 593e 83ad 6c3d
000001f0: 0a86 0a3d 9413 97be 3da7 533d 9565 8c3e
00000200: 4cb2 753d ffc1 30be 4670 4b3e e99d a83d
00000210: 1064 94be 1611 00be b701 533e 96de ca3e
00000220: 2e10 743e 880a a8be 357d 923d 5c7c e5be
00000230: e99c b5be 5ccb 39be 9cd8 13be a7b7 203d
00000240: a10e fb3d 80f0 f53d c80f 703b d43e 9dbd
00000250: 02c5 d53d e09c 05be 0f2c 183e 4295 7c3e
00000260: ea4a 0a3e e061 2d3e 4e1c d2bd f863 1fbd
00000270: f810 2f3e 43f5 933e 71db 04be fe19 e0bd
00000280: f82d 8abe 43fb bcbd b338 6b3e 3d66 b43e
00000290: f360 d43e 1ba9 09be e6e8 9cbe 6e4b a13d
000002a0: 2d82 813e 4059 d93d eb6b 5abe 60d4 64be
000002b0: 1989 4bbe 9f91 803e c93b a43d f2ef 6c3e
000002c0: c9e0 77be 3aad acbd fbe0 63bd 8cfd 58be
000002d0: 8959 83bd dac0 db3a c269 c93c b401 37be
000002e0: 7b76 053d 1cb5 ed3d 0ab2 963d 4cd7 b53e
000002f0: bb2c bfbd 34a6 2d3d 06ab d7bd 17f1 20be
00000300: 63c6 103e 48aa eb3d d81e 433e 9c13 b93d
00000310: c133 243d 181f 583e f423 82be 3683 bebe
00000320: 0ab4 4a3d ae8c 0f3d 01d0 adbe 6d36 1f3e
00000330: 9145 fd3e 1596 7fbe cd44 94bc da13 53bd
00000340: 8533 8a3d d708 183c c9cd ffbd 5b07 adbb
00000350: bdf1 573e 5ea4 103e fa3b 773e 5758 69be
00000360: 54c2 80bd afa4 5c3d cb19 90be c487 2c3e
00000370: 77cc ecbc ce63 3abe 9658 a9be 3b90 8e3d
00000380: 6bad 353e c45d 273e b697 893d 5212 133e
00000390: 5445 153e a513 df3d 6f67 e4bc 4bc1 233e
000003a0: 8b78 d2bd 01e3 d5bb 65bb 303e 6c12 a73e
000003b0: 94df a3be 49e2 00be 01f4 5a3e 7ef8 243d
000003c0: 788a 6abd 250a b23e e90a ecbd d74d 23be
000003d0: af76 bf3d 3666 7c3e b915 063e c479 a33d
000003e0: d550 3b3d d032 04be 5fbe ea3d 609b d13e
000003f0: eae3 32be 27a9 0abe 946b 0d3e 27b2 13be

lstm.weight_hh_l0 f4 [256, 64]
-0.5451474 -0.31326962 -0.11211222 0.56287163 0.59903115 0.6388807 0.59867084 0.00080737006
-0.2006999 0.17722595 -0.1149119 0.13752441 -0.0834908 -0.5229201 -1.0526731 -0.24336691
-0.22006045 -0.5284176 -0.29511598 -0.109642334 0.3069913 0.1738937 0.33655 1.302031
-0.13928375 0.03341463 0.019364085 0.80891985 0.50575536 -0.56887543 -0.12874383 0.28402495
0.55771476 1.0502704 -1.0399177 0.54998 0.10305423 0.28203917 0.60428184 0.56061953
0.012195437 0.33160973 -0.07663616 -0.6073432 0.101969704 -0.3212625 -0.013004973 0.11363833
-0.24645121 0.1160186 -0.32191 -0.48683462 0.3146272 0.48175317 0.11629688 -0.21379134
-0.15933271 -0.09403438 0.25202474 0.3768319 0.43538356 0.09340072 0.037320632 -0.038193494
-1.0274327 0.03318575 0.96966934 0.5886852 0.29290074 0.5894266 0.794883 -0.029024359
-0.74029565 0.83965015 0.32844606 -0.65775865 0.56050986 -0.5928995 -0.004225445 1.5211672
-0.78060937 -0.64950424 -0.3338403 -0.6033401 0.72339135 -0.26404133 0.2840198 0.39528522
-0.057043545 0.086832985 -1.191126 1.2653815 0.62599874 -1.0684603 -0.69472003 0.036977116
0.28018647 0.10479864 0.17790973 -0.85634637 0.44866046 0.43943572 -1.2852002 0.93455935
0.95477486 0.8719078 -0.63717496 0.03379445 0.19901052 0.3052199 -1.9242306 0.9786245
0.66565454 0.073343374 0.33357266 0.9710828 -0.0066735665 0.46138552 -0.29625943 -1.209583
-0.69847506 -0.8176853 -1.2858295 -0.25018302 0.4814412 0.26079062 -0.20347257 0.34021354
-0.35599548 -0.9970699 -0.2891631 0.40160307 0.24259102 0.21348079 -0.29645836 -0.5777173
0.26868308 1.0335279 -0.65577114 0.5000131 -0.0879967 0.16877846 0.23988734 0.1570122
-0.5340567 -0.048281774 -0.33342144 -1.3623338 0.3783499 0.5208402 0.65849304 -0.1513594
-0.4777805 1.4305245 0.51553625 0.18296245 0.35495985 -0.53347975 -1.5972507 -0.7244823
0.016135879 0.061135832 0.24077527 -0.14143488 1.9288112 -0.034305222 -0.36256754 1.2658626
0.62271583 -1.0218568 0.60101944 -0.68219125 -0.43029225 -0.18152305 0.1555466 0.3837753
-0.22618273 -0.16547802 0.050960463 -0.19077703 0.89394355 -0.12824674 0.43854892 -0.08763878
-0.9771458 0.57672006 1.0177733 -0.14949828 -0.13486588 0.07988824 0.13354892 -0.3397412
0.0052918936 -0.1608876 0.38533953 0.34184846 -0.5318781 -0.046155136 -0.51098555 0.44332796
-0.041281328 -0.32324463 0.46947563 0.87386036 0.2955927 0.08525014 1.6431556 -0.14129892
-0.19972908 -0.74988 0.58294576 0.7581344 0.7722115 0.20819156 -0.56589824 1.2449743
-0.07985905 -0.09271962 -0.32351398 -0.6723071 0.50891805 -0.19710897 0.16484937 0.54162616
0.5580037 0.32610872 0.18283379 0.18507357 -0.5088967 0.1188324 0.6634664 0.61235315
-0.23792568 -1.3074335 -0.045984425 0.040468153 -0.9202754 -0.26261258 0.077874616 1.3465154
0.42176566 0.43247202 0.5044426 0.45275018 -0.529057 -0.281896 -0.29824144 -0.086684726
0.2861535 0.31260186 0.41605064 0.58535 -0.22848095 0.4225289 0.7021767 -0.6389671
00000000: c88e 0bbf e064 a0be 179b e5bd 5b18 103f
00000010: 1b5a 193f b08d 233f 7e42 193f b0a5 533a
00000020: 4684 4dbe b87a 353e ee56 ebbd 33d3 0c3e
00000030: 39fd aabd 17de 05bf febd 86bf 2d35 79be
00000040: 8757 61be 6046 07bf 7119 97be 298c e0bd
00000050: f72d 9d3e 3111 323e 4850 ac3e f4a8 a63f
00000060: 66a0 0ebe c7dd 083d 6ea1 9e3c 5f15 4f3f
00000070: 2f79 013f d2a1 11bf 6cd5 03be b86b 913e
00000080: 65c6 0e3f 436f 863f 061c 85bf 7dcb 0c3f
00000090: 190e d33d 7067 903e 37b2 1a3f c384 0f3f
000000a0: 5fcf 473c c0c8 a93e 6bf3 9cbd d87a 1bbf
000000b0: 7ed5 d03d 857c a4be cf12 55bc 36bb e83d
000000c0: b55d 7cbe 299b ed3d 63d1 a4be 6342 f9be
000000d0: d116 a13e 5aa8 f63e 0f2d ee3d 1eec 5abe
000000e0: 1d28 23be 1995 c0bd 6309 813e 1cf0 c03e
000000f0: 98ea de3e e048 bf3d 85dd 183d c870 1cbd
00000100: ea82 83bf c8ed 073d 403c 783f 13b4 163f
00000110: 16f7 953e a9e4 163f 747d 4b3f 7ec4 edbc
00000120: 0484 3dbf 50f3 563f 152a a83e df62 28bf
00000130: 937d 0f3f 43c8 17bf 9a75 8abb 9bb5 c23f
00000140: 04d6 47bf e945 26bf 1eed aabe 7f74 1abf
00000150: 2d30 393f 6d30 87be 0b6b 913e d362 ca3e
00000160: 7ea6 69bd 7ed5 b13d d176 98bf 05f8 a13f
00000170: 7441 203f 4fc3 88bf 2cd9 31bf 5175 173d
00000180: 9a74 8f3e aba0 d63d f82d 363e 8439 5bbf
00000190: d3b6 e53e b8fd e03e 7181 a4bf 483f 6f3f
000001a0: 206c 743f 5935 5f3f e61d 23bf 0d6c 0a3d
000001b0: 6ac9 4b3e c845 9c3e 304d f6bf 2387 7a3f
000001c0: 5668 2a3f 0d35 963d 09ca aa3e e298 783f
000001d0: efad dabb b93a ec3e 51af 97be 9ed3 9abf
000001e0: 43cf 32bf d353 51bf 1096 a4bf fd17 80be
000001f0: 767f f63e 5986 853e 1d5b 50be 7830 ae3e
00000200: 0a45 b6be f93f 7fbf 300d 94be eb9e cd3e
00000210: c869 783e b59a 5a3e 64c9 97be 48e5 13bf
00000220: d490 893e a44a 843f 9ee0 27bf dc00 003f
00000230: 9d37 b4bd 43d4 2c3e 07a5 753e cec7 203e
00000240: f1b7 08bf 1cc3 45bd 37b6 aabe f460 aebf
00000250: 14b7 c13e c955 053f 0093 283f f5fd 1abe
00000260: a59f f4be 6d1b b73f 2ffa 033f 825a 3b3e
00000270: 4cbd b53e 2192 08bf b672 ccbf ac77 39bf
00000280: 642f 843c 9169 7a3d cb8d 763e 4ed4 10be
00000290: 49e3 f63f a283 0cbd 74a2 b9be c907 a23f
000002a0: 4e6a 1f3f 34cc 82bf 69dc 193f 16a4 2ebf
000002b0: 444f dcbe 2ee1 39be 9c47 1f3e 327e c43e
000002c0: 729c 67be 1273 29be ebbb 503d 0e5b 43be
000002d0: 7cd9 643f 1d53 03be 7c89 e03e f67b b3bd
000002e0: 3a26 7abf eda3 133f 6546 823f 1416 19be
000002f0: 481a 0abe 729c a33d 0cc1 083e 8ff2 adbe
00000300: 9f67 ad3b b8bf 24be 394b c53e c306 af3e
00000310: 2a29 08bf 2b0d 3dbd f3cf 02bf e2fb e23e
00000320: 9c16 29bd 5280 a5be 1c5f f03e 50b5 5f3f
00000330: ed57 973e a097 ae3d ec52 d23f aab0 10be
00000340: c885 4cbe 23f8 3fbf ef3b 153f 1915 423f
00000350: a7af 453f 2b30 553e b5de 10bf 515b 9f3f
00000360: 248d a3bd c9e3 bdbd a0a3 a5be 511c 2cbf
00000370: 7448 023f efd6 49be 46ce 283e 03a8 0a3f
00000380: 55d9 0e3f b9f7 a63e c838 3b3e ed83 3d3e
00000390: 0e47 02bf 675e f33d efd8 293f 2dc3 1c3f
000003a0: caa2 73be fb59 a7bf 2a5a 3cbd efc1 253d
000003b0: 2b97 6bbf 2875 86be ba7c 9f3d 9e5a ac3f
000003c0: abf1 d73e f96c dd3e 2623 013f dfce e73e
000003d0: 4870 07bf ac54 90be 1ab3 98be c387 b1bd
000003e0: b682 923e 5a0d a03e 9704 d53e 7fd9 153f
000003f0: e9f6 69be b555 d83e dac1 333f 5993 23bf

lstm.bias_ih_l0 f4 [256]
-0.24183461 0.020273902 -0.29429525 -0.031067437 -0.5316651 -0.08963036 -1.4720476 0.15571347
0.051622476 0.12520236 -0.30618566 -1.0589262 -0.060790155 -0.67751026 -0.37960225 -0.43301174
-0.62840074 0.054882128 -0.35727754 0.015960634 -0.3028203 0.045932904 -0.6233122 -0.74800956
-0.32121095 -0.14348513 -0.27305627 -0.37391078 0.24252865 0.23296373 -0.027750628 0.44668052
-0.72705865 0.5276965 -0.37735945 -1.0051163 -0.5480626 -1.3380126 -0.61007315 -0.4682942
-1.6486094 0.47890294 0.99038875 -0.5709146 0.15020157 -0.80600876 0.113880835 -0.90400743
-0.61240524 -1.2907001 -0.1750204 -0.35296378 -0.6401572 -0.7156154 -0.54326135 -0.34064415
0.20827122 -1.1619768 -0.3731755 0.22477296 -0.5141553 0.15542167 0.02387326 0.61139804
0.19721669 0.2365572 0.1703185 0.09001925 -0.2768461 0.18896149 0.31405637 0.43968394
-0.3158445 0.27644244 -0.16275623 -0.6106235 -0.2406968 -0.14564858 -0.3012365 0.9849136
-0.11951021 -0.6298083 -0.3507116 -0.46021843 -0.2066402 0.19066486 -0.38556233 -0.8621212
-0.03240119 0.02025428 -0.52508765 0.0075813974 -0.06572924 0.048107155 0.17437667 0.31216887
-0.0137207 -0.46778908 -0.74998087 -0.008661447 -0.1662795 0.30618685 0.20957865 -0.056233235
0.7178306 0.52165765 -0.2591197 -0.44463637 0.32032886 -0.2692267 0.6623813 -0.19894812
-0.029881287 0.28423566 -0.65583414 -0.9704964 -0.58066404 -0.7032333 -0.50346917 0.3462974
-0.20794709 0.545893 -0.056253225 0.7310442 -0.7103076 -0.037301905 -0.29515532 -0.36147705
0.1211204 0.8975936 0.81294614 1.2313226 0.21999457 -0.045169782 -0.39637357 0.73876345
-0.09512218 0.17581128 0.44457442 0.4385067 0.9320364 -0.9121471 -0.3890499 0.39045614
-0.9319105 -0.69501936 -0.42445347 0.5878864 0.49808183 -0.6062771 0.06861933 0.52162117
-0.423376 -0.5814471 -0.5805489 0.5252022 0.16132082 -1.1969767 0.11842478 0.8705858
0.3063741 1.2289737 0.2053341 0.09667369 -0.3265009 1.1352856 0.26521116 0.84591264
-0.04554679 0.9814171 -1.4489752 0.28926805 -0.4333655 -0.7214288 -0.9657023 0.49158233
0.25810322 -0.33584055 0.4960241 0.2465757 -0.77694833 0.1143353 -0.24214481 -0.71092564
-0.35609654 0.31591448 -1.1108254 0.39443922 0.30546716 0.40098098 0.8388024 0.012769004
-0.7291171 0.06424802 -0.07374263 -0.4562595 -0.34143153 0.0036886733 -0.1528057 0.23628442
-0.59247774 -0.1641826 -0.4630336 -0.7559692 -0.23631494 0.06433762 -0.28296223 0.36126027
-0.11731335 -0.72086304 -0.31585965 0.26085627 -1.0199845 -1.0162059 -0.42974642 -0.09340318
-0.4268207 -0.42087007 -1.2417185 -0.5803812 0.24873623 -0.2637281 -0.4766613 0.789188
-0.980371 0.6830371 -0.04159563 -0.35223606 -0.118820354 -0.14319347 0.41729668 -0.3980297
-0.22200945 0.9753484 0.62625253 -0.5216115 -0.6002022 0.40533316 0.05561468 0.37087673
-0.67867744 -0.9373011 0.1511724 0.84401983 0.14695774 -0.81392515 -0.29080346 -0.49988383
-0.060426477 0.33097515 -0.47226346 -0.072991215 -0.8318412 -0.7581471 -0.5597891 0.2977434
00000000: 7ea3 77be 7415 a63c dead 96be 2381 febc
00000010: 341b 08bf 1f90 b7bd 0e6c bcbf 5a73 1f3e
00000020: 1772 533d 0c35 003e 5ec4 9cbe e58a 87bf
00000030: 19ff 78bd 5071 2dbf 3a5b c2be b7b3 ddbe
00000040: dfde 20bf 15cc 603d 15ed b6be e0bf 823c
00000050: 430b 9bbe 2424 3c3d 6391 1fbf 8e7d 3fbf
00000060: c375 a4be c4ed 12be 08ce 8bbe 3c71 bfbe
00000070: 6e59 783e 0b8e 6e3e 4955 e3bc 4fb3 e43e
00000080: 8420 3abf 1e17 073f 4235 c1be a7a7 80bf
00000090: d54d 0cbf ff43 abbf c12d 1cbf 42c4 efbe
000000a0: a205 d3bf c432 f53e 1e8a 7d3f 7627 12bf
000000b0: 71ce 193e 9756 4ebf 5b3a e93d 086d 67bf
000000c0: 97c6 1cbf a935 a5bf 8c38 33be abb7 b4be
000000d0: 58e1 23bf 9232 37bf 2d13 0bbf e968 aebe
000000e0: 0d45 553e a8bb 94bf dc10 bfbe e22a 663e
000000f0: af9f 03bf dc26 1f3e db91 c33c 9584 1c3f
00000100: 2cf3 493e 0d3c 723e f967 2e3e 035c b83d
00000110: c6be 8dbe 1f7f 413e ffcb a03e 411e e13e
00000120: 5fb6 a1be dd89 8d3e 92a9 26be d251 1cbf
00000130: 3979 76be e724 15be ac3b 9abe 4c23 7c3f
00000140: c5c1 f4bd 1e3b 21bf 7990 b3be c0a1 ebbe
00000150: 7d99 53be a63d 433e 6d68 c5be fab3 5cbf
00000160: 1cb7 04bd 4eec a53c 256c 06bf 5f6d f83b
00000170: 0d9d 86bd 020c 453d cc8f 323e 99d4 9f3e
00000180: c9cc 60bc 0d82 efbe bffe 3fbf bee8 0dbc
00000190: 2c45 2abe 86c4 9c3e c99b 563e d254 66bd
000001a0: bfc3 373f 5b8b 053f 56ab 84be 61a7 e3be
000001b0: 2502 a43e 15d8 89be d291 293f 0eb9 4bbe
000001c0: 9ac9 f4bc 5687 913e bfe4 27bf 7472 78bf
000001d0: 66a6 14bf 1907 34bf 5be3 00bf e54d b13e
000001e0: 15f0 54be a5bf 0b3f c869 66bd b625 3b3f
000001f0: b8d6 35bf e2c9 18bd 991e 97be 8513 b9be
00000200: f90d f83d b2c8 653f 3d1d 503f fb9b 9d3f
00000210: 4246 613e f303 39bd 7af1 cabe 9a1f 3d3f
00000220: 6bcf c2bd df07 343e 429f e33e f383 e03e
00000230: f099 6e3f 7982 69bf 8c31 c7be dee9 c73e
00000240: b091 6ebf caec 31bf f751 d9be b97f 163f
00000250: 9504 ff3e fa34 1bbf 4b88 8c3d f788 053f
00000260: bdc4 d8be b8d9 14bf da9e 14bf a773 063f
00000270: 4931 253e 8836 99bf b188 f23d b6de 5e3f
00000280: 11dd 9c3e 034f 9d3f 1a43 523e dbfc c53d
00000290: 202b a7be 0a51 913f c2c9 873e bb8d 583f
000002a0: 458f 3abd 273e 7b3f 0578 b9bf f11a 943e
000002b0: 15e2 ddbe 8faf 38bf 4438 77bf aeb0 fb3e
000002c0: 1b26 843e 4bf3 abbe dff6 fd3e 577e 7c3e
000002d0: 16e6 46bf a028 ea3d cff4 77be 39ff 35bf
000002e0: 4952 b6be 8bbf a13e 872f 8ebf f0f3 c93e
000002f0: 3166 9c3e 614d cd3e c1bb 563f 1635 513c
00000300: 6ba7 3abf 7794 833d 6006 97bd d89a e9be
00000310: 1dd0 aebe abbd 713b 1979 1cbe 8bf4 713e
00000320: 9fac 17bf 7c1f 28be bd12 edbe 3387 41bf
00000330: 8bfc 71be 71c3 833d 6de0 90be 1bf7 b83e
00000340: fb41 f0bd 7b8a 38bf 5bb8 a1be f48e 853e
00000350: da8e 82bf 0913 82bf b907 dcbe 2b4a bfbd
00000360: 3e88 dabe 487c d7be a2f0 9ebf dd93 14bf
00000370: b6b4 7e3e 5f07 87be f30c f4be 3a08 4a3f
00000380: 98f9 7abf 85db 2e3f 2e60 2abd 4958 b4be
00000390: 1658 f3bd 4fa1 12be e9a7 d53e 8dca cbbe
000003a0: 7256 63be 6fb0 793f 1652 203f 5588 05bf
000003b0: daa6 19bf d487 cf3e 38cc 633d 8ee3 bd3e
000003c0: cebd 2dbf f7f2 6fbf f0cc 1a3e af11 583f
000003d0: 177c 163e 665d 50bf 31e4 94be c6f0 ffbe
000003e0: c181 77bd 9375 a93e 84cc f1be 6b7c 95bd
000003f0: 8bf3 54bf ee15 42bf 574e 0fbf d371 983e

lstm.bias_hh_l0 f4 [256]
-0.16921464 0.14811656 -0.15974228 -0.03044496 -0.58094937 -0.19036059 -1.6584218 0.17160729
0.050137606 0.17764136 -0.33867067 -1.1802922 -0.02223557 -0.6452687 -0.48015714 -0.30080205
-0.60477173 0.04826081 -0.25224617 0.013682007 -0.39331952 0.20842151 -0.5889365 -0.58644354
-0.43503037 -0.14909723 -0.31074393 -0.4466709 0.3015775 0.23647119 -0.010910712 0.43120995
-0.8574765 0.33213037 -0.35637188 -1.0337113 -0.46203858 -1.3643335 -0.5027458 -0.46162856
-1.8469639 0.4226377 1.0594319 -0.59236175 0.03957733 -0.6438072 -0.11423821 -0.8218461
-0.4202618 -1.2661036 -0.2893801 -0.37295815 -0.6281291 -0.90849364 -0.41503993 -0.33620134
0.17558403 -1.1733501 -0.47638607 0.2048033 -0.6301141 0.21868256 0.016120171 0.48182282
0.10544109 0.2084426 0.12669753 0.12851909 -0.30738178 0.24739206 0.20377761 0.34841555
-0.20295192 0.28809264 -0.09769995 -0.7059389 -0.33306625 -0.07249775 -0.27036095 0.943922
-0.28784811 -0.66497064 -0.2613938 -0.33066523 -0.32753572 0.12496021 -0.17358652 -0.6741389
-0.122683555 -0.12909485 -0.51666284 -0.00082742464 -0.15149933 0.12922275 0.17553422 0.2458746
-0.0118415905 -0.27050924 -0.9286465 -0.1559494 -0.009863757 0.3621258 0.36532965 -0.18383189
0.66339654 0.4419952 -0.2576195 -0.27507928 0.3577899 -0.26235956 0.65765 -0.20741674
-0.13521622 0.22027047 -0.5985547 -1.116471 -0.669006 -0.6038731 -0.50945354 0.4814681
-0.39009407 0.56206626 -0.22506976 0.61360586 -0.8314439 -0.010304838 -0.4446775 -0.44310132
0.32036623 1.0287428 0.77562433 1.2060615 0.24424635 0.14637399 -0.49176565 0.6902479
-0.04443852 0.17166053 0.3967808 0.56694 1.0144837 -0.90759367 -0.29523334 0.49816358
-1.0022842 -0.71462536 -0.55740726 0.43167382 0.4971662 -0.66313314 -0.052593134 0.48235616
-0.5169883 -0.531682 -0.57718074 0.6118699 0.080631465 -1.1349 0.03904948 0.89400995
0.4030312 1.1594418 0.07390152 0.02131519 -0.09736637 1.1897895 0.18755038 0.912368
-0.1896194 1.2268543 -1.6180634 0.114397414 -0.6009021 -0.621777 -0.9798422 0.62075573
0.10875227 -0.48420367 0.376198 0.21958616 -0.6822692 0.016091917 -0.3300916 -0.62813824
-0.4070501 0.40608713 -1.0749885 0.2153519 0.2259434 0.39093944 0.7116867 -0.1359509
-0.6670045 0.036835782 -0.09390694 -0.5122738 -0.17090394 0.14080715 -0.12573615 0.12912975
-0.5674045 -0.22922663 -0.32027116 -0.74433666 -0.08319389 0.1458435 -0.31589496 0.34266922
-0.21557665 -0.7907199 -0.45990846 0.11677146 -0.8806863 -1.165776 -0.3996419 -0.15999535
-0.28178155 -0.3303106 -1.1159122 -0.6261956 0.21236323 -0.07808955 -0.3113325 0.7286494
-0.96147424 0.6094541 -0.1768099 -0.21206999 -0.021006735 -0.22128056 0.29262683 -0.27015367
-0.17758967 0.8861801 0.5418534 -0.5540826 -0.7652178 0.30004847 0.049750187 0.31518835
-0.55751956 -0.7510722 0.020575428 1.0213636 0.050235864 -0.9427372 -0.24868947 -0.3498632
-0.119174235 0.22564645 -0.52303064 -0.07093705 -0.87560695 -0.9412868 -0.44689608 0.37410632
00000000: 9a46 2dbe deab 173e 7b93 23be b567 f9bc
00000010: 19b9 14bf e3ed 42be 2a47 d4bf d2b9 2f3e
00000020: 175d 4d3d 9ee7 353e 3e66 adbe d113 97bf
00000030: 5f27 b6bc 5430 25bf 28d7 f5be ba02 9abe
00000040: 52d2 1abf 21ad 453d 6926 81be 7f2a 603c
00000050: 2d61 c9be 736c 553e 8bc4 16bf 2a21 16bf
00000060: 4dbc debe f2ac 18be d419 9fbe 0cb2 e4be
00000070: 5e68 9a3e 8125 723e d8c2 32bc 8dc7 dc3e
00000080: 9483 5bbf fe0c aa3e 6076 b6be a750 84bf
00000090: 5290 ecbe 7ba2 aebf f3b3 00bf 945a ecbe
000000a0: 5069 ecbf f863 d83e 779b 873f 05a5 17bf
000000b0: d71b 223d 8cd0 24bf b9f5 e9bd 8264 52bf
000000c0: 8e2c d7be af0f a2bf a129 94be 5ff4 bebe
000000d0: 12cd 20bf 0a93 68bf 1d80 d4be 9522 acbe
000000e0: 4dcc 333e 5630 96bf e0e8 f3be f5b7 513e
000000f0: 284f 21bf 52ee 5f3e 730e 843c 7bb1 f63e
00000100: 80f1 d73d fa71 553e ffbc 013e 829a 033e
00000110: 2561 9dbe 5854 7d3e 14ab 503e 8663 b23e
00000120: a1d2 4fbe e180 933e e916 c8bd 69b8 34bf
00000130: a987 aabe b379 94bd c06c 8abe dfa4 713f
00000140: d460 93be 843b 2abf 68d5 85be f44c a9be
00000150: c3b2 a7be 23eb ff3d aac0 31be 5e94 2cbf
00000160: 8441 fbbd 7131 04be 0444 04bf 87e7 58ba
00000170: a422 1bbe f852 043e 3ebf 333e 8dc6 7b3e
00000180: 3b03 42bc 3080 8abe c7bb 6dbf 33b1 1fbe
00000190: 989b 21bc 8e68 b93e 7d0c bb3e 6d3e 3cbe
000001a0: 5bd4 293f 324d e23e b4e6 83be 31d7 8cbe
000001b0: 3d30 b73e fe53 86be c05b 283f 0e65 54be
000001c0: 1f76 0abe 958e 613e e13a 19bf 86e8 8ebf
000001d0: fa43 2bbf 6d97 1abf 8c6b 02bf fd82 f63e
000001e0: 69ba c7be 93e3 0f3f b078 66be 4615 1d3f
000001f0: 82d9 54bf a0d5 28bc c5ac e3be 2dde e2be
00000200: 0b07 a43e d8ad 833f 518f 463f 3960 9a3f
00000210: b71b 7a3e 10e3 153e b5c8 fbbe 16b4 303f
00000220: 2a05 36bd c7c7 2f3e da26 cb3e fb22 113f
00000230: 9ada 813f 0f58 68bf d328 97be 4c0f ff3e
00000240: d94a 80bf b0f1 36bf 3eb2 0ebf 5a04 dd3e
00000250: 918c fe3e 18c3 29bf e66b 57bd 63f7 f63e
00000260: 5859 04bf 501c 08bf 1ec2 13bf 81a3 1c3f
00000270: 1c22 a53d 6744 91bf 59f2 1f3d d6dd 643f
00000280: 1b5a ce3e 9768 943f ae59 973d 319d ae3c
00000290: 0568 c7bd 064b 983f 350d 403e f390 693f
000002a0: 972b 42be 9009 9d3f b41c cfbf 3149 ea3d
000002b0: b8d4 19bf c72c 1fbf f0d6 7abf d9e9 1e3f
000002c0: 83b9 de3d 8be9 f7be 069d c03e 32db 603e
000002d0: 32a9 2ebf 32d3 833c c401 a9be abcd 20bf
000002e0: df68 d0be a7ea cf3e 3999 89bf 3585 5c3e
000002f0: b55d 673e 3729 c83e 1931 363f b636 0bbe
00000300: cfc0 2abf 1ee1 163d 4852 c0bd 6024 03bf
00000310: 7101 2fbe c02f 103e fac0 00be 973a 043e
00000320: 6c41 11bf 63ba 6abe 95fa a3be d98c 3ebf
00000330: 8f61 aabd 0058 153e fcbc a1be 5772 af3e
00000340: 20c0 5cbe 9f6c 4abf 1f79 ebbe e025 ef3d
00000350: a874 61bf 2638 95bf dd9d ccbe d2d5 23be
00000360: ac45 90be 791e a9be 36d6 8ebf 5b4e 20bf
00000370: bf75 593e 6aed 9fbd f966 9fbe c488 3a3f
00000380: 2d23 76bf 2f05 1c3f a80d 35be e028 59be
00000390: 5116 acbc 5f97 62be 2fd3 953e 9551 8abe
000003a0: 11da 35be b3dc 623f e8b6 0a3f 5bd8 0dbf
000003b0: 50e5 43bf f49f 993e dac6 4b3d 5e60 a13e
000003c0: 9ab9 0ebf 4546 40bf cd8d a83c 0bbc 823f
000003d0: 1fc4 4d3d 3a57 71bf 74a8 7ebe 4521 b3be
000003e0: 9f11 f4bd dd0f 673e 56e5 05bf 7247 91bd
000003f0: c727 60bf 2cf8 70bf 90cf e4be dd8a bf3e

output_proj.weight f4 [1, 64]
-0.00094694353 0.00064857444 -0.0026461561 -0.0023497047 -0.00013770377 -0.0014419742 0.027796583 0.0020161087
0.0072402977 0.0008157986 -0.0056009116 -0.014432961 -0.0012753886 -0.004607488 0.0016415269 0.0046040122
-0.00084961596 0.00069862744 0.004262063 -0.0077071856 0.0056083635 0.007904558 0.010681483 -0.012909486
-0.0007768161 -0.012754001 -0.023151832 -0.01216416 0.0034696686 0.0030334329 0.0050393874 0.0051100818
-0.0262692 0.0006058221 -0.01398711 0.008954087 -0.007360734 0.0034191348 -0.0017602337 -0.00031641067
-0.663014 0.00042381004 -0.0014257319 0.0048730704 0.006903507 -0.00072164496 0.0059366743 -0.0006136255
0.005269117 -0.50054246 0.008737321 0.041436855 0.00013748296 0.029901164 -0.039643932 -0.0009520579
0.0044852975 -0.00196449 0.0028449537 -0.0041804044 0.014122367 -0.0031638485 -0.0022054524 0.010455099
00000000: 4e3c 78ba 1805 2a3a 226b 2dbb 81fd 19bb
00000010: 9364 10b9 a000 bdba a9b5 e33c b120 043b
00000020: 0540 ed3b 51db 553a da87 b7bb 3a78 6cbc
00000030: f12a a7ba 69fa 96bb 8128 d73a 41dd 963b
00000040: c3b8 5eba 1824 373a c7a8 8b3b 8f8c fcbb
00000050: 5dc6 b73b 1f82 013c 6301 2f3c 4f82 53bc
00000060: 3fa3 4bba 28f6 50bc e9a8 bdbc 2f4c 47bc
00000070: 6163 633b 8fcc 463b 7221 a53b 7972 a73b
00000080: 8132 d7bc 08d0 1e3a 312a 65bc 2ab4 123c
00000090: 5032 f1bb 9013 603b a4b7 e6ba ece3 a5b9
000000a0: 49bb 29bf d232 de39 a0df baba 47ae 9f3b
000000b0: d036 e23b c62c 3dba 6f88 c23b b6db 20ba
000000c0: 8fa8 ac3b 8d23 00bf fb26 0f3c b1b9 293d
000000d0: 4d29 1039 49f3 f43c ad61 22bd 8693 79ba
000000e0: 67f9 923b acbe 00bb 6772 3a3b c6fb 88bb
000000f0: 8061 673c 9258 4fbb 5a89 10bb dd4b 2b3c
