generator_gan_br_ts_128.pth (torch, 291712 bytes, 7 tensors)

fc.0.weight f4 [128, 101]
000000 3c 10 08 3d 87 6f cc bc 62 82 83 bd 18 b3 31 bd
       0.033218607 -0.024955524 -0.06421353 -0.043383688
000010 c1 de 7a 3c c3 35 df bd ac a6 98 3d f8 19 d4 3b
       0.015311898 -0.10898926 0.07453665 0.0064728223
000020 18 66 48 bd 1e ba 39 bc 96 28 6b 3d cb 01 07 3d
       -0.04892549 -0.011335878 0.057411753 0.032960694
000030 68 c6 90 bd 70 17 8b bd 37 1f a1 3d 0a 15 30 3d
       -0.07069093 -0.0679158 0.07867282 0.042988814
000040 2d 9c e2 3d 3e 02 d4 3d 66 f9 bc bc 3c 91 53 3d
       0.110649444 0.1035199 -0.023068141 0.05165218
000050 5e cf 2c 3e 40 b1 91 bd 78 e5 3b bd c3 6e ca 3c
       0.1687598 -0.07113886 -0.045873135 0.024711018
000060 2e 98 ce bc bb 22 63 bc fe 46 e9 bc a6 de 8a 3d
       -0.02521905 -0.013863261 -0.028476235 0.06780748
000070 b0 03 6b be e8 9b 6b bd 6c 35 24 3c d7 03 b8 bd
       -0.22950625 -0.05752173 0.010022502 -0.089851074
000080 88 20 80 3d 0a 0f f9 bc 9b da 5c bd 69 87 88 3d
       0.06256205 -0.030402679 -0.053919416 0.066664524
000090 5a 09 94 b9 5a d3 c5 3d 95 4e be bc 10 a0 01 bc
       -0.00028235727 0.09659453 -0.02323083 -0.007911697
0000a0 8a 25 c1 3d b7 1c bb bd 72 fd 95 bd dd 97 b0 bd
       0.09430988 -0.09136336 -0.073237315 -0.086227156
0000b0 87 a5 16 be ef e7 1b 3d e7 a4 33 3e e3 c9 ad bd
       -0.14711581 0.038062986 0.17543374 -0.084857725
0000c0 ce 0e 44 3e e1 98 76 3e b8 5b 61 3d 8b 20 67 be
       0.19146273 0.24081756 0.05501911 -0.22571008
0000d0 5b 7f bc bd b3 d5 e4 bd c8 70 3e bc d5 4e e2 3d
       -0.09203979 -0.111735724 -0.011623569 0.11050192
0000e0 d9 bf b2 bd 33 e4 aa 3d c2 8e 40 3e 64 65 d2 3d
       -0.08727998 0.08344307 0.18804458 0.10273245
0000f0 5d 59 c8 3c f5 6b 90 bd 29 97 01 3e 32 72 04 3e
       0.024456674 -0.07051841 0.1265532 0.12934187
000100 af f6 33 be 6c 27 78 be 8c a2 91 3d 26 6f e3 bc
       -0.17574571 -0.24233788 0.071110815 -0.02776296
000110 0c bc e3 bd c0 e5 1d bb d2 3d 8d 3b a7 12 84 3d
       -0.111198515 -0.002409324 0.004310348 0.0644887
000120 bc 7d ad 3d 54 fb 93 3c 50 9c 06 3d 15 e9 3a be
       0.084712476 0.018064179 0.032863915 -0.18252976
000130 91 df c5 3d 03 dd a4 3d b1 eb f2 3d c5 73 25 be
       0.096617825 0.08049967 0.11861361 -0.16157444
000140 9b 6b e4 3c 32 62 47 3d 1d 5e 62 bd 42 fc 00 be
       0.027883342 0.04867763 -0.055265535 -0.12596229
000150 ce 6c d2 3d 3f d2 1d bd e9 38 fb bc be 04 a4 bd
       0.10274659 -0.038530584 -0.030666785 -0.08008717
000160 06 00 87 3d e4 5b 79 3d c9 b5 70 3d 81 70 a3 bd
       0.06591801 0.06087865 0.058767114 -0.07980443
000170 28 0a 30 bd 8a c8 26 bd 15 92 ed bc be 27 20 bd
       -0.042978436 -0.040718593 -0.029000321 -0.0391004
000180 ec d9 12 be 5d 8c 91 3d b1 1a da 3c 95 12 4f 3d
       -0.14340943 0.0710685 0.026624056 0.05055483
000190 5f c8 6c bf 78 90 e1 3d 0d 97 ef bd 2b 8f ec 3b
       -0.9249324 0.11013883 -0.116987325 0.0072192154
0001a0 28 b7 62 bc cb 2a 1c bc de 56 23 be e1 ad 8c 3e
       -0.013837613 -0.009531687 -0.15951106 0.2747641
0001b0 4a 33 f4 bd 97 b8 67 bd 72 97 46 bc 82 43 e2 3d
       -0.11923845 -0.056572523 -0.012121068 0.11048032
0001c0 ac c9 63 bd cc e3 21 bb d4 51 c8 bd cd 14 4a 3d
       -0.05561225 -0.0024702428 -0.097812325 0.049336243
0001d0 aa 32 4c be 80 95 0c be 9d 43 da 3c 2e e9 a6 3d
       -0.19941202 -0.13728905 0.026643569 0.08149944
0001e0 e9 80 e3 3d 75 a7 88 ba b8 9e b1 bc f6 58 4c 3b
       0.11108572 -0.0010425883 -0.021682128 0.0031180955
0001f0 21 8f b8 3d 90 d3 2d be 32 af c2 bd 63 8e bd 3d
       0.09011675 -0.16975236 -0.09506072 0.09255674
000200 93 12 52 3e 7f 6f 06 3c 8e 74 75 3c ef 03 01 bd
       0.20514898 0.008205294 0.014981402 -0.031497892
000210 61 76 1f 3d 2e 02 c4 3c 45 a3 12 bd ad bd df 3d
       0.038931254 0.02392682 -0.035800237 0.1092485
000220 03 f0 8f bc 16 dc 23 3e 88 75 cf 3d f5 4c 45 bd
       -0.017570501 0.16001925 0.10129839 -0.048169095
000230 b3 31 ae bd d0 8c fa 3d bc c0 50 3d 3a b9 87 bd
       -0.08505573 0.12233889 0.050965056 -0.06627126
000240 9b 30 12 3e cb 12 e8 3c ff a7 f3 3d 4b f3 bb 3d
       0.14276354 0.028329274 0.11897277 0.09177264
000250 7e f9 81 3d ff 9c f1 bc b1 01 39 3d c2 1a a7 3d
       0.06346415 -0.029493807 0.04516763 0.081594005
000260 45 ea dc 3d 9c ff 37 be d5 cd 9f 3d eb 81 02 be
       0.10786871 -0.17968601 0.07802931 -0.12744872
000270 57 32 88 3d 8e d2 c4 bc f6 66 92 bd af 70 c5 3d
       0.066502266 -0.024026182 -0.071485445 0.09640633
000280 40 39 e8 3d 14 2b 6d 3e 19 e9 26 bd 3d 1f a8 3b
       0.113390446 0.23160964 -0.040749643 0.005130677
000290 31 b7 95 3d 48 79 a5 bc dd 16 74 3e 07 ba 09 bc
       0.073103316 -0.020199433 0.23836847 -0.008406169
0002a0 9a 5b c6 3c 4e d5 24 be 25 a6 45 be 95 5f c5 bc
       0.0242136 -0.16096994 -0.1930166 -0.024093429
0002b0 e7 f0 1f 3e 7c 63 54 be d7 5c 04 bd 65 74 07 3e
       0.1561924 -0.20741075 -0.0323151 0.13227995
0002c0 d1 df d8 bd 6f 0d 58 3d 04 8a 27 3e 61 43 25 be
       -0.105895646 0.052747186 0.16361243 -0.16138984
0002d0 ea aa 8f bd 35 e5 00 3e 2c dd 19 3e 02 db 05 be
       -0.07015021 0.12587436 0.15025777 -0.13071826
0002e0 29 0f 3e 3c d3 3e 8d 3d b1 0b b3 bd 73 52 67 3c
       0.011600294 0.068967484 -0.08742464 0.0141187785
0002f0 65 6a 57 3d b8 29 f3 bd 24 33 b2 3d 27 cd c3 bd
       0.0525917 -0.118731916 0.087011606 -0.09560614
000300 e8 f9 c5 3c 0b a2 36 be 05 a4 6d 3d ba 62 77 be
       0.024167016 -0.17835252 0.05801775 -0.24158755
000310 55 38 17 3e c9 7b 80 bb d3 82 64 bc db b1 0a be
       0.14767583 -0.0039210063 -0.013947207 -0.13544409
000320 03 a8 78 3d ff d2 76 bf 35 9c 98 3d ad 24 35 3e
       0.060707103 -0.96415704 0.07451669 0.17689772
000330 78 0d d0 bd 1b 69 5d 3b b7 55 2b be 36 cc 46 be
       -0.10158819 0.0033784572 -0.16731916 -0.19413838
000340 5d 48 38 be 53 f3 f7 bc fa 33 40 3b e5 c4 9c bd
       -0.17996354 -0.030267393 0.0029327855 -0.07654742
000350 9a c4 a4 3d 44 1b d6 3c 3a 08 03 3e 5a e6 5f 3d
       0.08045311 0.026136048 0.12796107 0.05466304
000360 ba d8 be bc db c7 3a be 36 cb 35 3e 87 d4 af bd
       -0.023296703 -0.18240301 0.177533 -0.08585458
000370 0c 98 12 be a7 40 12 be 9b 16 51 3d 1d bd 3f be
       -0.14315814 -0.14282475 0.05104695 -0.18724485
000380 dc 95 9d bd ef 59 b3 3d ac 20 c6 bd f7 a9 8d 3c
       -0.07694599 0.08757388 -0.096742004 0.01729296
000390 ae ba 0c 3c a3 2a 91 3d fb 4e 3b be 99 9a 85 3c
       0.00858943 0.070882104 -0.18291847 0.01630907
0003a0 a2 85 ff 3d 34 ca 22 3e 7a 3c 2b 3e cc 0d 61 3d
       0.1247666 0.15897447 0.16722289 0.0549448
0003b0 56 7f de 3d 63 c3 a4 3d 34 bf 75 3d d8 ac d3 bb
       0.10864131 0.080450796 0.0599968 -0.0064598136
0003c0 8d 4e d8 3d 9a 3e 88 3c db f1 30 be 76 09 95 3d
       0.10561857 0.016631413 -0.1727976 0.07277195
0003d0 5a c0 ac 3d 77 5b b3 bd 97 cf 91 bd 8d 0b 0d be
       0.08435126 -0.0875768 -0.07119673 -0.13773938
0003e0 32 8a 30 3e ab ad 3d bd 10 dd 84 be 95 ed fe 3c
       0.17240217 -0.0463082 -0.25949907 0.031119147
0003f0 b9 ae 99 3c 51 7b 80 bd 36 38 0e be d2 f8 24 bd
       0.018760072 -0.06273521 -0.1388863 -0.040276356

fc.0.bias f4 [128]
000000 68 96 c4 bf 57 ee 01 c0 9c 9f e7 bf 0b f5 f6 bf
       -1.53584 -2.030172 -1.8095584 -1.9293531
000010 52 1c 99 bf a7 84 ed bf df e3 da bf 66 a5 e8 bf
       -1.1961768 -1.8556107 -1.7100791 -1.8175476
000020 12 ce ca bf 38 5c ed bf ff bd 00 c0 19 19 ed bf
       -1.5844138 -1.8543768 -2.0115964 -1.8523284
000030 a7 00 ea bf d3 d3 d2 bf 9e 4f d6 bf 2d cd ee bf
       -1.8281449 -1.6470894 -1.6743047 -1.8656365
000040 3b c9 0d bf fd 3d f2 bf 40 41 ff bf 75 3f 99 bf
       -0.5538518 -1.8925167 -1.9941788 -1.197249
000050 f7 f9 fb be 7b 1a b1 bd b2 96 00 c0 7e 40 06 c0
       -0.49214146 -0.08647629 -2.0091977 -2.0976863
000060 2a 90 b8 bf 37 dd b4 bf 82 c6 0b c0 f1 71 ce bf
       -1.4418995 -1.413001 -2.183991 -1.6128522
000070 0c d2 cf bf c5 b9 ad bf 82 4a 90 bf 48 ec f0 bf
       -1.6235976 -1.3572317 -1.1272738 -1.8822107
000080 9f 1c 01 c0 ff d9 f9 bf d9 a5 ea bf 9b af 8e be
       -2.017372 -1.9519652 -1.8331863 -0.2786835
000090 9e 45 f4 bf 07 00 c5 bf 59 ee f5 bf 8a 9b f4 bf
       -1.9083745 -1.5390633 -1.9213363 -1.9109967
0000a0 6b f5 d1 bf 90 19 db bf 14 cd b4 bf 9e bd e5 bf
       -1.6403021 -1.7117176 -1.4125085 -1.7948492
0000b0 04 b1 bf bf c1 22 d2 bf b6 f5 a6 bf bc 67 fd bf
       -1.4975896 -1.6416856 -1.3043735 -1.9797282
0000c0 94 d0 ec bf 0c d5 de bf 62 f9 02 c0 2f 98 d1 3f
       -1.8501153 -1.7408767 -2.046471 1.6374568
0000d0 4d 56 02 c0 ee e1 ef bf fe 38 a1 bf 55 55 e4 bf
       -2.0365174 -1.8740823 -1.2595518 -1.7838541
0000e0 a7 6c e0 bf 9c 47 0e c0 3e 55 06 c0 d6 6a e8 bf
       -1.7533158 -2.2231207 -2.0989528 -1.8157604
0000f0 17 62 09 c0 f2 a4 bf bf cf 77 d7 bf d0 0a e3 bf
       -2.146612 -1.4972212 -1.6833438 -1.7737675
000100 b5 a3 eb bf f9 83 61 bf 56 6a c2 bf 55 99 d9 bf
       -1.8409334 -0.88092 -1.5188701 -1.6999918
000110 5d 4e d3 bf 10 20 fd bf ce 18 be bf 54 85 09 c0
       -1.650829 -1.977541 -1.485132 -2.1487627
000120 cf dd b7 bf f7 c7 f4 bf f6 e0 aa bf ce a4 db bf
       -1.4364566 -1.9123524 -1.3349903 -1.7159669
000130 21 b2 d1 bf c1 78 bd bf e4 bb fd bf 27 8a 09 c0
       -1.6382486 -1.4802476 -1.9822965 -2.1490571
000140 b2 3b c3 bf a5 6b c6 bf c2 e9 ca bf c5 a7 bb bf
       -1.5252593 -1.55016 -1.5852587 -1.4660574
000150 2e ba 08 c0 aa db 02 c0 8a 1e e2 bf 58 c9 9c 3f
       -2.1363635 -2.0446572 -1.766557 1.2248945
000160 63 3c c8 bf b6 af a2 bf 23 71 94 bf fd d9 6e bf
       -1.5643429 -1.2709873 -1.1597027 -0.93301374
000170 52 f2 a0 bf 3e b1 c5 bf 63 01 ec bf 03 82 0e c0
       -1.257395 -1.5444715 -1.8437923 -2.2266853
000180 d7 36 07 c0 65 41 d7 bf 69 60 f1 bf e4 e2 0d c0
       -2.1127222 -1.6816832 -1.8857547 -2.2169733
000190 b7 72 c8 bf ce bd dd bf 92 dd d0 3f fa 73 c0 bf
       -1.5660008 -1.7323549 1.6317618 -1.5035393
0001a0 ca c7 ee bf 73 37 b5 bf 52 71 c5 bf 7a d5 b6 bf
       -1.8654721 -1.4157547 -1.5425208 -1.4283898
0001b0 4a 71 08 c0 fa d5 f2 bf 13 b3 17 c0 ab 29 e1 bf
       -2.1319146 -1.897155 -2.3703048 -1.7590841
0001c0 80 5b f2 bf dc 2a ff bf ba 03 fb bf 46 f2 d4 bf
       -1.8934174 -1.9934955 -1.9610512 -1.6636436
0001d0 d5 fa f0 bf b1 6e e0 bf 69 d4 f8 bf 1f 86 bf bf
       -1.8826548 -1.753378 -1.9439822 -1.4962806
0001e0 65 d2 06 c0 36 37 f0 bf e9 a1 de bf 75 7b 24 40
       -2.1065915 -1.8766849 -1.7393161 2.5700352
0001f0 5a 84 ee bf e0 c8 95 bf 9a 6c 07 c0 a8 f1 90 bf
       -1.863414 -1.1701927 -2.1160035 -1.1323748

fc.2.weight f4 [256, 128]
000000 03 82 be be 93 09 d6 bd 95 ae fe be e5 86 5d be
       -0.37208566 -0.10451045 -0.4974257 -0.2163349
000010 73 c1 9f be 82 b1 6f bd 21 55 3c be 2a cd 1d be
       -0.31202278 -0.058518894 -0.18391849 -0.15410295
000020 7d ad 4e be a5 75 6e be bd 95 c7 bd b3 df 8e be
       -0.20183368 -0.23287065 -0.09745357 -0.27905044
000030 3e 9b 7b bd af dd c6 be 80 e2 93 bd 4d 96 12 be
       -0.061427347 -0.38841006 -0.07220936 -0.14315148
000040 be 56 75 be c9 1b d1 bd b6 7a 72 3e e8 28 8d be
       -0.23958871 -0.10210378 0.23679623 -0.27570271
000050 ca a9 f3 3d 69 e3 9a be b7 a2 1d be 3c 11 35 bd
       0.11897619 -0.30251625 -0.15394102 -0.04420589
000060 d6 20 6f be 05 3c e3 bd 00 00 86 3c 17 74 78 be
       -0.2335237 -0.11095432 0.016357422 -0.24263035
000070 9f 47 c3 bd a8 16 02 be f8 0a 6e bd 8c d7 40 be
       -0.09535145 -0.12703955 -0.05811593 -0.18832225
000080 ee 2b 02 3e 20 e1 16 3e 0b 0d 3c 3d ab 60 d2 bd
       0.1271207 0.14734316 0.045910876 -0.10272344
000090 13 f9 74 be 61 7b 3a bd cb 83 41 3e 6c 02 b8 bd
       -0.2392314 -0.04552782 0.18897931 -0.08984837
0000a0 a5 14 86 be 96 7b 20 be 48 01 a4 be 18 5d 87 bd
       -0.26187626 -0.15672144 -0.32032228 -0.06609553
0000b0 78 6c 21 be cb 7b bf be 9d fa ff bc 13 7f 97 3d
       -0.15764034 -0.37399134 -0.031247431 0.07397284
0000c0 20 b6 26 3d 44 fa 92 3d e6 62 f9 bd 03 eb a4 be
       0.04070103 0.07176641 -0.121770665 -0.3221055
0000d0 04 9b f6 bd 6b fa fd bd c6 d0 c1 be 45 79 7f 3d
       -0.12041286 -0.12401279 -0.37854594 0.06237151
0000e0 f6 68 df bd 67 95 52 be bc d3 07 be 45 15 03 bd
       -0.109086916 -0.20564805 -0.13264364 -0.032002706
0000f0 bc e6 fe bd 68 3a 14 be 47 e3 fd 3c 49 c5 56 3b
       -0.12446353 -0.14475405 0.030992163 0.00327714
000100 47 b6 a7 be 22 d0 69 bd fa c1 16 be 7d 84 9b bd
       -0.32756254 -0.057083257 -0.14722434 -0.075936295
000110 66 49 6a 3c 03 07 bd be d4 10 09 be 47 1b bd bd
       0.014299726 -0.36919412 -0.13385326 -0.09233718
000120 fa ca 88 be 50 16 99 be 11 0b 56 bd 8b 4d 09 bd
       -0.2671736 -0.29899836 -0.052256647 -0.033521216
000130 3d 0c 1b bd f1 40 77 be 5e ce 5e 3d 48 6c a0 bd
       -0.03785347 -0.24145867 0.054396026 -0.07833153
000140 0a dd b2 be 1e 0c 96 bd bb b6 8f be 38 06 df be
       -0.34934264 -0.0732653 -0.280691 -0.43559432
000150 d3 62 68 be 59 cf 5b be 37 57 17 3e 59 9d 24 be
       -0.22693948 -0.21465816 0.14779364 -0.16075648
000160 24 81 7a be 8f d1 ba bd 73 a4 19 be 55 e9 40 be
       -0.24463326 -0.091220014 -0.15004139 -0.18839009
000170 41 4c 97 bc 55 41 6e be 96 a7 8d bd 9a 39 1b be
       -0.018468978 -0.2326711 -0.0691673 -0.15158692
000180 03 67 12 bd ed 7d 8f be 12 44 3d bd 8a a5 3d bd
       -0.03574277 -0.2802576 -0.046207495 -0.04630045
000190 db 90 ae bb 51 67 19 be 28 82 bd be bf 75 96 be
       -0.0053273267 -0.14980818 -0.37013364 -0.29386708
0001a0 b5 a6 2a be b8 8c 8b be cc ec cb be 49 ee c7 bd
       -0.16665156 -0.27255797 -0.398291 -0.09762246
0001b0 49 4a 4f bd f8 0c aa 3a 8d 85 16 3d e4 24 1c be
       -0.050607953 0.0012973836 0.036748458 -0.15248448
0001c0 79 3b 8d 3d 82 e1 23 be 13 d7 3e be 7e e2 96 3b
       0.06896109 -0.16003993 -0.18636732 0.0046046367
0001d0 ab c9 0b be 83 8c 21 bd f4 4f 11 bd 8c c7 16 be
       -0.13651149 -0.039440643 -0.03547664 -0.14724559
0001e0 60 77 8a bd c4 1b 4c be 12 98 87 be 6f 4c 04 bf
       -0.0676105 -0.19932467 -0.26483208 -0.5167913
0001f0 c1 c6 4d be 14 ea c3 be 2b 69 d6 bd f2 2a 85 bd
       -0.2009535 -0.38264525 -0.10469278 -0.06502332
000200 a8 60 e0 bc 20 23 13 bd 92 e0 3e be 3c 58 9a bc
       -0.02738984 -0.03592217 -0.18640354 -0.018840902
000210 28 53 1e be 33 d7 19 be 28 78 8b 3d 78 97 59 be
       -0.15461409 -0.15023498 0.06810027 -0.21249187
000220 4c 1f 2f be 08 1d 26 be e4 00 01 be 16 a9 16 be
       -0.17101783 -0.16222012 -0.12597996 -0.14712939
000230 df 12 2e bd 70 00 92 be 40 66 33 be 66 92 b7 3e
       -0.042498466 -0.2851596 -0.17519474 0.3585388
000240 5d 2f 44 be 63 d6 b0 bd 8c 0f 08 3d 9c 4e 12 be
       -0.19158693 -0.08634641 0.03321795 -0.142878
000250 4d 3f 4e be 53 88 5b 3d 97 34 af be 18 bf 30 bc
       -0.20141335 0.053596806 -0.3421981 -0.010787748
000260 38 e3 c0 bd 7e 25 f0 bd 7f 49 fc bd ab 05 b4 bd
       -0.094183385 -0.11725901 -0.12318706 -0.087901436
000270 b6 47 21 be 02 48 b7 be b3 56 8a bd ac 81 1a 3e
       -0.15750012 -0.35797125 -0.06754818 0.15088528
000280 01 51 8d bd cd f6 06 be b2 16 23 be 6c 7c 81 bd
       -0.06900216 -0.13180085 -0.15926626 -0.0632256
000290 aa 40 9e bd 3c 8b a2 be 0f a3 23 be f0 4d fd bd
       -0.077271774 -0.31746852 -0.1598017 -0.12368381
0002a0 31 75 d2 3d 20 8a da bd d2 5a aa 3e 68 a3 a0 bd
       0.10276259 -0.106708765 0.33272415 -0.07843667
0002b0 67 55 40 bd 89 53 43 be 0e 0f db bd 5b aa 86 bd
       -0.046956446 -0.19074835 -0.10696231 -0.065754615
0002c0 8f 58 42 be 7b 06 a2 3c 17 5e 5a bd a3 eb b7 bd
       -0.18979095 0.01977848 -0.053312387 -0.08980491
0002d0 af f1 85 3d 78 4a 87 bc 25 35 25 be 67 e6 44 be
       0.06540238 -0.016515002 -0.16133554 -0.19228517
0002e0 48 87 4d be c8 4b 17 3c 7c f2 97 be 7e 1a a8 be
       -0.20071137 0.009234376 -0.29677188 -0.32832712
0002f0 08 a9 7f bd 1e 12 39 be dd 64 38 be e1 50 84 bd
       -0.06241706 -0.18073317 -0.18007226 -0.06460739
000300 46 07 d1 bd af 33 22 bd e2 ab a9 3e 68 f9 34 3e
       -0.102064654 -0.03960007 0.3313895 0.17673266
000310 80 cc 34 be 1d f8 f5 bd 0d 7b 80 be 62 31 5f bd
       -0.17656136 -0.120102145 -0.2509388 -0.054490454
000320 ed 83 1d be 9a 57 22 bc e4 41 7c be 2d 9a 7b be
       -0.15382357 -0.009908581 -0.2463451 -0.24570532
000330 5e 12 93 be 38 3e 2f 3e 20 6c 5c 3e a8 7c 8c bd
       -0.2872495 0.17113578 0.21525621 -0.06859714
000340 22 7f 5e be 05 9d 9d 3d d1 d4 39 be da d8 10 3e
       -0.21728185 0.07695965 -0.1814759 0.14145222
000350 41 b2 cc bd a9 d4 7b 3d ed 90 c0 bd 46 7b 96 be
       -0.09994937 0.061482105 -0.094026424 -0.29390925
000360 4d ae 75 3d c1 32 32 3d c7 ac b0 bd f0 57 5f be
       0.05998068 0.043505434 -0.08626705 -0.21810889
000370 ff 8a 66 be 63 dd fa bd b8 fb 97 be 7c 84 37 bd
       -0.2251396 -0.122492574 -0.29684234 -0.04480408
000380 6a 2e 9d 3d 89 36 8c be 5e a4 3d be fa d8 00 be
       0.076748684 -0.27385357 -0.18519732 -0.1258277
000390 1e 30 4d be c5 d7 bf bd 1e 00 99 be f7 73 a5 be
       -0.20037887 -0.09367327 -0.29882902 -0.32315037
0003a0 4d 51 1e bd b4 2f ce bd 1c 2b ac bd e0 b0 b7 bd
       -0.038651753 -0.100676924 -0.0840666 -0.08969283
0003b0 83 5e 73 bd 08 f4 36 bd cc 6e 13 be e8 1b 57 be
       -0.059416305 -0.04466632 -0.14397734 -0.21006739
0003c0 b3 c9 a4 bd 76 f5 6a 3d 16 d4 f6 3b a2 c8 49 bd
       -0.080462836 0.057362996 0.007532607 -0.049263604
0003d0 48 8a dc bd 90 04 ad bd ee 78 93 be 8a ed 16 bd
       -0.107685626 -0.08448136 -0.288032 -0.03684763
0003e0 1c 43 71 be aa b2 da bc 86 6d 62 be d0 1d a4 bd
       -0.23560756 -0.026696522 -0.22112092 -0.08013499
0003f0 f7 a3 ad be 48 d8 a8 bd b1 af 9a bd 3f b8 ec 3c
       -0.33914158 -0.082443774 -0.07553042 0.02889645

fc.2.bias f4 [256]
000000 54 4c 53 bf 52 45 91 be 6f fb 04 bf 5e e1 89 bf
       -0.8253834 -0.283732 -0.5194616 -1.0771902
000010 dc a8 c0 be be 48 a1 be 24 89 8c be dc dc 0e bf
       -0.3762883 -0.3150081 -0.2744838 -0.55805755
000020 22 0f cf be 9b 24 75 be 36 6f 98 be 37 78 f5 be
       -0.40441233 -0.23939745 -0.29772347 -0.4794328
000030 ad d2 cd be eb cb 1e bf a5 e2 65 be 67 a3 10 be
       -0.40199795 -0.62029904 -0.2244974 -0.14124833
000040 8d c8 9e bf cb da 52 bf a4 fe 42 bf e0 23 bc be
       -1.2404953 -0.823651 -0.761698 -0.3674612
000050 86 3c 55 bf 0a 5f 0f be 11 fc 24 bf 6f 5a 44 bd
       -0.83295476 -0.14001098 -0.6444712 -0.047937807
000060 cc 4f 97 bd 53 e3 3f be cb 01 e4 be 11 a0 bb be
       -0.07388267 -0.18739061 -0.44532618 -0.36645558
000070 a6 22 06 bf 4e f6 b1 be 0c 6c 9a be 0c 0d 45 be
       -0.5239662 -0.34758228 -0.30160558 -0.19243258
000080 3a 26 79 be 29 11 69 bf 17 a6 de be eb 43 24 bf
       -0.24330989 -0.9104181 -0.43486091 -0.64166135
000090 c5 66 02 bf a9 7a 1d bf 27 72 89 be 8a c5 2a be
       -0.50938064 -0.6151529 -0.26844904 -0.16676918
0000a0 97 52 00 bf 7c 65 67 be f2 da 78 bd 52 ef 75 bf
       -0.5012602 -0.22597307 -0.060755678 -0.960683
0000b0 7d 8e 0f bf 8e c7 5b be 3a 4c 4f bf a1 f5 c0 be
       -0.56076795 -0.21462843 -0.8097569 -0.376874
0000c0 f5 98 d7 be 13 a1 5b bf e1 3f 5c bf 49 e1 d8 be
       -0.42108884 -0.85792655 -0.8603497 -0.4235938
0000d0 29 93 35 bf 7c 8f ea be b2 0a 45 bf c4 cd 2a bf
       -0.70927674 -0.45812595 -0.76969445 -0.66720223
0000e0 63 30 b8 3e b6 2b 28 bf 4c 0f ec be d8 7a 42 bd
       0.35974416 -0.656917 -0.4610542 -0.047480434
0000f0 64 89 1f bf 4b dd ac bd c6 d8 84 bd 60 58 3f be
       -0.62319016 -0.08440646 -0.06486659 -0.18686056
000100 86 d6 28 bf 8f f6 ab be 41 f1 ff bc 39 36 e7 be
       -0.65952337 -0.33586547 -0.031242969 -0.45158556
000110 c4 5e 42 bf 6b 92 b5 be 5e 1c fe be 21 8f d2 be
       -0.7592585 -0.3546327 -0.49631017 -0.41124824
000120 68 eb 43 bd 4b fb 16 bf c5 55 b4 be e6 2c 07 be
       -0.047831923 -0.5897719 -0.35221687 -0.13200721
000130 ee 2c ea be 35 d1 81 be 44 dc 29 bf 66 79 e7 be
       -0.45737404 -0.25354925 -0.66351724 -0.45209807
000140 c4 ff d0 be c4 20 fa be 3e 11 60 bf 79 8d 89 be
       -0.40820134 -0.48853123 -0.8752631 -0.26865748
000150 12 57 d4 be ec bb 3f bf 5e 0b 23 bf 83 32 bf be
       -0.4147268 -0.7489612 -0.6368922 -0.37343225
000160 3e 22 46 bf 98 f9 48 bf c8 07 0e bf b6 2b 04 bf
       -0.77396 -0.7850585 -0.55480623 -0.516292
000170 84 b6 a6 be 14 4b 0d bf 30 63 bc be 8d 5b b3 bd
       -0.32561123 -0.55192685 -0.36794424 -0.08757696
000180 ff 3d 8b be 62 22 16 bf de d9 09 bf 2b 38 f8 be
       -0.27195737 -0.58646214 -0.53848064 -0.48480353
000190 0b 45 a6 be 4d 01 98 be 16 39 6e be 7e 84 2d bf
       -0.3247455 -0.29688492 -0.23263964 -0.6778029
0001a0 67 83 a6 be 7a 82 16 bf 3b 4a a3 be 79 a5 c9 be
       -0.32522127 -0.5879284 -0.3189257 -0.39384058
0001b0 34 14 be be 19 e9 56 be 2a 96 88 bf 6e d2 14 bf
       -0.3712479 -0.20987357 -1.0670826 -0.5813359
0001c0 0b 5b 1a bf 68 23 b2 be 23 90 7f bf ec c5 04 be
       -0.6029517 -0.34792638 -0.9982931 -0.12966126
0001d0 a2 f2 cf be 0e 6d 29 bf 74 e5 dd be ca a0 e6 be
       -0.40614802 -0.6618203 -0.4333912 -0.45044547
0001e0 80 c1 a2 be 49 11 58 bf 4b 08 80 bf 28 eb 18 bf
       -0.31788254 -0.84401375 -1.0002531 -0.5973382
0001f0 39 37 65 be bb d7 fa be 8d 07 39 be c3 2f 04 bf
       -0.22384347 -0.48992714 -0.18069287 -0.5163538
000200 79 2e 1d bf 69 42 5a bf d8 61 f2 be 40 ad 8e be
       -0.61399037 -0.85257584 -0.47340274 -0.27866554
000210 4b 66 16 be e9 52 45 bf 47 9c 63 bf af 8f 05 bf
       -0.14687459 -0.77079636 -0.88910335 -0.5217237
000220 da ca 0d bf bc 96 05 bf 35 70 81 bf 7c 74 5b bf
       -0.5538765 -0.5218313 -1.0112368 -0.85724616
000230 d2 d7 8c bf 3b 07 1a bf 58 81 48 bf e5 3e fc be
       -1.1003363 -0.6016728 -0.7832236 -0.49266735
000240 ef d4 ae be 78 8d b6 3e f8 93 9c be 89 06 23 bf
       -0.3414683 0.35654807 -0.3058164 -0.63681847
000250 0d c3 45 bf a0 af 61 bf 49 17 18 bf 5f 99 0c bf
       -0.7725075 -0.8815861 -0.5941053 -0.54921526
000260 cc 07 1b bf 72 7a a4 be cd 5d 80 bf e4 74 f1 be
       -0.6055877 -0.32124668 -1.0028626 -0.47159493
000270 7c bb 61 bf 4d 37 5c bf ee d7 24 bf 7b 61 2d bb
       -0.88176703 -0.8602188 -0.6439198 -0.0026455808
000280 40 f5 35 bf 1b 1a 90 be 94 36 09 bf b4 0c de be
       -0.71077347 -0.28144917 -0.53598905 -0.43369067
000290 5c a1 a8 bc d5 65 f8 be 8d 0e 9d bf ba a0 47 bf
       -0.020584755 -0.48515192 -1.2270066 -0.77979624
0002a0 7c 7d 52 bf 84 c0 59 bf d6 2d 23 bf 5f d9 cb be
       -0.82222724 -0.8505938 -0.63741815 -0.39814278
0002b0 e2 f8 c7 be 8a 17 d0 be 64 0b 63 bf b7 2e fe be
       -0.3905707 -0.4064296 -0.88689256 -0.49645016
0002c0 57 0a d1 be d4 17 03 bf 5c c8 b3 bd 45 92 9b be
       -0.408282 -0.51208234 -0.0877845 -0.30385032
0002d0 15 68 04 bf 6f 9a a4 be a0 83 04 bf 62 db 56 be
       -0.51721317 -0.32149073 -0.51763344 -0.20982125
0002e0 a0 94 a7 be d7 d4 15 bf 98 77 0f bf 68 79 0a be
       -0.3273058 -0.5852789 -0.5604186 -0.13522875
0002f0 03 00 64 bf 57 ab 90 bd 27 d1 56 bf 08 59 92 bd
       -0.8906252 -0.070639305 -0.8391289 -0.071458876
000300 b5 2b bc bd 26 c1 2d bf 98 de b0 be bb 8b 27 bf
       -0.09188024 -0.67872846 -0.34544826 -0.65447587
000310 c7 20 15 bf a3 dd b7 be 1c 47 29 bf 09 c7 22 bf
       -0.5825314 -0.35911283 -0.6612413 -0.63584954
000320 b3 13 c8 be 5e f3 86 bb 69 e9 85 bf 69 3d 50 be
       -0.3907753 -0.004118367 -1.0461856 -0.20335926
000330 6b 0b 09 bf cd 9c 30 bf 43 c8 c4 be d2 65 e5 bd
       -0.5353305 -0.6898926 -0.38434038 -0.11201061
000340 bd 84 2b be d3 61 0c bf 9c da 23 bf 6b f4 0d bf
       -0.16749854 -0.5483677 -0.64005446 -0.5545108
000350 36 cc 9e be 64 14 35 bf ca 28 61 bf f2 c1 36 bf
       -0.31015176 -0.7073424 -0.87952864 -0.7138969
000360 06 4b 21 bf a0 39 c8 be 9e 31 d5 be 45 f4 68 bf
       -0.630051 -0.39106464 -0.41639417 -0.90997726
000370 7e dc 33 bf 74 79 9e be bb 64 b3 be 39 3f d6 be
       -0.7025832 -0.30952036 -0.3503779 -0.4184511
000380 c8 61 c0 bd e6 2d 58 be f2 15 d6 be 3a 91 25 bf
       -0.0939365 -0.21111259 -0.41813618 -0.64674723
000390 e8 88 5c bd 18 0f 28 bf 7b 85 04 bc 01 10 a4 be
       -0.0538415 -0.6564803 -0.008088465 -0.3204346
0003a0 f3 c3 d1 be 0f 27 04 bd 8e 1c 56 bf d1 ff 07 bf
       -0.4096981 -0.03226381 -0.8363732 -0.5312472
0003b0 94 59 3f bf ea 50 d2 bc 66 3d b1 be 6c 99 54 bf
       -0.7474606 -0.025673348 -0.34617156 -0.83046603
0003c0 4a 73 1e bf 86 e3 3f be ae 35 4a bf fe 9c c0 be
       -0.6189467 -0.18739137 -0.7898816 -0.37619776
0003d0 d2 24 30 bf 60 c4 95 be c7 98 e9 bd dc f3 cc be
       -0.68806183 -0.29251385 -0.11406093 -0.400298
0003e0 84 a8 6d be af b0 5e be 90 80 66 bf 20 40 3b bf
       -0.23208815 -0.21747087 -0.9003992 -0.7314472
0003f0 87 92 30 bf 6a a8 7b be 68 35 99 be c5 8f cf be
       -0.68973583 -0.24575964 -0.29923558 -0.40539375

fc.4.weight f4 [101, 256]
000000 6b 2a 85 be 40 35 1e 3f 38 56 25 3d 47 ad ae bc
       -0.26008925 0.61800003 0.040365428 -0.02132286
000010 7a 81 08 bf 68 95 aa 3e fc 36 d7 be ca 1e 0c bf
       -0.53322566 0.33317113 -0.42034137 -0.5473448
000020 cf f3 4a bf 08 1d b0 bd 34 86 8a 3e 4f e9 f8 be
       -0.7927827 -0.08599287 0.27055514 -0.486155
000030 73 f1 12 3e be 1d c4 be 29 09 c8 3e f2 7f 99 3f
       0.14349918 -0.3830394 0.3906949 1.1992171
000040 e1 9d 62 bd 1d d4 4e bf 5d de 2d 3f 89 cd 1a be
       -0.055326346 -0.8079241 0.67917424 -0.15117468
000050 4d 3e 22 3f 13 ec fc be 9a e5 32 be 71 de 2f 3d
       0.63376313 -0.4939886 -0.17470399 0.042936746
000060 32 79 98 3e 92 af 28 bf 74 d4 83 3e 14 dd e9 be
       0.29779965 -0.658929 0.25748026 -0.45676482
000070 33 53 25 3e a5 e0 f3 bd 70 b9 d3 3e 0b 67 84 be
       0.16145019 -0.11908082 0.41352415 -0.25859866
000080 a2 db 85 be a7 1e 37 bd 44 46 ca be 37 34 8d 3f
       -0.2614413 -0.044706967 -0.39506733 1.103156
000090 db 7b 8a 3e 4a 5c 4a 3f fd 64 04 bf aa 4e 02 3f
       0.2704762 0.7904707 -0.51716596 0.5090128
0000a0 8f 81 f1 3d ab 0f 9e 3e 23 23 0d be d6 a8 cc 3e
       0.117922895 0.3087133 -0.13782935 0.39972562
0000b0 85 6b b6 bd ce 0a b9 be 99 87 3f bf 58 c4 e7 3e
       -0.089072265 -0.36141056 -0.7481628 0.45266986
0000c0 ad 19 3c be 07 d9 bf be d1 16 b4 bd 53 15 e5 be
       -0.1836917 -0.37470266 -0.087934144 -0.44742832
0000d0 a1 31 3b be 97 eb 6b be 80 03 18 bf 4a 25 24 3e
       -0.1828065 -0.23039089 -0.5938034 0.1602985
0000e0 3c a8 1f bf 26 cf ce 3e e4 8f 72 be ac 90 3a bf
       -0.6236608 0.40392417 -0.23687702 -0.72877
0000f0 c5 c8 91 bd 5b 9d b9 3e fc 3f 05 be 95 e5 55 bf
       -0.07118372 0.36252865 -0.1301269 -0.8355344
000100 c6 d2 c9 3e 76 1b 1a 3e 0c 9c c5 3e 6c 5a 77 bf
       0.3941862 0.15049538 0.38595617 -0.9662235
000110 59 b5 93 3f 82 ce 75 bd e4 7b 51 be 03 5c 1d bf
       1.1539718 -0.060011394 -0.20457417 -0.61468524
000120 3a 02 ba bf cb 7b 87 3e 45 28 4c 3e 7a d1 ae be
       -1.453193 0.26461634 0.19937237 -0.34144193
000130 c8 16 97 bf f6 27 ff 3e 3c 9a 06 3d 98 2c 11 3f
       -1.1803827 0.49835175 0.032861933 0.5670867
000140 28 6e 77 3f a0 87 e3 3e 19 f4 37 3e 40 2b 83 bf
       0.9665246 0.4443941 0.1796421 -1.0247574
000150 32 85 ae 3c cd c7 ce bc 70 d9 86 3e 7f a1 9f 3e
       0.021303747 -0.025241757 0.26337767 0.311779
000160 b2 b5 9b be 8c 48 c7 be 79 8a 56 bf f5 c4 32 be
       -0.3041206 -0.38922536 -0.8380504 -0.17457946
000170 90 c0 18 3f 5f ef da be 34 a5 47 bd ea 7e b0 3e
       0.5966883 -0.4276075 -0.048741534 0.34471828
000180 0e 5c 81 bf 14 58 d0 be b7 43 ea 3e 07 d1 3a 3f
       -1.0106218 -0.40692198 0.45754787 0.729752
000190 93 d2 44 3e 8a 13 07 3e 04 7b 96 3e 19 16 d0 bd
       0.19220953 0.13191047 0.29390728 -0.10160465
0001a0 95 77 a6 bd ee 7f 81 bf 86 c4 bf be 00 2c a0 be
       -0.08128277 -1.0117166 -0.37454623 -0.3128357
0001b0 fc 7a 2b 3e 79 f2 83 3e 74 8d 1c be 92 75 7b 3d
       0.16746134 0.2577093 -0.15288335 0.06139142
0001c0 4a 77 8b 3e cf 8a 23 3e 8a ee 58 3f e4 a3 93 3c
       0.27239448 0.1597092 0.8473898 0.018022485
0001d0 bf bb f5 be e0 09 2c bf 6c ae aa 3c ee 7c 94 3f
       -0.479948 -0.6720257 0.020835124 1.1600626
0001e0 3f 2f e8 3e f3 b7 dc 3e 2c 86 86 3d 34 25 0e 3f
       0.45348546 0.43109092 0.0656856 0.5552552
0001f0 7e 85 0b 3f 3e fe 7b bf c9 bf 3f 3e a7 57 3e be
       0.5450057 -0.9843482 0.18725504 -0.18588124
000200 bd e8 af be 0d c4 3b bf f1 c7 ff 3e de aa 64 3f
       -0.34357253 -0.73346025 0.4995723 0.8932322
000210 1e 5a 57 3e b5 3b 3b bf 1c 94 1d bf 50 ee a2 be
       0.2103047 -0.7313798 -0.6155412 -0.31822443
000220 31 0d 19 3f 7e db 80 bf 5d 7f 70 3f 06 f5 5d be
       0.59785753 -1.0066984 0.9394434 -0.216755
000230 47 c4 71 be f5 7b 16 3f 82 90 85 bc c0 79 dd 3e
       -0.2361003 0.58782893 -0.016304258 0.4325695
000240 40 ac ad 3e c2 c9 76 3f b8 03 e2 3e ed aa b9 3e
       0.3392048 0.9640161 0.44143462 0.3626322
000250 4a 02 4a 3e 9e 6c 30 3f 7b 19 68 3d a2 fc c9 be
       0.19727436 0.68915737 0.056664925 -0.39450556
000260 0e f5 89 bd 01 7f b3 3e 82 c4 14 3e ab 85 05 3f
       -0.067361936 0.35057834 0.14528087 0.52157086
000270 04 e7 fc 3e 02 4a a4 3e 4b 0f 81 3f 18 d0 77 3e
       0.49395 0.32087713 1.0082792 0.24200475
000280 ea aa 28 3f 46 1f 5e be c8 bf 63 3e fc 29 1a bf
       0.65885794 -0.21691617 0.22241127 -0.60220313
000290 b5 7b 14 3d ce ab 35 bd e1 78 3e bd 90 31 6f bf
       0.03625079 -0.0443533 -0.046501998 -0.93435
0002a0 ea 73 93 3e 6d b9 bc bc 29 6a 4f 3f 93 84 f5 be
       0.28799373 -0.023037637 0.8102136 -0.4795271
0002b0 3e 29 29 bd 6b 65 f6 be fd 4e 48 3e 4c 1d fa 3e
       -0.041299097 -0.4812425 0.19561382 0.48850477
0002c0 7e ac 93 be 9a 02 38 3e ef 55 7e be 01 2f 9d 3d
       -0.2884254 0.17969742 -0.24837469 0.07674981
0002d0 96 5a 04 bf f2 25 a7 3d 5b c3 1f 3f 1d c9 e3 be
       -0.51700723 0.08161534 0.62407464 -0.44489375
0002e0 6e 89 07 3e d7 8b b4 bc fd 81 5c 3f 5e 4f 8a 3e
       0.13236019 -0.022039337 0.86135846 0.27013677
0002f0 4c d1 3f 3f 91 7a ba be 91 4c 70 3d 91 5a 1f be
       0.74928737 -0.36421636 0.05866677 -0.15561892
000300 43 30 e7 3e 80 fe 5d 3e 6d 25 be be 89 47 1e be
       0.45154008 0.21679115 -0.3713793 -0.15456976
000310 c6 f1 a7 be a7 04 3c 3f a0 9c c3 3e c2 de 68 be
       -0.32801646 0.734446 0.38205433 -0.22741225
000320 90 52 f5 bd e0 12 35 be 3e 7b 4b 3c 61 91 1c be
       -0.11978638 -0.17682981 0.01241952 -0.15289833
000330 ea 2d 83 be b1 a4 ca ba d5 b7 da 3d 15 9d 35 bf
       -0.25620967 -0.0015460459 0.106795944 -0.70942813
000340 b8 ac 00 bf fe 09 5c be 77 22 59 3f 48 ef f0 bd
       -0.5026355 -0.21488187 0.84818214 -0.11764389
000350 2b 78 c8 3e a7 29 32 3f 8f 9d db 3e 39 ab 46 3e
       0.3915418 0.69594806 0.42893645 0.19401254
000360 0a 4d 81 3e ca 7a 8c 3e 77 62 e5 3d 75 66 9a be
       0.2525409 0.2743743 0.11200421 -0.30156294
000370 60 8f ad 3e 80 d5 33 3f 16 21 2f 3f 73 42 83 3e
       0.3389845 0.7024765 0.6840986 0.25636634
000380 37 93 bd be 77 8e 06 be 9c 9e 01 3f 0f e5 66 bf
       -0.3702638 -0.13140284 0.50632644 -0.90193266
000390 7c c3 36 bf a9 a4 19 bf 97 d3 a1 bd 84 70 70 be
       -0.71392035 -0.60016876 -0.07901686 -0.23480421
0003a0 88 e6 20 3d 26 6b a1 bd 17 c5 70 bf cb 86 ac be
       0.03928235 -0.07881765 -0.94050735 -0.3369659
0003b0 8f 86 9a 3e 46 d9 27 bf 27 48 33 3f 80 ff c3 be
       0.30180785 -0.6556591 0.7003197 -0.3828087
0003c0 27 2d 56 be 51 1e f7 be b5 9d 7f be a3 3a 9e bd
       -0.20915662 -0.48265317 -0.24962504 -0.07726028
0003d0 77 ea ea be b0 62 8c 3e 73 ab 24 3f 9b e7 60 3e
       -0.45882007 0.27419043 0.6432411 0.2196335
0003e0 10 45 4b bf 09 42 ef 3d 4d d0 de bd 30 59 17 3f
       -0.79402256 0.11682517 -0.10879574 0.59120464
0003f0 a2 ef 36 bf 21 8d 0c bf ec 3d 00 bd b5 95 77 bf
       -0.714594 -0.54902846 -0.031309053 -0.9671281

fc.4.bias f4 [101]
000000 d8 11 ab 3d 6a f8 40 3e 83 83 b0 bd 5c 47 72 bd
       0.08353013 0.18844762 -0.08618834 -0.059150085
000010 7c 44 61 be 6e 6f d9 3c e8 25 d6 3b ec dc 83 be
       -0.21998781 0.026542392 0.0065352805 -0.25754488
000020 56 87 da be bd 6b 6c be 65 3e 88 be 03 90 dc be
       -0.42681378 -0.23087974 -0.26610103 -0.43078622
000030 ca b0 02 bf de 93 be be 60 fb a9 be ce 14 c2 be
       -0.5105101 -0.3722219 -0.33199596 -0.37906498
000040 94 92 19 bf 81 42 09 bf 5e dc 30 bf 5c 64 dc be
       -0.59989285 -0.536171 -0.69086254 -0.43045318
000050 94 e5 01 bf 93 b4 3e bf dd 08 3a bf 5f 72 5e bf
       -0.50740933 -0.74494284 -0.72669774 -0.86893266
000060 20 86 80 bf 7c 83 2c bf c2 93 12 bf 5a 7b 81 bf
       -1.0040932 -0.6738813 -0.5725671 -1.0115769
000070 62 ab 0f bf b1 9d 32 bf 62 29 5a bf 4e 76 3d bf
       -0.56120884 -0.6977187 -0.85219395 -0.74008644
000080 c1 6c 3c bf 08 f8 54 bf 1a 87 63 bf 36 bd 4a bf
       -0.73603445 -0.83190966 -0.88878024 -0.7919496
000090 b8 0b 45 bf 9e 4a 1e bf 26 ef 42 bf 18 b1 7f bf
       -0.76971006 -0.61832607 -0.7614616 -0.998796
0000a0 d2 1d 57 bf fe 69 4a bf 06 2f 68 bf 0f a6 3a bf
       -0.8402988 -0.7906798 -0.9069675 -0.72909635
0000b0 b5 be 45 bf b3 df 3e bf 95 22 52 bf 45 db 82 bf
       -0.7724412 -0.7456009 -0.8208402 -1.0223166
0000c0 fc 36 35 bf d6 c9 21 bf 4b a2 54 bf ee c6 75 bf
       -0.70787024 -0.631986 -0.8306014 -0.9600667
0000d0 ac 12 62 bf 6c 62 10 bf 5b fb 4a bf 75 31 62 bf
       -0.8830974 -0.5640018 -0.7928979 -0.88356715
0000e0 5a 8f 7b bf 74 80 4e bf cb fb 87 bf 8d 92 64 bf
       -0.9826561 -0.80664754 -1.0623716 -0.8928612
0000f0 38 80 1f bf f3 fd 6b bf 51 d4 60 bf aa 0e 19 bf
       -0.6230502 -0.9218437 -0.8782397 -0.59788
000100 6b fa 64 bf 04 88 32 bf 87 61 60 bf 53 93 2a bf
       -0.8944461 -0.69738793 -0.87648815 -0.6663105
000110 a5 65 49 bf d9 61 5b bf 00 c2 4c bf d7 78 3e bf
       -0.7867072 -0.8569618 -0.7998352 -0.74403137
000120 39 20 74 bf b3 4b 64 bf c4 57 2b bf b7 fb 34 bf
       -0.9536167 -0.8917801 -0.66930795 -0.70696586
000130 c6 1a 66 bf 05 cd 28 bf 8b b5 10 bf ca 45 55 bf
       -0.89884603 -0.65937835 -0.5652701 -0.83309615
000140 a9 06 09 bf e3 88 31 bf 1f 0b 4a bf 67 06 58 bf
       -0.5352579 -0.693495 -0.7892322 -0.8438477
000150 48 86 10 bf 2b 08 63 bf fc a0 1b bf da fb 4c bf
       -0.56454897 -0.8868434 -0.6079252 -0.80071795
000160 9b 9e 48 bf bf 04 5f bf 4f 46 69 bf 5c 47 2b bf
       -0.7836701 -0.87116617 -0.9112291 -0.6690576
000170 e4 61 4e bf 95 d0 ae be f3 40 4b bf a2 e0 d7 be
       -0.8061812 -0.3414351 -0.7939598 -0.4216357
000180 47 01 8c bf cc 6c 82 bf 61 52 75 bf e5 d9 03 bf
       -1.093789 -1.0189452 -0.95828825 -0.51504356
000190 23 d8 13 bf
       -0.57751673

temporal_smoother.weight f4 [1, 1, 13]
000000 7a a7 b6 bb 72 38 2a 3c 27 5e 8a bd 8f 56 fc bc
       -0.005574164 0.010389434 -0.067562394 -0.030802993
000010 e1 c0 cc bd 3b a4 5d bd 0c d1 2e 3c d9 53 06 3d
       -0.09997726 -0.0541117 0.010669958 0.032794807
000020 74 d6 44 ba f6 33 65 bc 00 7b 54 bc 90 27 8f bc
       -0.00075087626 -0.013989439 -0.012968779 -0.01747492
000030 42 60 c8 3b
       0.0061149905
