generator_gan_ff_ts_128_9.pth (torch, 347160 bytes, 7 tensors)

fc.0.weight f4 [128, 101]
0.02372383 0.03094442 0.044704575 -0.06446986 -0.0071102427 -0.08034721 0.0028170163 -0.048897456
0.036693756 0.07215649 0.027439497 -0.0740747 0.027519925 -0.051695693 0.010679419 -0.014688429
-0.03616522 0.02283321 -0.04973135 0.02832574 -0.013250268 0.009318538 0.027908174 -0.029021507
0.09690253 -0.001337914 -0.01822441 -0.018290484 0.04163548 0.0614605 -0.048118725 0.07691711
0.03653951 0.042592153 0.001636222 0.04726511 -0.014490122 -0.04567966 0.002193175 -0.0031935603
0.014369109 -0.1346302 -0.0366127 -0.04294686 0.02244487 -0.000889782 -0.050655946 -0.043795012
-0.053411026 0.044205558 -0.0015623969 0.068205506 0.008456339 0.06870688 0.03382684 0.029914964
0.026091037 0.03974097 0.056575447 -0.06537592 0.017416144 -0.026194677 -0.023598805 -0.055008024
-0.011562487 -0.00014798717 -0.013904662 0.09961243 -0.040415652 -0.012007432 -0.011526991 -0.047403526
0.033291075 -0.029143589 0.06283986 -0.02598286 0.0075368974 -0.011475635 -0.014734568 -0.041869875
-0.05403951 -0.00519129 0.05944381 -0.018545033 0.026790207 -0.016663266 0.0459254 0.03868554
-0.02156256 0.035664875 -0.0010318088 -0.057467226 -0.006439135 -0.032203794 0.04810312 0.058515053
-0.0745674 -0.029610975 0.01881258 0.041344866 0.21958305 -0.00010456772 0.032412566 0.056882277
0.00063263136 0.021123609 0.046518777 -0.006954431 -0.036142852 -0.11017809 -0.11396403 0.12249206
-0.049548432 -0.019932747 0.090770215 -0.008141668 0.019402351 0.026323505 -0.08184554 0.0019772542
0.035771534 -0.033278566 0.06357626 -0.1809305 -0.03529133 -0.017295813 0.05163428 -0.062387414
0.027633132 0.0017049705 0.064298555 0.054610334 0.12413606 0.017288888 -0.048406035 0.06453602
-0.07370661 -0.044570718 -0.048932273 -0.016331106 -0.0043169195 -0.06928128 -0.06702076 0.09214328
0.04426403 -0.05451086 0.057199 0.012483766 0.007088556 0.09534361 0.055202406 -0.11214118
0.030356599 0.1241824 0.129589 0.096980095 -0.06029217 -0.0003731951 -0.014932957 0.042706784
0.10704532 0.04968428 0.010211492 -0.08802532 0.0009200039 0.023840027 0.052335393 -0.029427303
0.019897202 0.06612891 -0.03518633 -0.012721367 0.033999614 -0.06186353 -0.06106851 0.012772784
0.120371714 0.025468431 0.04092742 -0.058626164 -0.011183653 0.043797918 -0.11324645 0.06963597
0.07873842 0.015469916 0.020228148 -0.021147594 -0.07111275 0.031047283 0.049918454 -0.03272312
-0.087235235 0.0063152076 0.05376114 0.028278671 -0.12357574 0.044270232 -0.05846247 -0.055445
-0.011809572 -0.5358788 -0.055141814 0.025837446 -0.049344964 -0.022935465 -0.0020285477 -0.034935445
-0.02470785 0.13207985 -0.04780212 0.06736469 -0.046545073 0.05849914 0.03968586 0.03613774
0.006293845 -0.020214254 -0.017341826 0.015286681 -0.019614281 0.01590336 -0.11580112 -0.018453745
0.047686383 -0.033796035 0.038119406 -0.0086854715 -0.04550979 -0.11249412 -0.040155765 0.037633777
0.024291359 -0.016491225 -0.048329342 -0.0017981508 0.032704037 -0.118727185 -0.056315616 -0.028787876
0.030914228 0.106503 0.0020359696 0.039672885 -0.050753918 0.041160937 -0.026627699 -0.012901624
-0.09962083 0.079827175 -0.0009595903 0.11003405 -0.08375907 0.08390102 -0.010560577 -0.09557797
00000000: 7a58 c23c 277f fd3c 251c 373d c608 84bd
00000010: 0afd e8bb 148d a4bd b19d 383b b348 48bd
00000020: 314c 163d c8c6 933d ccc8 e03c 7ab4 97bd
00000030: 7771 e13c ddbe 53bd bbf8 2e3c bda7 70bc
00000040: fb21 14bd b60c bb3c 1ab3 4bbd 620b e83c
00000050: a717 59bc c8ac 183c af9f e43c 83be edbc
00000060: d574 c63d f25c afba 5c4b 95bc edd5 95bc
00000070: f789 2a3d 01be 7b3d 2418 45bd b886 9d3d
00000080: 74aa 153d 1c75 2e3d 8076 d63a 0f99 413d
00000090: fa67 6dbc 981a 3bbd 5fbb 0f3b 0d4b 51bb
000000a0: 696c 6b3c 80dc 09be 33f7 15bd 0ce9 2fbd
000000b0: 4ede b73c 4240 69ba 9c7c 4fbd 6662 33bd
000000c0: 85c5 5abd e310 353d 57c9 ccba 54af 8b3d
000000d0: 758c 0a3c 31b6 8c3d 038e 0a3d 3a10 f53c
000000e0: dfbc d53c 6dc7 223d a8bb 673d cfe3 85bd
000000f0: 4dac 8e3c 3896 d6bc 4852 c1bc 1850 61bd
00000100: 9670 3dbc 012d 1bb9 61d0 63bc 9a01 cc3d
00000110: e28a 25bd d2ba 44bc b4db 3cbc 332a 42bd
00000120: 395c 083d 89be eebc 2fb2 803d 02da d4bc
00000130: 14f8 f63b 4d04 3cbc 4269 71bc bf7f 2bbd
00000140: 8958 5dbd b21b aabb 5a7b 733d c1eb 97bc
00000150: 2377 db3c 6781 88bc 461c 3c3d bb74 1e3d
00000160: f7a3 b0bc 5515 123d c23d 87ba c162 6bbd
00000170: 61ff d2bb 20e8 03bd c707 453d 7bad 6f3d
00000180: cbb6 98bd b792 f2bc d71c 9a3c 3c59 293d
00000190: 61da 603e 5e4b dbb8 0ac3 043d 64fd 683d
000001a0: 2cd7 253a 6b0b ad3c 798a 3e3d ffe1 e3bb
000001b0: 870a 14bd 0da5 e1bd f965 e9bd 1edd fa3d
000001c0: 4cf3 4abd 004a a3bc bce5 b93d a164 05bc
000001d0: aef1 9e3c 64a4 d73c a29e a7bd d294 013b
000001e0: 2c85 123d 1b4f 08bd 4534 823d d845 39be
000001f0: a48d 10bd f3af 8dbc 777e 533d f289 7fbd
00000200: e15e e23c 5179 df3a f6ae 833d 16af 5f3d
00000210: 0c3b fe3d 6da1 8d3c 6845 46bd 762b 843d
00000220: 7ef3 96bd c98f 36bd 356d 48bd d0c8 85bc
00000230: f274 8dbb 58e3 8dbd 2e42 89bd 9eb5 bc3d
00000240: 334e 353d c846 5fbd 8049 6a3d b688 4c3c
00000250: 1e47 e83b 8343 c33d eb1b 623d 46aa e5bd
00000260: 67ae f83c 5853 fe3d fbb2 043e 809d c63d
00000270: ecf4 76bd 66a9 c3b9 5ca9 74bc 4fed 2e3d
00000280: 943a db3d be81 4b3d 1a4e 273c 9e46 b4bd
00000290: 6b2c 713a 294c c33c a35d 563d 8711 f1bc
000002a0: 75ff a23c 986e 873d 8b1f 10bd 486d 50bc
000002b0: 2e43 0b3d 9d64 7dbd f922 7abd f044 513c
000002c0: 7285 f63d 2ca3 d03c 83a3 273d fd21 70bd
000002d0: a43b 37bc 7265 333d c1ed e7bd 4e9d 8e3d
000002e0: 9c41 a13d 8875 7d3c 80b5 a53c b83d adbc
000002f0: 90a3 91bd df56 fe3c 4b77 4c3d ae08 06bd
00000300: 63a8 b2bd cdef ce3b a434 5c3d aca8 e73c
00000310: 4715 fdbd b454 353d 5876 6fbd 4c1a 63bd
00000320: ef7c 41bc 5a2f 09bf 62dc 61bd 0da9 d33c
00000330: f21d 4abd 28e3 bbbc 62f1 04bb 7818 0fbd
00000340: 1e68 cabc f13f 073e 28cc 43bd 80f6 893d
00000350: 0ca6 3ebd cb9c 6f3d a48d 223d 2b05 143d
00000360: 993c ce3b 5d98 a5bc 7210 8ebc fd74 7a3c
00000370: 21ae a0bc c347 823c 2329 edbd 4f2c 97bc
00000380: cc52 433d b66d 0abd 1823 1c3d 824d 0ebc
00000390: 7968 3abd 5163 e6bd 5f7a 24bd e025 1a3d
000003a0: acfe c63c 9b18 87bc fdf4 45bd eeaf ebba
000003b0: abf4 053d 3d27 f3bd 34ab 66bd 8dd4 ebbc
000003c0: d63f fd3c 3f1e da3d e76d 053b 0980 223d
000003d0: 57e3 4fbd 5f98 283d 5522 dabc 5561 53bc
000003e0: 0106 ccbd 6e7c a33d 048d 7bba 8859 e13d
000003f0: e089 abbd 4cd4 ab3d 4506 2dbc 62be c3bd

fc.0.bias f4 [128]
-2.0576704 -2.1346376 -2.4879248 -2.3078098 -2.2823906 -1.720752 -2.572533 -2.5373347
-2.676589 -1.0394226 -2.4745922 -1.9314921 -2.291911 -2.332036 -2.1981182 -2.4854505
-2.4038231 -1.4407719 -1.8768375 -2.240318 -2.3614295 -2.4727585 -1.7089144 -2.4994226
-2.5338118 -2.3113596 -2.3919425 -2.0648456 -2.3901942 -1.4675688 -2.143715 -1.8765223
-1.5375179 -2.3202767 -2.180687 -2.116486 -1.7249409 -1.6736138 -2.3419192 -1.9573289
-2.3240428 -1.0380406 -2.3195477 -2.0357304 -2.378081 -2.2775314 -2.5535448 -1.993972
-2.2845922 -2.0547593 -2.6410482 -1.7514945 -1.7216908 2.3100102 -2.6587439 -2.360068
-2.0823147 -2.5077596 -2.1567202 -2.2215967 -2.5732956 -2.3515787 -2.4289308 -2.3249094
-2.2392046 -2.033185 -2.4514458 -2.3135614 -1.8523836 -2.6885326 -2.1482239 -2.4841404
-2.422874 -2.5415325 -2.499547 -2.2347417 -2.221095 -2.1861985 -1.8358846 -2.5355968
-2.0775232 -1.7856467 -1.0887754 -2.371193 -2.321223 -1.9406419 -1.9239825 2.3045485
-2.4265494 -2.7708 -2.4466996 -2.24026 -1.8829927 -2.270039 -2.5260763 -2.5110118
-2.3189702 -1.460872 -2.5258644 -1.6139121 -2.567521 -1.7851208 -2.5794382 -2.0906503
-1.8012413 -2.3619225 -2.2737072 -2.478751 -2.25612 -2.4549694 -2.2088742 -2.366602
-2.2840223 -1.6075586 -2.3909912 -2.328869 -1.9241083 -2.6496546 -2.5213454 -2.2175968
-1.9218199 -2.506664 -2.0914917 -2.2759924 -2.585377 -2.5096643 -2.1839833 -2.4058952
00000000: dfb0 03c0 e79d 08c0 293a 1fc0 28b3 13c0
00000010: b012 12c0 9a41 dcbf 61a4 24c0 b163 22c0
00000020: 3c4d 2bc0 cd0b 85bf b85f 1ec0 223b f7bf
00000030: abae 12c0 1440 15c0 f8ad 0cc0 9f11 1fc0
00000040: 3dd8 19c0 376b b8bf 363c f0bf 5f61 0fc0
00000050: a921 17c0 ad41 1ec0 b5bd dabf 8af6 1fc0
00000060: f929 22c0 51ed 13c0 9615 19c0 6e26 04c0
00000070: f1f8 18c0 4bd9 bbbf a032 09c0 e231 f0bf
00000080: 63cd c4bf 6a7f 14c0 6090 0bc0 8274 07c0
00000090: ddca dcbf fa38 d6bf 01e2 15c0 c189 fabf
000000a0: 1ebd 14c0 84de 84bf 7873 14c0 6849 02c0
000000b0: 7b32 18c0 13c3 11c0 476d 23c0 793a ffbf
000000c0: c236 12c0 2d81 03c0 ef06 29c0 f930 e0bf
000000d0: 5d60 dcbf 35d7 1340 dc28 2ac0 5b0b 17c0
000000e0: a544 05c0 227f 20c0 b407 0ac0 a42e 0ec0
000000f0: e0b0 24c0 4480 16c0 9a73 1bc0 51cb 14c0
00000100: 214f 0fc0 b41f 02c0 7de4 1cc0 6411 14c0
00000110: e81a edbf eb10 2cc0 807c 09c0 28fc 1ec0
00000120: 5e10 1bc0 78a8 22c0 94f8 1fc0 0206 0fc0
00000130: 6c26 0ec0 adea 0bc0 44fe eabf 3847 22c0
00000140: 24f6 04c0 1290 e4bf fe5c 8bbf a0c1 17c0
00000150: eb8e 14c0 f466 f8bf 0f45 f6bf b97d 1340
00000160: 964c 1bc0 ca54 31c0 ba96 1cc0 6b60 0fc0
00000170: e805 f1bf 5248 11c0 3cab 21c0 6bb4 20c0
00000180: 026a 14c0 dbfd babf c3a7 21c0 ac94 cebf
00000190: 4452 24c0 d77e e4bf 8415 25c0 37cd 05c0
000001a0: 138f e6bf bd29 17c0 6b84 11c0 dba3 1ec0
000001b0: 4564 10c0 381e 1dc0 325e 0dc0 6876 17c0
000001c0: 6c2d 12c0 7bc4 cdbf 0006 19c0 310c 15c0
000001d0: 2e49 f6bf f193 29c0 b95d 21c0 1bed 0dc0
000001e0: 32fe f5bf 2f6d 20c0 00db 05c0 dca9 11c0
000001f0: d176 25c0 579e 20c0 62c6 0bc0 30fa 19c0

fc.2.weight f4 [256, 128]
-0.29858312 -0.9912711 0.062323734 -0.15633614 -0.56096137 -0.056273963 -0.11005634 -0.019830529
-0.0760546 -0.49890846 -0.02317299 0.046889614 -0.2652582 -0.000951418 -0.2478453 -0.11786474
-0.019374741 0.059166715 -0.060141496 -0.13730147 -0.18458878 -0.04594715 0.37328994 -0.016843209
0.034814 -0.1004355 -0.08663707 -0.44835606 0.051068895 -0.7762474 -0.18165787 -0.53154314
-0.16494599 -0.0707789 0.07087023 0.03594851 -0.62014204 -0.20609918 -0.099555686 -0.50283295
-0.23734055 0.44920352 0.15470804 0.18225828 -0.2791768 -0.262114 0.044146977 0.036142692
0.050919555 -0.45654106 -0.043164715 -0.9701405 -0.10700823 -0.5565977 -0.115664035 -0.04339368
-0.04610018 -0.05867039 0.43755686 -0.029001305 0.04490761 -0.04739192 -0.13200094 -0.061991546
-0.16310158 0.016564792 -0.14447099 -0.19604969 -1.0117258 -0.096048415 0.052844014 -0.21378747
-0.28175756 -0.30637738 -0.01805966 -0.051584274 0.0980479 0.09529737 0.56359047 -0.15365118
-0.30086336 -0.13549235 -0.5620026 0.021532618 -0.1327052 0.07560801 0.69957143 -0.11777135
0.08377627 -0.2342209 -0.12557377 0.051219463 -0.43943113 -0.008058579 -0.32110783 0.1747123
-0.17781466 -0.5510911 0.09378897 -1.2476722 -0.042592734 -0.29018068 -0.08611919 -0.43451616
-0.87885195 -0.19153832 0.08870342 -0.20194791 -0.638279 -0.16361195 -0.102238856 -0.1726288
-0.17051291 -0.8315913 0.0008407992 -0.26013175 -0.4498111 0.124025665 -0.21771243 -0.16775644
-0.40235695 -0.050619654 -0.50678825 0.44934684 0.08339236 0.14859124 -0.1591146 0.028768787
-0.26975074 0.08122069 0.016372174 0.04794638 -0.37862504 -0.5043581 -0.11398649 -0.15043439
-0.040875014 -0.14229827 -0.05089623 -0.19590577 -0.14483881 -0.12565017 -0.1931371 -0.22770117
-0.029222425 -0.43124622 -0.1632516 0.029297711 -0.10382555 -0.0133171715 -0.4176855 -0.119607374
0.06628253 -0.10541434 -0.027566953 -0.10670214 -0.14277762 -0.28206718 -0.07829969 0.006191305
0.0016307497 -0.036239237 -0.19559713 -0.0709126 -0.13832659 0.16587447 0.07214499 -0.11991525
0.07361084 0.0037260752 -0.062566765 -0.008370384 -0.109429 0.063104086 0.06890603 -0.16192733
0.020818247 -0.42869344 -0.1805946 -0.33979085 -0.1335392 -0.22763845 0.029525239 -0.038553994
0.12870088 -0.04387835 0.08870987 0.020703396 0.03280998 -0.16564061 -0.07886537 -0.12366717
0.103574805 -0.23521717 -0.10159412 -0.24914993 0.057779733 0.10715345 -0.1730609 -0.22701028
-0.121903315 0.0068347403 -0.08735944 -0.025475632 -0.00035187768 -0.024574097 -0.7459987 -0.018279484
-0.041966643 -0.073483236 0.76233816 -0.14265274 -0.023955975 -0.03799808 -0.05747294 -0.17238122
-0.0411183 0.14826946 -0.2165076 0.10525109 -0.17098631 -0.11107416 0.06398734 -0.089724734
0.149673 -1.2195609 -0.03843312 -0.35810465 -0.0504278 0.07179543 -0.021134544 -0.0884855
0.54119253 -0.39012098 -0.06265549 -0.10750027 -0.25675872 -0.2919399 -0.05884095 -0.14668676
-0.17974354 0.21497586 -0.03643552 -0.068742625 0.69050795 0.16962343 -0.10372666 -0.15484385
0.41802174 -0.098487586 -0.12798212 0.09129939 -0.07144899 -0.19583523 -0.24421296 -0.09672622
00000000: e3df 98be f1c3 7dbf 2c47 7f3d 9516 20be
00000010: 2a9b 0fbf 877f 66bd 3865 e1bd a273 a2bc
00000020: 84c2 9bbd ee70 ffbe 48d5 bdbc 530f 403d
00000030: eccf 87be 9568 79ba 29cb 7dbe 1263 f1bd
00000040: c7b7 9ebc cc58 723d ee56 76bd c298 0cbe
00000050: d704 3dbe 1433 3cbd dc1f bf3e c5fa 89bc
00000060: 2099 0e3d 21b1 cdbd c76e b1bd ed8e e5be
00000070: 9e2d 513d 26b8 46bf 8504 3abe 3613 08bf
00000080: 9ae7 28be 87f4 90bd 6924 913d bf3e 133d
00000090: a1c1 1ebf aa0b 53be dae3 cbbd a9b9 00bf
000000a0: 6709 73be 01fe e53e c96b 1e3e eaa1 3a3e
000000b0: 43f0 8ebe ce33 86be 76d3 343d 5c0a 143d
000000c0: 0691 503d c0bf e9be 7ccd 30bd 215b 78bf
000000d0: 2227 dbbd 307d 0ebf 44e1 ecbd 92bd 31bd
000000e0: 8bd3 3cbd 5d50 70bd 7407 e03e 2594 edbc
000000f0: 0bf1 373d 081e 42bd 412b 07be d9ea 7dbd
00000100: 1a04 27be e3b2 873c 34f0 13be 40c1 48be
00000110: 3b80 81bf 08b5 c4bd f772 583d 1aeb 5abe
00000120: 8742 90be 7fdd 9cbe daf1 93bc 084a 53bd
00000130: 56cd c83d 442b c33d 7747 103f bc56 1dbe
00000140: c30a 9abe 82be 0abe 67df 0fbf 2c65 b03c
00000150: dfe3 07be 5fd8 9a3d 1d17 333f 1b32 f1bd
00000160: e592 ab3d 9bd7 6fbe 6996 00be 80cb 513d
00000170: 1efd e0be 2108 04bc 3f68 a4be c8e7 323e
00000180: 0c15 36be 4e14 0dbf 6e14 c03d b9b3 9fbf
00000190: b875 2ebd 9092 94be 425f b0bd e778 debe
000001a0: 71fc 60bf 9f22 44be 23aa b53d 6fcb 4ebe
000001b0: 4166 23bf e489 27be 9b62 d1bd 9bc5 30be
000001c0: f09a 2ebe 2be3 54bf 1469 5c3a fd2f 85be
000001d0: a44d e6be 2b01 fe3d 02f0 5ebe 58c8 2bbe
000001e0: bb01 cebe 8e56 4fbd e0bc 01bf ca10 e63e
000001f0: 9dc9 aa3d 4d28 183e f0ee 22be 85ac eb3c
00000200: c51c 8abe 0857 a63d f01e 863c 6c63 443d
00000210: 24db c1be 9d1d 01bf c071 e9bd 790b 1abe
00000220: 8f6c 27bd a3b6 11be 9178 50bd 869b 48be
00000230: a050 14be 70aa 00be bbc5 45be 7f2a 69be
00000240: de63 efbc 4ecc dcbe 6d2b 27be c101 f03c
00000250: 7da2 d4bd 4430 5abc e0da d5be b6f4 f4bd
00000260: 23bf 873d 79e3 d7bd 17d4 e1bc a786 dabd
00000270: 4c34 12be 1c6b 90be 965b a0bd 6ee0 ca3b
00000280: e1be d53a 986f 14bd 9d4a 48be a03a 91bd
00000290: 7ca5 0dbe ffda 293e c1c0 933d 2096 f5bd
000002a0: 48c1 963d 2b31 743b 0123 80bd ef23 09bc
000002b0: 501c e0bd b73c 813d 9b1e 8d3d 47d0 25be
000002c0: 078b aa3c b57d dbbe caed 38be 11f9 adbe
000002d0: 80be 08be 0e1a 69be eade f13c cbea 1dbd
000002e0: 2aca 033e c9b9 33bd 85ad b53d 2b9a a93c
000002f0: c263 063d b19d 29be 2b84 a1bd 3745 fdbd
00000300: 071f d43d c5dc 70be 9410 d0bd 2921 7fbe
00000310: 71aa 6c3d 4573 db3d e036 31be 6275 68be
00000320: 72a8 f9bd f5f5 df3b 82e9 b2bd 46b2 d0bc
00000330: 397c b8b9 9e4f c9bc c5f9 3ebf dbbe 95bc
00000340: 37e5 2bbd 617e 96bd 9828 433f 8f13 12be
00000350: 523f c4bc e0a3 1bbd bf68 6bbd b484 30be
00000360: aa6b 28bd f3d3 173e 2bb4 5dbe e28d d73d
00000370: 0917 2fbe d97a e3bd cb0b 833d 9ac1 b7bd
00000380: e143 193e 921a 9cbf 0c6c 1dbd 7e59 b7be
00000390: 618d 4ebd 7b09 933d 5a22 adbc e337 b5bd
000003a0: 988b 0a3f f0bd c7be 8651 80bd 1a29 dcbd
000003b0: e175 83be 2679 95be 3503 71bd 0e35 16be
000003c0: b10e 38be a222 5c3e 693d 15bd efc8 8cbd
000003d0: 21c5 303f c4b1 2d3e a56e d4bd 638f 1ebe
000003e0: f206 d63e dcb3 c9bd bf0d 03be 2dfb ba3d
000003f0: d953 92bd 0889 48be f612 7abe 6518 c6bd

fc.2.bias f4 [256]
-0.060364805 0.09440823 -0.080722675 0.19991471 -0.15394199 -0.22197641 -0.007177132 -0.34847257
-0.17435221 0.3296306 0.14227825 0.08785862 -0.15590231 -0.25441906 -0.014449186 -0.5201606
0.04580635 0.28991517 -0.23897871 -0.07056072 1.2055881 -0.029583551 -0.1423861 -0.49010634
0.09420625 -0.25970355 -0.62122023 0.00063683157 -0.51709807 0.1582209 0.06692501 0.13900894
-0.078413434 -0.030402744 -0.0004337806 -0.42333508 1.7550663 -0.27165008 -0.16097046 -0.13164023
0.4937733 0.03488695 0.10229924 -0.5022115 0.10372435 -0.234002 0.22316948 -0.14984794
-0.6716623 0.2300707 -0.06685918 -0.07219036 -0.19066156 -0.06380779 -0.04484946 -0.1520902
0.7088652 0.4667851 -0.016986152 -0.15459323 0.8513402 0.028466573 -0.20270617 -0.6606855
0.0016286871 -0.5541266 -0.15426926 -0.05890164 -0.7460297 -0.0860407 -0.32066998 0.1787014
-0.04739602 -0.33816832 -0.393769 -0.40875274 -0.4319573 -0.12345571 -0.52749974 -0.286755
0.06552258 -0.14373836 0.037504707 -0.25069657 0.009000882 -0.35186186 0.15829405 0.16276541
0.22497313 -0.03948736 -0.26361737 0.9127767 0.096202135 -0.59378165 0.096337475 -0.06483325
0.377342 0.037023727 0.21861716 -0.3142184 -0.25909367 -0.07307596 0.20051482 -0.17105217
0.16091073 0.089051105 -0.5348317 -0.01936529 -0.2265682 -0.2201379 -0.27866572 -0.07844391
-0.005303387 -0.7628174 0.22763778 0.027369801 0.13993388 -0.159356 0.5219841 -0.61474675
0.04321593 -0.46569905 0.05576684 -0.5245372 -0.12221934 -0.7659328 -0.21727951 -0.6191048
-0.09191423 -0.1410389 0.16581401 -0.09837975 -0.5152846 -0.22064915 -0.04250351 -0.1225592
-0.13989797 0.23721159 -0.3172514 0.28184968 -0.16882251 -0.58386487 0.13822111 0.07368994
0.17501785 -0.0438716 -0.49392933 0.4264572 0.158434 -0.35208628 1.2327473 0.20336233
0.12916854 -0.4752387 -0.30553153 -0.46657884 -0.22257093 -0.23108415 -0.8110179 -0.5299058
0.011671357 -1.1243303 -0.031165373 -0.41324055 -0.062931314 0.4445057 -0.42593095 -0.21754313
0.012828471 -0.21086596 -0.65012705 0.10082963 -0.5342068 -0.26275194 -0.29933903 -0.68560165
-0.6345765 -0.17393987 -0.10313868 -0.36860868 -0.36968052 -0.3585375 0.05995811 -0.29037306
-0.05291803 0.752747 -0.5553404 0.047130283 -0.05831504 0.023730548 0.07726874 -0.2077847
-0.37073582 -0.40998468 -0.18839559 3.1787505 -0.9555713 0.058942817 -0.024439745 -0.059569046
-0.22936307 2.758505 -0.1607372 -0.29019135 -0.33599824 -0.2947372 -0.006562359 -0.33510768
0.011042166 -0.21321963 0.4884859 0.085763596 0.11057456 0.011842249 -0.08236094 1.1441188
-0.8949585 -0.082680844 0.09531617 -0.21823816 -0.39097455 -0.48684824 0.0021784303 -0.09443046
-0.24200642 -0.67704797 0.20739253 -0.13187762 1.7551777 -0.8332709 -0.07934055 -0.16120923
-0.41020924 -0.2702193 0.23332639 -0.2841454 -0.08696452 -0.23827851 -0.32634458 0.58986706
0.30526847 -0.0055679237 -0.072992876 0.023105592 -0.044309393 -0.022363111 -0.40953857 -0.48159376
0.1717245 0.11972299 -0.3640819 0.029809365 -0.37988693 -0.2267968 -0.32732838 -0.22511119
00000000: 1641 77bd 1a59 c13d ee51 a5bd 71b6 4c3e
00000010: f8a2 1dbe c94d 63be 262e ebbb ff6a b2be
00000020: 6389 32be 58c5 a83e 64b1 113e 38ef b33d
00000030: dba4 1fbe 3743 82be 47bc 6cbc 3f29 05bf
00000040: 709f 3b3d c36f 943e d6b6 74be 2482 90bd
00000050: b650 9a3f 3459 f2bc a9cd 11be 38ef fabe
00000060: 35ef c03d ddf7 84be 4a08 1fbf 0bf1 263a
00000070: 8a60 04bf a904 223e fb0f 893d 5c58 0e3e
00000080: 3997 a0bd 2d0f f9bc 0c6d e3b9 60bf d8be
00000090: 03a6 e03f b815 8bbe 71d5 24be b2cc 06be
000000a0: dbcf fc3e 9ee5 0e3d 4482 d13d ef90 00bf
000000b0: 6f6d d43d 389e 6fbe 8a86 643e bd71 19be
000000c0: 0ff2 2bbf a797 6b3e 77ed 88bd 8ad8 93bd
000000d0: c93c 43be a9ad 82bd 11b4 37bd 89bd 1bbe
000000e0: 3178 353f 75fe ee3e 8b26 8bbc b04d 1ebe
000000f0: 6ef1 593f bb32 e93c 3592 4fbe af22 29bf
00000100: ac79 d53a 3edb 0dbf c3f8 1dbe d942 71bd
00000110: cdfb 3ebf 1b36 b0bd db2e a4be 80fd 363e
00000120: 5422 42bd 6624 adbe 179c c9be 0a48 d1be
00000130: 8229 ddbe 59d6 fcbd 390a 07bf 8dd1 92be
00000140: b430 863d 2630 13be 899e 193d 4d5b 80be
00000150: 6f78 133c 3d27 b4be d617 223e faab 263e
00000160: 5b5f 663e 7fbd 21bd dbf8 86be bcab 693f
00000170: a005 c53d 1302 18bf 954c c53d 4cc7 84bd
00000180: f832 c13e 31a6 173d 2ddd 5f3e 3ce1 a0be
00000190: eda7 84be d9a8 95bd c253 4d3e 4d28 2fbe
000001a0: c8c5 243e 6d60 b63d bbea 08bf f5a3 9ebc
000001b0: 7f01 68be d46b 61be 46ad 8ebe 33a7 a0bd
000001c0: 09c8 adbb 0048 43bf e119 693e a236 e03c
000001d0: d44a 0f3e 382e 23be c0a0 053f 0b60 1dbf
000001e0: 3003 313d 1b70 eebe c56b 643d 1248 06bf
000001f0: 224e fabd 2c14 44bf 857e 5ebe a77d 1ebf
00000200: 873d bcbd 806c 10be 26cb 293e 537b c9bd
00000210: b1e9 03bf daf1 61be 2918 2ebd 5100 fbbd
00000220: 6a41 0fbe 98e7 723e c76e a2be 9a4e 903e
00000230: cfdf 2cbe 2b78 15bf d689 0d3e c0ea 963d
00000240: e137 333e b5b2 33bd 4ee4 fcbe 9958 da3e
00000250: 863c 223e a744 b4be aaca 9d3f 373e 503e
00000260: c244 043e 7d52 f3be a16e 9cbe 6ce3 eebe
00000270: a2e9 63be 53a1 6cbe de9e 4fbf e8a7 07bf
00000280: 3839 3f3c 0eea 8fbf 864e ffbc 4494 d3be
00000290: 22e2 80bd 4096 e33e 9f13 dabe a0c3 5ebe
000002a0: 822e 523c 3fed 57be ba6e 26bf c47f ce3d
000002b0: c7c1 08bf 6c87 86be f742 99be 9783 2fbf
000002c0: 9b73 22bf 4b1d 32be 5f3a d3bd 47ba bcbe
000002d0: c446 bdbe 3a92 b7be a396 753d c7ab 94be
000002e0: 94c0 58bd 07b4 403f ca2a 0ebf af0b 413d
000002f0: c0db 6ebd 9166 c23c 133f 9e3d 83c5 54be
00000300: 16d1 bdbe 83e9 d1be c6ea 40be a670 4b40
00000310: 52a0 74bf 066e 713d dc35 c8bc acfe 73bd
00000320: 27de 6abe 598b 3040 4b98 24be f693 94be
00000330: f607 acbe cbe7 96be 0f09 d7bb 3c93 abbe
00000340: 33ea 343c 3f56 5abe d31a fa3e d3a4 af3d
00000350: ea74 e23d fe05 423c daac a8bd 7c72 923f
00000360: 001c 65bf 9354 a9bd 2035 c33d d379 5fbe
00000370: d12d c8be 2c44 f9be ffc3 0e3b c264 c1bd
00000380: 88d0 77be 0453 2dbf b55e 543e ed0a 07be
00000390: aaa9 e03f 3e51 55bf 4c7d a2bd 0814 25be
000003a0: f206 d2be 2f5a 8abe 1ded 6e3e 827b 91be
000003b0: 741a b2bd 48ff 73be a316 a7be 8701 173f
000003c0: 264c 9c3e 2173 b6bb 4a7d 95bd f047 bd3c
000003d0: c47d 35bd d832 b7bc 0aaf d1be 7593 f6be
000003e0: 8cd8 2f3e 5431 f53d f168 babe c532 f43c
000003f0: 8a80 c2be 6c3d 68be 9697 a7be 8c83 66be

fc.4.weight f4 [155, 256]
-0.12617505 -0.7335904 0.12755038 -1.5325178 -0.7305055 -0.31714237 0.745583 0.90840596
-0.45204514 -0.14430182 -0.5894448 0.8715234 0.092572756 0.21137044 -0.016030436 0.37872574
-1.2089384 -0.29362068 -0.06326862 -0.26932806 0.22167684 -0.5823622 -0.33346996 0.32664993
-0.16190773 -0.10454946 0.10697309 -0.5728849 -0.15877703 0.17422196 -0.1397934 -0.01359503
-0.008661085 0.05074912 -0.49449912 0.30316475 -0.5045216 0.29829013 0.27052182 -0.22030748
-0.010823238 -0.7907552 0.01881378 -0.23671614 -0.58609164 -0.22457793 0.00038752117 -0.2063602
0.12208786 -1.3988011 0.7085127 0.8654001 0.08126914 0.13505372 -0.15722264 0.61734587
0.43880513 -0.60890824 0.40746287 -0.27979434 -0.15755501 0.0723671 0.17516297 0.6419852
-0.012394432 -0.159513 -0.4889018 0.55933326 0.079145 0.39605474 -0.4512644 -0.23795159
0.24334377 0.07791249 -0.86219555 0.028976584 -0.07683609 0.13290125 0.18842354 0.28923067
-0.3530265 -0.10848484 0.04635176 -0.06646715 -0.33221632 -0.5786876 -1.1577262 -0.53156054
-0.49640423 0.19330631 -0.3098984 -0.9898804 0.01237993 0.12813096 -0.4084244 0.3362922
-0.29599705 0.3044253 0.45268238 0.21324092 0.35236368 0.9800527 -1.1754267 0.6020576
0.035984118 -0.36232546 -0.20764948 -0.71380055 -0.0137668345 0.26153284 -0.18686463 -1.059508
0.24897517 0.61139286 -0.3346761 -0.43489286 -0.16678713 -0.2361739 -1.5330446 0.1087669
0.48679549 -0.29686028 0.122399636 0.5602329 -0.12777407 0.39076987 -0.1529873 0.4991028
-0.33959875 0.2125953 0.23465948 -0.58146566 0.20839192 -0.5068864 -0.6326971 -0.8850879
0.32485193 0.46213812 0.6076981 0.7052171 0.42442274 -0.3934828 0.8051036 -0.062363736
0.30865872 -0.339482 -0.9785299 -0.37081066 0.29005724 0.5335163 -0.3952839 -0.97555983
0.96013796 -0.9031702 -0.28421292 -1.0490152 -0.6478639 -0.09742942 -0.26957324 -0.18716305
-0.014774426 0.7264996 0.80731744 -0.11617267 -0.63483894 -0.4540539 0.50639105 0.3043459
0.41513267 0.3023632 -0.31907898 0.02245908 0.30993223 -0.2251848 0.007769165 0.47780243
0.26929513 -0.09353018 0.0077705714 0.57786375 -0.16655941 0.043120794 -0.10950286 -0.19330992
-0.60052323 1.4180708 -0.20237453 -0.04643627 -0.03538954 0.11037108 1.3846589 0.027994256
0.057351843 0.9386954 -0.57772326 -0.46768504 0.6158896 -0.34559318 0.92766654 0.7073712
-0.43366492 0.20467344 0.08487017 -0.2166453 0.7311008 -0.16977121 0.16239303 0.60101396
0.10145911 -0.069780454 0.6110702 0.11003606 0.12143676 0.5377931 0.18709663 -0.64276046
0.038674884 0.5575721 0.41904438 -0.5997543 0.03350644 -0.069694944 -0.10611556 0.30661738
-1.236234 0.570548 -0.104160115 -1.0418112 0.21054001 -1.6932502 0.1396985 -0.55241954
0.15296331 -0.0011800125 -0.09965123 -0.59404194 0.27168027 1.5833684 0.060782082 -0.05827738
0.4225226 0.14167643 -0.7522141 0.2906784 0.27025473 0.021728095 -0.041246787 -0.63211036
-0.021327047 0.068272315 -0.40872046 -0.37908384 -0.9737349 -0.9584984 -0.22054861 0.43389753
00000000: 0834 01be 95cc 3bbf 919c 023e 8b29 c4bf
00000010: 6902 3bbf 7c60 a2be 87de 3e3f 4b8d 683f
00000020: 7672 e7be dbc3 13be dbe5 16bf 281c 5f3f
00000030: c996 bd3d 7e71 583e 4352 83bc 57e8 c13e
00000040: 7ebe 9abf 7355 96be fa92 81bd 5ee5 89be
00000050: 41ff 623e b015 15bf 93bc aabe a93e a73e
00000060: 24cb 25be 071e d6bd b514 db3d 96a8 12bf
00000070: 7296 22be 3e67 323e 0026 0fbe b0bd 5ebc
00000080: 39e7 0dbc 4fde 4f3d fd2e fdbe 6938 9b3e
00000090: 5428 01bf 7cb9 983e d681 8a3e 4998 61be
000000a0: f353 31bc ef6e 4abf 5b1f 9a3c b765 72be
000000b0: 1a0a 16bf c2f7 65be 362c cb39 1750 53be
000000c0: 3309 fa3d ea0b b3bf 1761 353f dc8a 5d3f
000000d0: 6f70 a63d 864b 0a3e f9fe 20be 610a 1e3f
000000e0: 11ab e03e 69e1 1bbf f99e d03e 3441 8fbe
000000f0: 1a56 21be 3435 943d ec5d 333e 2459 243f
00000100: 0412 4bbc 6057 23be 5651 fabe 7730 0f3f
00000110: c616 a23d b0c7 ca3e 210c e7be 95a9 73be
00000120: 1c2f 793e 9590 9f3d d9b8 5cbf 4d60 ed3c
00000130: 3d5c 9dbd 4417 083e 1af2 403e 0b16 943e
00000140: e4bf b4be 4d2d debd 58db 3d3d ee1f 88bd
00000150: 4218 aabe df24 14bf 5f30 94bf 5a14 08bf
00000160: b228 febe 17f2 453e 01ab 9ebe cd68 7dbf
00000170: 31d5 4a3c c334 033e 011d d1be 7e2e ac3e
00000180: ed8c 97be a2dd 9b3e fcc5 e73e d45b 5a3e
00000190: 0369 b43e bce4 7a3f 6274 96bf 7220 1a3f
000001a0: 1564 133d b982 b9be 11a2 54be a2bb 36bf
000001b0: 4a8e 61bc a2e7 853e 7159 3fbe f59d 87bf
000001c0: 59f3 7e3e 3e84 1c3f aa5a abbe 47aa debe
000001d0: 3fca 2abe 92d7 71be ce3a c4bf 2ec1 de3d
000001e0: 423d f93e 12fe 97be a9ac fa3d 6c6b 0f3f
000001f0: 35d7 02be fd12 c83e b4a8 1cbe 678a ff3e
00000200: e3df adbe 95b2 593e 934a 703e efda 14bf
00000210: b164 553e 4fc3 01bf 70f8 21bf 1f95 62bf
00000220: fe52 a63e 5e9d ec3e 1a92 1b3f 1c89 343f
00000230: f04d d93e 9476 c9be 451b 4e3f 1e71 7fbd
00000240: 8408 9e3e 96d0 adbe ef80 7abf e5da bdbe
00000250: 6282 943e 8694 083f a762 cabe 4abe 79bf
00000260: 9acb 753f 2a36 67bf 5b84 91be 2146 86bf
00000270: 69da 25bf 1389 c7bd 8105 8abe aca7 3fbe
00000280: 6f10 72bc e1fb 393f 5bac 4e3f f0eb edbd
00000290: ce84 22bf c179 e8be d8a2 013f 3ad3 9b3e
000002a0: 458c d43e 59cf 9a3e 525e a3be 1bfc b73c
000002b0: 70af 9e3e d896 66be 7b94 fe3b 85a2 f43e
000002c0: 0de1 893e c08c bfbd 47a0 fe3b e1ee 133f
000002d0: 8d8e 2abe 6e9f 303d 0943 e0bd 09f3 45be
000002e0: e4bb 19bf 5883 b53f 453b 4fbe f533 3ebd
000002f0: 9ff4 10bd 3c0a e23d 813c b13f 3654 e53c
00000300: c4e9 6a3d 574e 703f ace5 13bf 6a74 efbe
00000310: f1aa 1d3f 97f1 b0be 8e7b 6d3f 4716 353f
00000320: 5409 debe ea95 513e 69d0 ad3d 44d8 5dbe
00000330: 6c29 3b3f 81d8 2dbe 5c4a 263e 0ddc 193f
00000340: cbc9 cf3d 0ee9 8ebd 196f 1c3f 965a e13d
00000350: d6b3 f83d cfac 093f 4296 3f3e f38b 24bf
00000360: 8e69 1e3d 0cbd 0e3f fc8c d63e 7f89 19bf
00000370: 0d3e 093d 39bc 8ebd 1d53 d9bd f4fc 9c3e
00000380: ea3c 9ebf 6f0f 123f e651 d5bd 125a 85bf
00000390: cd97 573e 6cbc d8bf 200d 0f3e 5e6b 0dbf
000003a0: 6aa2 1c3e a6aa 9aba f215 ccbd 2213 18bf
000003b0: ad19 8b3e d1ab ca3f a2f6 783d 43b4 6ebd
000003c0: e254 d83e a013 113e 1a91 40bf cdd3 943e
000003d0: d45e 8a3e 1eff b13c 64f2 28bd fcd1 21bf
000003e0: 0fb6 aebc 5bd2 8b3d cf43 d1be 4717 c2be
000003f0: b146 79bf 2760 75bf 7fd7 61be d127 de3e

fc.4.bias f4 [155]
-2.3747995 -2.0182843 -1.7009572 -1.6938015 -1.4673998 -1.1192884 -1.1064314 -0.70664895
-0.9465003 -0.5235432 -0.7032498 -1.2914896 -1.3011181 -0.8517494 -1.3542637 -1.2514983
-0.7413299 -0.27278173 -1.1679007 -0.96783066 -1.0564522 -0.7857055 -0.8375162 -0.8606766
-0.31021228 -0.13661838 -0.566999 -0.3435727 0.35391253 -0.6600359 0.34183043 0.95092845
1.0523332 0.559538 0.6774868 0.72555405 1.1582953 1.3090049 0.923683 0.6240261
0.65599024 1.5097419 0.7733837 0.8648443 1.0985258 0.85123247 1.3138164 1.3519391
1.0400481 1.1196884 1.1367286 1.1246284 0.960032 1.4047596 1.1369772 1.5324425
1.2380264 1.2919592 0.8930031 0.86110634 1.1369522 1.2272305 1.2022352 1.4032049
1.0386564 1.0794297 0.30680865 0.6694137 0.7628601 1.3744918 0.9920699 0.8181958
1.1804414 1.724822 1.3586748 0.9382752 1.1315082 1.3717765 0.86510426 1.164097
0.77502066 1.1107562 0.9985061 1.1488903 1.0334054 1.694899 1.5433811 1.3521341
1.160534 1.2952875 1.0798752 1.3909417 0.9546254 1.0427718 0.76679915 -0.101801746
1.2208769 1.1995809 0.62092406 0.6834715 0.72372556 0.92127806 0.449667 0.451558
0.771483 0.8547926 0.8952804 1.3608593 1.146828 1.0656289 0.9661767 0.38991532
1.4725876 0.9391744 1.1269095 0.82502925 1.1055965 0.5389994 0.8772456 1.105036
1.5050787 1.284927 1.1412538 0.9288516 0.4834935 0.84169495 0.961901 0.6273588
1.0029765 0.6245909 1.2085572 0.8746169 0.96333367 0.66689056 0.6516638 1.6100699
1.4321946 0.42067567 0.8406116 0.672929 0.77482873 0.6369552 0.80743426 0.5743283
0.79697615 0.714649 1.103358 1.2385887 1.4590017 1.1870763 0.7409398 -1.0326266
1.1236317 0.95599794 2.9746654
00000000: b7fc 17c0 922b 01c0 f7b8 d9bf 7dce d8bf
00000010: c2d3 bbbf d844 8fbf 8b9f 8dbf f2e6 34bf
00000020: d84d 72bf ed06 06bf 2e08 34bf 884f a5bf
00000030: 0a8b a6bf 400c 5abf 8358 adbf 1931 a0bf
00000040: ccc7 3dbf 0caa 8bbe c57d 95bf c0c3 77bf
00000050: d339 87bf ff23 49bf 7667 56bf 4d55 5cbf
00000060: 25d4 9ebe b0e5 0bbe d926 11bf c3e8 afbe
00000070: 0634 b53e 1df8 28bf 6604 af3e 0c70 733f
00000080: dbb2 863f e23d 0f3f c66f 2d3f e9bd 393f
00000090: 0543 943f 798d a73f 7d76 6c3f 2dc0 1f3f
000000a0: faee 273f 393f c13f 79fc 453f 7066 5d3f
000000b0: 7e9c 8c3f 5fea 593f 232b a83f 570c ad3f
000000c0: 4c20 853f f351 8f3f 5380 913f d3f3 8f3f
000000d0: a8c4 753f 2acf b33f 7888 913f 1327 c43f
000000e0: a677 9e3f eb5e a53f da9b 643f 7771 5c3f
000000f0: a687 913f e415 9d3f d8e2 993f 389c b33f
00000100: b1f2 843f c12a 8a3f 0616 9d3e b25e 2b3f
00000110: cd4a 433f 59ef af3f 4bf8 7d3f 4875 513f
00000120: b418 973f f8c6 dc3f 0ee9 ad3f ce32 703f
00000130: 43d5 903f 5f96 af3f 7977 5d3f 2101 953f
00000140: c167 463f 422d 8e3f 199e 7f3f d60e 933f
00000150: a146 843f 73f2 d83f 838d c53f bb12 ad3f
00000160: 618c 943f fbcb a53f 5a39 8a3f 610a b23f
00000170: 5562 743f 8c79 853f f34c 443f 6f7d d0bd
00000180: b245 9c3f de8b 993f e1f4 1e3f fdf7 2e3f
00000190: 1446 393f e1d8 6b3f c13a e63e 9c32 e73e
000001a0: e97f 453f b0d3 5a3f 1931 653f a330 ae3f
000001b0: 43cb 923f 8766 883f 5b57 773f fba2 c73e
000001c0: c07d bc3f bc6d 703f 923e 903f 1e35 533f
000001d0: 3084 8d3f ddfb 093f 2b93 603f d271 8d3f
000001e0: 6ba6 c03f 7d78 a43f 9b14 923f 38c9 6d3f
000001f0: 768c f73e 5279 573f 253f 763f 969a 203f
00000200: 8961 803f 30e5 1f3f 01b2 9a3f e5e6 5f3f
00000210: 099d 763f 57b9 2a3f 70d3 263f c516 ce3f
00000220: 2752 b73f cd62 d73e 5232 573f 1345 2c3f
00000230: 2d5b 463f 7f0f 233f 03b4 4e3f 2e07 133f
00000240: a106 4c3f 3df3 363f d63a 8d3f 138a 9e3f
00000250: 91c0 ba3f 1ef2 973f 3bae 3d3f 1c2d 84bf
00000260: 2ad3 8f3f 48bc 743f eb60 3e40

temporal_smoother.weight f4 [1, 1, 9]
0.00050118926 0.0054368563 0.0054174033 0.0036608 0.017962294 -0.0006922664 0.009747013 0.0074966853
0.0004544271
00000000: 3e62 033a a827 b23b 7984 b13b 08ea 6f3b
00000010: a925 933c 3679 35ba f0b1 1f3c c1a6 f53b
00000020: 2c40 ee39
