generator_gan_ff_lstm_es.pth (torch, 162956 bytes, 7 tensors)

input_proj.weight f4 [64, 101]
000000 0e e3 75 be 57 87 81 be 53 05 92 bd 86 a3 f9 3c
       -0.24012396 -0.2529857 -0.07129922 0.030473482
000010 b1 6c bb 3e 87 b5 1c be 57 e4 e2 bc e6 90 ab bc
       0.36606362 -0.15303622 -0.027696772 -0.020943116
000020 12 5e 83 bd 27 29 6f be 68 bb 92 be 05 fc 28 3e
       -0.06414427 -0.23355542 -0.28658605 0.16502388
000030 bd a6 26 3e c4 6b 7a 3e c7 86 35 bd 9c 8a 31 3e
       0.16274543 0.24455172 -0.044317987 0.17338032
000040 1d 63 6d bd 0f 97 51 3e 47 d6 56 bd f7 6b aa bd
       -0.05795585 0.2046778 -0.052450445 -0.08321374
000050 f2 f1 1a be 90 25 00 be ae 56 70 3e e8 68 06 3e
       -0.15131357 -0.12514329 0.23470566 0.13125956
000060 bd 0d b7 be a4 86 5b 3e 47 84 87 be 2a 32 05 3d
       -0.3575267 0.2143808 -0.26468107 0.032518543
000070 cd d0 a8 3e bd ce c2 bd c7 ab ab 3c 20 90 bb bd
       0.32971802 -0.095120884 0.020955933 -0.09158349
000080 59 98 eb 3b 53 37 f2 bd 6f 25 7a 3d 7d 9d b0 be
       0.007189792 -0.118269585 0.061070856 -0.34495154
000090 4c 50 8c be a0 72 cc 3e b7 60 b8 be db fd 9c bd
       -0.27405012 0.39931202 -0.36011288 -0.076656066
0000a0 a9 a4 87 be d8 03 c0 bd 85 4c 91 bd 6a 04 fc bd
       -0.26492813 -0.09375733 -0.07094673 -0.123055294
0000b0 4b cb a5 3c 1b 63 ce 3d 35 05 44 3d 7f 1b a6 bd
       0.02023854 0.100774966 0.04785653 -0.08110713
0000c0 81 0f bd 3e 9c 69 ff bd 9f f0 0e be 3c ea ac 3d
       0.3692589 -0.12471315 -0.13958977 0.08443114
0000d0 e8 68 e6 be db e9 8d bc 02 7e 18 bd 10 cb 90 3d
       -0.45001912 -0.017323425 -0.037229545 0.07069981
0000e0 28 ee ef bc 38 4a 0d bf 84 b4 99 be 5e ca 9d 3e
       -0.029288366 -0.55191374 -0.30020535 0.30818456
0000f0 43 13 82 be 1b 21 cc bd 5d ca 1b 3d b4 27 41 bf
       -0.2540532 -0.09967252 0.038034786 -0.7545121
000100 5e 2a 5c be db e0 ae bc 93 1c 9e be c1 bf 34 3f
       -0.21500537 -0.021347454 -0.30881175 0.70605093
000110 c4 eb 45 3e 4a 70 97 be 9c 26 34 3e 63 95 fb bd
       0.19328219 -0.29577857 0.17592853 -0.12284353
000120 ae 6e a2 bc 2b 18 83 3c f4 0c 8b 3e 47 7f 3d 3d
       -0.019828167 0.016002735 0.2715832 0.04626396
000130 9f 7c ee 3e 94 7f 9d 3e cc e8 44 3d be da e6 3d
       0.46579453 0.30761397 0.048073575 0.112721905
000140 dc 0a cc 3e ea 17 8f 3e 29 5d 06 bf de c4 85 3d
       0.39852035 0.27947932 -0.524859 0.0653169
000150 b2 68 f9 3e cb a0 13 3e d4 85 09 bf a0 1b c6 ba
       0.4871269 0.14416806 -0.5371983 -0.0015114434
000160 72 45 b8 3d 38 c1 da 3e c2 55 f9 3d b5 99 e6 3e
       0.08997621 0.4272554 0.1217456 0.45039144
000170 33 3e 32 be bf 14 c1 bd 33 b9 cf be 7d bc 03 3e
       -0.1740654 -0.09427785 -0.40570983 0.12864871
000180 bd 5b 03 3e fa 44 54 bd a6 dc 88 3e 52 f0 1f 3f
       0.12827964 -0.051823594 0.2673084 0.62476075
000190 8d 02 45 3c c2 4e 07 be af 1c 9e bd 74 1d ac bd
       0.012024534 -0.13213637 -0.07720315 -0.08404055
0001a0 a0 b6 13 be 9b e8 06 bc 3d 49 5d bd f0 c3 02 3e
       -0.14425135 -0.008234168 -0.054024924 0.12770057
0001b0 76 a6 6e be f2 1c 40 be eb e1 93 3c 63 03 19 be
       -0.23305687 -0.18761042 0.018052062 -0.14942698
0001c0 ed 4e fb be 50 25 b1 3e 25 2f be 3d 56 3a 58 bd
       -0.49083653 0.3459878 0.09286336 -0.05279001
0001d0 36 94 af bd d0 c8 81 bd 01 b5 6a 3d 8f 71 a5 3d
       -0.08573191 -0.0633713 0.057301525 0.080783
0001e0 fc af 0f 3c 12 7a af 3c ee 29 db bd b4 eb 54 bd
       0.008769985 0.021420512 -0.10701357 -0.051982597
0001f0 74 d5 2a 3e 1c 36 48 be ea 28 2b be 5c ac 4b 3e
       0.16682988 -0.19551891 -0.16714826 0.19889969
000200 9a 75 8b 3e d6 70 e5 be 55 de b2 be bd 09 95 bc
       0.2723816 -0.4481265 -0.3493525 -0.01819312
000210 0d cd 4e 3c 9a 2e e9 3e 8a eb d7 bd 64 f5 69 be
       0.01262213 0.45543367 -0.105429724 -0.22847515
000220 d2 fa c5 3d ee f1 0d be 13 a1 2c 3e 42 71 00 be
       0.09666981 -0.1386182 0.1685832 -0.12543204
000230 38 50 0c bd fb 6c 4e 3e d6 29 6e 3d 5f f6 1f be
       -0.03425619 0.2015876 0.058145367 -0.15621327
000240 f2 a2 02 be c1 e0 2c 3e 21 61 b5 bd 9a 51 b5 be
       -0.12757471 0.16882612 -0.088564165 -0.3541382
000250 27 22 92 bb cb 36 1d bd 46 f5 8c bc c0 5a 00 be
       -0.0044596377 -0.038382333 -0.0172068 -0.12534618
000260 68 25 c5 be da 79 80 3e d3 25 8a 3e 69 bf ed bd
       -0.385051 0.25092965 0.26981983 -0.11608774
000270 91 65 ba 3e ee fb 3c 3d 55 74 ac be 56 97 1c be
       0.36405614 0.046138696 -0.33682504 -0.15292105
000280 09 09 89 3d 18 96 a7 bc 13 19 2d 3e d6 5e 15 be
       0.066911764 -0.020457312 0.16904096 -0.14586958
000290 fa af 35 3d c6 a8 97 3d a6 cc e6 3d 08 af 1c 3d
       0.044357277 0.07405238 0.11269502 0.03825286
0002a0 5b 6d fe 3c 21 80 35 3e 0c 38 cf bd 90 26 e3 bd
       0.031058004 0.17724659 -0.10118112 -0.110913396
0002b0 7c a1 cf 3d d4 ae 7f 3d 73 83 15 3e a3 76 e6 bd
       0.101382226 0.06242259 0.14600925 -0.11253097
0002c0 1b eb 10 3b 9a b2 5a 3b 26 f3 1a be 07 e1 e5 bd
       0.002211279 0.0033370615 -0.15131816 -0.11224561
0002d0 d0 02 62 be 5b d2 10 3e bb ff a9 3d 4b 27 22 be
       -0.22071385 0.14142744 0.0830073 -0.15835302
0002e0 93 db 90 bd 37 3c 12 3e a6 a2 94 be 2c 39 c9 3c
       -0.070731305 0.14280783 -0.2903034 0.024563394
0002f0 1d 53 fe bc af 15 00 3e 06 21 3f 3d 91 d1 dc 3c
       -0.03104549 0.12508272 0.046662353 0.026955398
000300 89 dd b6 3c cc 0c 9e bd ab f0 00 bd 03 76 94 be
       0.022322433 -0.077172846 -0.03147952 -0.28996286
000310 8b 68 57 3e 54 1e 38 bd 5c d3 93 3e 69 36 4b be
       0.21035974 -0.0449508 0.28872192 -0.19844975
000320 79 83 b2 bd c3 76 a7 3b 92 af 85 3e 27 63 07 3e
       -0.08716483 0.005110593 0.26110512 0.13221417
000330 2a e5 d3 3d bb 9b 5b 3e a9 ac 59 be a3 1a 0d be
       0.10346444 0.21446125 -0.21257271 -0.13779692
000340 29 83 cc 3d 85 a4 1c be bf 80 4b 3c d3 40 8e bc
       0.09985954 -0.15297134 0.012420832 -0.017364895
000350 fb 72 8c be 23 ae 99 be ac 62 57 3d a8 27 b1 be
       -0.27431473 -0.30015668 0.052584335 -0.34600568
000360 6c ac 69 be b3 2f 4f bd e7 37 29 bd 08 76 00 be
       -0.2281968 -0.0505826 -0.04131308 -0.12545025
000370 e1 39 69 3e e6 8b a3 be 63 47 4d 3e 80 26 9d bd
       0.22775985 -0.31942672 0.20046763 -0.07673359
000380 d6 87 c9 3c 24 fa 8b bd 54 ab 7f 3e 51 bd ac 3d
       0.024600904 -0.0683482 0.249677 0.08434547
000390 c8 eb 0b 3e 30 34 56 3d 5a 43 ce bd b4 4a 24 be
       0.13664162 0.052295864 -0.1007144 -0.16044122
0003a0 e3 78 75 3e 33 ce 4a 3e 90 ad 80 3d a3 91 a5 3d
       0.23971896 0.19805221 0.062831044 0.080844186
0003b0 70 a4 75 bc f5 d7 d6 bc ea 0b 0f bc a4 cc 31 bd
       -0.014992818 -0.026226023 -0.008730868 -0.04340805
0003c0 a9 03 0e bd a0 07 a0 3e a2 21 91 3e c3 30 6d 3e
       -0.03467146 0.31255817 0.28345972 0.23163132
0003d0 f7 b6 31 3e 6a 80 38 3d c1 0d 54 bd d4 44 21 3d
       0.17354952 0.04504434 -0.05177093 0.03937228
0003e0 72 ff eb bb 84 28 d6 be 45 b3 0f bd a1 71 b4 3e
       -0.0072020823 -0.41827786 -0.035083074 0.35242942
0003f0 42 c1 c7 3d 5b 82 9b be 22 da 55 3e f5 5d 83 3e
       0.09753658 -0.3037289 0.20883992 0.2565762

input_proj.bias f4 [64]
000000 01 71 38 3f 97 6e 14 bd fa 9b 3e be 95 73 82 be
       0.7204743 -0.03623828 -0.18614188 -0.25478807
000010 14 77 9c 3e a6 8c 3d bf 17 65 38 bf 54 52 07 bf
       0.305596 -0.7404274 -0.7202925 -0.5286
000020 00 80 43 3c db e8 af 3e 46 f0 4c bf e1 48 00 3f
       0.011932373 0.34357342 -0.8005413 0.50111204
000030 99 d9 11 3f e0 10 11 3f 77 63 3d 3f 41 10 8b bf
       0.5697265 0.56666374 0.73979896 -1.0864335
000040 63 37 84 bd bd 39 05 be c0 9b 9e be 68 7b 82 3e
       -0.06455877 -0.13010307 -0.30978203 0.25484776
000050 d0 d2 07 3f 2e 3a 6c 3f 84 61 0e 3e 1b 55 81 bf
       0.5305605 0.92276275 0.13904387 -1.0104097
000060 40 36 28 bf 5c 87 3d bd c7 64 b2 3e 76 68 d9 3d
       -0.6570778 -0.046271667 0.34842512 0.106156275
000070 09 a1 45 bf d5 e1 86 be 5c 49 6b 3f 25 d4 77 3e
       -0.77198845 -0.2634417 0.9190881 0.2420202
000080 a3 3e 1d 3f 9c 51 f9 3c 98 70 a6 be fa 71 26 bf
       0.614237 0.030434422 -0.32507777 -0.65017664
000090 f3 0f 85 bf b3 fa 13 3e 27 99 cf 3e 31 fd 35 bf
       -1.0395492 0.14451103 0.40546533 -0.71089464
0000a0 01 41 3f 3c 02 6f 2d bf fe 78 2e 3f 0c e9 4d 3d
       0.011673213 -0.6774751 0.6815337 0.05027108
0000b0 4a ed ad 3e 9a f3 c5 be 68 54 8a be e8 ea 10 bf
       0.339701 -0.38662416 -0.27017522 -0.5660844
0000c0 41 1b f0 3e 0f bd 29 bf d9 b0 c2 be 24 e0 0b bc
       0.46895793 -0.66304106 -0.3802555 -0.008537326
0000d0 25 54 1e be 85 31 1c 3f 43 ab 49 bf 7a eb d6 3e
       -0.15461786 0.6101306 -0.7877695 0.4197653
0000e0 6e dd 11 bf 2d 74 2d 3e 2e e4 44 bf e2 9e 9d be
       -0.569785 0.16938849 -0.76910675 -0.3078528
0000f0 58 4b f2 3e c6 6a 3a bf 84 9f c4 be ae 18 3a bf
       0.47323108 -0.72819173 -0.3840295 -0.7269391

lstm.weight_ih_l0 f4 [256, 64]
000000 b4 c6 b3 3d 09 c8 62 3e ad a4 e4 be c2 0b d7 3d
       0.08778134 0.2214662 -0.44656888 0.105002895
000010 d1 fe f8 3d 87 b2 71 be d4 47 5a 3d c7 3f 0b bd
       0.12157977 -0.23603259 0.053291157 -0.03399637
000020 66 25 ce 3d 90 5b a9 be 71 f8 22 be 4f 35 91 be
       0.10065727 -0.3307767 -0.15915085 -0.28360984
000030 0d 65 49 be 55 08 cb 3d f0 64 eb 3d 12 40 91 bd
       -0.19667454 0.099136986 0.11493862 -0.070922986
000040 e5 fd 91 be 03 42 08 3d 6a 86 54 be dc 92 f7 3c
       -0.2851402 0.03326608 -0.207544 0.030221395
000050 b7 6d 3b 3e f3 95 15 3d 09 21 0c be 41 1f 20 bd
       0.18303572 0.036519956 -0.13684477 -0.039092306
000060 93 42 2d be 2a 61 27 bd 77 1a a1 bc 17 cf c4 3c
       -0.16919927 -0.040864147 -0.01966594 0.02402453
000070 ca 48 fd 3d e0 57 b4 3e a0 a8 ca bd 29 dc 05 3f
       0.12367399 0.35223293 -0.09895444 0.5228906
000080 fb aa 2a 3e 5d a1 9e 3e 16 af b2 be 19 6d b5 3d
       0.16666786 0.30982485 -0.34899205 0.08858699
000090 cc 58 44 3e fe a3 96 3d de 75 5d 3e e2 b6 46 be
       0.19174498 0.07355498 0.21626994 -0.19405702
0000a0 b4 96 87 be ed 86 21 be 79 bc e9 3d 57 54 ca 3d
       -0.26482165 -0.15774126 0.114129014 0.09879368
0000b0 b4 ab 54 be 7c 42 e6 bd 19 c3 fb bd 3c 29 ac be
       -0.20768625 -0.1124315 -0.12293071 -0.3362521
0000c0 98 f7 4a bd 5f 6e 76 3d 4b d7 d5 bc b6 da 57 be
       -0.04955253 0.06016385 -0.026103636 -0.21079525
0000d0 70 c7 0e bf 36 86 85 3d d0 7a 05 be 84 eb a5 3a
       -0.5577307 0.06519739 -0.1303513 0.001265869
0000e0 03 aa 72 3e 4a 42 af 3e ff 9f be 3e 50 c2 c5 3d
       0.23697667 0.34230262 0.37231442 0.09656203
0000f0 6e dd b2 3e ba 1c 1d 3b 4e a3 f6 3e 0a b9 f2 bd
       0.34934562 0.0023973421 0.48171467 -0.118517
000100 74 e1 32 3e 3b 8f 82 3e 80 6b e9 bd 85 f0 95 3d
       0.17468816 0.254999 -0.11397457 0.07321266
000110 fc be f3 3d 14 1c 88 be fa 21 02 be 68 da 17 3e
       0.11901662 -0.26583922 -0.12708274 0.14829409
000120 f8 7a 5e 3d da 21 30 3d ee a7 9d bd 04 24 8d 3d
       0.05431649 0.043001033 -0.07698046 0.06891635
000130 05 ae 9c 3d ad d0 c4 bd 2d 66 1d be 96 5b 40 bd
       0.07650379 -0.09610114 -0.15371008 -0.046962343
000140 7c 35 96 bd 2c 14 c2 3d 69 cb d3 bd 2a 5e 22 3e
       -0.0733442 0.09476504 -0.10341532 0.15856233
000150 7c e2 d8 bd b4 08 12 3d a6 14 3a bd dd 4e 5b 3c
       -0.105900735 0.03565283 -0.045429848 0.013385502
000160 5f 6c dc 3c c6 39 f4 bd 73 65 40 3e 2e 95 3f 3e
       0.026907144 -0.11925082 0.187887 0.18709251
000170 89 2a 49 3d 83 88 80 be e5 ff ca bd df 5f c1 3d
       0.04911283 -0.2510415 -0.09912089 0.09442114
000180 0f df 18 bd 7d 61 a0 bd 44 5a 09 bd 4e 9c 54 3c
       -0.0373221 -0.078310944 -0.03353335 0.012976719
000190 b4 a8 56 bc 33 2a 88 3d 5b 70 29 be 7c 8c 56 3c
       -0.013101745 0.06648674 -0.16546766 0.0130950175
0001a0 d1 0a 0f bc bc cb 77 3e 4f 6f fc 3d e2 d4 31 3e
       -0.008730606 0.24198812 0.12325918 0.17366365
0001b0 56 23 08 3e 15 16 01 bd 85 a7 a8 bd 1a 44 63 be
       0.1329473 -0.0315152 -0.08235077 -0.22193947
0001c0 ed 2f 83 bc 51 66 fb bd c9 26 15 3e 9f 73 4c 3d
       -0.016014064 -0.12275375 0.14565577 0.049914952
0001d0 ac 4f ac bd e5 14 96 bd 2e e5 e8 3d bc 20 cb 3d
       -0.08413634 -0.07328204 0.113718376 0.09918353
0001e0 c8 98 32 3c 69 1f 71 bd 6c 19 21 be 89 82 d4 bd
       0.010900684 -0.058867846 -0.15732354 -0.1037646
0001f0 d5 c5 be 3d d7 b7 91 bc 08 f3 91 bd 5b 0a 91 bc
       0.09315077 -0.017787857 -0.07126433 -0.017705133
000200 77 89 96 3d d0 9f 1c 3d 06 c2 26 3e 1a c6 78 3e
       0.07350438 0.038238347 0.16284952 0.2429432
000210 35 a8 0a 3e 93 1d dd be 69 ac d1 3d 63 f0 61 bc
       0.13540728 -0.43186626 0.10237963 -0.013790223
000220 cc cf 06 bd b7 41 13 be 72 71 ac bc d5 79 77 be
       -0.032913014 -0.14380537 -0.021050189 -0.24167569
000230 85 f6 83 be f6 4c b0 3c e2 21 86 be 21 b3 99 3e
       -0.25774017 0.021521073 -0.26197726 0.30019477
000240 cb 4b 00 bd 04 6a 8c bc a7 48 8f bd c0 38 be bd
       -0.03132228 -0.017140396 -0.06996279 -0.09288168
000250 3b eb f0 3c 1c 26 90 bd dd ae 64 be d7 05 31 3d
       0.029409042 -0.07038519 -0.2233233 0.04321846
000260 91 ff cb 3d dc b9 15 bd df f0 80 3c 7e 19 b7 3e
       0.09960855 -0.036554202 0.015739856 0.35761636
000270 52 3e a0 3d 57 b4 eb 3d 0f 20 65 be 76 00 71 3e
       0.07824387 0.115090065 -0.2237551 0.23535332
000280 ae 2a d8 be 54 e9 b0 be 24 85 3b 3e 33 76 05 be
       -0.42220062 -0.34553015 0.18312508 -0.1303337
000290 cb 66 e6 3d 19 36 51 3e 56 77 7a 3d 47 f3 b1 bb
       0.11250075 0.20430793 0.061148964 -0.0054306122
0002a0 19 e8 17 bc ba 6c 22 3e 4b f6 a0 3d 39 1a 12 3e
       -0.009271645 0.15861788 0.07859477 0.14267816
0002b0 60 eb 69 be a5 73 af 3e 5b b0 ea bd 3f f9 98 3d
       -0.22843695 0.34267917 -0.114594184 0.07469415
0002c0 49 00 c9 bd f3 74 01 bc 48 72 c6 bc 64 c9 59 be
       -0.098145075 -0.007901418 -0.024224415 -0.2126823
0002d0 bf 91 54 bd 47 ee e4 bd 31 e6 fc bc a5 02 43 bd
       -0.051896807 -0.1117826 -0.030871483 -0.047609944
0002e0 c9 6c d2 3d 2a 29 84 3e 52 db 97 bc 8e c2 87 3d
       0.10274655 0.25812656 -0.018537197 0.06628905
0002f0 04 3f 7b 3e 44 21 76 3b e8 1e 9d 3e ac a1 ef bd
       0.24535757 0.003755645 0.30687642 -0.11700758
000300 ae 7d b0 3d 38 e2 65 3d 6e 8a 22 3e b4 b0 dd bd
       0.086177215 0.056123942 0.15873119 -0.10824719
000310 37 6e d7 bd c0 4d 30 3d a5 c2 94 3b b1 c9 cf bc
       -0.10519069 0.0430429 0.004539805 -0.025364729
000320 80 d1 29 be aa d5 2f be 38 3a 5e 3d ee eb 46 3e
       -0.16583824 -0.1717135 0.05425474 0.19425938
000330 d5 50 0c be 1b 34 c7 bd 26 57 20 be 9d 97 53 3e
       -0.1370271 -0.09726735 -0.15658244 0.20663305
000340 f5 a9 85 3d 8e 7a 7d 3d 43 fb 1b 3d 37 c3 b9 3d
       0.06526557 0.061884455 0.03808142 0.090704374
000350 d6 df cf 3d fd b5 30 3d 77 46 50 3d be 42 11 bd
       0.10150115 0.043142308 0.05084845 -0.03546404
000360 42 ff e5 bd 30 b4 23 be d5 b9 7c 3c c9 b6 39 3e
       -0.11230327 -0.15986705 0.015425165 0.18136133
000370 ff 12 9a 3d 75 33 bc bd 93 88 56 bc 45 89 c3 3d
       0.075231545 -0.09189502 -0.013094085 0.095476665
000380 89 f5 35 3e 79 11 66 bd 1d 37 82 3d 31 ee 3c 3e
       0.17769445 -0.056169007 0.06358168 0.18450238
000390 1b c1 0c 3d 3a 8f 17 3e d0 8d 20 be c3 40 93 bd
       0.034363847 0.1480073 -0.15679097 -0.07190087
0003a0 ed 0e 38 bd 09 4c 58 3d 92 a7 4a 3e b1 12 94 3d
       -0.04493611 0.052806888 0.19790486 0.072301276
0003b0 56 2b ea 3d 1f 45 05 bd 2b 6b 03 3e 0b 8a 89 bc
       0.11434047 -0.032536622 0.1283385 -0.016789457
0003c0 f6 76 65 bc 54 14 3b 3d 6c 1c ea bd d0 a0 47 be
       -0.014005413 0.045673683 -0.11431202 -0.19494939
0003d0 96 59 3a bd 11 1e c3 bc ca 96 24 be e4 de 4c 3e
       -0.045495592 -0.023818048 -0.16073146 0.20006901
0003e0 f2 8b 5a bd 44 ac 32 3d a8 62 73 bc 53 3e 16 3e
       -0.05335612 0.043621317 -0.014855064 0.14672212
0003f0 aa c1 3e bb 6f 3f 3f 3e 46 6f ee 3d 8e 13 42 3e
       -0.0029107132 0.18676542 0.116423175 0.18952772

lstm.weight_hh_l0 f4 [256, 64]
000000 a1 75 ab be 03 5f 91 bd 30 97 bd 3e da a7 3b 3f
       -0.3348818 -0.070982 0.3702941 0.73302996
000010 36 f4 e5 3d c2 46 c1 3d e2 77 7e 3e be 14 29 3e
       0.1122822 0.09437324 0.24850419 0.16511819
000020 8b 62 38 3f ab 4d 81 3d 1f 5d 3c 3f 85 ce 0c be
       0.72025365 0.06313642 0.7357959 -0.13750656
000030 42 d3 d6 be 5c 67 d0 be 05 dc 90 bf 49 4e 88 be
       -0.41958052 -0.40703857 -1.1317145 -0.26622227
000040 46 f6 3d bf 86 51 11 bf 69 f3 14 3f f4 5c 57 3e
       -0.7420391 -0.5676502 0.58183914 0.21031553
000050 7f 25 69 3e 9e b6 64 3e a7 c3 75 be 66 5c a0 3e
       0.2276821 0.22335288 -0.24000417 0.31320494
000060 ed 99 fc be 00 c2 94 be 39 a6 2e bf a5 a0 17 3e
       -0.49336186 -0.2905426 -0.68222386 0.14807375
000070 3b 93 bb 3e e8 63 92 bf 6d e5 43 3e 7f c0 20 3f
       0.36635765 -1.1436739 0.19130488 0.62793726
000080 2e b4 61 3f 4f 1d 63 3f 58 1a 52 be c9 3f 14 3f
       0.8816556 0.88716596 -0.20517862 0.5790983
000090 1c d7 ec be 3d 47 9d 3f 4b 01 1a 3f 2a bc 17 3f
       -0.46257865 1.2287365 0.6015822 0.5927149
0000a0 58 6d 16 be 8f 9d 0f 3f ad 98 aa be 8c e2 91 3d
       -0.14690149 0.5609979 -0.33319607 0.071232885
0000b0 d8 99 84 be f7 03 18 bf 3e 56 a2 3e aa 82 89 3e
       -0.25898623 -0.5938105 0.31706423 0.268575
0000c0 3b d8 e5 3e d4 df ec 3e 6c 59 05 bf a9 11 5d 3e
       0.44891533 0.46264517 -0.5208957 0.21588768
0000d0 a3 8d 21 bf e7 f2 ee 3e 2e 8d 4d 3e 6f 59 36 bf
       -0.63106745 0.46669695 0.20073387 -0.71230215
0000e0 6c 55 26 3e 28 5c 0c 3d d8 71 e2 3e 64 40 07 3f
       0.16243523 0.034267575 0.4422748 0.5283263
0000f0 9b 61 00 3d 29 4e 00 3f a4 05 26 3f f2 21 ee be
       0.031343084 0.5011926 0.64852357 -0.46510273
000100 71 e4 92 bf d9 22 3c 3e 4c 69 9f 3f 90 3e 83 3f
       -1.1475965 0.18372668 1.2454009 1.0253468
000110 e7 30 8d 3f 10 e0 88 3e 30 bd ce 3e dd dd 5f 3d
       1.1030549 0.26733446 0.40378714 0.054654945
000120 c8 40 f8 bd ee 15 29 3f ab 5f 3c 3f a8 92 5b bf
       -0.12121731 0.6604909 0.7358348 -0.85770655
000130 5f 94 27 3f 83 b5 c4 be fe 99 ea 3d 26 f2 aa 3f
       0.6546077 -0.38419732 0.11455153 1.3355148
000140 cc 22 3e bf 1a ed 2a bf e1 8f e3 3e 06 60 0d bf
       -0.74271846 -0.6676804 0.44445708 -0.55224645
000150 2f aa 5f 3f 5d 2a 83 be 5f 95 8a be 60 79 8b 3e
       0.87369055 -0.25618258 -0.27067086 0.2724104
000160 41 e6 a4 be 31 cf dd 3d bb 21 1c c0 9b e8 99 3f
       -0.3220692 0.10830534 -2.4395587 1.202411
000170 61 5b a3 3e 8a 46 38 bf f0 7c bf be e6 a2 86 3e
       0.31905654 -0.71982634 -0.37400007 0.26296157
000180 09 5d e8 3e 8f e7 d4 3e 09 db a8 3e 1f d6 21 bf
       0.4538348 0.41582915 0.3297961 -0.6321735
000190 f0 d7 76 3e 2d eb 59 3f 91 2b a1 bf 11 55 b2 3f
       0.24105811 0.85124475 -1.259142 1.393221
0001a0 9e c7 1d 3f 32 04 83 3f 48 35 5e bf d1 79 1c 3d
       0.61632717 1.0235655 -0.8680005 0.03820211
0001b0 09 aa 45 3e 4e 64 14 3e 5e 1a 0a c0 78 f0 e9 3f
       0.19303145 0.14491388 -2.1578593 1.827651
0001c0 d9 da 1f 3f 1f bf 7a 3e 7c be a2 3e 82 f3 38 40
       0.6244331 0.2448697 0.31785953 2.8898625
0001d0 32 e1 95 bd 33 3f 02 3e 76 95 d9 3e 50 6c 9e bf
       -0.07318343 0.12719421 0.42496842 -1.2376804
0001e0 4f 96 29 bf 84 a9 25 bf d1 46 90 bf 55 57 c8 be
       -0.6624498 -0.64711785 -1.1271611 -0.3912913
0001f0 c7 6d 5e 3f cd 2d d4 3e cf c8 2d 3e 60 22 50 bc
       0.86886257 0.41441193 0.16971134 -0.012703508
000200 45 0b 1a be dd 02 89 bf bf c3 b5 be de e8 b4 bd
       -0.15043361 -1.0703999 -0.35500905 -0.088334784
000210 10 34 1b 3f 68 3f a3 3e c2 92 25 bd 74 81 92 bf
       0.60626316 0.31884313 -0.040423162 -1.1445756
000220 ce ab 23 be 9d 43 9b 3f 25 ae 77 bf c3 e8 1b 3d
       -0.15983507 1.2130009 -0.967501 0.038063776
000230 db 81 79 3e 3e 87 78 3e 5f ad e1 be cf 27 f8 bd
       0.24365942 0.24270341 -0.44077584 -0.12116968
000240 73 dd 16 bf b3 07 a2 3d bc 3a 8e bc d2 b3 8d bf
       -0.58931655 0.07911625 -0.017361991 -1.1070502
000250 2f a9 5c 3e 8e 0e 87 3e 4b c5 3d 3f 10 48 fa be
       0.21548913 0.26378292 0.7412917 -0.48883104
000260 eb 09 0f 3e a2 80 e1 3f 98 42 07 3e 73 ac e9 3e
       0.13968627 1.7617381 0.13208997 0.4563938
000270 76 1b c5 3e bd 63 ff bd a7 6d ea bf 6d 4f 81 bf
       0.38497514 -0.124701954 -1.8314713 -1.0102364
000280 f2 3e e1 3e 87 69 93 3d 5f dc ea bd 83 1e 13 bf
       0.43993336 0.07197862 -0.11467814 -0.5746843
000290 b5 d2 04 40 95 93 50 be ed 95 0d bf 29 e8 c4 3f
       2.0753605 -0.20368798 -0.55306894 1.538335
0002a0 a7 ef 95 3f c4 ca c1 bf 16 35 7e 3f a9 dd 88 bf
       1.1713761 -1.5140004 0.9929975 -1.0692645
0002b0 8b f4 07 3e 35 69 8f be ed 82 b5 be 79 c8 34 be
       0.1327688 -0.28009954 -0.3545145 -0.17654599
0002c0 5a f4 5e bf 96 93 39 be 5a c3 a8 3e df 59 b4 be
       -0.870916 -0.18122706 0.3296154 -0.35224816
0002d0 7e 82 af 3f a0 63 96 be bf 0a ea 3e 91 e7 57 3e
       1.3711698 -0.29372883 0.45711324 0.2108443
0002e0 24 76 9b bf ef 7b a0 3e 31 7b 0b 3f 42 a1 d2 3d
       -1.2145429 0.31344554 0.5448485 0.10284664
0002f0 0b 9e 65 3e 44 42 ae 3e a3 62 0b bf 85 be 34 bd
       0.2242357 0.34034932 -0.5444738 -0.044127006
000300 ad 91 e7 bd 49 da 0e bf a0 0a bb be 4c 7d a4 bf
       -0.11307082 -0.55801827 -0.36531544 -1.2850738
000310 42 8c 6e be 63 fe 61 3e e0 98 0c bf 50 49 ca 3e
       -0.23295692 0.22069697 -0.5492077 0.39509058
000320 c3 e4 1e bf da 58 00 be 00 b0 15 3f e1 d3 30 3f
       -0.6206781 -0.12533894 0.5847168 0.690733
000330 98 9c bd bd 74 6c 6b 3f 05 f3 2b 3f 90 ce ad be
       -0.092583835 0.9196236 0.67167693 -0.33946657
000340 a9 6d c9 3e a5 77 6b bf 3b 5e e1 3e ce c5 80 3e
       0.39341477 -0.9197944 0.44017205 0.25150913
000350 a4 1a 19 3f e4 94 10 3f 2c f6 b5 3d e7 7b 51 bf
       0.59806275 0.5647719 0.08884844 -0.81829685
000360 ec 33 d6 be eb a6 55 be 90 0e 56 3d 60 84 f3 be
       -0.41836488 -0.20864455 0.05225998 -0.47561932
000370 85 c9 4b 3f ee 4a 15 bf ad 2a 45 3d 4c 83 13 3f
       0.7960437 -0.5831746 0.048136402 0.5762222
000380 13 33 75 3e 31 c9 76 3e ae f7 fa 3d fb 9d a7 3d
       0.23945265 0.24100186 0.122542724 0.08184429
000390 ac c2 a4 be ad 98 4d 3f 1f 36 b9 3e 2b 0f 2a 3e
       -0.32179773 0.8031109 0.36174104 0.16607349
0003a0 7a 30 a5 bd 0b bf 92 bf 33 de 38 be ee a1 b1 3d
       -0.08065887 -1.1464552 -0.18053512 0.08673464
0003b0 77 f7 1b bf c3 35 1c bd d1 ea 81 3e 90 4e b7 3f
       -0.60924476 -0.03813721 0.25374463 1.432085
0003c0 cd eb f8 3e da 8a 65 3e 7b 38 40 3f 70 30 33 be
       0.48617402 0.22416249 0.7508618 -0.17498946
0003d0 3d 36 d8 be 62 de ea be 7c 96 f8 be 91 87 df be
       -0.4222888 -0.4587279 -0.4855231 -0.43658116
0003e0 d9 bc 0f bf 72 9a a7 3e c8 d1 a2 3e ce 92 de 3e
       -0.56147534 0.3273502 0.31800675 0.43471378
0003f0 cf 0b 47 3f c3 ad c4 3f 3b 86 04 3e 90 eb 8c 3f
       0.77752393 1.5365528 0.1294183 1.1009388

lstm.bias_ih_l0 f4 [256]
000000 95 8a 87 be 40 a7 46 3e 20 03 07 bf 89 29 4f bf
       -0.26472917 0.19399738 -0.52739143 -0.8092275
000010 17 44 fa be cc a9 02 bf 40 06 a9 bf 41 86 a8 3e
       -0.48880073 -0.5104034 -1.3205032 0.32914928
000020 63 c6 b9 3e 06 ee 1e bd 9c 8d c6 be 95 6b b3 bf
       0.3628417 -0.038801216 -0.38779914 -1.4017206
000030 2b f3 2f be b0 97 f4 be 45 cb 6c bf f0 39 2c bf
       -0.17182605 -0.47771978 -0.92497665 -0.67275906
000040 a7 0c 17 bf dd 36 86 be d5 b0 9b be 4e 5f 38 3e
       -0.5900368 -0.26213732 -0.3040835 0.18005106
000050 1a e1 95 be b5 85 c9 bd 19 d4 3e bf 8f f0 dd be
       -0.292733 -0.09839956 -0.74542385 -0.43347594
000060 cb bb 9f be c1 32 22 3e 93 b1 9e 3e ca 1d bc be
       -0.31197962 0.15839674 0.30994853 -0.36741477
000070 09 6b ac 3e f7 0d b7 3e 87 cd 22 be 38 38 c4 3e
       0.3367541 0.35752842 -0.15898715 0.38324142
000080 e1 ae 5d bf 3d 8a 1e 3f c1 3c 24 3e a2 c4 39 bf
       -0.8659497 0.61929685 0.16038801 -0.7256566
000090 5a 4d 03 bf c9 7c b0 bf e9 b9 3e bf 8b 89 b6 3d
       -0.51289904 -1.3788081 -0.74502426 0.08912953
0000a0 e2 3b 93 bf d2 80 c4 3e 3e 51 81 3f f6 aa 77 bf
       -1.150265 0.38379532 1.0102918 -0.9674524
0000b0 07 28 8a bf 1e 11 a0 bf 83 75 cc 3e 44 2e 96 bf
       -1.0793465 -1.2505224 0.39933404 -1.1732869
0000c0 b8 ed 90 bf 74 a4 8a bf d1 34 c5 be ed e1 0a bf
       -1.1322546 -1.0831437 -0.38516858 -0.54250985
0000d0 2b bc 1c be 02 6a 0d bf 25 76 ec be ce 8a b1 be
       -0.15306155 -0.5523988 -0.46183887 -0.34676212
0000e0 14 75 13 3e 8b 2f a8 bf fe fd dc be 65 ec f4 3e
       0.1440013 -1.3139509 -0.4316253 0.47836605
0000f0 93 6d 81 be 93 98 3d 3d a3 c6 b3 be 67 97 d8 3e
       -0.2527891 0.046288084 -0.35112485 0.4230301
000100 8f b1 b2 3e be 93 b0 3e e5 36 37 3e 37 27 59 be
       0.3490109 0.34487718 0.17892034 -0.21206366
000110 e3 dd 18 bf 90 cf 05 3c 9f ec 78 3d e7 e0 35 3f
       -0.5971357 0.008167163 0.060772534 0.710463
000120 d8 f0 13 bf 0d 58 7c 3e e1 dd 63 be a7 c7 19 be
       -0.57789373 0.24642964 -0.22252609 -0.15017568
000130 1a d5 6c 3e ef cc c0 bd 14 7b ab be f0 9c 7c 3f
       0.23128167 -0.09414088 -0.3349234 0.9867697
000140 00 d4 81 bc 67 9f 6a bd 88 ab b2 be 32 38 a3 be
       -0.01584816 -0.057280924 -0.34896493 -0.3187881
000150 42 40 07 bd 64 47 32 3e b9 78 c5 be 4e 95 15 bf
       -0.033020265 0.17410046 -0.38568667 -0.58430946
000160 8c 1d 96 3e d6 f8 0c 3e d0 70 b6 be c4 c9 94 3e
       0.29319417 0.13766798 -0.35632944 0.29060185
000170 7d 57 e9 bd 10 9f 9d bd 69 ec 38 3f 3b af 00 3f
       -0.1139364 -0.076963544 0.72235733 0.5026738
000180 fb ca 3d 3e fd e2 f1 3c ae a4 63 bf 36 0b b3 3d
       0.18534462 0.029527182 -0.88923156 0.08742373
000190 fb ed 9a be 10 52 05 3f 4b 1d c3 3e 47 cf 6b bd
       -0.3025969 0.5207834 0.38108286 -0.057570722
0001a0 7d f6 ef 3e 86 10 73 3f 36 64 87 be 30 ae 91 bd
       0.46867743 0.9494709 -0.26443642 -0.07113302
0001b0 32 cf 25 3f 9f 2d 9f be 1a 1d 99 3f 7f c7 99 be
       0.6476928 -0.31089494 1.1962006 -0.30035016
0001c0 28 02 e3 3e 47 96 b2 3e 3e 9d 03 bf 0d bf 08 bf
       0.44337583 0.34880278 -0.5141181 -0.5341652
0001d0 7c dd d9 be 93 f4 fa be 41 3a 58 bf 48 63 63 3e
       -0.42551792 -0.4901472 -0.8446389 0.22205842
0001e0 b1 27 9c be 24 a1 53 3f a3 51 33 be 32 f9 72 3f
       -0.30499032 0.82667756 -0.1751161 0.9491149
0001f0 d7 14 67 3d e0 3e 4a bc 35 f9 2f bf a4 e1 c4 be
       0.05641636 -0.012344092 -0.68739635 -0.384534
000200 f6 76 aa bc 32 ce 4b 3f df 14 88 3f 47 a0 8f 3f
       -0.020808678 0.79611504 1.0631369 1.1220788
000210 b6 5e 26 be ac e0 d9 3e e9 8a e1 3d 55 af 14 3f
       -0.16247067 0.42554224 0.11012823 0.58080035
000220 96 95 ee 3e 40 70 0e 3d ac 5d bd 3e aa d6 28 3e
       0.465985 0.03477502 0.36985528 0.16488138
000230 4c ea 25 3f 99 13 23 bf 38 75 02 bf 56 da e2 3e
       0.64810634 -0.6370178 -0.5096011 0.44307202
000240 8b 11 55 bf 35 69 36 be 82 2f 90 3d 0a f2 cb 3e
       -0.83229893 -0.17813571 0.070403114 0.398331
000250 32 7f 8f 3e 80 78 67 be 80 e7 47 3e ee 19 40 3e
       0.2802673 -0.22604561 0.19521904 0.18759891
000260 60 f1 74 be 88 fc 04 bf 49 40 8f bf 80 14 bf 3e
       -0.23920202 -0.5194783 -1.1191493 0.37320328
000270 bb 40 de 3d d2 99 4d bf 41 a0 e8 3e 0a fa 0e 3f
       0.1085219 -0.80312836 0.45434764 0.5585028
000280 0e 48 1a 3f 97 c9 99 3f 53 58 d5 3e 6a 31 8a 3e
       0.60266197 1.2014645 0.4166895 0.26990825
000290 d7 57 ea be 16 13 0a 3f 70 0a eb bc bc 8c 71 3f
       -0.4577014 0.5393537 -0.0286915 0.9435537
0002a0 4a 8a 17 bf f6 9e 95 3f dd 34 c6 bf c9 96 91 3f
       -0.5919539 1.1689136 -1.5484883 1.1374141
0002b0 e9 cb 30 be c3 63 cc be a2 54 4e bf fa a5 41 3f
       -0.17265286 -0.39919862 -0.8059789 0.75643885
0002c0 f2 c2 06 3f a6 ca 36 3f 64 a3 05 bf 50 bb c1 3f
       0.5264121 0.71402967 -0.5220244 1.5135288
0002d0 9f 60 84 bf 83 a4 be 3e b2 2a d1 3e e2 50 2f bf
       -1.0341986 0.37234887 0.40852886 -0.6848279
0002e0 8a 86 27 bf 3f 5b 69 3e 15 9d 05 bf 52 43 53 3e
       -0.65439665 0.22788714 -0.52192813 0.2063115
0002f0 67 db 2b be d1 e0 5c be 1e 72 c7 3e 27 5b d6 3e
       -0.16782914 -0.21570136 0.38954252 0.4186642
000300 a4 36 3e bf 13 8b a1 be c4 87 8f 3d ef b5 1a bf
       -0.74302125 -0.31551418 0.07008317 -0.6043386
000310 6e 3a 56 bf 5a 87 01 be 54 9a 99 be 6b 56 7d be
       -0.83682907 -0.12649289 -0.30000556 -0.24739997
000320 2e 9f f4 be 98 f9 27 be f3 3c 18 bc 56 11 77 bf
       -0.47777694 -0.16403806 -0.009291875 -0.9651083
000330 d9 4a c4 be cd 3e 42 bd 2a 2c 41 bf ea 69 e8 3e
       -0.38338354 -0.047423173 -0.75458014 0.45393306
000340 97 3b 89 be 23 ac 42 bf 73 4c f9 be e2 7d de 3e
       -0.26803276 -0.7604391 -0.4869114 0.43455416
000350 34 71 f2 be a0 5e 49 bf d0 3b 23 bf c8 6b 29 be
       -0.47351992 -0.7866001 -0.6376314 -0.16545022
000360 e7 42 35 bf a1 7c b9 be 84 74 f8 be c7 3e 3f bd
       -0.7080521 -0.36227897 -0.48526394 -0.04669073
000370 cd 9f f5 3e 1d 74 55 be cf 35 9f be d3 af 14 3f
       0.4797348 -0.20845075 -0.3109574 0.58080786
000380 88 ae 9c bf 88 d5 b9 3e 5f 02 d5 3d 3d 7e 16 be
       -1.2240763 0.36295724 0.10400843 -0.14696594
000390 0b b3 31 be 58 6b dc 3d e0 d0 02 3f 7c 3d 10 be
       -0.17353456 0.10762662 0.5109997 -0.14085954
0003a0 0a 54 54 be c8 e3 81 3f f7 34 82 3f b9 91 a0 be
       -0.20735183 1.0147638 1.0172414 -0.31361178
0003b0 08 1e aa be 1d 09 0d 3e 98 b3 88 3e 52 5e e8 3d
       -0.33226037 0.13773008 0.2669952 0.11346115
0003c0 97 c8 c0 be d9 8e 03 bf c4 37 53 3d 36 be e4 3d
       -0.37653038 -0.51389843 0.051566854 0.11169092
0003d0 e8 58 18 3e 1d 2f 27 bf 2e 46 0c bf 56 66 e1 be
       0.14877665 -0.65306264 -0.54794586 -0.4402339
0003e0 66 ff 1e 3c a0 d3 34 3e 26 47 dd be 70 77 9e be
       0.009704446 0.17658854 -0.43218344 -0.309505
0003f0 ee e5 3a be f1 ea 46 bf a5 5d f9 be d5 48 92 3e
       -0.18251774 -0.7770224 -0.48704258 0.2857119

lstm.bias_hh_l0 f4 [256]
000000 18 b8 44 be c8 c7 a4 3e 98 20 c9 be bc 00 4f bf
       -0.19210851 0.3218367 -0.3928268 -0.80860496
000010 98 c0 09 bf 62 73 1c bf 5c e1 c0 bf 59 a9 b0 3e
       -0.538095 -0.6111356 -1.5068774 0.34504202
000020 cf 03 b9 3e 74 65 5f 3c c7 2f d7 be d1 f4 c2 bf
       0.36135718 0.013635028 -0.4202864 -1.5230962
000030 a6 77 08 be 5e 15 e4 be 68 44 83 bf 81 61 0a bf
       -0.13326892 -0.44547552 -1.0255251 -0.5405503
000040 21 00 11 bf c0 9a 89 be 2c d3 4b be f8 09 36 3e
       -0.5664082 -0.26875877 -0.19904774 0.1777724
000050 40 37 c4 be ff 3f 83 3d 41 07 36 bf 4d 35 8b be
       -0.38323402 0.06408691 -0.7110482 -0.27189103
000060 a0 02 da be ce 73 1c 3e 0d 66 8b 3e 7e 5e e1 be
       -0.42580128 0.15278551 0.27226296 -0.44017404
000070 97 a7 ca 3e c7 d9 b8 3e 01 8f 11 be 3c 4c bc 3e
       0.39580986 0.3610365 -0.14214708 0.36776912
000080 fc 0f 7f bf 6e f2 d8 3e bb ba 39 3e 4a 16 41 bf
       -0.99633765 0.4237246 0.18137638 -0.75424635
000090 20 8f da be 45 db b3 bf bf 3f 23 bf 4d 2f c4 3d
       -0.4268732 -1.4051291 -0.63769144 0.095793344
0000a0 9c 9f ac bf fc b1 a7 3e 2c 28 8a 3f 86 28 7d bf
       -1.3486209 0.3275298 1.079351 -0.9888996
0000b0 05 51 98 bf de 4d 8b bf 11 51 2f 3e 7d a9 8b bf
       -1.1899725 -1.0883138 0.17120768 -1.0911099
0000c0 1e ab 70 bf 81 7e 87 bf 66 c1 ff be 0d 00 10 bf
       -0.94011104 -1.0585481 -0.4995224 -0.5625008
0000d0 15 6b 10 be 2c ca 3e bf 9b cd aa be 7a 44 af be
       -0.14103349 -0.7452724 -0.3335999 -0.3423193
0000e0 7f f8 e3 3d 39 a4 a9 bf 3e eb 08 bf cd b2 ea 3e
       0.11131381 -1.3253242 -0.5348395 0.4583954
0000f0 07 cc bc be 64 5c e0 3d 19 bf b7 be 64 3e 96 3e
       -0.3687441 0.10955122 -0.35887983 0.29344475
000100 8c b4 83 3e 1a 2f a2 3e 27 8c 0a 3e b7 ba 31 be
       0.25723684 0.3167656 0.13530026 -0.17356382
000110 c9 ae 20 bf dd 64 88 3d e3 c5 4a bd 91 83 1e 3f
       -0.627667 0.06659863 -0.049505126 0.61919504
000120 83 14 ee be f1 22 84 3e b5 40 21 be 57 5f 7b be
       -0.46500024 0.25807908 -0.1574734 -0.24548088
000130 50 3e 0e 3e d8 f4 ab bc 4d ac 9b be d6 1d 72 3f
       0.13890958 -0.020990774 -0.30404893 0.94576776
000140 7d 99 3c be 12 52 bd bd b8 f0 84 be 9e c9 41 be
       -0.18417926 -0.09244169 -0.25964904 -0.18924567
000150 b9 9c 1d be 43 fe dd 3d 56 e0 31 be 51 eb ca be
       -0.15391816 0.10839512 -0.17370734 -0.39632657
000160 2b c7 4f 3e f0 6c 3f bc 8b 20 b2 be 9c 7b 90 3e
       0.2029082 -0.011683688 -0.34790453 0.28219306
000170 5f 80 4c be f2 0c 88 3b 47 38 39 3f 1f 6c df 3e
       -0.19970845 0.004151934 0.723515 0.43637177
000180 8f b7 3f 3e f7 40 68 3e ed b0 88 bf fa 35 75 bd
       0.18722366 0.22681032 -1.0678993 -0.05986593
000190 42 b0 15 be d8 a3 13 3f 30 6d 09 3f ea 9d 3d be
       -0.14618018 0.5767188 0.5368223 -0.1851727
0001a0 27 18 d4 3e a6 ab 5e 3f ac 9f 86 be 6e 92 c9 3d
       0.41424677 0.86980665 -0.26293695 0.09842382
0001b0 f4 65 2f 3f 8c a9 9b be 15 82 98 3f 9b 1d 9e be
       0.68514943 -0.30402792 1.1914698 -0.30881962
0001c0 9e 13 ad 3e 85 d6 91 3e 57 e8 e9 be ed 1d 2e bf
       0.3380403 0.28483978 -0.45685074 -0.68014413
0001d0 ef 8c 03 bf 53 15 c8 be 79 c2 59 bf d8 e6 b6 3e
       -0.5138692 -0.3907877 -0.85062367 0.35722995
0001e0 cc 6a f9 be 12 c5 57 3f ae 17 b0 be b0 e8 54 3f
       -0.48714292 0.8428508 -0.34393066 0.8316755
0001f0 d8 8b 84 bd 35 0f 70 3c 6b 40 56 bf 12 ad ee be
       -0.064719856 0.014652063 -0.83692044 -0.46616417
000200 69 b9 36 3e de 60 6d 3f ea 4d 83 3f 79 64 8c 3f
       0.17844166 0.9272593 1.0258152 1.0968162
000210 57 89 0d be 4b f9 1d 3f 20 7a 71 3c 9f 43 08 3f
       -0.13821922 0.61708516 0.0147385895 0.5322818
000220 83 44 04 3f 5d e0 fa 3c 76 e5 a4 3e 22 2d 96 3e
       0.5166704 0.030624563 0.32206315 0.2933131
000230 58 05 3b 3f 0b e9 21 bf fc e0 d4 be 7a 00 0d 3f
       0.7305503 -0.6324622 -0.415779 0.5507885
000240 c9 15 67 bf ed 7c 4a be 21 1a 80 bd 35 ee 77 3e
       -0.90267617 -0.19774218 -0.06254984 0.24211963
000250 42 07 8f 3e 0d d8 90 be e8 90 97 3d 24 e2 17 3e
       0.27935225 -0.28289834 0.074006855 0.1483236
000260 42 66 aa be 7c 7d f0 be e3 d1 8e bf f8 74 eb 3e
       -0.33281142 -0.46970737 -1.1157802 0.45987678
000270 eb fa e3 3c b8 b5 3d bf 69 fc bf 3e c8 f8 14 3f
       0.027829608 -0.74105406 0.3749726 0.5819211
000280 79 06 33 3f 4d e3 90 3f a1 0c 92 3e 25 38 47 3e
       0.6993175 1.1319367 0.2852526 0.19455011
000290 37 0e 6a be c6 06 18 3f ec cf d9 bd fc 47 81 3f
       -0.22856985 0.59385335 -0.10635361 1.0100093
0002a0 f6 6b 3c bf 60 09 b5 3f d5 d9 db bf 92 69 76 3f
       -0.73602235 1.4143486 -1.7175852 0.9625484
0002b0 d1 2e ae be d1 5d 99 be 4e f3 51 bf 38 b7 62 3f
       -0.34020093 -0.2995439 -0.8201188 0.8856082
0002c0 ff 0d c1 3e e5 cf 10 3f 28 50 24 bf 01 47 be 3f
       0.3770599 0.5656722 -0.6418481 1.4865419
0002d0 ba 84 70 bf dd 57 8c 3e d4 23 a4 3e 54 1f 1a bf
       -0.93952525 0.27410784 0.32058585 -0.6020405
0002e0 e0 91 34 bf e5 d7 a2 3e e8 e0 f8 be d5 ff de 3c
       -0.7053509 0.3180534 -0.4860909 0.0272216
0002f0 36 4b 7d be 23 29 67 be ea 5c 86 3e f3 35 8a 3e
       -0.24735722 -0.22574286 0.26242763 0.26994285
000300 f0 4f 2e bf 38 94 af be ad 75 4c 3d d0 0c 29 bf
       -0.68090725 -0.3429277 0.049916912 -0.66035175
000310 29 92 2a bf d2 06 2e 3c 58 be 8b be 53 88 b5 be
       -0.6662927 0.010621743 -0.27293658 -0.3545557
000320 1a c9 e7 be 02 95 6a be d7 ac 08 3e fe 16 74 bf
       -0.45270616 -0.22908404 0.13347183 -0.95347583
000330 6b ca 6b be 33 99 0b 3d 6a 9a 49 bf 38 e5 de 3e
       -0.23026435 0.03408165 -0.7875124 0.43534255
000340 0d 8b bb be 17 8e 54 bf bb 87 21 bf bc b7 94 3e
       -0.36629525 -0.8302931 -0.63097733 0.29046428
000350 d0 1f ab be a8 a8 6f bf e4 86 1b bf 69 9c 6d be
       -0.3342271 -0.93616724 -0.607527 -0.23204197
000360 e3 21 10 bf 18 20 8b be 55 0a b8 be 24 73 bd bd
       -0.5630171 -0.27172923 -0.35945383 -0.09250477
000370 39 00 e3 3e aa e3 ba bc aa 1e 15 be 8b 30 05 3f
       0.44336107 -0.022813637 -0.14562479 0.52027196
000380 7a 43 9a bf d6 28 94 3e 9d ad ff bc 45 08 df bb
       -1.2051842 0.28937405 -0.031210715 -0.0068064057
000390 68 14 9b bd 8e f5 f1 3c d1 cb c5 3e 82 bf 54 bc
       -0.075722516 0.029536035 0.38632062 -0.012985112
0003a0 40 d6 26 be 54 f4 6c 3f 15 cf 6e 3f 39 32 b1 be
       -0.16292667 0.92560315 0.9328473 -0.3460863
0003b0 63 9c fe be 8c e5 04 3d a8 b2 85 3e ec a1 6c 3d
       -0.4972869 0.032445475 0.26112866 0.05777161
0003c0 01 bf 82 be c9 c4 a7 be 0a da a1 bd aa fb 93 3e
       -0.2553635 -0.32767323 -0.07902916 0.28902942
0003d0 f7 36 55 3d af 28 48 bf 3c 7e 01 bf 03 95 94 be
       0.05205437 -0.7818708 -0.50583243 -0.29019937
0003e0 53 e1 48 bd 19 f4 91 3d 4c 45 f7 be 2b 6a 9d be
       -0.04904301 0.07126636 -0.48295057 -0.30745062
0003f0 3e b6 67 be 42 cc 75 bf 9a 90 bf be 13 62 b9 3e
       -0.22628114 -0.960148 -0.3741501 0.36207637

output_proj.weight f4 [1, 64]
000000 8e ec 03 bc 8b db 28 b9 a2 91 61 bb 43 92 47 3e
       -0.0080520045 -0.00016103515 -0.003441908 0.19489388
000010 7a 80 9c 3b 28 25 c9 39 5f 59 59 3b b5 cb 9c 39
       0.004776058 0.0003836539 0.0033164842 0.00029906412
000020 37 0b 71 39 a0 41 36 b7 dc 27 dc b9 7f 9d ce bd
       0.00022987729 -1.0863325e-05 -0.00041991367 -0.10088634
000030 15 26 a2 3a a6 00 91 3a 6b 15 9a ba 09 5c 70 bb
       0.0012370968 0.0011062815 -0.0011755651 -0.003667595
000040 ca 37 ea 39 64 23 cb 3c 80 02 03 ba b6 19 a6 ba
       0.00044673524 0.024797149 -0.0004997626 -0.0012672457
000050 14 5b 9a 3c 32 f9 d1 ba 9e f4 d8 b9 a8 0a 6c bb
       0.018842258 -0.00160197 -0.00041380984 -0.0036017094
000060 14 26 98 b9 3f 17 ba 38 39 5d ad 38 cf 39 e7 3a
       -0.0002902007 8.873501e-05 8.266647e-05 0.001764113
000070 ee a6 19 bb 48 82 4c ba 00 2b d7 37 fc 81 ac 3b
       -0.0023445445 -0.0007801396 2.565002e-05 0.005264519
000080 1c 77 67 39 96 6c e1 ba e0 76 1f 3a 32 a1 a8 3a
       0.00022074248 -0.0017198499 0.00060830824 0.0012865423
000090 42 3a d5 ba 54 2b 65 bc f5 f1 20 3c 49 6b 0c 3a
       -0.0016267973 -0.013987381 0.009823312 0.0005356563
0000a0 e1 28 de bb 10 d4 82 3a f4 34 83 ba 20 c0 83 3b
       -0.0067797755 0.0009981412 -0.0010010288 0.004020706
0000b0 9f 5b 44 bf 52 94 9b 3a 37 68 40 3a fa 6d 12 bb
       -0.767023 0.0011869764 0.0007339748 -0.0022343383
0000c0 a9 30 bb 3d 9e 05 ec bb e3 81 ad 3b e7 1b a9 ba
       0.091401406 -0.007202818 0.0052950247 -0.0012901992
0000d0 f6 82 65 3a 88 59 d3 3b 33 7b 0e bc fe 26 fb 3a
       0.00087551714 0.006449882 -0.008696365 0.0019161401
0000e0 6a aa 34 ba 55 46 8a bc 14 d4 a2 b9 94 6f c8 3a
       -0.0006891849 -0.01687924 -0.00031057058 0.0015292042
0000f0 23 e3 c2 3b d8 f0 4c ba ec d7 83 bb 7e a2 55 bb
       0.005947487 -0.0007817871 -0.0040235426 -0.0032598074
