generator_gan_br_lstm.pth (torch, 162856 bytes, 7 tensors)

input_proj.weight f4 [64, 101]
0.008266245 0.044415444 0.020259593 0.08092888 0.014672875 0.010819611 0.0058041755 0.044721954
0.0243992 -0.0047582397 -0.041465603 0.034470245 -0.0041113277 0.000102430415 -0.030574989 -0.024839817
-0.037275605 0.04854293 0.026644735 0.016747532 -0.027488114 -0.029169394 -0.060937822 -0.040389024
-0.04689883 -0.0663111 0.04314667 -0.028201217 0.020075595 0.008773846 -0.011105404 0.046358783
0.0026319774 0.053903233 0.05074459 0.04089297 -0.0042356076 -0.008394841 -0.034368314 -0.052780125
0.047269855 -0.01580081 -0.008119523 0.014039894 0.00091182993 -0.040401276 0.004908451 -0.0012236529
-0.030508451 -0.05099459 -0.04721364 -0.06260401 -0.05254019 -0.027317727 -0.021700077 -0.0006715162
-0.029222976 0.01374434 -0.04688594 -0.020949578 0.017866375 -0.038213655 -0.025110329 -0.016053224
-0.018795246 0.008668973 -0.035394926 0.05576393 -0.012923393 -0.016934225 -0.083466545 0.0068915
0.045044973 -0.016035838 0.028544694 0.04361905 -0.046282135 -0.016850544 -0.03485123 0.050442256
-0.022405678 -0.04465396 0.020352429 0.045625288 -0.0077399495 -0.030754764 0.039273676 -0.028721116
-0.013764705 -0.014278208 -0.03242858 0.024167735 -0.038879734 -0.0039544064 -0.056759905 -0.00075236894
0.0127948765 0.0072702956 0.036658373 0.020279633 -0.004214639 -0.0051114527 -0.008343405 -0.022805505
0.006361155 0.0074196234 -0.051939383 -0.012605533 0.003659483 0.0035249256 0.025899602 0.026488166
-0.04849075 0.0028036376 -0.0067046382 0.03880774 -0.028012987 -0.020976018 -0.015644925 0.014028902
0.011506255 -0.018236542 -0.035213694 -0.008657772 -0.005592653 -0.02017202 0.031987045 0.016737929
0.049146462 0.053545035 0.020567445 -0.00950377 0.037155382 0.019917736 -0.013741261 -0.014863731
0.024793155 -0.017275156 0.03620539 -0.012423072 0.0037903255 0.03367796 -0.013197989 -0.011095065
0.0012659588 0.0065760864 -0.04642584 0.022151554 0.059106745 0.0004961001 -0.0028323426 -0.0248456
-0.0010826883 -0.004590625 0.019995317 -0.017902406 -0.015902229 0.01875411 0.020898046 -0.03494961
0.009955065 0.040751554 0.016163275 0.0022883504 0.019776886 0.025631659 -0.041423004 -0.022287495
0.02546837 -0.0057399236 -0.008871654 -0.0033722743 -0.042584512 -0.03877118 -0.019339295 -0.012716481
-0.013243496 -0.04237177 -0.0070050154 -0.021660736 -0.011473438 -0.009238377 0.012211979 -0.020896241
0.015534053 -0.0049572717 0.00017204764 0.004799817 0.0044840095 0.027595252 0.01563697 -0.0034513108
0.02890338 0.02494384 -0.035767663 -0.0008968769 -0.037127048 0.018589808 -0.014207418 -0.009229385
-0.050896067 0.008062864 -0.008893134 -0.0029149582 0.016457647 -0.029731857 0.013063185 0.0323034
-0.00902924 0.008963619 0.012332437 0.058485493 -0.051483463 -0.0027193339 -0.014273363 0.0078834705
0.033925243 0.053091623 0.03328679 0.05030078 -0.035320114 -0.01736108 0.0016617774 0.03017384
0.053217273 -0.017042847 -0.0038219406 -0.052874047 0.008318246 -0.023674555 0.018570378 0.0892763
0.0015051921 -0.00931485 -0.03500105 -0.0031856801 -0.018233225 -0.021471106 0.0019347861 -0.016911823
-0.020590138 -0.024855407 -0.048373915 0.009409592 -0.01873945 0.01766831 -0.035551768 0.0067792507
-0.012627294 -0.06683545 0.015702173 -0.020638391 -0.01604143 0.033341326 0.031595062 0.031971756
00000000: 256f 073c f8ec 353d 72f7 a53c 0abe a53d
00000010: 8066 703c bd44 313c f430 be3b 5e2e 373d
00000020: d5e0 c73c 02eb 9bbb d6d7 29bd ac30 0d3d
00000030: 51b8 86bb e9cf d638 6678 fabc df7c cbbc
00000040: 4eae 18bd f4d4 463d 0f46 da3c 1f32 893c
00000050: c12e e1bc a7f4 eebc f099 79bd f66e 25bd
00000060: fd18 40bd 1dce 87bd 90ba 303d 3d06 e7bc
00000070: 9375 a43c 2dc0 0f3c 71f3 35bc b5e2 3d3d
00000080: 417d 2c3b a3c9 5c3d 8fd9 4f3d 637f 273d
00000090: daca 8abb 848a 09bc cac5 0cbd f92f 58bd
000000a0: 099e 413d b370 81bc bf07 05bc 9507 663c
000000b0: df07 6f3a cf7b 25bd 12d7 a03b fa62 a0ba
000000c0: dcec f9bc b4df 50bd 1763 41bd 8836 80bd
000000d0: 6234 57bd 6dc9 dfbc 5cc4 b1bc b008 30ba
000000e0: 0665 efbc f12f 613c 790b 40bd 739e abbc
000000f0: 815c 923c ec85 1cbd 2db4 cdbc 0d82 83bc
00000100: 7df8 99bc 4f08 0e3c 45fa 10bd b868 643d
00000110: a4bc 53bc a5b9 8abc 82f0 aabd 18d2 e13b
00000120: 1481 383d 975d 83bc 90d6 e93c e4a9 323d
00000130: 5692 3dbd 270a 8abc 2ac0 0ebd 8a9c 4e3d
00000140: 1d8c b7bc 12e7 36bd 23ba a63c 95e1 3a3d
00000150: 679f fdbb 6af1 fbbc 6fdd 203d 8c48 ebbc
00000160: 5b85 61bc 25ef 69bc d5d3 04bd 6afb c53c
00000170: 5b40 1fbd f793 81bb 137d 68bd a03a 45ba
00000180: 9aa1 513c a93b ee3b 1727 163d 7921 a63c
00000190: f41a 8abb f97d a7bb c7b2 08bc 9cd2 babc
000001a0: 3c71 d03b 5020 f33b 64be 54bd 7087 4ebc
000001b0: f0d3 6f3b 7002 673b 672b d43c b6fd d83c
000001c0: 3d9e 46bd 3cbd 373b 95b2 dbbb ddf4 1e3d
000001d0: 7e7b e5bc e6d5 abbc c929 80bc 7bd9 653c
000001e0: bb84 3c3c cd64 95bc 3c3c 10bd 54d9 0dbc
000001f0: 9342 b7bb cb3f a5bc d904 033d fb1d 893c
00000200: cd4d 493d 0a52 5b3d 0f7d a83c b3b5 1bbc
00000210: 3e30 183d 852a a33c 0723 61bc 0287 73bc
00000220: 041b cb3c a184 8dbc 1a4c 143d 248a 4bbc
00000230: 1c67 783b e7f1 093d 613c 58bc 13c8 35bc
00000240: 87ee a53a 367c d73b 0629 3ebd 2d77 b53c
00000250: ea19 723d b70c 023a d39e 39bb 0089 cbbc
00000260: fee8 8dba f46c 96bb 38cd a33c 11a8 92bc
00000270: 6445 82bc 38a2 993c 6132 ab3c 5227 0fbd
00000280: 921a 233c 1aeb 263d d868 843c 26f8 153b
00000290: 2303 a23c 7cf9 d13c 2bab 29bd 4494 b6bc
000002a0: 0ba3 d03c f815 bcbb 6a5a 11bc 6001 5dbb
000002b0: 196d 2ebd 87ce 1ebd 716d 9ebc ca58 50bc
000002c0: 40fb 58bc 058e 2dbd 548a e5bb db71 b1bc
000002d0: 16fb 3bbc 905c 17bc c114 483c 982e abbc
000002e0: 8a82 7e3c 9c70 a2bb b067 3439 c947 9d3b
000002f0: 99ee 923b 700f e23c 1a19 803c 632f 62bb
00000300: c8c6 ec3c 0657 cc3c 1d81 12bd 641c 6bba
00000310: 8812 18bd a749 983c 3bc6 68bc d936 17bc
00000320: 6578 50bd 1a1a 043c 82b4 11bc e208 3fbb
00000330: 30d2 863c 3990 f3bc f806 563c 9250 043d
00000340: 61ef 13bc 25dc 123c fd0d 4a3c 7c8e 6f3d
00000350: 53e0 52bd da36 32bb d3da 69bc ac29 013c
00000360: 32f5 0a3d 9a76 593d bb57 083d 3108 4e3d
00000370: d3ab 10bd d338 8ebc ffcf d93a 212f f73c
00000380: 5bfa 593d 719d 8bbc 8679 7abb 7592 58bd
00000390: 4149 083c 24f1 c1bc e820 983c 7ed6 b63d
000003a0: de49 c53a 509d 18bc 435d 0fbd d8c6 50bb
000003b0: d85d 95bc 2ce4 afbc a698 fd3a aa8a 8abc
000003c0: a6ac a8bc 919d cbbc ba23 46bd b02a 1a3c
000003d0: 7a83 99bc 22bd 903c bb9e 11bd 7a24 de3b
000003e0: b6e2 4ebc 06e1 88bd d8a1 803c d811 a9bc
000003f0: 5169 83bc ea90 083d d369 013d d1f4 023d

input_proj.bias f4 [64]
0.013014672 -0.055512976 0.0042312536 -0.15623647 -0.016973564 0.46636853 -0.026498616 -0.032668296
3.6681874 -1.2466502 0.4763005 1.6156442 0.02348605 0.07259986 0.21285522 2.0326831
0.06900123 2.025636 0.03288562 -1.8380913 -0.07981431 -0.07935444 -3.4983628 -0.20169654
0.059958808 0.016027527 2.2473073 -0.16756484 -0.05352245 0.07378636 0.9284938 2.8023314
-0.13881789 -0.05835408 0.077066585 -1.8206296 -0.052084178 0.1811671 0.19191578 0.100844085
-0.032678504 1.0841393 -3.1284583 0.21471646 2.38214 -1.1435865 0.24413179 -0.028673999
0.2667687 -0.07621508 -0.195784 -0.1820071 -0.07712996 0.12610854 2.133004 -0.024801824
3.273728 -3.3477345 0.044375 -0.062038932 0.20907888 -0.9881534 0.013690055 0.03129468
00000000: 7e3b 553c 9361 63bd 54a6 8a3b 74fc 1fbe
00000010: 250c 8bbc dbc7 ee3e a013 d9bc 31cf 05bd
00000020: 95c3 6a40 3c92 9fbf a9dd f33e 6ecd ce3f
00000030: d165 c03c 3caf 943d b8f6 593e 7b17 0240
00000040: 8450 8d3d 05a4 0140 12b3 063d 9346 ebbf
00000050: af75 a3bd 9584 a2bd 2de5 5fc0 8a89 4ebe
00000060: 5e97 753d 294c 833c e2d3 0f40 1e96 2bbe
00000070: 5b3a 5bbd 4e1d 973d c5b1 6d3f 6659 3340
00000080: 4726 0ebe b004 6fbd 16d5 9d3d 640a e9bf
00000090: 3856 55bd de83 393e 9285 443e 5887 ce3d
000000a0: e5d9 05bd 14c5 8a3f a938 48c0 a2de 5b3e
000000b0: fb74 1840 0b61 92bf affd 793e bce5 eabc
000000c0: e895 883e a716 9cbd 9a7b 48be 1260 3abe
000000d0: 50f6 9dbd 9922 013e 2383 0840 322d cbbc
000000e0: c284 5140 4841 56c0 8fc2 353d 891c 7ebd
000000f0: c618 563e 9ff7 7cbf 414c 603c da2e 003d

lstm.weight_ih_l0 f4 [256, 64]
-0.042346284 -0.0032308786 -0.03460715 -0.01813042 0.026945507 -0.0118060075 0.0036430275 0.15762697
-0.029359741 -0.017709976 0.041200675 -0.041687354 0.07049467 0.016112695 -0.09222266 -0.034185734
-0.003329419 0.04075667 -0.10150024 0.26769894 -0.0090444675 0.0423325 0.17946327 0.06882334
0.21884751 -0.07004688 -0.26052535 0.012206682 0.051813953 -0.062844984 0.04494739 0.16367973
-0.061566938 0.008012291 -0.2289278 -0.09196874 -0.11312713 0.04395131 -0.040193077 0.09895925
-0.03534024 0.021424167 0.07384564 -0.09809167 0.09635202 0.044742722 0.05477494 -0.068527915
0.09479552 0.2213868 -0.031200998 0.113060534 0.11756153 0.06337311 -0.04574627 -0.099149995
0.1510621 -0.15715039 0.083057776 0.03238456 -0.008626082 -0.19019394 0.018073125 -0.18018731
-0.021768358 -0.027940666 -0.11400516 -0.016237749 0.09141058 -0.14783128 0.10340349 -0.0717384
-0.044110652 -0.025782479 -0.06248992 -0.03528506 0.13984211 0.05034951 -0.11674623 -0.006247026
-0.059111986 -0.14926724 -0.07799372 0.074040756 0.06940673 0.053832114 -0.05017747 -0.07039858
-0.17212202 -0.14971603 0.097052135 0.116059385 0.19128257 -0.07044263 -0.12732151 -0.016082482
0.12334708 0.02966177 -0.0943391 0.27768287 0.050769992 0.01820829 -0.066392094 -0.06591842
0.10793076 0.014625047 0.04211165 -0.06402436 -0.057084423 0.19284467 -0.02209247 0.14652358
-0.08958602 0.22611755 0.01990851 0.0151986405 -0.16387963 -0.033628237 -0.060315076 0.05980916
-0.030879775 0.18213524 -0.12823579 -0.18335968 -0.16190335 0.0061762864 -0.06311761 -0.31084073
0.09019568 0.15252179 0.05824313 0.091188036 0.10863344 -0.22410417 -0.44763446 0.063067585
-0.45477787 -0.020526415 -0.102838494 -0.44637266 -0.043323237 -0.19443706 -0.04949218 -0.07564329
0.112390354 -0.37517416 -0.0697334 0.48278877 -0.13447039 0.15887348 0.4377079 -0.047746383
-0.117332965 -0.031378098 -0.38622418 -0.25055048 0.1376827 0.047204673 -0.32533187 -0.17060086
-0.27238077 -0.19519258 -0.049851406 0.33342302 -0.040592358 -0.022482581 -0.05785364 0.1022272
-0.15080163 -0.3543491 0.5354964 0.052851632 -0.5049587 0.21876775 -0.055272456 0.056541283
0.046543688 -0.1330381 0.03264943 -0.012458034 0.045366064 -0.09920467 -0.21765526 0.14854704
-0.527561 0.26150563 0.092311874 -0.11391754 0.042056505 0.014811305 -0.06851607 -0.13052064
-0.17458883 -0.08012862 -0.058624536 -0.009459317 0.0069385986 0.07029642 0.084014274 0.13706432
-0.21044858 -0.02776878 -0.28524986 0.03918477 0.11129015 0.025803708 -0.013561009 0.16669619
-0.098264314 -0.10107404 -0.10503326 0.48993996 0.023607902 0.13685049 0.06740338 -0.05610085
0.034529563 0.19803955 -0.18000253 0.14761457 0.16299295 0.10250302 -0.09127707 0.16421886
0.32784447 -0.16063048 0.042323306 0.3581733 0.17556326 -0.041888796 -0.11589907 0.0009840477
0.08796001 0.054150287 -0.008650776 -0.003944058 -0.16635855 0.0011734294 -0.16802295 0.04695509
-0.022264512 0.031115983 -0.06296452 0.03619671 0.02275366 -0.21732882 -0.04361436 0.03425178
-0.12832952 0.08443182 -0.15460561 0.12018986 -0.18583937 0.04547113 -0.009686255 0.09146118
00000000: 4c73 2dbd 26bd 53bb 3ac0 0dbd 3f86 94bc
00000010: d3bc dc3c fc6d 41bc dcbf 6e3b f768 213e
00000020: d783 f0bc 8314 91bc 0ac2 283d 5cc0 2abd
00000030: 825f 903d c5fe 833c 3cdf bcbd 5706 0cbd
00000040: 6232 5abb 77f0 263d 5cdf cfbd d60f 893e
00000050: 3f2f 14bc d864 2d3d 38c5 373e 40f3 8c3d
00000060: 9019 603e bd74 8fbd 9463 85be 89fe 473c
00000070: de3a 543d dfb4 80bd c11a 383d a99b 273e
00000080: 9d2d 7cbd fc45 033c 0d6c 6abe 1b5a bcbd
00000090: 32af e7bd 4a06 343d 7fa1 24bd 26ab ca3d
000000a0: edc0 10bd bc81 af3c 623c 973d 49e4 c8bd
000000b0: 3554 c53d 2544 373d b05b 603d 5d58 8cbd
000000c0: 2724 c23d 39b3 623e 3c99 ffbc 488c e73d
000000d0: 19c4 f03d c3c9 813d 7160 3bbd 270f cbbd
000000e0: 06b0 1a3e 08ec 20be 321a aa3d aca5 043d
000000f0: 6954 0dbc 33c2 42be 170e 943c 0683 38be
00000100: 8e53 b2bc d3e3 e4bc 8a7b e9bd 0705 85bc
00000110: 7835 bb3d 1561 17be 35c5 d33d 95eb 92bd
00000120: 5fad 34bd c735 d3bc 6ef5 7fbd 1187 10bd
00000130: c532 0f3e 4a3b 4e3d a618 efbd dab3 ccbb
00000140: 691f 72bd 83d9 18be 2cbb 9fbd aea2 973d
00000150: 1e25 8e3d 107f 5c3d e486 4dbd 212d 90bd
00000160: c140 30be 294f 19be 45c3 c63d 8bb0 ed3d
00000170: 94df 433e 3a44 90bd 9260 02be 69bf 83bc
00000180: 659d fc3d 3efd f23c dc34 c1bd 732c 8e3e
00000190: 32f4 4f3d 8d29 953c 94f8 87bd 3d00 87bd
000001a0: cd0a dd3d e59d 6f3c 447d 2c3d 341f 83bd
000001b0: 5bd1 69bd 1379 453e 45fb b4bc 470a 163e
000001c0: e078 b7bd 5c8b 673e 2c17 a33c b803 793c
000001d0: 10d0 27be c3bd 09bd f10c 77bd 73fa 743d
000001e0: 95f7 fcbc a981 3a3e 3e50 03be a4c2 3bbe
000001f0: fec9 25be 7262 ca3b ce43 81bd 8426 9fbe
00000200: 83b8 b83d ac2e 1c3e 5990 6e3d cbc0 ba3d
00000210: 367b de3d 907b 65be 5830 e5be 9429 813d
00000220: a5d8 e8be 0327 a8bc fd9c d2bd f58a e4be
00000230: b573 31bd 821a 47be 50b8 4abd dfea 9abd
00000240: ea2c e63d d416 c0be 63d0 8ebd 1730 f73e
00000250: 9bb2 09be bbaf 223e 401b e03e b691 43bd
00000260: 444c f0bd 5286 00bd 2dbf c5be 2748 80be
00000270: b2fc 0c3e b059 413d e691 a6be feb1 2ebe
00000280: 7e75 8bbe 90e0 47be fd30 4cbd 6cb6 aa3e
00000290: 2c44 26bd 642d b8bc f0f7 6cbd 7f5c d13d
000002a0: be6b 1abe 3f6d b5be 4b16 093f f47a 583d
000002b0: f944 01bf a704 603e 5f65 62bd d597 673d
000002c0: 98a4 3e3d 243b 08be 69bb 053d c81c 4cbc
000002d0: c4d1 393d d12b cbbd 05e1 5ebe b71c 183e
000002e0: 3d0e 07bf 11e4 853e 020e bd3d 994d e9bd
000002f0: 7143 2c3d 1eab 723c 2752 8cbd 34a7 05be
00000300: 6ac7 32be 791a a4bd 4820 70bd 40fb 1abc
00000310: 2f5d e33b 92f7 8f3d ad0f ac3d 975a 0c3e
00000320: d57f 57be 5a7b e3bc 450c 92be 3680 203d
00000330: 17ec e33d 4c62 d33c ff2e 5ebc 68b2 2a3e
00000340: cd3e c9bd e8ff cebd ae1b d7bd 69d9 fa3e
00000350: 5c65 c13c 8922 0c3e c90a 8a3d 01ca 65bd
00000360: df6e 0d3d e1ca 4a3e 9552 38be 4628 173e
00000370: a0e7 263e 1aed d13d 79ef babd fd28 283e
00000380: 3bdb a73e 517c 24be 345b 2d3d 7e62 b73e
00000390: dbc6 333e 9693 2bbd 7e5c edbd 29fb 803a
000003a0: 6124 b43d b1cc 5d3d fcbb 0dbc 283d 81bb
000003b0: e559 2abe c2cd 993a 350e 2cbe fb53 403d
000003c0: 1164 b6bc f2e6 fe3c 8bf3 80bd 0043 143d
000003d0: e265 ba3c 728b 5ebe f9a4 32bd 984b 0c3d
000003e0: d068 03be 97ea ac3d ef50 1ebe 1a26 f63d
000003f0: ad4c 3ebe f03f 3a3d 19b3 1ebc 0050 bb3d

lstm.weight_hh_l0 f4 [256, 64]
1.3241616 0.52240247 -1.7059356 -0.7030974 -0.34289262 -0.42287615 0.16745496 0.086742595
-0.3553623 1.7662399 0.5956307 -3.1465042 0.5703919 -0.35651043 0.11410161 -0.2931291
-1.0823424 0.4959402 -0.49071598 1.2616982 0.08057959 -0.70884335 -0.6050919 0.7410217
-0.041923903 -1.8327534 0.5007113 0.80100495 0.11322476 -1.3264862 -1.0838104 -1.0614955
-0.08714858 0.1219519 1.2085173 1.0647371 -1.4824933 0.50223583 0.74769896 0.35374394
-0.9836013 0.5197298 0.3333444 -0.5534576 -1.3189316 -0.2968785 -0.5652307 -0.22791801
-0.83173203 -0.72882384 0.7914926 1.0336813 -0.1616716 -0.699156 -0.38342768 1.1219884
-0.89159524 0.8652909 -0.5465883 0.975997 -0.5608276 -0.63413334 0.49831498 0.53490573
-0.04229406 1.9458412 0.42858335 -0.23479493 -0.5107177 0.06231085 1.3070282 -0.09990129
-0.4728537 -0.99847883 1.1909369 -1.0308876 0.885452 -0.7720665 0.1576781 -0.74810356
-0.30410194 -0.91148865 1.1073143 1.1162387 1.0655121 -1.721924 -0.9386164 -0.67719954
0.602732 0.08566601 -2.6270568 0.58202374 -0.39262292 0.95394033 -1.5338354 0.72494936
0.78268063 1.254987 0.38487196 0.18765311 -0.7310801 0.4464271 -0.2833102 0.03542873
-0.41169885 0.3426092 0.648929 -0.26699498 1.8334919 -1.9948107 0.26155907 0.153105
-0.45649952 -0.10060582 0.40905687 0.7907412 -0.1684464 -1.0271401 -2.2688415 0.1456827
-1.5721946 0.6793088 -0.011713251 0.08380453 0.6953697 -0.5559138 -1.1285962 1.0457127
0.6518483 -0.19276373 -0.4126556 -0.46833333 0.12454791 -0.85797215 -0.083030835 0.11849179
0.753615 0.7135449 -0.24595173 0.90300256 1.6171927 0.4779537 0.025648816 -0.52082723
-0.41303623 -0.2469264 -0.16419792 -1.1872226 -1.0307778 -1.4178765 0.08379137 0.21766107
0.39853543 -0.5674235 0.25074413 0.3681393 0.25321898 -0.20570424 0.033882525 1.0643442
0.4047305 -0.008122207 0.12471752 2.085236 0.21468371 0.49780515 0.5156912 -0.5734211
-0.88716143 0.73211914 -0.5610928 -0.2632229 -0.71479666 0.51982385 -0.4287789 0.67856646
-0.7991696 0.42267182 0.311287 1.3205181 0.046283297 -0.59607214 0.8686447 1.161875
0.046546496 0.35131 0.06257973 0.7159196 1.0177307 -0.47549844 0.25458175 -0.8349946
0.2919326 -0.45994842 -0.9602253 0.1447852 -0.22888228 -1.3515645 -0.47880495 0.1983723
-0.540171 0.31910968 -0.5977027 2.6497703 1.1755304 1.1153316 -0.5505331 0.058275
-0.2759002 -0.28330368 -0.4905911 -1.4633517 -0.43891507 -0.90749794 -0.6536545 -1.1132436
-0.32468525 0.042894546 0.23851117 0.03213147 0.067087814 -0.21317329 0.2953194 -1.0158263
-0.46261027 -0.13111761 -0.24923532 0.49205723 1.902345 -0.21534178 0.10767695 -0.29060015
-1.5535866 0.60455394 -0.22850835 -0.15778963 -0.6330446 0.73592347 -0.14093137 -0.6923521
-1.6451174 0.12618524 -0.030092318 1.3352453 -1.0067542 0.19349319 0.16407086 -0.01305262
0.66211265 0.26686245 0.33547556 1.0470241 1.216687 -1.4216421 -0.15221004 2.3677392
00000000: 217e a93f 2bbc 053f 195c dabf 31fe 33bf
00000010: 9f8f afbe 3983 d8be 5079 2b3e 1aa6 b13d
00000020: 0cf2 b5be 2614 e23f 417b 183f 5360 49c0
00000030: 3405 123f 8988 b6be 1bae e93d 0415 96be
00000040: 328a 8abf e0eb fd3e 203f fbbe 547f a13f
00000050: e906 a53d c276 35bf 4ee7 1abf 99b3 3d3f
00000060: 66b8 2bbd aa97 eabf 9e2e 003f a90e 4d3f
00000070: 62e2 e73d 4dca a9bf 4dba 8abf 16df 87bf
00000080: f47a b2bd ebc1 f93d b2b0 9a3f 4e49 883f
00000090: 57c2 bdbf 8792 003f 3369 3f3f ed1d b53e
000000a0: 4bcd 7bbf 030d 053f 1eac aa3e 66af 0dbf
000000b0: c0d2 a8bf 7500 98be f6b2 10bf 5763 69be
000000c0: 64ec 54bf 3394 3abf 429f 4a3f ab4f 843f
000000d0: 3d8d 25be e3fb 32bf a250 c4be 519d 8f3f
000000e0: 963f 64bf b483 5d3f 36ed 0bbf f0da 793f
000000f0: 6692 0fbf 9056 22bf 2423 ff3e 95ef 083f
00000100: 893c 2dbd 5311 f93f 476f db3e 156e 70be
00000110: 65be 02bf a939 7f3d b34c a73f 0c99 ccbd
00000120: e119 f2be 4f9c 7fbf 9f70 983f 20f4 83bf
00000130: fbac 623f 26a6 45bf 5e76 213e b783 3fbf
00000140: 40b3 9bbe 5257 69bf 7abc 8d3f e9e0 8e3f
00000150: b362 883f 0168 dcbf 2a49 70bf f35c 2dbf
00000160: a54c 1a3f a971 af3d b321 28c0 82ff 143f
00000170: df05 c9be 6f35 743f b854 c4bf 4896 393f
00000180: c25d 483f 6aa3 a03f f00d c53e 2328 403e
00000190: 1128 3bbf 1892 e43e 090e 91be b71d 113d
000001a0: 31ca d2be 796a af3e 3620 263f 91b3 88be
000001b0: ddaf ea3f f555 ffbf 12eb 853e 8fc7 1c3e
000001c0: 4eba e9be 6d0a cebd e76f d13e 046e 4a3f
000001d0: 377d 2cbe 5479 83bf b334 11c0 d92d 153e
000001e0: ac3d c9bf 2ee7 2d3f efe8 3fbc b6a1 ab3d
000001f0: c003 323f 5e50 0ebf d775 90bf ead9 853f
00000200: 88df 263f db63 45be 9847 d3be 63c9 efbe
00000210: fa12 ff3d 10a4 5bbf 120c aabd d3ab f23d
00000220: eaec 403f e1aa 363f c5da 7bbe 2d2b 673f
00000230: 2c00 cf3f 59b6 f43e 771d d23c ef54 05bf
00000240: 7c79 d3be 46da 7cbe 8023 28be e9f6 97bf
00000250: 87f0 83bf fa7c b5bf cf9a ab3d 8be2 5e3e
00000260: d60c cc3e ab42 11bf 8961 803e c17c bc3e
00000270: eba5 813e 22a4 52be 67c8 0a3d 6e3c 883f
00000280: d638 cf3e 0113 05bc e66b ff3d 8274 0540
00000290: 0cd6 5b3e 51e0 fe3e 5704 043f bacb 12bf
000002a0: 031d 63bf 296c 3b3f c7a3 0fbf 27c5 86be
000002b0: eafc 36bf 2d13 053f e888 dbbe 88b6 2d3f
000002c0: 6196 4cbf 7168 d83e 0261 9f3e bd06 a93f
000002d0: 8e93 3d3d 2f98 18bf 805f 5e3f 52b8 943f
000002e0: 8aa7 3e3d e8de b33e cd29 803d 8246 373f
000002f0: 0045 823f 8874 f3be 8a58 823e 35c2 55bf
00000300: 3178 953e 5c7e ebbe 53d1 75bf 9242 143e
00000310: 1e60 6abe 1100 adbf ec25 f5be 1c22 4b3e
00000320: a648 0abf 5862 a33e 0b03 19bf d695 2940
00000330: c877 963f 30c3 8e3f bdef 0cbf c4b1 6e3d
00000340: ca42 8dbe 2e0d 91be c22e fbbe 1c4f bbbf
00000350: 7ab9 e0be c951 68bf e755 27bf c47e 8ebf
00000360: 253d a6be 31b2 2f3d 463c 743e 4a9c 033d
00000370: 5665 893d 194a 5abe 1b34 973e 9906 82bf
00000380: 41db ecbe b243 06be 8b37 7fbe edee fb3e
00000390: 0a80 f33f 8e82 5cbe bc85 dc3d 8bc9 94be
000003a0: eddb c6bf 0cc4 1a3f 18fe 69be 9b93 21be
000003b0: 360f 22bf 7b65 3c3f 5050 10be fd3d 31bf
000003c0: 3593 d2bf b436 013e 2a84 f6bc 51e9 aa3f
000003d0: 52dd 80bf 1423 463e 3102 283e a8da 55bc
000003e0: 3780 293f 32a2 883e 74c3 ab3e e304 863f
000003f0: 66bc 9b3f 5ef8 b5bf f3dc 1bbe 0a89 1740

lstm.bias_ih_l0 f4 [256]
-0.029649965 -0.340197 -0.56417704 -0.30351257 -0.3444171 -0.7171408 -0.66534257 -0.75378513
-0.6164516 -0.9753587 -0.15176184 -0.9117973 0.2629818 -0.9406453 0.4740631 -0.5628927
-0.35420868 -0.543018 0.48169148 -0.8850308 -0.11439188 -0.296471 -0.034673333 -0.8206412
-0.7695598 -0.26923454 -0.344791 0.03929867 -0.2635675 -0.30874786 -0.2522349 -0.9499058
-0.4416448 0.005901003 -0.6058269 -0.42584834 -0.48826912 -0.6055178 -0.48977 -0.33076
-0.29249468 -0.99123496 -0.36649638 -0.865863 0.5960578 0.13569927 -0.99459153 -0.65596086
-1.1974347 -0.46225652 0.07306788 0.031492263 -0.47211793 -0.29441187 0.19136284 -0.16187862
-0.6358935 -0.68687135 -0.7101409 0.25247124 0.12818405 -0.513286 -0.7178954 -0.72796535
-0.3363292 0.22448665 -0.2424748 -0.1826728 -0.052701235 0.25041354 -0.080311835 0.43503988
0.10082589 0.9481715 0.5088095 0.59963524 -0.43606764 -0.03781037 0.460666 0.48605922
-0.18002197 -0.44648388 0.097356975 0.8278769 -0.23932339 -0.3367998 -0.27307093 0.6485554
0.70522064 -0.15511473 -0.40353924 -0.5484439 0.05073986 0.13587035 -0.6976351 0.7611973
-0.5251899 -0.41424435 -0.34852663 0.31256175 0.86067444 0.042729497 -0.08600369 0.05983288
-0.1948569 0.8498015 0.1883895 0.7904764 0.11134311 0.029081907 0.07288224 0.32563117
1.1145393 0.18328159 -0.33504537 -0.35497513 -0.26490262 -0.627603 0.038355075 -0.6682684
-0.14415573 0.51953983 -0.1786952 0.2879856 -0.47189662 0.56818956 -0.6418281 0.29074487
-0.61601746 0.1289152 -0.40821967 0.7032121 -0.13855909 0.039395638 -0.28125167 -0.43136007
0.37206158 0.38368106 0.5993476 0.53869444 -0.7465105 0.24645282 0.67826676 -0.33722135
0.23557056 0.26377085 0.71101093 0.041746616 0.6359385 0.42760432 0.48733714 -0.18560262
-0.2412461 -0.012701541 -0.4187899 0.18876533 -0.27267542 0.38425207 -0.080861956 0.28665993
-0.0013039485 0.5212244 -0.21976966 0.5096139 0.2149066 0.51245254 0.38673446 0.3039362
0.5861938 -0.2914072 0.58872855 -0.039540756 0.615363 -0.68513364 -0.14430238 -0.27488017
-0.009432384 0.060103953 0.32795364 -0.5210958 0.19079396 -0.5590211 -0.4861045 -0.11297512
-0.2454683 0.8871718 -0.42981794 -0.56908226 -0.49947882 -0.4734436 0.08085901 0.49500623
0.36818376 0.27147064 -0.22031039 0.3003793 0.018007554 0.52913296 -0.016320808 -0.1072607
-0.42839965 0.25973257 0.39194638 0.90438265 0.22801115 -0.081423715 0.13544652 0.35816866
0.19849801 -0.26910108 0.7935712 0.20407824 -0.083172984 0.22326717 -0.41498327 -0.05857731
-0.43165514 -0.1762311 -0.45194176 -0.529334 -0.46416765 -0.15848497 -0.25313795 0.3978613
-0.18621643 -0.14851914 -0.31990713 -0.21534975 -0.97199243 0.10000976 0.30709755 -0.3649171
0.5651337 -0.10035397 -0.47991252 0.10030594 0.8321099 0.56030643 0.08404996 0.222387
0.87322605 -0.2690332 0.46630582 0.25745374 -0.5687827 0.24142808 0.023397839 0.26405928
0.42287743 -0.48561087 -0.043273315 0.2612445 0.10145246 0.38646024 -0.0822481 0.43566343
00000000: 7ce4 f2bc 4d2e aebe e86d 10bf 0066 9bbe
00000010: 7057 b0be 8a96 37bf e453 2abf 10f8 40bf
00000020: c6cf 1dbf 1cb1 79bf 7567 1bbe 8c6b 69bf
00000030: 8da5 863e 21ce 70bf 66b8 f23e bc19 10bf
00000040: d75a b5be 3a03 0bbf 44a0 f63e 6191 62bf
00000050: 4a46 eabd 0ccb 97be a005 0ebd 8b15 52bf
00000060: df01 45bf 1cd9 89be 7288 b0be a4f7 203d
00000070: 52f2 86be 3314 9ebe ef24 81be 072d 73bf
00000080: 441f e2be 335d c13b 7917 1bbf cb08 dabe
00000090: 69fe f9be 3703 1bbf 22c3 fabe 6059 a9be
000000a0: ddc1 95be 93c1 7dbf 6aa5 bbbe 33a9 5dbf
000000b0: 3e97 183f c0f4 0a3e 8d9d 7ebf 0ded 27bf
000000c0: 8a45 99bf e3ac ecbe 9da4 953d 08fe 003d
000000d0: 71b9 f1be 27bd 96be 9ff4 433e 82c3 25be
000000e0: ebc9 22bf cdd6 2fbf cbcb 35bf e943 813e
000000f0: ae42 033e b666 03bf fec7 37bf f05b 3abf
00000100: 5733 acbe d4df 653e 504b 78be 940e 3bbe
00000110: 40dd 57bd 3436 803e 887a a4bd 8cbd de3e
00000120: ce7d ce3d 5ebb 723f 5741 023f b281 193f
00000130: 4244 dfbe 0cdf 1abd 6adc eb3e c1dc f83e
00000140: ae57 38be 8999 e4be 1863 c73d beef 533f
00000150: 3111 75be 0671 acbe f4cf 8bbe ba07 263f
00000160: 5789 343f 65d6 1ebe b29c cebe d266 0cbf
00000170: 99d4 4f3d 9921 0b3e 3798 32bf d4dd 423f
00000180: d872 06bf d617 d4be 1572 b2be 1808 a03e
00000190: 2955 5c3f 2005 2f3d b422 b0bd 5213 753d
000001a0: 9188 47be 978c 593f 2de9 403e a95c 4a3f
000001b0: db07 e43d 2e3d ee3c 4943 953d 21b9 a63e
000001c0: 39a9 8e3f 2bae 3b3e 118b abbe 4dbf b5be
000001d0: 51a1 87be 97aa 20bf 361a 1d3d a313 2bbf
000001e0: 8f9d 13be 9000 053f e0fb 36be d972 933e
000001f0: 6f9c f1be df74 113f d94e 24bf 83dc 943e
00000200: 52b3 1dbf 5902 043e 2b02 d1be b505 343f
00000210: 6fe2 0dbe 525d 213d 3800 90be 3adb dcbe
00000220: db7e be3e d871 c43e d86e 193f e1e7 093f
00000230: 501b 3fbf 215e 7c3e e4a2 2d3f 47a8 acbe
00000240: 6939 713e f90c 873e d004 363f 80fe 2a3d
00000250: decc 223f f4ee da3e 4184 f93e 9d0e 3ebe
00000260: 3809 77be 201a 50bc a16b d6be b34b 413e
00000270: 1d9c 8bbe b0bc c43e f49a a5bd 17c5 923e
00000280: 40e9 aaba f66e 053f 4c0b 61be 0e76 023f
00000290: 7a10 5c3e 1730 033f 0f02 c63e 879d 9b3e
000002a0: cc10 163f 5333 95be eab6 163f 7df5 21bd
000002b0: 6e88 1d3f eb64 2fbf 01c4 13be 18bd 8cbe
000002c0: 498a 1abc 902f 763d 8ae9 a73e 8966 05bf
000002d0: 7e5f 433e 021c 0fbf b0e2 f8be 805f e7bd
000002e0: 0b5c 7bbe b11d 633f 1911 dcbe 60af 11bf
000002f0: b0bb ffbe 3367 f2be 6999 a53d 7571 fd3e
00000300: 9582 bc3e 33fe 8a3e 0c99 61be 51cb 993e
00000310: 9484 933c 4275 073f 37b3 85bc 7fab dbbd
00000320: 3357 dbbe abfb 843e 32ad c83e 9f85 673f
00000330: c17b 693e 7ac1 a6bd 7eb2 0a3e e261 b73e
00000340: 1043 4b3e 9ec7 89be 7b27 4b3f e3f9 503e
00000350: 9956 aabd 26a0 643e b078 d4be c3ee 6fbd
00000360: e701 ddbe ed75 34be e964 e7be 6f82 07bf
00000370: 62a7 edbe e249 22be 4c9b 81be 7ab4 cb3e
00000380: 85af 3ebe 6715 18be deca a3be a584 5cbe
00000390: 7fd4 78bf ebd1 cc3d e43b 9d3e 6ad6 babe
000003a0: 9aac 103f 6286 cdbd 18b7 f5be 336d cd3d
000003b0: 2805 553f 3e70 0f3f 6322 ac3d 6bb9 633e
000003c0: be8b 5f3f b8be 89be a3bf ee3e fad0 833e
000003d0: be9b 11bf ec38 773e d3ac bf3c c732 873e
000003e0: 6483 d83e fda1 f8be 5c3f 31bd d7c1 853e
000003f0: 4fc6 cf3d 1ede c53e b171 a8bd 470f df3e

lstm.bias_hh_l0 f4 [256]
-0.095392466 -0.23622155 -0.6325076 -0.4677586 -0.4266243 -0.6794845 -0.6520964 -0.77853143
-0.73098445 -1.1525217 -0.22941451 -1.0809623 0.3016002 -0.8359403 0.46405149 -0.712178
-0.5328787 -0.47010574 0.4994322 -0.9375101 -0.09577896 -0.1800458 -0.16544081 -0.89318997
-0.6956189 -0.06780767 -0.4276752 0.044726834 -0.017663855 -0.0950845 -0.4901592 -0.86218494
-0.4706484 0.034138948 -0.7961382 -0.3061058 -0.5037108 -0.42558745 -0.45610043 -0.16635266
-0.33430883 -0.81347984 -0.35754037 -0.8047201 0.5787715 0.111711025 -0.9558793 -0.634721
-1.2354395 -0.6778996 0.18731774 0.124440774 -0.44279125 -0.28515327 0.14037545 -0.20201874
-0.7748392 -0.7559493 -0.507829 0.33067632 0.35725814 -0.3249382 -0.58794343 -0.73836124
-0.42971537 0.22603728 -0.11360311 -0.093741074 -0.024782477 0.33489454 -0.11844852 0.49247763
0.024941 0.85022473 0.5492686 0.5821274 -0.56459624 0.02571536 0.47076392 0.41415897
-0.28383878 -0.45169565 0.18040359 0.84063053 -0.062127315 -0.22308382 -0.32236448 0.7474216
0.71933204 0.042994358 -0.3818686 -0.5573964 0.024141984 0.21467216 -0.6335076 0.641527
-0.5086545 -0.4592892 -0.36741725 0.19029784 0.75052863 0.18294033 0.08496351 0.13910697
-0.11581888 0.83578223 0.32368952 0.72316456 0.122146726 -0.09342033 -0.10922175 0.27393696
0.96657777 0.15348019 -0.30307877 -0.22152396 -0.28306556 -0.77899355 -0.0032622053 -0.6867649
-0.13065282 0.64136857 -0.21438767 0.29534182 -0.36707672 0.52531254 -0.6425614 0.16531804
-0.61932725 0.22831418 -0.340252 0.6852065 -0.32966536 0.22192995 -0.27245316 -0.41059667
0.40021607 0.24056841 0.6750573 0.560896 -0.70899206 0.07516416 0.7246504 -0.3434777
0.121781975 0.26209137 0.80882525 -0.042353943 0.64928585 0.4922426 0.35029763 -0.0956402
-0.09483189 0.0024964772 -0.25001153 0.085799105 -0.11105776 0.47974092 -0.06932348 0.23715046
-0.0019598035 0.5333717 -0.13103488 0.34516162 0.35729107 0.3312199 0.37991938 0.18741855
0.48011062 -0.1257254 0.5564583 -0.012665887 0.61784315 -0.54911715 -0.13538082 -0.24202023
0.033588663 0.03492298 0.23628592 -0.38233256 0.24528842 -0.49946672 -0.5525735 -0.038093537
-0.14158288 0.90476006 -0.3122564 -0.6923438 -0.5662131 -0.52476805 0.09755053 0.5300273
0.27767047 0.1616965 -0.2265426 0.21939375 0.082919195 0.46619684 0.033151776 -0.06788457
-0.3467408 0.156441 0.45574737 0.963118 0.17219017 -0.1482007 -0.012102264 0.19129334
0.1276537 -0.476439 0.7117316 0.2597317 -0.04108034 0.25567806 -0.24799836 -0.1462135
-0.3554518 -0.10422854 -0.27471095 -0.46990895 -0.3330387 -0.36038464 -0.33177018 0.3972841
-0.1966151 -0.10191594 -0.38941073 -0.1210652 -0.81289893 0.14792086 0.4052949 -0.29981393
0.35053134 -0.16714366 -0.37338924 0.31839272 0.84117126 0.5372141 0.040033285 0.086713985
0.9112042 -0.20293893 0.3076382 0.44576278 -0.5643276 0.36340004 -0.06122128 0.20350961
0.58554506 -0.5502411 0.020749101 0.3081881 -0.036416307 0.589848 -0.26714852 0.29993597
00000000: 205d c3bd 10e4 71be 05ec 21bf 0e7e efbe
00000010: 806e dabe b2f2 2dbf caef 26bf d64d 47bf
00000020: cc21 3bbf d585 93bf a3eb 6abe f95c 8abf
00000030: 576b 9a3e 2f00 56bf 2898 ed3e 4c51 36bf
00000040: bd6a 08bf b3b1 f0be 94b5 ff3e a900 70bf
00000050: c227 c4bd ed5d 38be 5169 29be 19a8 64bf
00000060: 1514 32bf bfde 8abd 3ef8 dabe 7c33 373d
00000070: cab3 90bc aabb c2bd 26f6 fabe 27b8 5cbf
00000080: d4f8 f0be 48d5 0b3d b7cf 4bbf e6b9 9cbe
00000090: 31f3 00bf 99e6 d9be ff85 e9be 5a58 2abe
000000a0: 872a abbe 3740 50bf 880f b7be 2302 4ebf
000000b0: 5e2a 143f c0c8 e43d 81b4 74bf 137d 22bf
000000c0: e222 9ebf d48a 2dbf 39d0 3f3e ceda fe3d
000000d0: 89b5 e2be 9cff 91be 95be 0f3e 00de 4ebe
000000e0: dd5b 46bf e585 41bf 1501 02bf 684e a93e
000000f0: 8aea b63e 4d5e a6be 7683 16bf 3e05 3dbf
00000100: a703 dcbe 5176 673e bfa8 e8bd 52fb bfbd
00000110: 9f04 cbbc 4c77 ab3e 2395 f2bd 0726 fc3e
00000120: 1151 cc3c 54a8 593f de9c 0c3f 4d06 153f
00000130: 6189 10bf 05a9 d23c f807 f13e a50c d43e
00000140: 5153 91be a744 e7be b8bb 383e 9033 573f
00000150: 3679 7ebd 1670 64be f50c a5be 0657 3f3f
00000160: 2526 383f da1a 303d 4884 c3be 88b1 0ebf
00000170: 69c5 c53c 05d3 5b3e 8e2d 22bf 1d3b 243f
00000180: 2e37 02bf f427 ebbe 1d1e bcbe 70dd 423e
00000190: a522 403f b654 3b3e 5901 ae3d 0f72 0e3e
000001a0: 7332 edbd d3f5 553f a2ba a53e 5021 393f
000001b0: 1028 fa3d 2853 bfbd a7af dfbd 7741 8c3e
000001c0: a471 773f e929 1d3e 242d 9bbe 2dd7 62be
000001d0: f8ed 90be 1f6c 47bf b9ca 55bb d3cf 2fbf
000001e0: dac9 05be bb30 243f 7188 5bbe 0b37 973e
000001f0: 7bf1 bbbe e27a 063f e77e 24bf 2249 293e
00000200: 3b8c 1ebf 31cb 693e 8335 aebe b169 2f3f
00000210: e6c9 a8be 9b41 633e fb7e 8bbe ba39 d2be
00000220: 1fe9 cc3e 9157 763e 8ed0 2c3f e196 0f3f
00000230: 8180 35bf abef 993d b082 393f 4fdc afbe
00000240: d468 f93d d730 863e 2c0f 4f3f 547b 2dbd
00000250: 9937 263f 3907 fc3e 365a b33e 02df c3bd
00000260: 3937 c2bd f09b 233b 8301 80be 71b7 af3d
00000270: 4072 e3bd 9aa0 f53e 78f9 8dbd 92d7 723e
00000280: 0c70 00bb 0c8b 083f 022e 06be 06b9 b03e
00000290: dbee b63e a895 a93e cb84 c23e a6ea 3f3e
000002a0: 0fd1 f53e 29be 00be 0d74 0e3f 9584 4fbc
000002b0: f82a 1e3f f192 0cbf 45a1 0abe 27d4 77be
000002c0: 4494 093d 660b 0f3d f0f4 713e 18c1 c3be
000002d0: e32c 7b3e 1aba ffbe 7575 0dbf f807 1cbd
000002e0: 1afb 10be 5b9e 673f 12e0 9fbe 713d 31bf
000002f0: 57f3 10bf 3357 06bf 93c8 c73d deaf 073f
00000300: d32a 8e3e c493 253e c9fa 67be c1a8 603e
00000310: 8ad1 a93d 5ab1 ee3e 28ca 073d 1107 8bbd
00000320: 0388 b1be 1232 203e b857 e93e e78e 763f
00000330: 9f52 303e edc1 17be 9348 46bc 67e2 433e
00000340: a7b7 023e d0ef f3be 0b34 363f 8efb 843e
00000350: dc43 28bd 3ce8 823e 48f3 7dbe feb8 15be
00000360: c7fd b5be c675 d5bd eaa6 8cbe e897 f0be
00000370: 0c84 aabe 5684 b8be c8dd a9be d268 cb3e
00000380: 7855 49be 4eb9 d0bd d860 c7be 08f1 f7bd
00000390: 251a 50bf 9178 173e d082 cf3e 3681 99be
000003a0: d878 b33e b527 2bbe e02c bfbe 5f04 a33e
000003b0: 0057 573f dd86 093f f1f9 233d 1a97 b13d
000003c0: ae44 693f 39cf 4fbe c182 9d3e 053b e43e
000003d0: c677 10bf 920f ba3e 2ac3 7abd d364 503e
000003e0: 48e6 153f 9adc 0cbf 05fa a93c d5ca 9d3e
000003f0: 4429 15bd 4700 173f b1c7 88be 3591 993e

output_proj.weight f4 [1, 64]
-0.0017700788 -0.015660709 0.036908984 0.014673535 -0.008328967 -0.033846825 -0.012639591 -0.0040721605
-0.27128208 -0.09998402 0.009375882 -0.008786973 0.011761226 -0.13088715 0.0089591015 -0.2321135
0.053879637 -0.08120757 -0.0012330026 -0.015773697 -0.021461813 0.09386845 -0.09894508 0.12815402
0.25155133 -0.05599713 0.055145964 0.13032582 -0.04475774 -0.14197369 -0.040437654 -0.010423042
-0.019961791 -0.0379482 0.054027956 0.00015310843 0.085282154 0.020939747 0.1647554 -0.05962494
0.10159073 0.0019938878 0.024451755 -0.05233263 -0.010544047 -0.005436355 0.0061475597 -0.02264748
-0.008921325 -0.14145976 -0.003066544 -0.0930693 -0.081127875 -0.4417839 0.01066396 0.267243
-0.1063756 -0.0036632514 0.016396489 -0.022335926 -0.029422743 -0.029224416 0.061203662 0.011296733
00000000: fd01 e8ba e34a 80bc e02d 173d 4469 703c
00000010: 3876 08bc f8a2 0abd 4916 4fbc c26f 85bb
00000020: 7ce5 8abe 6cc4 ccbd 4d9d 193c 3cf7 0fbc
00000030: 28b2 403c 4807 06be 32c9 123c 29af 6dbe
00000040: e5b0 5c3d 2850 a6bd b49c a1ba d737 81bc
00000050: afd0 afbc 1a3e c03d b8a3 cabd cf3a 033e
00000060: 56cb 803e 3f5d 65bd bce0 613d 2274 053e
00000070: e453 37bd 8d61 11be f4a1 25bd 68c5 2abc
00000080: e986 a3bc 926f 1bbd 6b4c 5d3d bb8b 2039
00000090: 69a8 ae3d d589 ab3c a4b5 283e 4839 74bd
000000a0: cd0e d03d e3ab 023b 0c4f c83c bd5a 56bd
000000b0: f0c0 2cbc 7323 b2bb 7871 c93b 3587 b9bc
000000c0: c02a 12bc d4da 10be 12f8 48bb 1e9b bebd
000000d0: 5f26 a6bd 8031 e2be e4b7 2e3c 13d4 883e
000000e0: 73db d9bd 2913 70bb ee51 863c d5f9 b6bc
000000f0: f707 f1bc 0b68 efbc b1b0 7a3d ef15 393c
