generator_gan_ff_ts_128_13.pth (torch, 347236 bytes, 7 tensors)

fc.0.weight f4 [128, 101]
000000 b0 b3 ef 3d db 14 c7 3c 93 ab 73 bd 67 c1 6a bd
       0.117041945 0.024301937 -0.059489798 -0.05731335
000010 b4 74 1e 3e d5 07 68 bd 29 f1 f1 3d 4f 79 b0 bd
       0.15474206 -0.056648094 0.11813576 -0.08616888
000020 1f 0a fe 3b ec 63 55 3d d5 22 75 bd ec f8 80 bd
       0.0077526714 0.052097246 -0.05984767 -0.06297478
000030 25 a5 cb bc bf db 87 3c 32 9b e2 bd 51 85 7f bd
       -0.02485902 0.016584275 -0.110647574 -0.062383
000040 ae ff cc 3d 3b 37 ba bc ab dc 2a be 53 a3 87 3d
       0.100097045 -0.022731414 -0.1668574 0.066229485
000050 0d 6e e2 bd 61 b3 fe 3c 44 ed 3b be 48 2e cb 3d
       -0.11056147 0.031091394 -0.18352228 0.09920937
000060 c2 f1 b4 bb 6f 20 76 3d 84 52 1a be be fd c2 bc
       -0.005521984 0.060089525 -0.1507054 -0.023802634
000070 f1 a5 3b bd 8e 85 37 bd e8 b1 4b bd de 95 48 bd
       -0.04581255 -0.044805102 -0.04973021 -0.04897105
000080 cb 31 f0 3d 44 49 07 be 77 30 c2 3d 16 dd e8 bd
       0.11728247 -0.13211542 0.094819 -0.11370294
000090 a0 cf dd 3d 9a 69 29 bd 86 83 e6 3d 30 29 0a bd
       0.10830617 -0.041360475 0.11255555 -0.033730686
0000a0 5d ce 2d 3e 7c f5 18 3e 17 89 38 3d f1 25 a0 3d
       0.16973253 0.14937395 0.045052614 0.07819737
0000b0 54 be fa 3c fd f5 21 bd fb 68 67 3d 0c 43 87 3a
       0.030608334 -0.039541233 0.0564966 0.0010319664
0000c0 ca 01 89 bd 4e f5 85 3d f4 73 91 bc 98 51 7b ba
       -0.06689794 0.06540929 -0.017755486 -0.00095870486
0000d0 98 e9 4f 3d ba 7f 0b bd 9e 21 7f 3d ac 5a 5b 3d
       0.05075988 -0.034057356 0.06228792 0.05355327
0000e0 be 0d 55 bd f4 0c 5b 3d d8 31 5a 3e 60 53 9d bd
       -0.05201506 0.05347915 0.21308076 -0.07681918
0000f0 a2 78 22 be fd d8 5f 3d db ba 15 3d cc 97 8b 3d
       -0.1586633 0.054650296 0.036555152 0.06816062
000100 5a 64 99 3d 5a c8 b4 bd ad 6b 34 3d a5 52 bc 3d
       0.07489844 -0.088272765 0.044048 0.09195451
000110 71 e0 95 3d ec 13 bc 3d d5 7f 66 3d fd 41 14 be
       0.073181994 0.09183487 0.056274254 -0.14478298
000120 53 fa 3a 3d 93 0f 86 bd e4 1f 0e be 1d 34 95 bc
       0.045648884 -0.06545939 -0.13879353 -0.018213326
000130 60 94 73 3d 56 a8 a2 bb b3 6d f7 bc 78 08 0f bd
       0.059467673 -0.004963915 -0.030203676 -0.034920186
000140 ba a7 4a 3d 78 d6 1c be 0c 35 0d 3e 81 f9 e9 bd
       0.049476363 -0.15316188 0.13789767 -0.11424542
000150 6b 46 97 3d e9 e8 9a 3a 64 35 4e bd 0d 7c 4a 3c
       0.07386478 0.001181868 -0.050343886 0.012358678
000160 08 1c 90 3d 07 41 40 bd 68 ea c2 bc 33 fe 81 be
       0.070365965 -0.046937015 -0.023793414 -0.2538925
000170 fb 62 2f bc 25 b5 e8 3b 92 00 e7 3d 5d 21 e2 bc
       -0.010704751 0.0071016722 0.11279406 -0.0276038
000180 e4 c5 63 bc 41 0e a6 3d b2 35 05 bc 62 35 27 3e
       -0.013902161 0.081081875 -0.008130478 0.16328958
000190 cc 09 8b bf c4 85 0b 3d 47 b2 82 bd 70 d5 30 3e
       -1.0862365 0.034063116 -0.0638166 0.1726892
0001a0 c3 18 79 3d d7 34 5d 3d d3 14 24 bd a0 09 c7 bc
       0.06081463 0.05400547 -0.040058922 -0.024296582
0001b0 b2 96 14 be 04 ab a3 bd 02 82 cd bd 84 b8 ad 3b
       -0.1451061 -0.07991603 -0.10034563 0.005301537
0001c0 59 92 77 bd 98 9c d9 3d 46 cd c4 bd a1 cd 95 bc
       -0.060442302 0.10625571 -0.09609465 -0.018286528
0001d0 46 8f 73 bd a9 bd 1d 3e 10 fa f3 bd 0e 42 88 3d
       -0.059462808 0.15404381 -0.1191293 0.06653224
0001e0 b1 7a 35 3e f3 f5 42 3c 3a 0d 33 bd 7d d8 92 3d
       0.17722584 0.011899459 -0.043713786 0.07170198
0001f0 e0 2c c9 3c f8 9a f4 bc 53 58 be bd a8 d9 a8 bd
       0.02455753 -0.029859051 -0.0929419 -0.0824464
000200 f1 55 54 bc f8 2c 58 bd 72 17 ca bd e6 ec af bd
       -0.012959943 -0.05277726 -0.09867753 -0.08590107
000210 99 fc 54 be b0 3d 74 bc 40 f1 c5 bd f2 51 03 bc
       -0.20799483 -0.014907286 -0.096651554 -0.008015143
000220 d5 f3 9f bc 9e a3 b9 bb c5 f6 64 3d 7f fe a3 bd
       -0.019525448 -0.0056652566 0.0558994 -0.08007526
000230 30 1a aa 3c a1 ce be bd 2d 88 a9 3c 91 2a fb 3c
       0.02076444 -0.09316755 0.020694816 0.030659946
000240 ed c5 1d bd ea df 01 3c 15 db 2a 3e 91 9c 1e 3e
       -0.038518835 0.00792692 0.16685136 0.15489413
000250 28 e3 89 bd f7 ce eb bc 1c cf 92 3d 86 7e 09 3e
       -0.0673278 -0.028785212 0.07168409 0.13427171
000260 e0 57 46 3e 96 db 72 be 8d 5a 95 bb d2 9b 94 bc
       0.19369459 -0.23716578 -0.0045579136 -0.018140707
000270 e7 dd 1f 3d 76 19 e2 3d 8e e8 99 3d 25 4e db 3d
       0.039029982 0.110400125 0.075150594 0.10708264
000280 a0 4b 0f 3e 31 6f 5c bc 32 73 ef 3c 7e 66 1d be
       0.13993692 -0.0134542445 0.029229734 -0.15371129
000290 07 62 83 bd 76 95 18 be cd ff 84 bd 93 a3 06 be
       -0.064151816 -0.14900765 -0.064941026 -0.13148336
0002a0 97 22 61 3d a7 7a e8 bd f6 98 0a 3d 1a 94 76 bd
       0.054964628 -0.11351519 0.03383728 -0.060199834
0002b0 c3 1e 81 3d 1b c5 da 3d 13 da e8 bd db 5b ed bc
       0.063046955 0.10682126 -0.11369719 -0.028974464
0002c0 68 5b ad 3d 96 85 99 3d 26 9e 87 3d 25 83 11 3e
       0.084647 0.074961826 0.06621961 0.14210184
0002d0 45 bd 03 3e 90 95 5b be 8c 2e 87 3d a1 3d 2d be
       0.1286517 -0.21443772 0.06600675 -0.16918041
0002e0 c6 49 8e 3d 17 f6 5b be dd 1b 08 3d b6 f7 1f be
       0.06947665 -0.21480595 0.033229697 -0.15621838
0002f0 c4 11 ea bd 80 f5 34 be 77 94 e6 bc 61 b6 da bc
       -0.1142917 -0.17671776 -0.028146965 -0.026698293
000300 b1 3f 3e bd b2 3e c8 3a 58 1e 6f 3c 41 d9 b4 3d
       -0.04644746 0.0015277474 0.014594637 0.088305004
000310 d8 57 13 3e c7 7b 76 bc d5 32 79 bd 98 6e 80 bd
       0.14388978 -0.015044159 -0.060839493 -0.06271094
000320 63 8d 61 3d 00 6a b0 bf 48 e5 a1 3c 2c e0 2c 3c
       0.055066478 -1.3782349 0.01976265 0.010551494
000330 02 67 d1 bb ab 8c 74 3d 60 f6 22 3d 88 99 7a 3d
       -0.0063904533 0.059704464 0.039785743 0.061181575
000340 67 9b d8 bc b1 cf be 3d fd 77 f9 3c 53 ad 59 3d
       -0.02644129 0.09316958 0.030452723 0.05314381
000350 ef fd 66 bd 1b 89 49 3d 3d 71 2a 3d 87 95 02 bb
       -0.056394514 0.04920302 0.0416119 -0.001992555
000360 41 82 47 bc 78 be 80 3d 06 6e 09 bd e2 da f4 bc
       -0.012177051 0.06286329 -0.033552192 -0.029889528
000370 a2 1c 9a 3b d2 5b b8 3c 8d 17 3d 3d 7d b3 fe bc
       0.0047031203 0.02250472 0.046165038 -0.031091446
000380 a4 e8 59 bd 05 72 88 bd 35 d7 69 3d 33 96 77 bd
       -0.05320038 -0.066623725 0.057090003 -0.060445976
000390 66 4f 22 bc 46 ed 8a bb da 92 26 bd 7f fc 27 3d
       -0.009906625 -0.004239711 -0.040667392 0.041012283
0003a0 42 9c b3 3d e8 1c ae 3c cd 89 0a 3c 8c b9 c5 3c
       0.08770038 0.021254018 0.008455706 0.024136327
0003b0 89 64 ee 3b ef 66 cb bd 7c 58 9a 3b e2 f4 ab 3c
       0.0072751683 -0.099317424 0.004710255 0.020990793
0003c0 a1 9b ab 3c cc f8 b7 3d 86 13 ca bc a4 5d a3 bb
       0.020948233 0.08983001 -0.024667513 -0.004985528
0003d0 d6 b5 96 3b 72 d8 84 3c 57 01 34 bd aa 17 ab 3d
       0.0045993133 0.01621649 -0.04394659 0.08354123
0003e0 8b 61 56 3d 1a 79 06 3d c0 d1 15 bb 93 b6 8d bd
       0.052339118 0.032830335 -0.0022860616 -0.06919589
0003f0 1a 0a ad 3d 8c de 25 bc c0 a4 11 be 48 7a 8b bd
       0.08449192 -0.01012386 -0.14223003 -0.06810433

fc.0.bias f4 [128]
000000 ff 3a 20 c0 ff 16 1d c0 ae 15 03 c0 63 62 19 c0
       -2.5036008 -2.4545286 -2.0481982 -2.39663
000010 bd ef cc 3f 69 48 0e c0 05 2c cf bf 16 d8 1f c0
       1.6010662 -2.2231696 -1.6185309 -2.4975638
000020 65 e0 a5 bf 55 26 10 c0 1e a2 fe bf a0 c2 17 c0
       -1.2959105 -2.2523396 -1.9893224 -2.371254
000030 d5 9a 0f c0 c8 e2 1d c0 ab 1a 2a 40 ec 87 23 c0
       -2.2438252 -2.4669666 2.6578777 -2.555171
000040 2d 17 1f c0 43 93 16 c0 86 67 13 c0 13 7c 1e c0
       -2.4857895 -2.3527381 -2.3031936 -2.476323
000050 4b d9 16 c0 14 d2 e8 bf 5a 08 15 c0 cf 0a 25 c0
       -2.3570125 -1.8189111 -2.3286347 -2.5787847
000060 9d 00 1d c0 56 f7 15 c0 5a 4f 0d c0 7b 49 0b c0
       -2.4531624 -2.3432212 -2.2079682 -2.17636
000070 ac 9a ca bf 2e 14 0f c0 a1 cd 17 c0 8a 5e 0e c0
       -1.5828452 -2.2356067 -2.3719256 -2.2245202
000080 df 84 1d c0 5d dd 1f c0 31 53 01 c0 28 3d 0f c0
       -2.4612348 -2.497886 -2.0207026 -2.2381077
000090 73 a3 1c c0 d6 f4 f6 bf 03 df 18 c0 2c 5c 01 c0
       -2.4474761 -1.9293468 -2.3886116 -2.0212507
0000a0 33 55 11 c0 a9 cc e6 bf 7f 1d 21 c0 4c d8 1e c0
       -2.2708251 -1.8031207 -2.5174253 -2.4819517
0000b0 c3 5c fd bf af c6 18 c0 d7 d8 21 c0 96 36 09 c0
       -1.9793934 -2.3871267 -2.5288599 -2.1439567
0000c0 14 ca 19 c0 13 b5 0a c0 05 4d 1e c0 3d 62 05 c0
       -2.4029589 -2.167302 -2.473451 -2.084121
0000d0 d3 60 1c c0 20 9a 1f c0 b9 01 22 c0 b7 89 f9 bf
       -2.4434097 -2.493782 -2.5313551 -1.9495152
0000e0 d6 f9 1d c0 3e f4 f9 bf a8 85 12 c0 8c 47 0c c0
       -2.4683738 -1.9527662 -2.2894077 -2.1918669
0000f0 d2 f0 20 c0 eb a9 1c c0 af 73 bb bf 86 e0 59 bf
       -2.5146985 -2.447871 -1.4644679 -0.8510822
000100 4e cf 1d c0 4a ef 17 c0 3b 4d fd bf a3 02 07 c0
       -2.4657779 -2.37398 -1.9789194 -2.109536
000110 de 7e 18 c0 7b 85 1b c0 34 44 fb bf fc 00 11 c0
       -2.3827434 -2.430022 -1.9630189 -2.265685
000120 88 e1 1f c0 73 b4 08 c0 60 e8 09 c0 f8 12 19 c0
       -2.4981403 -2.1360137 -2.154808 -2.3917828
000130 02 ad 1e c0 08 14 ff bf 59 82 19 c0 50 4b ca bf
       -2.4793096 -1.9927988 -2.3985808 -1.5804234
000140 20 d8 10 c0 46 dd f5 bf d8 0f f2 bf 9d 41 24 c0
       -2.2631912 -1.9208152 -1.8911085 -2.5665047
000150 1c ae 20 c0 35 79 21 c0 c0 3f cc bf ff 7c 0f c0
       -2.5106268 -2.523023 -1.5956955 -2.2420042
000160 a1 a9 11 c0 34 aa 1c c0 af 3b f3 bf c9 ad 0c c0
       -2.2759783 -2.4478884 -1.9002589 -2.198107
000170 5a 7a 13 c0 75 50 1d c0 1b 3c 1e c0 e9 2b 14 c0
       -2.3043427 -2.4580357 -2.4724185 -2.31518
000180 2c 02 1f c0 cc 84 12 c0 71 19 0e c0 23 ce 1d c0
       -2.4845076 -2.2893553 -2.2203028 -2.4657066
000190 e5 8d 16 c0 cd 48 d4 bf 55 05 18 c0 e8 d9 17 c0
       -2.3524106 -1.6584717 -2.3753254 -2.372675
0001a0 a8 13 0f c0 c6 2e 13 c0 0d d5 0f c0 d9 0a 27 c0
       -2.2355747 -2.2997298 -2.2473786 -2.610037
0001b0 32 0e 36 40 a5 4a 1d c0 b5 de 10 c0 6c 86 16 c0
       2.8446164 -2.457681 -2.263593 -2.3519545
0001c0 16 42 22 c0 af 0a 1e c0 f9 fb 14 c0 6e 12 21 c0
       -2.5352836 -2.469402 -2.3278792 -2.5167499
0001d0 7e d4 24 c0 99 1d d4 bf 7a b9 11 c0 e4 77 0e c0
       -2.5754695 -1.6571532 -2.2769456 -2.2260675
0001e0 e0 a7 ec bf c0 67 e3 bf d3 8b 16 c0 b3 ec 18 c0
       -1.8488731 -1.7766037 -2.3522842 -2.389447
0001f0 c9 3c 20 c0 4e e1 19 c0 20 45 1c c0 1d 80 0f c0
       -2.50371 -2.4043765 -2.441719 -2.2421944

fc.2.weight f4 [256, 128]
000000 93 d7 6e be 27 50 72 3d 6d b8 03 be 4c 2a 6f 3d
       -0.23324423 0.05915847 -0.12863322 0.058389947
000010 37 17 40 be fd e2 bb bd f4 2f bf be ba 1f f9 bd
       -0.18758856 -0.09174154 -0.37341273 -0.121642545
000020 13 fa 11 3e a2 7a e2 bb af e7 50 bf 0c df 01 3e
       0.14255552 -0.0069115916 -0.8160352 0.12682742
000030 39 81 88 3e 68 e7 5c be 79 ef f6 be 9e bd c6 3d
       0.2666109 -0.2157265 -0.48229578 0.09704135
000040 fb 71 7c be b5 7a 53 be e9 7d f6 3d 55 bb e2 3e
       -0.24652855 -0.20652278 0.12035734 0.44283548
000050 cf 99 2d 3e 3f 45 bd be 32 ee bf 3e 40 9f e8 3d
       0.16953205 -0.36966893 0.37486416 0.113584995
000060 38 e2 d9 be aa 16 0e be 52 14 0e bf c7 ab ed bd
       -0.42555404 -0.13875833 -0.55499756 -0.116050296
000070 2f 14 d1 be ff 8d 60 be e3 82 89 3c 59 e9 8c be
       -0.4083571 -0.21929167 0.016786044 -0.2752178
000080 6b 19 66 be 32 26 e6 bd 26 ba 48 be 04 5b 5e bf
       -0.22470634 -0.11237754 -0.1960226 -0.8685763
000090 5d 82 8d 3c d0 bb 87 bd b2 1f 51 be 9a c4 5e be
       0.017274076 -0.06627619 -0.20422247 -0.21754685
0000a0 f5 1b 77 be dc 54 c8 be 72 21 b5 be e5 c2 c2 bd
       -0.24131759 -0.39127243 -0.3537708 -0.095098294
0000b0 2e 0f 59 be 8e 2f 7a be fb 7f d8 3d 4d 4f 84 be
       -0.21197197 -0.24432203 0.10571285 -0.25841752
0000c0 96 49 e7 be 26 ca 00 bf 2a f9 3a bf a3 33 b2 be
       -0.4517333 -0.50308454 -0.73036444 -0.3480502
0000d0 a7 3d 06 bf ed 95 05 bf 37 0d ac bc 33 08 fa bd
       -0.52437824 -0.52181894 -0.021002395 -0.12208595
0000e0 43 f1 2b be e3 47 9c 3d 25 28 ae 3c c2 eb d0 be
       -0.16791253 0.07630899 0.021259377 -0.4080487
0000f0 b6 4b b5 3e 6a 5c 7b be 5b 79 cd be 43 ad 8c be
       0.35409325 -0.24546972 -0.4013165 -0.27475938
000100 6b 06 4a be d4 09 b5 bd 41 6a 46 be a2 61 92 bc
       -0.19729011 -0.08839765 -0.1937647 -0.01786882
000110 a4 8a ce 3c 5c 62 20 bf 30 5b c8 3d e6 53 8c be
       0.025212593 -0.62650084 0.09783018 -0.2740776
000120 3f a0 bd bd eb 23 2a bd 3c a8 9f be e7 bb 2f 3e
       -0.0925908 -0.04153816 -0.3118304 0.17161523
000130 96 9b 17 3d 14 ae 28 3f 4f 55 ec be 57 8c fb be
       0.037013613 0.6589062 -0.46158835 -0.49130508
000140 c7 ea 97 3e bb 69 6b bd ca ac 8c bd 9b a0 8d be
       0.29671308 -0.05747388 -0.068688944 -0.27661595
000150 5c 57 a1 3e d8 e6 13 be 5e d3 14 3c f2 d1 da 3c
       0.31511962 -0.14443529 0.009083597 0.026711438
000160 b5 92 78 be 78 80 0c 3f 77 e2 5a bf 87 2a 44 bf
       -0.24274714 0.5488353 -0.8550181 -0.7662739
000170 cd 9e 4e be 5a a3 80 be 92 8d 52 be c4 04 86 be
       -0.20177765 -0.25124627 -0.20561817 -0.2617551
000180 d9 7b 8b 3d 0f f2 f9 be a1 18 bb 3d 44 14 40 be
       0.068107314 -0.4881749 0.09135557 -0.1875773
000190 36 4b 0f bf 64 58 a3 bd 98 7d 38 be 4f cd 63 be
       -0.5597414 -0.079758435 -0.1801666 -0.22246288
0001a0 60 50 ed be 57 f5 aa be 73 ea 71 be 5f 18 29 3d
       -0.46350384 -0.33390304 -0.23624592 0.041283008
0001b0 e4 fc 0f bf 5f 4a f1 bd 85 c6 ea bd 55 82 a1 3e
       -0.56245255 -0.11781763 -0.11463646 0.31544748
0001c0 99 1e a1 be 8e 78 9b 3e 30 bc 62 bd 7a 66 e1 bd
       -0.31468657 0.30365413 -0.05535525 -0.11005874
0001d0 72 89 66 be 88 5d ec bd c7 f9 fb be b6 fc d9 be
       -0.22513369 -0.11541277 -0.49214002 -0.42575616
0001e0 f3 38 20 bf 5c 58 46 be 35 d5 cf be 79 10 c1 be
       -0.625869 -0.19369644 -0.40592352 -0.3770788
0001f0 38 de 81 bd be 49 e3 bd b8 d7 c0 be a6 5d 3a be
       -0.06341213 -0.110980496 -0.3766458 -0.18199787
000200 5c cb b2 be 8f 00 de be d8 d7 1b 3d e4 23 6a bc
       -0.34920776 -0.433598 0.03804764 -0.014290784
000210 35 66 96 be 3d c9 d6 3c 2d 5c d2 3d cf a1 ec 3b
       -0.29374853 0.026219005 0.102714874 0.0072214375
000220 30 6e 31 be 2e 2a c4 bd f3 94 22 bd ba b0 28 bc
       -0.1732719 -0.09578358 -0.03969283 -0.010296041
000230 1a eb 06 3f 48 70 c2 bd 1a 5d 10 bf fb 5d 4e bd
       0.52702487 -0.09494072 -0.5639206 -0.050382596
000240 40 13 72 bd c4 41 0b be 70 b2 df be 6d 57 1f be
       -0.05910039 -0.13599306 -0.43690825 -0.15560694
000250 56 51 4b be 6f cb 32 be c9 8c 4a be 13 51 58 be
       -0.19855246 -0.17460416 -0.19780268 -0.21124677
000260 4a 6c 33 3e 02 bb 73 be 28 5c 5e be c7 15 55 3d
       0.17521778 -0.23801807 -0.21714842 0.05202272
000270 60 6a cc bc c0 38 92 be 5f 30 4d be 8e 4d bd be
       -0.024953067 -0.28558922 -0.20037983 -0.36973232
000280 69 8c 97 bd 30 2b 0a be 06 04 06 bf c2 22 a5 be
       -0.07399828 -0.13493037 -0.5234989 -0.3225308
000290 65 67 b5 bd bd 70 ff be 0d d9 7a bd b5 10 45 bd
       -0.088576116 -0.498907 -0.061242152 -0.048111636
0002a0 00 d0 c7 bd 9e 4a 07 be 59 45 e8 be 4d 98 29 3e
       -0.0975647 -0.13212058 -0.45365408 0.16562004
0002b0 c7 3c c5 3d e2 e6 b3 be 1e 8e b0 be e9 f0 21 be
       0.09630733 -0.35137087 -0.34483427 -0.15814556
0002c0 df 31 d1 be 75 b0 cb be 5a e8 12 3e 0d de 6f 3e
       -0.4085836 -0.39783064 0.14346448 0.2342455
0002d0 1d 10 59 3e fc e3 de be 7a 16 68 3e 3b e4 d1 3b
       0.21197553 -0.43533313 0.22664824 0.006405381
0002e0 37 c4 b4 be a6 95 7a be 8a a3 4e bb 89 b2 9b be
       -0.3530595 -0.24471149 -0.0031530582 -0.3040965
0002f0 49 5b 32 be e2 43 80 be b4 91 10 bd ab e8 7b 3c
       -0.17417635 -0.2505179 -0.035295203 0.015375297
000300 93 96 81 3d a6 38 b6 be 15 d6 05 be 94 78 f7 3d
       0.06327548 -0.35590094 -0.13069947 0.12083545
000310 d8 d0 52 be 7b a1 b3 bd b3 57 ae bd 3b 44 e2 be
       -0.2058748 -0.08771034 -0.08512821 -0.4419268
000320 c2 95 92 be df 5b 03 3f 70 d5 67 be 66 e1 8b be
       -0.2862988 0.5131206 -0.22640014 -0.27320403
000330 88 f8 13 3e d4 c8 2e be ec 97 f8 bd 51 76 85 be
       0.14450276 -0.17068797 -0.12138352 -0.2606683
000340 43 23 16 bd 48 ba 04 bd 65 db 47 bc 88 dc 9e be
       -0.036654722 -0.032404214 -0.012198304 -0.31027627
000350 d3 9f ea bc 03 62 58 3e a6 f4 00 be 81 16 17 be
       -0.028640663 0.21131139 -0.12593326 -0.14754678
000360 fc df 9e be 97 9b 39 bd e8 36 ef bd 33 c4 99 be
       -0.31030262 -0.045314398 -0.116803944 -0.300325
000370 5b 24 b4 be 2c 16 94 be 12 9b 3c be a3 6f 4a bd
       -0.35183987 -0.28923166 -0.1841853 -0.04942287
000380 41 05 f4 be b4 c1 07 be 0f 99 ac be 20 22 b2 bc
       -0.47660258 -0.13257486 -0.33710524 -0.021744788
000390 e9 42 34 3e c3 f1 c3 be d3 4d 61 be 69 59 58 be
       0.17603649 -0.38270387 -0.22002344 -0.21127857
0003a0 6d 8d 0d 3e 59 53 6d be 61 71 88 be 9b 2a da 3c
       0.13823481 -0.23176326 -0.26649 0.026631644
0003b0 f0 1c 22 bf 20 40 2a bd 63 1c 90 be 76 ec c5 bd
       -0.63325405 -0.04156506 -0.28146657 -0.09664242
0003c0 c5 78 a1 be ef d5 9c 3b 56 b0 10 3e d0 3e 82 be
       -0.31537452 0.004786245 0.14129767 -0.25438547
0003d0 71 f5 80 be b2 9f 2c 3e 3b 27 12 bf 79 65 8f 3d
       -0.25187257 0.16857794 -0.5709111 0.07001776
0003e0 c0 ad bf be 4d 16 ce be 78 93 7e 3e 56 0d 4e 3d
       -0.37437248 -0.4025139 0.24860942 0.050305687
0003f0 bc f3 74 be 65 2e c6 be 3b cd 25 3d 3b e0 0c 3e
       -0.23921102 -0.3870727 0.040478926 0.13757412

fc.2.bias f4 [256]
000000 00 7c 89 be c0 08 9f be a8 ee 5d be 9b b3 56 be
       -0.26852417 -0.31061363 -0.21673071 -0.20966952
000010 c2 5b 83 be 99 fa df be 56 50 ae be f5 52 e4 be
       -0.25655943 -0.43745878 -0.34045666 -0.4459454
000020 b0 81 36 be a7 4e 74 bd 6d c0 45 be ba 65 a0 bd
       -0.1782291 -0.05964532 -0.19311686 -0.07831903
000030 5a 6b 08 bf 9d 5e df be a2 4b 99 be b3 35 6f be
       -0.53288805 -0.43626872 -0.29940516 -0.23360328
000040 d0 5f d3 be 2d 4e 70 be 67 58 b4 bd af 40 ce be
       -0.41284037 -0.23467322 -0.08805924 -0.40283725
000050 4f 70 88 be 6d b6 e7 be 61 2b d2 be 4b ee 4d be
       -0.26648185 -0.45256367 -0.4104872 -0.20110433
000060 b6 53 06 bf 0c ce 88 be a0 25 c4 be fc 35 8b be
       -0.5247148 -0.267197 -0.38309956 -0.27189624
000070 9f ce 31 be b2 ad 40 3e cf 75 01 bf 87 fe cc be
       -0.17363976 0.1881626 -0.50570387 -0.4003794
000080 82 c9 b3 be 00 d6 64 be e1 14 d8 be 07 c8 6e bd
       -0.35114676 -0.2234726 -0.4220343 -0.05829623
000090 5c 13 9a be f0 6d 0f bf 98 0e 5b bd 20 22 5b be
       -0.30092895 -0.56027126 -0.053480715 -0.21399736
0000a0 07 e2 f6 be c1 fe 06 be f3 84 16 be cb 9f 45 bd
       -0.4821932 -0.13183118 -0.14699154 -0.048248094
0000b0 ac e4 49 be aa 21 a3 be bf 11 3e be 72 46 68 bd
       -0.19716138 -0.3186162 -0.18561457 -0.056707807
0000c0 dd 88 e1 be 18 da f4 be 9c 16 79 be c9 7f fa be
       -0.4404973 -0.47822642 -0.24325031 -0.48925617
0000d0 fe 0c 08 bf c6 74 bb bd c5 c3 64 be 9a bf 93 be
       -0.53144825 -0.09153132 -0.22340305 -0.28857118
0000e0 12 f9 86 be 27 bc 1b bf 17 d8 01 bf f0 cb 51 be
       -0.263619 -0.6083397 -0.5072035 -0.20487952
0000f0 ff 0d d3 bd d5 23 5a be 25 54 f2 bd 18 ac a0 be
       -0.10305404 -0.21302731 -0.118324555 -0.31381297
000100 bc 22 00 bf b5 87 cc be f2 ad 18 be a6 00 17 be
       -0.50053 -0.39947286 -0.14910105 -0.14746341
000110 6a 1d a5 be 66 54 72 be ec 9b a2 be ed dd 86 be
       -0.32249004 -0.23665008 -0.31759584 -0.2634119
000120 d6 40 8a bd e1 37 0d be 39 77 20 be 64 52 18 bf
       -0.06750648 -0.13790847 -0.1567048 -0.5950072
000130 ca 2e 31 be 71 e2 cd bd ea 5e d5 be 9d 11 00 bf
       -0.17303005 -0.10052956 -0.41673976 -0.50026876
000140 0e d1 08 be fc 71 4f be b1 da 8d be f6 2c e6 be
       -0.13360998 -0.20258325 -0.2770591 -0.44956177
000150 14 b1 b1 bd 27 c7 90 be a3 7e 7f be 38 b8 b7 be
       -0.08676353 -0.2827694 -0.24950652 -0.35882735
000160 96 78 ad bd 30 9d f5 be 65 3e 6d be 05 3b d6 be
       -0.084702656 -0.47971487 -0.23168333 -0.41841903
000170 e1 52 50 be 49 0d 9f be 04 dd 21 bf cf 0d 3a be
       -0.20344116 -0.31064823 -0.6322787 -0.1816933
000180 9e 0f 01 bf c5 28 af be f7 34 fa bd b3 d7 e4 be
       -0.50414455 -0.34210792 -0.122171335 -0.44695815
000190 dd c6 2b bf a3 8f 7e be d0 13 b4 bd fb 49 a6 be
       -0.67100316 -0.2485948 -0.087928414 -0.32478318
0001a0 db 67 4c be f8 0c 4a be f9 7b 51 be ca fb be 3d
       -0.19961493 -0.1973151 -0.20457448 0.09325369
0001b0 12 22 2d be d1 e0 84 be 93 8b 4c be 4e 8f b4 be
       -0.16907528 -0.2595277 -0.19975118 -0.35265583
0001c0 7c 43 28 be 24 4b 2f be 48 30 9e be 92 7d e2 be
       -0.16431993 -0.17118508 -0.3089621 -0.44236428
0001d0 48 9e 02 bf 9c 36 b1 be e6 c6 b6 be ff b1 1f bf
       -0.5102277 -0.34611976 -0.35698622 -0.62380975
0001e0 20 12 24 be f0 3e be be 8c 8e a1 be 25 66 ad be
       -0.16022539 -0.37157393 -0.31554067 -0.33866993
0001f0 86 09 f7 be ca c2 a8 3e 92 e5 82 be 63 db 81 be
       -0.48249453 0.32961112 -0.25565773 -0.2536269
000200 f9 d0 84 bd f1 d5 d6 be a7 e0 ba be 58 9d a7 bd
       -0.06485171 -0.419601 -0.3649952 -0.08184308
000210 e6 84 b5 be 4d a8 9f 3f 9a 15 a4 bd a4 91 70 be
       -0.35452956 1.2473236 -0.08011933 -0.23493057
000220 c6 76 c5 be 90 a6 09 bf d8 d7 61 be 39 48 b3 be
       -0.3856718 -0.5376978 -0.22054994 -0.3501604
000230 3a b6 b1 be d6 09 7f be 30 e5 eb bd 8e ce 8e be
       -0.3470934 -0.24906096 -0.115183234 -0.27891964
000240 23 3a 9f be 43 40 ae be 32 da 8f be 07 0e a6 be
       -0.31099042 -0.34033403 -0.28096157 -0.32432577
000250 3e c3 5a bf 3d 2b bc be 65 74 73 be 78 fc b5 bd
       -0.85454166 -0.36751738 -0.2377487 -0.08886045
000260 8f ce 09 bf d7 35 b7 be 17 8c 88 be ef 95 bf be
       -0.5383081 -0.35783264 -0.2666938 -0.37419078
000270 1b c4 b5 be dd 5e 93 be 98 9c b8 bd 1c 5a 08 be
       -0.3550118 -0.28783312 -0.09014243 -0.13315624
000280 cc cb 56 be ad 53 b1 be 30 1f 04 bf 5c cb 5a be
       -0.2097618 -0.34634152 -0.5161009 -0.21366638
000290 89 04 67 be 7d 7d 83 be 26 62 6d bc 83 51 f6 bd
       -0.22560324 -0.25681677 -0.014488732 -0.12027266
0002a0 99 8a fe be 53 11 ad be 5e 61 21 be dd 19 c6 be
       -0.49715117 -0.3380228 -0.15759799 -0.38691607
0002b0 ce cd 74 bd 22 84 c9 be d8 16 53 be ae 5f 8f be
       -0.059766583 -0.39358622 -0.20614183 -0.28002685
0002c0 21 5f ff be 5d 3a af be 2c df ab be f1 38 97 3d
       -0.49877265 -0.34224215 -0.33568704 0.073839076
0002d0 e9 74 f3 be bf 17 b3 be 80 00 7a be 55 aa 16 bd
       -0.47550133 -0.34979054 -0.24414253 -0.036783535
0002e0 5f 81 8d be 94 f6 04 be 6b 69 cb be 49 f6 8b be
       -0.27637765 -0.12984687 -0.39728865 -0.27336338
0002f0 8e 45 a2 be e8 3a da 3a c3 98 8a be ab fb 65 be
       -0.3169369 0.0016649636 -0.27069673 -0.22459285
000300 19 22 6f be ea fa 8c be a5 75 30 be 89 68 46 be
       -0.23352851 -0.27535182 -0.17232378 -0.19375814
000310 66 92 ff be 44 30 e4 be a8 87 1f bf 70 af 7d be
       -0.4991638 -0.44568074 -0.6231637 -0.24773955
000320 e0 77 0f be d2 ea 9b bd 1b 98 9a be b5 33 cb be
       -0.14010572 -0.07613148 -0.30194172 -0.39687887
000330 36 64 e6 be 69 e0 00 bf 74 74 80 be 81 58 04 bf
       -0.4499833 -0.5034242 -0.25088847 -0.51697546
000340 96 83 ce be 2c cf 27 be e6 17 25 bf 16 69 a0 be
       -0.40334767 -0.16387624 -0.6448959 -0.31330174
000350 1c 75 cb be 66 a1 97 be be d6 98 be 10 f4 cb be
       -0.39737785 -0.29615325 -0.29851335 -0.39834642
000360 26 33 00 bf 1f d2 5c be 82 0c cf be 4b 99 e4 3e
       -0.50078046 -0.2156453 -0.4043923 0.44648203
000370 35 98 3b be 5d 15 d7 be d4 7b f8 be 7b 3c 6e bd
       -0.18319781 -0.42008486 -0.48531973 -0.058163147
000380 6f 98 99 be 96 42 ff bd 7f ca 81 be bb 97 3f be
       -0.2999911 -0.12463872 -0.25349805 -0.18710224
000390 93 9d 81 be 9f 20 df be db 2d 95 be 89 ee af be
       -0.25315532 -0.43579575 -0.29136547 -0.34361675
0003a0 19 d0 b3 be 46 f8 9e be ca 60 41 be a1 8a 12 bf
       -0.35119703 -0.31048793 -0.18884578 -0.5724278
0003b0 2c d9 e0 be 06 39 29 bf 6f 3a ba be ba 17 cb be
       -0.4391569 -0.66102636 -0.36372706 -0.3966654
0003c0 f3 05 23 bf e9 0c f4 be 53 58 df bd cd 33 ae be
       -0.6368095 -0.476661 -0.109055184 -0.34023896
0003d0 d0 59 0e bd cf 5b 4b be 19 2b 42 bb ae b5 15 bf
       -0.03475362 -0.19859241 -0.002962774 -0.58480346
0003e0 39 22 13 bf 9a 3f 67 be 17 43 1e be ac 26 40 3d
       -0.57474095 -0.22582856 -0.1545528 0.04691188
0003f0 7a d4 c1 3e ba 5b 62 be 8a d3 58 be cf 14 f9 bd
       0.3785742 -0.22105303 -0.21174446 -0.12162172

fc.4.weight f4 [155, 256]
000000 5d bc 32 3d ba d7 a7 bd 75 7d bf bc 7b 1e a6 3e
       0.04363667 -0.081954435 -0.023375252 0.3244513
000010 ca 14 14 bf d3 0f 0a 3e 7c a8 4a bf cc 51 48 3d
       -0.5784422 0.13482599 -0.79163337 0.048906133
000020 23 32 a2 3e f4 14 22 3d 61 a6 a6 be 46 dd b6 3e
       0.31678876 0.039570764 -0.32548812 0.35715693
000030 eb 78 38 3e 08 fc f1 bc 3e 70 62 3f fb 54 17 bf
       0.18014877 -0.029539123 0.8845252 -0.59114045
000040 a3 0f a4 bd 2f 32 c5 bd f7 cc 72 3e e9 e3 73 be
       -0.08010795 -0.096287124 0.23711 -0.2381741
000050 de 82 ee bd a4 cb ad 3e 84 2f 3e bf 13 9f f1 3e
       -0.11646055 0.33944428 -0.74291253 0.47191676
000060 13 ff 44 3a ba bc 13 3f 8e d0 9b be 15 da 18 3f
       0.00075148157 0.5770985 -0.30432552 0.59707767
000070 dd e7 95 be f4 85 6e 3f 1d bb 5c be 29 23 1f 3e
       -0.2927846 0.93173146 -0.21555753 0.15540756
000080 cf b1 0b 3d cf 7f ff be dd f9 44 3e 23 b2 58 bf
       0.03410512 -0.49902198 0.1923594 -0.84646815
000090 ee 62 63 be 08 6f 06 3f 17 a0 0b 3f 1e 70 ab bc
       -0.22205707 0.5251317 0.5454115 -0.020927485
0000a0 a0 d3 a9 bd a0 c3 07 bf 1d a5 8b 3f d5 95 1c 3f
       -0.082923174 -0.53032875 1.0909764 0.61166126
0000b0 9d bc b1 be 1c 8b 5f 3e be e3 f6 3d 8b b5 b7 be
       -0.34714213 0.2183041 0.12055157 -0.35880694
0000c0 93 0a 8f be 52 57 7a be 6f 36 b0 be 88 29 0a 3f
       -0.27937755 -0.24447373 -0.3441653 0.5396962
0000d0 ee 2c b9 3e 4a 6e 52 3d 20 2a 33 3f cc 6e d7 bd
       0.3616709 0.05137471 0.6998615 -0.1051918
0000e0 0b 54 2c bf 15 52 ea bd 53 98 b9 3d b2 28 97 be
       -0.6731574 -0.11441437 0.09062257 -0.29523236
0000f0 47 19 d1 3c 49 db 31 3e 3a b7 49 bd bf 3a aa 3e
       0.025524748 0.17368807 -0.049247004 0.33247945
000100 54 7a b9 be 22 9e 12 be 35 6b 58 3e 4c 3a 0a be
       -0.3622614 -0.14318135 0.21134646 -0.13498801
000110 f7 42 88 be c7 29 1e bf 67 5b 6b 3f a8 51 74 be
       -0.2661359 -0.617825 0.91936344 -0.23859274
000120 72 9b 05 bd ec 6a 18 3f 87 a6 01 bf 31 6f 27 be
       -0.032618947 0.5953815 -0.50644726 -0.1635101
000130 7a 4a 8d bf c5 69 50 be 26 50 9d 3e 6c 7a 37 bf
       -1.1038353 -0.20352848 0.3072521 -0.71671176
000140 4b 5a f2 3c e0 79 18 3f 10 e1 1e bd 71 3b d5 be
       0.02958407 0.59560966 -0.038788855 -0.41646913
000150 b1 6a 4f 3e 87 b5 10 3f 64 b0 03 3f 1f 90 84 bd
       0.20255543 0.5652699 0.51441026 -0.064728014
000160 7d c0 2c bf 73 5b 77 3f 82 d3 c5 be 09 23 37 3e
       -0.67481214 0.96623915 -0.3863793 0.17884459
000170 2a ae 47 bf 10 2a 62 be 87 6c 25 3e 17 fe b9 3e
       -0.7800013 -0.22086358 0.16154681 0.36326668
000180 41 2f ec be 7d 1a 7a 3d ba fc cb be 2f d4 b2 3e
       -0.46129802 0.061060417 -0.39841253 0.34927508
000190 f5 da c6 3d f5 4c 84 3c 87 42 ce 3d 8a 20 0f 3e
       0.097097315 0.016149977 0.10071283 0.13977256
0001a0 12 c5 30 bf e5 d9 91 be b7 6c 30 be d5 ab 65 3e
       -0.69050705 -0.28486553 -0.17228971 0.2242883
0001b0 e2 34 e3 be ce 9a 1f bd 2f 5d bd be a1 05 37 3e
       -0.44376284 -0.038965993 -0.36985156 0.17873241
0001c0 df c3 5d 3e c4 67 5d 3f df b9 2b be 61 c7 91 3c
       0.2165675 0.8648646 -0.16770123 0.017795267
0001d0 e7 30 4f 3e f3 43 e7 3e 09 a1 3a 3f 76 2f b9 3e
       0.20233499 0.4516903 0.7290197 0.36169022
0001e0 2f c8 27 bc c8 58 39 be bc 2c fa be 68 9f ae be
       -0.010240599 -0.18100274 -0.48862255 -0.34105992
0001f0 2c 46 4d 3e 33 a2 1f 3e fb 0f 48 3d 35 09 01 3f
       0.200463 0.15589218 0.048843365 0.50404674
000200 9f 67 0b be fa 9f ae 3e 94 8d a2 3e 4a ff d9 3a
       -0.13613747 0.34106427 0.3174864 0.0016631868
000210 1f 40 80 be 0c 04 a4 3e 0e cf 39 be b3 35 27 3f
       -0.2504892 0.32034338 -0.18145391 0.65316314
000220 d7 f9 4e bf d6 8d 69 be d7 0b dd 3d 52 c8 68 3e
       -0.80849975 -0.22808012 0.10793274 0.22732666
000230 d0 fd de bd b1 17 13 3e 19 4c df 3d 87 a8 cf 3e
       -0.10888255 0.14364506 0.10903186 0.40558264
000240 8c 51 01 bf ca c3 aa be e5 9f 14 3f 59 a2 27 bf
       -0.50515056 -0.333525 0.5805648 -0.654821
000250 dd 62 c1 be 37 60 89 3c 3c fd 0c 3f 9f 1a cf bd
       -0.3777074 0.016769512 0.55073905 -0.101124994
000260 70 12 b1 3d bd f4 91 3e cf 1c d9 be f7 8a 03 3b
       0.08646095 0.28507033 -0.42404792 0.0020071843
000270 d2 39 e8 bd a8 5f e4 3d ec cf 92 3d ac 3d be 3e
       -0.11339153 0.111510575 0.07168564 0.37156427
000280 c4 78 b7 3e 85 1e 0c be d7 bd 8a 3e 60 e9 a0 bd
       0.35834324 -0.13683517 0.2709796 -0.07857013
000290 ea bb 9e 3c 7e ab bf be fc bd 53 bf d4 b6 bf 3d
       0.019376714 -0.37435526 -0.8271177 0.093610436
0002a0 9b d0 ad 3e cc db fd 3e bd 0f a3 3e 92 7d b4 3e
       0.33948216 0.49581754 0.31847945 0.35252053
0002b0 49 13 d0 bd 94 f4 ad 3e 41 39 ca be 89 1e 91 3f
       -0.10159928 0.3397566 -0.39496806 1.1337444
0002c0 61 f0 a8 3e f4 18 34 3e 81 56 ae be c5 91 cd ba
       0.32995895 0.17587644 -0.34050372 -0.0015683701
0002d0 83 23 09 3e 32 6f df be 63 49 6d 3e 78 06 2b 3e
       0.13392453 -0.43639523 0.23172526 0.16701686
0002e0 cf 26 2b 3e cc c2 d8 3e 22 ab 10 be 37 44 f7 be
       0.16714023 0.42336118 -0.14127782 -0.4829423
0002f0 aa 69 52 be 97 76 9b be a2 21 af 3d 9e a3 a8 3e
       -0.2054812 -0.30363914 0.08551337 0.3293733
000300 12 f1 3f be 67 9d cd 3e d7 c4 3a bf fe c0 b7 be
       -0.18744305 0.4015915 -0.72956604 -0.3588943
000310 89 6c 78 3f f4 30 2c be 40 56 1a bf 75 c8 7c bd
       0.9704061 -0.16815549 -0.6028786 -0.06171461
000320 24 4a 86 3e 8c 7a 58 bf 12 e3 e6 bd 71 cf 00 bf
       0.2622844 -0.8456199 -0.11273779 -0.5031653
000330 a9 4b bd 3d 43 e3 05 bf 2f 32 d7 be 4a 4a 66 bd
       0.09242947 -0.522999 -0.42030475 -0.05622319
000340 17 50 48 3e 58 a5 28 3f fe 1a bc be 82 76 17 3f
       0.19561802 0.65877295 -0.36739343 0.59165204
000350 ab 2a 8e be 72 c2 05 3f 71 95 96 3d 48 1b c3 3e
       -0.27766928 0.52249825 0.073527224 0.3810675
000360 1e d0 66 3d 7f 0a 0a bf 6a 28 fe 3e c9 e3 f4 3e
       0.05635082 -0.53922266 0.49640208 0.47830036
000370 6f 13 0a bf 1a 8a 27 3e c6 c7 ae be 15 f7 6b 3e
       -0.53935903 0.16361275 -0.3413679 0.23043473
000380 d7 84 ec be a7 14 eb 3e a9 4b a8 be bf f0 27 bf
       -0.461951 0.45914194 -0.32870224 -0.65601724
000390 8b 6a 7e be 58 f7 fc bd 3f a7 a0 3e 50 16 d4 bc
       -0.2484533 -0.123518646 0.313776 -0.025889546
0003a0 be 2c bd be ea dd f0 3d 79 5a 64 bd b2 3d fe 3e
       -0.36948198 0.11761077 -0.055750344 0.49656445
0003b0 83 d2 61 be c8 8c 1a be ed 19 eb bc 1a df af be
       -0.2205296 -0.15092766 -0.028698886 -0.343499
0003c0 76 7c 02 bc 07 e8 91 be 95 45 e9 3e 92 80 1f bd
       -0.007964244 -0.28497335 0.455609 -0.038940974
0003d0 03 53 7b be 18 37 47 3f 56 8c 86 3c 69 f2 0e 3f
       -0.24543385 0.7781844 0.01642434 0.5583864
0003e0 78 df 70 be 0a 58 5e bf 09 aa b0 3d 5f ae 2e bf
       -0.23522747 -0.86853087 0.08626182 -0.6823482
0003f0 8e d5 b8 be a6 ae 1a 3f df f1 05 3e 7e 92 c8 3e
       -0.3610043 0.6042274 0.13080548 0.39174265

fc.4.bias f4 [155]
000000 ff 8b f6 bc a9 58 b7 bc 8d b2 48 bc 28 1d e1 bc
       -0.030096052 -0.022381144 -0.012249601 -0.027479723
000010 00 02 0a bd e5 c8 02 3d 52 d4 5e 3b 94 d4 aa bd
       -0.033693314 0.03192987 0.0034001064 -0.08341327
000020 8d 84 b6 bc f2 88 07 3d ee b6 9b bc fe 47 2d 3d
       -0.022280002 0.033089586 -0.019008126 0.042304985
000030 6d e2 17 3d 94 f2 4e bd 05 db 19 be bd 35 17 3c
       0.03708117 -0.05052431 -0.15024956 0.009229121
000040 aa 26 42 3d a9 0f 41 3c 98 22 e4 bc 6c d7 f5 bc
       0.047400154 0.011783519 -0.027848527 -0.030009948
000050 b5 d0 9d bc 66 1f bd bb b3 4e a6 bc ae fa 46 bd
       -0.019264558 -0.0057715653 -0.020301199 -0.04857891
000060 58 d3 07 bd e0 fc 30 3d 04 cd 8e 3c 60 7e cc bc
       -0.033160537 0.04320991 0.017431743 -0.024962604
000070 79 8b ac bd fe 5b c9 bc 18 0a 41 b9 01 9b bb bc
       -0.0842504 -0.024579998 -0.00018409675 -0.02290106
000080 dc b3 0d bd d5 c2 58 3d f7 35 98 bd 48 e1 89 bc
       -0.034595355 0.05292018 -0.07432168 -0.016831055
000090 03 d7 f1 3d 07 e8 ba bd 6f 25 20 3d ed 2f d7 bd
       0.11808588 -0.09126287 0.0390982 -0.10507188
0000a0 b0 8b 05 3d 22 9d 83 bc 30 46 3c bd 6b 73 b1 bd
       0.03260392 -0.016066138 -0.045965374 -0.08664592
0000b0 d3 b1 b7 3d 66 92 0e bd c1 42 56 3d 38 ff 56 3c
       0.08969464 -0.034807585 0.052309755 0.013122372
0000c0 7b 1f 71 bc c8 c4 1e 3c 8b d5 1e bd 48 d1 5e bd
       -0.014716978 0.009690471 -0.03877787 -0.054398805
0000d0 87 bf f8 ba 28 7e 3e bd 74 3d d5 3c 06 85 88 3d
       -0.0018977978 -0.04650703 0.02603028 0.06665997
0000e0 9c 37 a2 bd af 37 8d bd a2 6c 49 bc 79 aa 4a bd
       -0.07920763 -0.068953864 -0.0122939665 -0.04947898
0000f0 1f c4 be 3b bd 81 b5 bc e6 6b 89 3c 67 28 13 3d
       0.0058217193 -0.02215659 0.016775083 0.035927203
000100 cf bf 93 3d 46 8c 08 be 7d d8 0c bc 88 c7 dd bc
       0.07214319 -0.1333476 -0.008596537 -0.027072683
000110 4b 0d 14 3d 0f 27 70 bd 40 04 99 bc f7 9f 87 bd
       0.03614549 -0.058631 -0.018678784 -0.06622308
000120 93 f8 97 3d ad 5a 9d 3d 30 3c 78 bd b6 e8 da bd
       0.07420459 0.07683311 -0.060604274 -0.10688917
000130 b1 88 80 bd b7 35 a5 3d 55 bc 4b bd bb 1e c7 3c
       -0.06276072 0.08066886 -0.049740154 0.024306646
000140 46 03 0d bd 72 e6 a5 3c 5a 5b 10 bc 43 0c f1 bc
       -0.03442695 0.020251486 -0.008810842 -0.029424792
000150 e5 c7 a4 bd ab 96 ab bc 1f a2 01 bd 29 9a 92 bc
       -0.08045939 -0.020945868 -0.03164875 -0.017895775
000160 22 28 be bc aa 3f 62 3d 78 20 06 bd 4a 17 fc 3d
       -0.023212496 0.055236496 -0.03274581 0.123091295
000170 5f 04 b6 bd 7d b8 a6 bd 75 ec ce bd 5c 28 7c 3c
       -0.088875525 -0.08140657 -0.10103694 0.015390482
000180 ec 1b cb 39 86 00 92 3d 55 a1 c8 bb be 7d 86 3b
       0.0003873998 0.07129006 -0.006122748 0.004104345
000190 c0 30 67 bc 17 52 19 bd b7 b0 24 bd a8 63 d8 bd
       -0.014110744 -0.037431803 -0.04020759 -0.10565883
0001a0 9a 24 a5 3d 8d 31 c0 3d b9 38 bd bd 27 93 1c 3c
       0.08063622 0.09384451 -0.092393346 0.009556568
0001b0 41 79 a8 3c de 49 b8 bd 32 18 5f bd 45 7c 11 3d
       0.02056563 -0.08998464 -0.054466434 0.035518903
0001c0 d8 82 cd bc 74 b9 3b 3c c0 18 90 bd 28 97 b6 3d
       -0.025086805 0.01145779 -0.07035971 0.089155495
0001d0 39 ea 77 bd 54 05 fe bd f1 2d a5 3c 26 18 d6 ba
       -0.060526107 -0.1240336 0.020163508 -0.0016334101
0001e0 42 ea 46 bc 8c 39 50 3c 06 5e 2c bd ae b3 4c bd
       -0.012140812 0.012709033 -0.042081855 -0.049976043
0001f0 5d 24 9c 3d e8 c7 94 bc 42 35 50 bd 7b 98 6a bd
       0.07624123 -0.018161729 -0.05083204 -0.057274323
000200 4d 8c 8d bd 9c d5 8a 3b f2 fe 82 bc ba 07 2b 3d
       -0.06911526 0.00423689 -0.015990708 0.041755415
000210 5b 38 25 3d ff 79 7d bd 31 7e 52 3d d1 6f c9 bd
       0.040336948 -0.061883923 0.051389877 -0.098357804
000220 34 c0 cf 3c 6e f5 4f bd 70 f7 5c bd 6c 79 66 3d
       0.025360204 -0.05077117 -0.053946912 0.05626814
000230 34 a0 40 39 ca f9 3b bd 7d 6d 58 bd 81 e1 6d bc
       0.00018370227 -0.045892514 -0.05283879 -0.014519096
000240 7a 68 2e bc 3b 73 a8 bd 6b e0 15 3e d7 9f 83 bd
       -0.010645026 -0.082251035 0.1463639 -0.064269714
000250 dc 8a 47 be 33 8d fd 3d 3e e0 f3 bc de 84 98 3c
       -0.19486564 0.12380447 -0.029770013 0.018618044
000260 d2 0f b7 bd 0f 1c 3e 3d a3 bd 44 bc
       -0.08938564 0.046413478 -0.012008104

temporal_smoother.weight f4 [1, 1, 13]
000000 23 81 03 bd d0 d4 50 b9 0d 4e 60 bc d0 fd df bc
       -0.032105576 -0.00019915705 -0.013690484 -0.027342707
000010 db 04 8d bd 9b 2e 63 bd 62 a8 8e bd 6c fb 6f bc
       -0.06885692 -0.05546437 -0.0696571 -0.014647346
000020 01 ed 39 bc 98 63 38 bc d8 90 76 3c f6 24 c8 bc
       -0.01134801 -0.011254214 0.015049182 -0.024431687
000030 50 72 91 bc
       -0.017754704
