generator_gan_ecv_lstm_es.pth (torch, 163480 bytes, 7 tensors)

input_proj.weight f4 [64, 103]
00000000: f311 afbd 0a8d ff3c c7a7 d6bd a55e b7bd
00000010: 058f b63c 0991 a5ba bd6e 663e 570c 70be
00000020: 9bda 713d 78e9 81bc 2990 17be 8211 6ebe
00000030: b2bf ff3c 0eca 04be c8f2 6abd cdab 4c3e
00000040: 51cb aebd efa5 673e 7f9e 863d 3fcc cebc
00000050: 1d90 5cbe c3ec 6c3d 3943 893e 507e 263e
00000060: cff0 333e 4a56 f8bd 2cd1 3bbe 223a 243c
00000070: 2225 6d3e dea3 bbbd 0bf9 35bd 6e97 f4bd
00000080: 8d93 033e 735c 1abd e464 363d 4a11 d8bd
00000090: 10b3 33be cea8 18be f2ec 223e a576 a93c
000000a0: 8375 02be 8eed 8b3c 8124 51be e471 673e
000000b0: 5562 87bd 1b71 47bd 3ba7 c5bd 9f1d a93e
000000c0: e774 3c3d 635b 1ebe f148 c63d ff45 0abd
000000d0: b1e2 aebd dce7 2a3e 32e8 d03d 3f90 eebc
000000e0: 0a21 38be c4be 87bd 5949 7dbe cca4 8d3d
000000f0: a33a c6bd e62e 68bc 40db f5bc b7eb 2f3e
00000100: 11fa 9cbe f6a6 b6bc 5ce1 2a3e 7765 85be
00000110: 5f7d 2cbc a6b8 303b 2882 2e3e 5deb 993e
00000120: 2181 bfbe d27e 3a3e f898 053d 9084 7d3d
00000130: abce bd3d 92bc 81bd 67ed 6a3e f868 dd3d
00000140: f673 c33d c9da c53d 0ca4 803e 0f4c 6bbe
00000150: 3505 3bbe 5f6f 83bd f921 e2bd 3dec 903e
00000160: b98c 1f3e 412c 19be 7df4 46be 4bb1 8dba
00000170: b4ec 943e be28 b03d e1ab e8bd 8d2f 97be
00000180: 64a6 3d3e 9a1e e1bc 05ad 5e3d 1370 0abd
00000190: 2f03 aabe 2f12 8640 2213 b5be d122 3f3d
000001a0: 303c f9bd b959 d8bd dd5a 28be 6c64 ef3d
000001b0: e826 01be 73a8 6a3e 0922 c83c b306 58bd
000001c0: 5a28 463e 9967 49be e5a0 04be 704a 863e
000001d0: 1521 46be 0271 c3bd 374c 443e 4068 59bd
000001e0: 6b6c b63d 5510 183e 20e2 e5bd e94d a7be
000001f0: 8a5b dfbd 1225 ad3d 11dd 043e e33b 583d
00000200: d87a 0dbe 7443 6abd a257 433c 2b9d 4b3e
00000210: 46a1 863b 3f74 e63d 3a06 fcbd 9941 803c
00000220: 47e6 20bd 61f3 71bd 24c0 e2bd 5550 5dbe
00000230: 8d61 3dbe dba1 933c 2939 203d 75d3 c4bc
00000240: 998e da3d 9dbc 22be 7bae 2b3d 81dc 00be
00000250: 3e4f 63be b900 9abd e541 1f3e b0c6 d5bd
00000260: 6777 3cbd 187e bf3c c81f e03c f4df b4bc
00000270: e417 493e 6f09 303d a2e6 573b 39a2 babd
00000280: c195 673c 24dc 7bbe c4fe 2f3d c6de a7bd
00000290: c8e9 5e3d f7e0 b73c 94bb 383e d0dd 98be
000002a0: 3375 06be b1de f53d 438c b83c 924a 35be
000002b0: 90ce a3bd a7b6 2a3e 851f 403e 4470 94be
000002c0: 71bf 153e e648 23be 9170 013e ad85 53bc
000002d0: 56e2 fbbd d8e6 bb3d 6895 ae3c 8f2a 9b3d
000002e0: 84b8 c0bc 8595 093e 5777 2bbe f961 32be
000002f0: 7d91 84be 4c74 7fbe f97c 0f3e 47fa a1bd
00000300: 51c4 093e 3c49 e6bd e073 993d 8575 6e3e
00000310: 0660 813d 5506 8c3d ef90 74be 448d 5c3e
00000320: 562c c63d 7680 f73d b9c4 4dbd 18fc 263f
00000330: af83 b13f cb5e 5a3f 7d79 033d 6c9d 9dbd
00000340: 452c 8d3c 5a59 e33d b181 50bd a17f 223e
00000350: 9d5f e1bc 6727 70ba 443f acbd 3ec7 4fbd
00000360: 261b 0abe a6ae bcbd ac0f 4cbd 9cd2 a7bd
00000370: e689 803c e4b5 12bc 8828 7bbb 2f99 043e
00000380: 01d9 37bd 9716 03be 99ed 5b3d 5a01 c73d
00000390: a174 b4bd 6d4b 373d 9ce9 893e 9eff 9bbd
000003a0: 54fa 1e3e 15ab df3d c5cd 02be e8e0 42be
000003b0: 0aad 1a3d 5b9b cabd 6e29 3dbd bc75 073c
000003c0: efb8 22bd 1856 9b3e 8c2d 063e 3010 143c
000003d0: 1ce0 4cbd cad1 8a3c 3633 75bd ca00 48be
000003e0: 3340 3b3d ce8b 013d 3e0a 273e 1cba 883d
000003f0: 0255 dbbc 5292 20bc fb84 543b 3c36 dbbd
-0.085483454 0.031195182 -0.1048122 -0.08953599 0.022284994 -0.0012631725 0.22503181 -0.23442207
0.05904637 -0.015858397 -0.14801086 -0.23248866 0.031219337 -0.12967703 -0.05736044 0.19987412
-0.08534873 0.22621892 0.065731995 -0.025243877 -0.2153935 0.05784298 0.268091 0.16259122
0.1757233 -0.12125833 -0.18341511 0.010023626 0.23158696 -0.091621146 -0.04442696 -0.119429454
0.12849255 -0.037685823 0.04452981 -0.105501726 -0.17548776 -0.14908144 0.159107 0.020686457
-0.1274014 0.017081048 -0.20424081 0.2260204 -0.06610552 -0.04869185 -0.09651037 0.33030412
0.046009924 -0.15464549 0.09681881 -0.03375816 -0.08539332 0.1669001 0.10200538 -0.029121516
-0.17981353 -0.066281825 -0.24735011 0.06916198 -0.09679153 -0.014171338 -0.030011773 0.17179762
-0.30659536 -0.02229641 0.1668753 -0.26053974 -0.010527938 0.0026965528 0.17041838 0.3006238
-0.37403205 0.1821244 0.032616585 0.061894 0.092679344 -0.06334795 0.22942124 0.10811037
0.09543602 0.096608706 0.25125158 -0.22978233 -0.18263705 -0.06417727 -0.11041636 0.28305236
0.15581025 -0.14958288 -0.19429202 -0.0010810284 0.2908684 0.08601521 -0.11360908 -0.29528466
0.18520504 -0.027480412 0.054364223 -0.03379829 -0.33205554 4.1897197 -0.3536616 0.046664063
-0.12169683 -0.10563988 -0.16440912 0.11689076 -0.12612498 0.22915821 0.024430292 -0.052740764
0.1935133 -0.19668426 -0.12952001 0.26228666 -0.19348557 -0.09543039 0.19169699 -0.053077936
0.08907398 0.1484998 -0.112247705 -0.32676628 -0.109061316 0.08454336 0.12974955 0.052791487
-0.13816392 -0.057193235 0.011922749 0.19884174 0.0041085808 0.11252641 -0.12305875 0.01565628
-0.03928211 -0.059069995 -0.11071804 -0.21612675 -0.18494244 0.018021515 0.039117012 -0.024026612
0.106717296 -0.15892263 0.041914444 -0.12584116 -0.22198197 -0.07519669 0.1555248 -0.10438287
-0.04601231 0.023375556 0.027358904 -0.022079445 0.1963802 0.042977747 0.0032943864 -0.09112973
0.014134825 -0.24595696 0.042967573 -0.081967875 0.05442217 0.022446139 0.18040305 -0.2985673
-0.13130645 0.12005366 0.02252782 -0.17704228 -0.07998383 0.16671239 0.18762024 -0.28991902
0.1462381 -0.15945777 0.12640597 -0.012910289 -0.122990295 0.09174889 0.021311477 0.07576477
-0.023525484 0.13435943 -0.16744743 -0.17420186 -0.2589225 -0.24946707 0.14012517 -0.07909065
0.13453795 -0.11244437 0.074928045 0.23287018 0.06317143 0.06837145 -0.23883413 0.21538264
0.09676425 0.12085049 -0.050236437 0.65228415 1.3868312 0.8530089 0.032098282 -0.076960415
0.017233023 0.11101027 -0.050904933 0.15868999 -0.027511412 -0.0009161145 -0.084105045 -0.05072712
-0.13486919 -0.09212999 -0.049819633 -0.081944674 0.015690755 -0.008954499 -0.003832372 0.1294906
-0.044884685 -0.12801586 0.053693388 0.09717055 -0.08811308 0.044749666 0.26936042 -0.076171145
0.1552518 0.10921303 -0.12773807 -0.19031107 0.03776268 -0.09892913 -0.04618209 0.008267816
-0.039727148 0.30339122 0.13103312 0.0090370625 -0.050018415 0.016945738 -0.05986329 -0.19531551
0.045715522 0.03162747 0.16312501 0.066761225 -0.026773933 -0.0098005105 0.0032427895 -0.10703704

input_proj.bias f4 [64]
00000000: 5fcf 8cbe ff85 883f 1606 8cbf 74b2 90be
00000010: d9c2 5abd 39f2 a7bd 2903 b6be a6ff c3be
00000020: f076 7f3f 7382 203f 82c0 18bf 1ef5 15bf
00000030: ed06 d5be 3c3a 3abf 407f fdbe 0ecc ecbd
00000040: 16bf 273f 459f 0ebf 2021 b1be 5a52 803e
00000050: 1d4b cd3e 84ba db3e c521 0fbf 4998 a2bd
00000060: 7aed d5bd 16d9 a03e eb30 c3be 7ad8 a93e
00000070: 42f6 833e 4125 4abf c235 d63e 0daf b33e
00000080: cb0f 253f 1096 5cbe 000e 0c3f 64d1 4ebf
00000090: cf9f 6fbd e3bd 0f3d 4cee 6ebf c6d6 1a3e
000000a0: 631d 8fbe 07fa 853d 4f3b ca3e 966c 6f3f
000000b0: 7cb2 963e 737b 973d 8f86 a8be 18e3 c5be
000000c0: d8c1 793c bd14 64bf 1bff 27bf 3f50 0f3d
000000d0: cd91 873e 49ac 51bf 0165 d73d 9b66 283f
000000e0: f5b6 09bf eaa4 3bbb 45ad 04bf 35c9 9dbf
000000f0: aa25 a0be 1b2b 343f 04b5 a6be 2c9a 643f
-0.27501962 1.0665892 -1.0939357 -0.2826115 -0.053408477 -0.08200497 -0.35549286 -0.38280982
0.9979086 0.6269905 -0.59668744 -0.58577144 -0.41606846 -0.7274511 -0.49511147 -0.11562358
0.6552595 -0.55711776 -0.34595585 0.2506283 0.4009637 0.42915738 -0.55910903 -0.07939202
-0.10445686 0.31415623 -0.3812326 0.3317297 0.25773817 -0.78963095 0.4183789 0.3509449
0.64477223 -0.2154162 0.5470886 -0.80788255 -0.058502015 0.0350932 -0.9333236 0.15120992
-0.27952108 0.065418296 0.39498374 0.93525064 0.29433048 0.07396593 -0.3291516 -0.3864982
0.01524397 -0.89094144 -0.65623635 0.034988638 0.26478425 -0.8190351 0.10517312 0.65781564
-0.53794795 -0.0028632232 -0.5182689 -1.2327029 -0.31278735 0.70378274 -0.3255998 0.8929775

lstm.weight_ih_l0 f4 [256, 64]
00000000: 7a1e c83e 862f b2be 1793 143f e45b 0f3c
00000010: 1ecf 16be 790f 9d3d 1f2a 533e ff42 353e
00000020: aceb ecbc e236 ed3b e8db 403f 44cc 453e
00000030: bed0 533e 3486 933e 28d4 263e a147 f73d
00000040: ea37 03be ae92 e83d a966 003f e3b2 293e
00000050: 0fc6 b3be 7243 72be 98d5 5c3e 42c4 c13e
00000060: d31d c83c 0b98 45be f53c fdbd feba 1bbe
00000070: 4075 e8bd bc8c 143f c675 fbbc 68d5 79be
00000080: cedc f6bd ff6a 483e 2755 913e a317 cf3d
00000090: 465a fdbd 0587 413e 329a 39bd fc19 5b3e
000000a0: cae4 ba3d 7f8b 95be 8b75 a9bd d42f 21bf
000000b0: 8d47 383c 3d37 2b3d e077 e5bc 3dc4 663e
000000c0: d367 d0bd 75d8 ae3e 77f6 1f3e 2ca4 523e
000000d0: 076f 14be 7924 d53e 714b 59be bf9b 2fbe
000000e0: 925e b53e e2f7 89be 9961 103e e1fa 043f
000000f0: 895e 433e 05c9 693d 08c9 e6bc 4a7a dabe
00000100: bed8 823e 4e40 d6be 0d00 cf3e 2cd7 f63d
00000110: 0316 b2bd c49a 043e 979b 493d 7b61 bf3d
00000120: 885b 89be 8bfb 78bd b75a 263f 7d2a 5c3e
00000130: b0f0 b73d 3600 753d 61be 183e da3c 07bd
00000140: 778d 94be 423e 7a3d ba77 233d d4cb 38be
00000150: 8d1f 29bd fbce 80bd 38d2 98bd 2ed6 933d
00000160: d916 7e3d 979f 16bd a88b e43d 8157 09be
00000170: 3b4b cfbd 16b8 fb3e d723 95bd 727d 8bbe
00000180: 13a8 57be c016 5dbd 0b1a 64be 3f12 9a3e
00000190: f536 95bd 8e97 a23d d338 0e3e ee61 04bd
000001a0: d442 8a3e 78b9 0dbc 606b ba3b 1611 d1be
000001b0: 3ecd b5be 3c6e ac3d a465 2fbe fedb 0bbe
000001c0: 1d5f 4e3e 9785 023f b813 0dbd 8204 21bf
000001d0: bf38 3dbe daf9 673e 02f6 063c c884 ecbd
000001e0: 4068 47bb ef60 e7bd c623 903d f28a 2e3f
000001f0: 7619 613e dd92 51be 0a34 e43d 57be 8cbe
00000200: afc9 763e a70d 69be 326d 053f cd72 90be
00000210: a0c2 583e ce83 0abe 5d2f ad3e 1f81 143e
00000220: c0fe c4be c5f8 073d 4a3b 103c fd43 db3e
00000230: a34a eebc 5f33 a1bd 9769 c03c 0319 413e
00000240: 29e5 6dbd 3b06 a93e b4c1 733e 9aad a2bd
00000250: 2f2f 0abe 1ba3 533d 715e d2bc 1464 7b3e
00000260: 038b a73e a953 ccbd e1c4 363e ecf9 90be
00000270: 73f6 a83c b249 f83e 0195 1c3d f95b 14be
00000280: 485d 5ebe b6f8 f93d b174 6f3d c961 f03c
00000290: 8ebc 4bbd 77a3 8e3d b077 d93d 7a41 173e
000002a0: c694 b6bd eade 09be acef a73a f6cb c7be
000002b0: 50de 4ebe 9c32 8d3d 4df7 f4bd 7971 0d3e
000002c0: 8213 bbbd ecb6 293e 85cb 933e 9442 d1bd
000002d0: da9b 36be d6ae 1c3e 6018 1cbe 820f 45be
000002e0: 624f 1f3d 3f6f 94be a091 043e 0a3d fe3e
000002f0: ebdc 823d cf52 a1bd 4166 77be 9d01 893d
00000300: a57e fc3e f45c 1fbe 8868 8c3e cd2f bebc
00000310: 18c1 093e dc3f d43a 6add bb3d 65ca 693d
00000320: c427 3ebc 433c 133e a619 cc3e 915b 403e
00000330: 6166 1a3e a28b fc3d 6f0e 843e bc45 f8bc
00000340: 587d 873d 7eca 34be a45b 253e 95f3 7abe
00000350: 5085 58be a37d bfbd 9e32 153d 299d 893d
00000360: 77f6 da3e 27ec 083e a89f 43bc 16fb b7be
00000370: 74fe 5ebe e4d4 f73e 9dad ba3e 6e3c 1dbe
00000380: 1f4a 56be 43b6 d33d aec3 8e3d e8df 6f3e
00000390: 9e73 65bd 3887 143e 963e bf3e 301b 1a3e
000003a0: eefa b03d e5d2 bfbd 50f8 553c e448 01be
000003b0: 66d8 91be fe12 f73c 4e09 74bd 9fce 003e
000003c0: b8ad d63d 3656 a33e daf0 8a3e 0d6c 023e
000003d0: 5a0e 413d 3ef5 9d3e 5c4f a9bd 6cc2 97bc
000003e0: d5d6 eebd 281a 83be 698c fe3c 813b 213f
000003f0: 7b87 0f3d 5465 94bd deee 0ebe 80a0 36bb
0.39085752 -0.34801883 0.5803694 0.008749936 -0.14727446 0.07668967 0.20621537 0.17701338
-0.02892097 0.0072392086 0.7533555 0.19316202 0.20685098 0.28813326 0.16291869 0.12074209
-0.12814298 0.11356102 0.50156647 0.16572146 -0.35112044 -0.23658541 0.21565855 0.37845045
0.024428284 -0.19296281 -0.12365142 -0.1520805 -0.11350489 0.58027244 -0.030695807 -0.24397814
-0.12053834 0.19572066 0.2838528 0.1011193 -0.12370734 0.18899162 -0.045313068 0.21396631
0.09125669 -0.2920799 -0.08274373 -0.62963605 0.011247528 0.041800726 -0.028011262 0.22535796
-0.10176053 0.3414952 0.15621363 0.20570439 -0.14495479 0.4162939 -0.21220185 -0.17149256
0.35423714 -0.26946932 0.1409973 0.5194531 0.19079031 0.057076473 -0.028172031 -0.42671424
0.25555986 -0.41845936 0.40429726 0.120527595 -0.08695605 0.12949663 0.049220648 0.09344765
-0.26827645 -0.060786765 0.6498217 0.21500583 0.08981454 0.059814654 0.14916374 -0.033017017
-0.2901418 0.06109453 0.039909102 -0.18046504 -0.041289855 -0.062894784 -0.07461971 0.07218586
0.062033508 -0.03677329 0.1115945 -0.13412286 -0.10121771 0.49163884 -0.072822265 -0.27244145
-0.21060209 -0.053976774 -0.2227556 0.30092046 -0.07285873 0.07939063 0.13888864 -0.032319956
0.2700411 -0.008650176 0.0056890696 -0.40833348 -0.3550815 0.08419463 -0.17128617 -0.13658139
0.2015347 0.5098509 -0.034442633 -0.62897503 -0.18478678 0.22653905 0.008237364 -0.115487635
-0.0030427128 -0.112977855 0.07038073 0.68180764 0.21982369 -0.2046618 0.11142738 -0.27488968
0.24100374 -0.22759114 0.52119744 -0.28212586 0.21167994 -0.13526842 0.33825198 0.14502381
-0.3847561 0.03319623 0.008803198 0.42825308 -0.029088324 -0.078711264 0.02348785 0.18857197
-0.058079872 0.33012566 0.2380436 -0.07943268 -0.13494562 0.05166922 -0.025679799 0.24549896
0.32723245 -0.099768944 0.17848541 -0.28315675 0.020625329 0.48493725 0.03822804 -0.1448821
-0.21715271 0.12205641 0.058460895 0.029343503 -0.049740367 0.06964772 0.10618532 0.14771071
-0.08915095 -0.13463941 0.0012812517 -0.39022797 -0.20201993 0.068944186 -0.119612314 0.13812818
-0.0913458 0.16573685 0.2886621 -0.10217777 -0.1783289 0.1530107 -0.15243673 -0.19244197
0.038894065 -0.28991124 0.12946177 0.49655944 0.06389793 -0.078771226 -0.241601 0.06689761
0.49315372 -0.15562803 0.274235 -0.023216153 0.13452566 0.0016193348 0.09173091 0.057077784
-0.011606161 0.14378457 0.39863318 0.1878493 0.15078117 0.1233132 0.25792262 -0.03030669
0.06615704 -0.1765537 0.1614824 -0.24506982 -0.21144605 -0.09350135 0.036425225 0.06719429
0.42766163 0.13371335 -0.0119399205 -0.3593375 -0.21776754 0.4840461 0.3646058 -0.15355083
-0.20926712 0.10337498 0.06970917 0.23425257 -0.056018464 0.14504707 0.37352437 0.15049434
0.08641611 -0.09366397 0.013059691 -0.12625462 -0.2848541 0.030160423 -0.059579186 0.1257882
0.10482353 0.3190171 0.2713688 0.1273653 0.047132827 0.30851167 -0.0826709 -0.018525325
-0.1166207 -0.25605893 0.031072812 0.6298142 0.035041314 -0.07245889 -0.13958308 -0.0027866662

lstm.weight_hh_l0 f4 [256, 64]
00000000: bff5 ddbc 2eeb ecbe 1a1d 7f3e 0140 0bbe
00000010: a837 90be 8ed2 15bf 7e26 16be d1f2 adbd
00000020: 1f70 cc3d 43f2 bbbe 0269 c43d 5beb 1bbe
00000030: bc3c 6fbe 2cdc f7bd 6196 713e 147b a83d
00000040: 7855 41bd 1449 083f 8742 ae3e 121b 3abe
00000050: d3e1 11be d2cb d13d bb9d d23e f9c4 c8bd
00000060: 1a3f 55be 4103 093f 3707 b23e 7f67 64bd
00000070: 4f93 d2bb 6348 79be de4e 0bbe efcd dc3e
00000080: 82ea 10bd 2803 5e3e 8833 bc3e cd0a 7c3e
00000090: b153 f8bd c6c0 3c3e b543 4d3d d524 ad3d
000000a0: 2df7 5d3e aabf ff3e d173 fe3e 5054 013f
000000b0: 4a51 b7bd 5f23 9abe 0d36 4a3e f3d2 d43c
000000c0: c9cf a53c 1507 c83d 8cdc 1cbe e7be fe3d
000000d0: 1490 b2bc b047 12be 39e7 b0bd ca7f 073c
000000e0: 3883 1c3e b113 b2bd e5d1 f8bd 4030 67be
000000f0: 3d29 1bbf f230 d4be 61e9 bcbd 2221 b73e
00000100: 8fcc 153d 6170 843e 2d90 fcbe 37fe 983e
00000110: 1778 67bf 1fb3 d03d 7db2 28bf 33d6 1a3e
00000120: d499 703f bcf0 fdbd e113 25be 42b9 7c3e
00000130: a994 843e f45e 43bf 92bf 88bf b628 293c
00000140: b14f bbbe 2df0 0e3f 9eda 453e 9e60 7dbf
00000150: dbad 033f 1d57 8c3e d477 5d3f eba5 623e
00000160: 1017 d0bb cbee b73e bd76 2e3e 3042 34be
00000170: 1999 1cbf b935 cbbe 7c43 7c3f 0c70 52bf
00000180: bccd 003f 31d9 cabe eb70 aa3e 3914 eebe
00000190: d3e3 53be c17f eb3e 1a0b 35be cb80 413d
000001a0: 3de3 93be 3c1f 643f 0928 823f c12c 303f
000001b0: 3061 fcbe 9f9c 6ebe df28 33bd cb04 683e
000001c0: d4cd 98be fdee d23e 96a1 8f3d 98d8 133f
000001d0: 0718 6abc bf45 85bd 6b44 d0be 4e63 543f
000001e0: 9b66 77bd 5713 fd3c 4be7 193e 60f7 e2bc
000001f0: a5cd c2bd ec06 d3be cfef bf3e 37b4 3abf
00000200: 03c3 ae3e c4e5 1d3f 1118 f23d bd6c 233f
00000210: 17c6 56bf 3898 0dbf ffa3 8d3e 57ae 07bf
00000220: 32b2 2f3f 335e 21bf 5a6d c5bf 210d 8abe
00000230: 5006 aebe 9c90 e1be 81dd 17bf 9005 123f
00000240: fa69 8d3e 7a87 423f 9f52 f13f 1dc1 6abf
00000250: ae1e 1c3e f01b a63e 5622 173f c2f5 8e3f
00000260: 62d5 a03d dd74 b03f 0b80 e83d 54fe 26bf
00000270: 0db4 60bf d8d7 3fbf 93de 4c3e 85a7 47bd
00000280: af93 da3e f76f 2e3e 193f 513f d7d5 b23e
00000290: 4bab 03bf ceea a73e 47d2 8ebe 2e53 57be
000002a0: 1a24 18bf 7546 8a3f b174 9b3f 29ef 143f
000002b0: a4bc 01bf e51b 30be 44ae bbbe 40b0 d4be
000002c0: 0e06 74bf 01c6 dcbd a9a7 0fbd 355f 483e
000002d0: 1af5 743e 8945 0e3c 4d38 1fbf cc21 473f
000002e0: e3b1 34bf b7af 2ebf ce22 5abe 1fc6 a33f
000002f0: 83ea 01bf 675b 2dbf 4ad4 5f3f dbdb 003f
00000300: 315f 0e3f d0c4 f8be 9d4b 1c3f 4ff8 acbe
00000310: 7767 83bf f243 c9be f244 2d3f 4f2f 8ebd
00000320: 691c 513f 2f2e 4bbe e5a3 d13d 44bd 2b3e
00000330: b15b 82bf 2fd2 21bf b6ee 1bbf 7e66 0d3e
00000340: 6b80 073f 67b9 4d3f bf96 f73f 048d e0be
00000350: 3121 1f3f 239a ad3e d787 f53e 679d ee3e
00000360: a0af 72be 133b 243f 9784 1b3f 7870 01bf
00000370: 4772 7fbf 3a2f 24bf 762e 853f e630 17be
00000380: ecc1 213f b50d 0d3f e655 cd3e e808 b03e
00000390: 2598 78bf 9e2c b83e 7c93 093e 5e03 49be
000003a0: edf1 e6be b324 7f3f c394 b33f b917 393f
000003b0: ecd8 94be 69d5 40be 9616 353d 621d 9b3f
000003c0: 1ca5 86bf 1d32 9a3e 5407 f23e 552c d53d
000003d0: 0150 0bbf 499e 0fbf 2d34 aebe a746 2e3f
000003e0: f912 073e 2ca4 ae3d 428b c6be e627 90be
000003f0: 8fee b4be 5c70 87bf e050 abbd 4a11 a33e
-0.02709472 -0.46273178 0.24913445 -0.13598634 -0.28167462 -0.58524406 -0.14663121 -0.08493579
0.09982323 -0.3670827 0.09590341 -0.152265 -0.23363012 -0.12102541 0.23592521 0.082266
-0.04720065 0.5323651 0.3403513 -0.18174389 -0.14246301 0.10243954 0.41135964 -0.098031946
-0.20824853 0.5352059 0.3477113 -0.055762764 -0.006426252 -0.2434402 -0.13604304 0.43125865
-0.035379894 0.21680892 0.36758065 0.24613495 -0.12125338 0.18432912 0.0501134 0.08454291
0.21676321 0.49950916 0.49697736 0.50519276 -0.089510515 -0.3010511 0.19747181 0.025979495
0.020240681 0.09766976 -0.15318507 0.124387555 -0.021797217 -0.14285159 -0.08637852 0.008270213
0.15284431 -0.08695162 -0.12149409 -0.22577 -0.606098 -0.41443592 -0.09224201 0.35767466
0.036572035 0.25866988 -0.49328747 0.2988145 -0.9041762 0.10190415 -0.6589735 0.15120773
0.93984723 -0.12399432 -0.16120864 0.24680045 0.2589467 -0.7631676 -1.0683463 0.010324648
-0.36584237 0.5583523 0.19321677 -0.9897555 0.5143716 0.27410212 0.8651097 0.22133605
-0.0063504055 0.35924372 0.17037483 -0.17603374 -0.6117111 -0.39689425 0.98540473 -0.8220222
0.50313926 -0.3961883 0.33289275 -0.46499804 -0.20692377 0.45995906 -0.17680016 0.047241967
-0.28884307 0.8911016 1.0168468 0.6881829 -0.49292898 -0.23301934 -0.04374015 0.22658078
-0.29844534 0.4119796 0.07013242 0.5775237 -0.014287955 -0.06507444 -0.406772 0.82964027
-0.060400587 0.030893011 0.15029638 -0.027705848 -0.0951188 -0.41216218 0.37487647 -0.72931236
0.34133157 0.6167872 0.118209966 0.63837796 -0.8389601 -0.5531039 0.27664182 -0.53000396
0.6863128 -0.6303436 -1.5423996 -0.26963142 -0.3398919 -0.4405564 -0.59322363 0.5703974
0.27619916 0.7598797 1.8853339 -0.9170092 0.15246078 0.3244319 0.5903677 1.1168749
0.078531995 1.3785664 0.11352547 -0.65231824 -0.87774736 -0.74938726 0.2000678 -0.048743743
0.426908 0.17034899 0.81736904 0.34928772 -0.5143325 0.3279633 -0.27894804 -0.21027824
-0.59430087 1.0802752 1.2144986 0.5817743 -0.5067847 -0.17198141 -0.36656392 -0.41540718
-0.9532174 -0.10779954 -0.035072003 0.19567569 0.23921624 0.008683571 -0.62195283 0.77785945
-0.70583934 -0.6823687 -0.2130234 1.2794837 -0.5074846 -0.67717594 0.874333 0.5033547
0.55614 -0.48587656 0.61052877 -0.33783194 -1.026595 -0.3930965 0.6768333 -0.06942617
0.81683975 -0.19841836 0.102363385 0.16771418 -1.0184232 -0.6321134 -0.6091112 0.13808629
0.52930325 0.80361027 1.9342879 -0.43857586 0.6216002 0.3390666 0.479552 0.46604463
-0.23699808 0.6415264 0.6074919 -0.5056224 -0.9978375 -0.6413456 1.0404804 -0.14764747
0.63186526 0.5509904 0.40104598 0.34381795 -0.97107154 0.3597154 0.13435167 -0.1963019
-0.4510645 0.99665374 1.4029773 0.7230182 -0.29071748 -0.1883141 0.044210993 1.2118342
-1.0519137 0.30116358 0.47271216 0.10408846 -0.5441895 -0.561009 -0.34024182 0.68076557
0.13190831 0.08527407 -0.3877812 -0.2815544 -0.35338256 -1.0581164 -0.08365035 0.31849128

lstm.bias_ih_l0 f4 [256]
00000000: 01fc 2dbf 59c5 01bf 806d 29bf 77e3 0fbf
00000010: df7a da3e ab86 42bf 6062 67bf c5d5 18bf
00000020: 47be 44be c224 00bf 8ced 38bf cc2a 21bf
00000030: 4f4a c9be 1482 39bf b20d 01bf eaa6 0ebf
00000040: e57f 22bf 9c36 07bf d84c 1abf fb64 a4bd
00000050: b472 aabe 1c43 1abf dd52 84be e83d 50bf
00000060: e8e4 37bf f25d 75be a7ce fdbe f04b 58bf
00000070: 3b02 243d 22dc 20be 22fd bebe a174 d7be
00000080: c2e8 cdbe a463 34bf a508 b0be 1ae1 61bf
00000090: ef00 d3be ad48 19bf 8b7c 21bf 8874 35bf
000000a0: 31f7 28bf 2c02 08be a165 4c3f bd83 b1be
000000b0: f89e 253f f850 6ebf 5b81 41bf 1066 3cbf
000000c0: 8239 28bf f24c 3dbf 523c 0cbf 8c6b bcbe
000000d0: f540 43bf 68a3 8ebf 0a5f a4be 6f50 d3be
000000e0: 8a16 54bf ac73 bdbe ad68 dcbe 7f2c aebe
000000f0: 2943 11bf feb4 433e 0997 1abf c14f 28bd
00000100: 3bcb a5be 0af3 04bf 109d e03c 8797 55bd
00000110: 93ec 98bd 2858 cdbd e364 80be b957 853d
00000120: e97c 2b3e 024a 1fbf b953 e7be bf02 f1bd
00000130: c90f 2fbf 227a 3cbe 58ca 0abe 4c20 c5be
00000140: 1e15 313d 0d70 0b3f 56b8 1cbf 0141 05be
00000150: f05b c53d 6ea3 a7be 45fd babb ef10 5b3b
00000160: cc1a 96be bbf9 9ebc 109a e3bb 8265 89be
00000170: f24b 323e a521 dbbe 7b2e ca3d 7e5a 513e
00000180: e961 5cbe 5cf1 03be 4d9d afbd 88c7 40be
00000190: 7b13 52be 2f79 f1bb 9b07 86be 7782 a8be
000001a0: 7e16 18be 1fe7 2bbe d31f 263d 671d ac3e
000001b0: 1e61 19bf 3f8a 16be 7341 36be 4e05 92be
000001c0: 29b9 82be 6cd4 64be 8f1c 8dbe 3673 4a3d
000001d0: dc79 61be a632 fdbc f4f1 b53d f615 e5be
000001e0: c471 30bf 5236 4fbf 7f8b 84be 187a acbe
000001f0: cca8 03bf b618 b0bd 08a8 c6bb 38e9 963d
00000200: 5af3 953e 33c9 a43d 3dab 313e b766 bcbd
00000210: 21e9 1dbf 4f10 12bf 2245 493d 1c2d c53e
00000220: a7fd b23e 44a0 c2be 7d25 9abd ecdf a4bd
00000230: efa8 413d 898e b8bc d285 953e c2a7 b7bd
00000240: e448 613b ab68 d2be 0e31 913e dc7d f8bd
00000250: 88a2 86bd daf7 7ebd a646 603e d75b 903e
00000260: 0ac6 7bbe 1d36 da3e 6512 813e ae84 9abd
00000270: 29d5 013f 258e 013e 8fa1 9f3e 3d7a ecbd
00000280: 1c55 133e 73fd fb3d 97c5 943e 8b6a 60be
00000290: fdb0 3cbe c236 92bc 1779 633e 5b59 dfbc
000002a0: 6cc2 8dbd 2944 b23e f2ce 033f 8f82 debc
000002b0: 9318 553f e6f1 673d ef03 fa3d b38c d0bc
000002c0: 48c6 9dbe bd90 323e 0b88 af3d 8615 2f3c
000002d0: edf3 423d 5cb8 bb3d a6b6 883d c7ce 8abe
000002e0: 1b0e 603d 276f 303d 1e2d b7bc 78b3 bc3e
000002f0: 08b2 5c3e 00fb 0fbf a548 48bd aa85 72be
00000300: 91d0 1abf 9347 22bf 920b 49be 3691 c6be
00000310: fae4 833f cdd9 f8be d5ff 20bf ac54 a1be
00000320: 632f bebd 26e6 0bbf 4f13 62bf f5c3 74bf
00000330: 69f5 f6be 7b73 16be 5a02 a5be e5b8 6abf
00000340: 2ef6 cebe d8fd b83e b93e 0fbf 51e8 0bbe
00000350: 4f15 753e faf5 20bf eb3b 47be c3bc d0be
00000360: b16d e8be a8fe 04bf 9de5 9fbe 9123 3abf
00000370: 2972 7d3e 7108 0fbe d913 17bf 1c01 8fbf
00000380: 3c6b 7ebe 4ce9 c6bd 15a0 99be 9a42 b7bd
00000390: fc71 22bf 76be 81be e265 46bf 6493 45bf
000003a0: f879 43bf ba7a 493d b82c b53e 0fca b9be
000003b0: 89b3 963e 57eb 0abf 3635 2cbf 05da 16bf
000003c0: 6bf6 34bf eaf3 6bbf 6f32 13bf 1e9e b6be
000003d0: fdf3 87bf 202b 3dbf 3ff0 16be 2d43 fabe
000003e0: 86bd 20bf 16a3 08bf 0839 5abe b885 cfbe
000003f0: bd79 0fbf 53fd b4bd 233b 92bd e515 d3bb
-0.6796265 -0.50691754 -0.6618271 -0.5620646 0.42671868 -0.75986737 -0.90384483 -0.59701186
-0.1921321 -0.5005609 -0.7223747 -0.6295593 -0.39314505 -0.7246411 -0.5041152 -0.5572344
-0.634764 -0.528177 -0.60273504 -0.08027073 -0.33290637 -0.6025865 -0.2584447 -0.8134446
-0.7183366 -0.23961619 -0.49571726 -0.8449087 0.04004119 -0.15708974 -0.373025 -0.42081168
-0.40216643 -0.7046454 -0.34381595 -0.882341 -0.4121165 -0.5987652 -0.6308066 -0.7088094
-0.66002184 -0.13282079 0.79842573 -0.3467082 0.6469569 -0.930923 -0.75588006 -0.73593235
-0.6571275 -0.73945534 -0.5477954 -0.36800802 -0.7627099 -1.1143618 -0.3210376 -0.41272303
-0.8284689 -0.37002313 -0.4304861 -0.34018323 -0.56743103 0.19112012 -0.6038671 -0.041091684
-0.32381615 -0.5193335 0.027418643 -0.05214646 -0.07466998 -0.1002658 -0.2507697 0.065108724
0.16746868 -0.622223 -0.45181063 -0.11768102 -0.6838346 -0.18405965 -0.1355375 -0.38501203
0.04323303 0.5446785 -0.61218774 -0.13013078 0.09636676 -0.32741874 -0.0057064616 0.0033426841
-0.2931732 -0.01940619 -0.006945856 -0.26835257 0.17411783 -0.42799106 0.09872147 0.20444676
-0.21521725 -0.1288504 -0.085749246 -0.18826115 -0.20515244 -0.0073691825 -0.26177678 -0.32912037
-0.1485233 -0.16787384 0.040557694 0.33616182 -0.59913814 -0.14701174 -0.17798404 -0.28519672
-0.2553189 -0.22346658 -0.2756085 0.04942628 -0.22019142 -0.03090794 0.088840395 -0.44743317
-0.6892359 -0.8094226 -0.25887677 -0.336869 -0.5142944 -0.08598463 -0.0060625114 0.07368702
0.29287225 0.08046188 0.17350478 -0.09199279 -0.6168385 -0.57056135 0.049138196 0.38510978
0.34959146 -0.38012898 -0.075266816 -0.08050522 0.04728025 -0.022528904 0.2920366 -0.08967544
0.0034375722 -0.4109548 0.28357738 -0.12133381 -0.06573969 -0.06224809 0.2190195 0.28195068
-0.24587265 0.4261941 0.25209346 -0.07544838 0.5071588 0.1265188 0.31177947 -0.115467526
0.14387935 0.12304201 0.29057 -0.21915643 -0.1842689 -0.017848376 0.22214161 -0.027264288
-0.06921849 0.34817627 0.5148765 -0.027161865 0.8324062 0.056627177 0.122077815 -0.025457716
-0.3081534 0.17438026 0.0857087 0.010686284 0.047595907 0.09166023 0.066754624 -0.27110884
0.054700952 0.043074753 -0.02236038 0.36855674 0.21552289 -0.5624237 -0.048897404 -0.23683801
-0.604745 -0.63390464 -0.1963332 -0.38782662 1.0304253 -0.4860367 -0.6289037 -0.31509912
-0.09286382 -0.54648054 -0.8831071 -0.95611507 -0.48234108 -0.1469249 -0.32228357 -0.91688377
-0.40422195 0.36131167 -0.5595508 -0.1366284 0.2393391 -0.6287533 -0.1945645 -0.40769014
-0.45396188 -0.51951075 -0.3122987 -0.7271052 0.2475058 -0.13968064 -0.5901466 -1.1172214
-0.24845594 -0.097124666 -0.30004945 -0.0894825 -0.63455176 -0.25340623 -0.7749921 -0.77178025
-0.76357985 0.049189307 0.3538568 -0.3628697 0.2943385 -0.5426535 -0.67268693 -0.5892642
-0.70688504 -0.9216906 -0.5749883 -0.3566751 -1.0621334 -0.7389393 -0.14740084 -0.48879376
-0.6278919 -0.5337385 -0.21310818 -0.40531707 -0.5604513 -0.0883738 -0.07140186 -0.006441819

lstm.bias_hh_l0 f4 [256]
00000000: 93ed 13bf 2c59 20bf 7068 2ebf a2ad 07bf
00000010: 0d02 f33e c7c9 53bf 84e1 3dbf 158c 24bf
00000020: 8d0a 31be bb26 2ebf bee0 37bf d8ec 59bf
00000030: 5749 d0be 53a3 02bf fc82 8cbe 34af 0bbf
00000040: f34a 28bf 7451 e5be 711a c8be 7d1e 22be
00000050: 1ae5 c6be b166 e4be bc68 a7be 76da 1ebf
00000060: 884f 33bf 643c 9cbe 3d5b f3be be53 26bf
00000070: 0496 f2bd 4d24 fcbd ae97 04bf ecdc 03bf
00000080: f951 1bbf 9a11 44bf 0545 abbe 4630 45bf
00000090: 075a babe 43f4 e5be 0fc2 21bf 6808 49bf
000000a0: f456 58bf e3d6 c4bd e777 553f 29d9 dbbe
000000b0: 541b 053f 5a86 42bf 359c 52bf d75e 0abf
000000c0: d00b 1bbf 8035 33bf c0c3 39bf 8aa2 debe
000000d0: af6e 4bbf 5531 71bf de75 c9be dd17 93be
000000e0: 1ee9 51bf b17b fcbe f1c4 e1be 83a0 f0be
000000f0: 277d dabe 1d5f 713d 7115 28bf 8111 3bbe
00000100: 54a5 73be 3e15 3dbf 7719 a63a 99ba ebba
00000110: 59a7 55be 2c25 d3bd b485 8bbe 1950 8d3d
00000120: 8322 323e b682 12bf eba9 e1be 9389 bebd
00000130: bc2e f1be b08c 23be d4ba 1fbe 3a6e 02bf
00000140: 7da6 a13d 4f8d 113f 1839 1bbf 6815 523c
00000150: 9f0d 6c3e 768b 73be ec98 0abe d09c ebbd
00000160: 3e39 6abe 2800 a9bb 3959 08be 6ba0 07be
00000170: 9292 c23c ba17 23bf 0e86 283e d2d5 473e
00000180: 97fd 07be f1ef 5abe 4bbf 3dbe 8788 89be
00000190: f60d 5abe 6ddc c9bc 75ec 6dbe 1f45 64be
000001a0: bbe9 90be 5cc5 99be 6b81 433d 5b51 ff3e
000001b0: f04d 15bf bd48 babe bcf4 47bd 7e1d 94be
000001c0: 4816 afbe 14e8 8bbe d7cc cfbe a22c 9a3d
000001d0: f472 7fbe 8db0 6bbe 7bab f53d 1a49 89be
000001e0: 6360 08bf ac3f 36bf 12c6 2ebd 62c5 87be
000001f0: 551b 01bf 32aa 1fbe 3da8 20bd 8368 12be
00000200: f2ea c53e 6367 babd 1506 6a3e fbff 28be
00000210: b284 e2be 5e3d 19bf cdaf 0f3e 6a6d bf3e
00000220: 5750 b13e 54db cdbe 8509 783d 7283 8ebd
00000230: 664f f93d c548 c03c 560e 423e 8971 3ebe
00000240: 1842 07be ce97 63be 4ba0 983e d5d0 3bbe
00000250: 1b5a 053d eb45 86be 7227 213c e98d 9a3e
00000260: 62c7 5fbe e019 643e 1fc5 823e 2a22 3a3d
00000270: 72b9 af3e e426 5cbd 110e 593e 7185 dfbd
00000280: 5c95 123e ad21 ae3d f51f 933e 29ca c2be
00000290: f1c7 5ebe 9159 29bd e192 543e 5d37 f8bd
000002a0: e090 d13d efc3 843e b109 fe3e dcf1 2fbe
000002b0: fb9d 413f 22ae 703d 9d6d 33bc 7624 42bd
000002c0: d6bc 04bf 93fd 993e e514 1fbc c15f 5cbd
000002d0: bbc6 19be 2aba f33d 5187 3b3c df96 1bbe
000002e0: a294 123e 3b61 3dbc 1252 453d c15b 1c3e
000002f0: daee e23d bf13 f8be e296 0a3d 69cb 95be
00000300: e11b 31bf 778a 42bf 127f c7be 7b07 d6be
00000310: c53c 623f 368c 1ebf 6918 25bf 36e7 34be
00000320: 7bc5 8fbe 164b 29bf afa2 42bf 2903 6cbf
00000330: fdae 15bf 34d9 e9bd 063a ffbe ed79 73bf
00000340: 801b a0be cfcf f33e a5c0 1fbf ddca a2bd
00000350: 9376 7d3e e2ec 37bf edd6 75be a08e 96be
00000360: b7a5 e0be e726 d3be 77ba 9bbe 3def 40bf
00000370: 45e3 e83c d152 43be e8e1 07bf e851 8cbf
00000380: c62d 07be 9432 94bd e6e3 4cbe 2a9b 50be
00000390: 52b1 40bf 4b6b 65be 0253 2fbf 8a5a 30bf
000003a0: a2e0 2abf 94ca 0f3e 5867 fb3e d953 cebe
000003b0: 4c5d 7d3e a0cd e4be 92e8 4abf 23fe edbe
000003c0: 9f3e 5bbf 3243 49bf 4169 0ebf b4a1 acbe
000003d0: 1c43 82bf 0499 35bf 5185 b5bd 3615 19bf
000003e0: ae11 1fbf db43 10bf 74aa 93be 6a3e bcbe
000003f0: 97d6 27bf 826f 25be deda f3bd 6a1b 91bc
-0.57784384 -0.62636065 -0.6812811 -0.5299932 0.47462502 -0.8272976 -0.74172235 -0.6427625
-0.17289181 -0.6802785 -0.71827304 -0.8512702 -0.40680954 -0.51030463 -0.27443683 -0.54564214
-0.65739363 -0.44788706 -0.39082673 -0.15831943 -0.38846666 -0.44609597 -0.32697093 -0.62052095
-0.7004323 -0.30514824 -0.47530547 -0.6497153 -0.118450195 -0.12311611 -0.51793945 -0.51508975
-0.60671955 -0.7658936 -0.33451095 -0.77026784 -0.3639681 -0.4491292 -0.63186735 -0.7852845
-0.8450768 -0.09611299 0.8338608 -0.42939118 0.51994824 -0.75986254 -0.82269603 -0.54050964
-0.605649 -0.7000351 -0.72564316 -0.43483382 -0.79465765 -0.942159 -0.39347738 -0.28729144
-0.81996334 -0.4931312 -0.44095567 -0.4699746 -0.4267361 0.058928598 -0.65657717 -0.18268396
-0.23793536 -0.7386054 0.0012672384 -0.0017984688 -0.2086462 -0.10309824 -0.27250445 0.06900043
0.17395978 -0.572307 -0.4407495 -0.09303584 -0.47105968 -0.15971637 -0.15598613 -0.5094944
0.07893083 0.56856245 -0.60633993 0.012822486 0.23052071 -0.23783669 -0.13534898 -0.11504519
-0.22873399 -0.0051574893 -0.13315286 -0.13244788 0.02375153 -0.6370808 0.16457388 0.1951516
-0.1328033 -0.21380593 -0.18530004 -0.26861975 -0.21294388 -0.02464124 -0.23234732 -0.22291993
-0.28303322 -0.30033386 0.047730844 0.49866757 -0.5832205 -0.3638362 -0.04881738 -0.2892875
-0.34196687 -0.273255 -0.40585968 0.07528044 -0.24946195 -0.23016568 0.11995598 -0.26813585
-0.53272074 -0.71190906 -0.042669363 -0.2651778 -0.5043233 -0.15592268 -0.039222945 -0.1429768
0.38655812 -0.09101751 0.22853883 -0.16503899 -0.44241863 -0.59859264 0.14031906 0.37388164
0.34631607 -0.40206397 0.060555954 -0.06958665 0.12173347 0.0234722 0.18950781 -0.18597998
-0.13208807 -0.22225878 0.29809794 -0.18341382 0.032556634 -0.26225218 0.009836065 0.30186394
-0.21853402 0.22275496 0.25541016 0.045442738 0.3432117 -0.053748026 0.21196772 -0.10914124
0.14314789 0.08502517 0.2873532 -0.3804486 -0.21755959 -0.041345183 0.20759155 -0.12119935
0.10232711 0.25930735 0.4961677 -0.17182106 0.75631684 0.058759816 -0.010951427 -0.047398053
-0.5185064 0.30076274 -0.0097095715 -0.053802256 -0.15017216 0.11900742 0.011445836 -0.15194272
0.14314511 -0.011558826 0.04817397 0.15269376 0.110807136 -0.48452565 0.0338353 -0.29256752
-0.69183165 -0.7599253 -0.38964134 -0.41802582 0.88373977 -0.61932695 -0.6449037 -0.17666325
-0.28080353 -0.661302 -0.76029485 -0.9219232 -0.58470136 -0.11418381 -0.49848956 -0.9510792
-0.3127098 0.47619483 -0.6240333 -0.07948849 0.24752264 -0.7184583 -0.24007769 -0.2940569
-0.4387643 -0.41240618 -0.304157 -0.7536505 0.028428683 -0.1907456 -0.5307908 -1.0962496
-0.13201055 -0.072362095 -0.20008811 -0.2037169 -0.7527057 -0.2240421 -0.68486035 -0.6888815
-0.6674901 0.14042121 0.49102283 -0.40298346 0.24742621 -0.4468813 -0.79261124 -0.46482953
-0.8564243 -0.78618157 -0.55629355 -0.3371712 -1.017673 -0.7093661 -0.08863319 -0.5979799
-0.6213635 -0.5635354 -0.28840983 -0.36766368 -0.65561813 -0.16155818 -0.1190698 -0.017713267

output_proj.weight f4 [1, 64]
00000000: 9553 503c b80e a13b 31e3 2a3d 7fbf 50bd
00000010: 083c 2a3b 0a8e 0e3d d51b ca3b bda4 6a3c
00000020: 504e 38bb eadc ab3b 348d c23c 7925 44bc
00000030: a68c 17bc 9d74 343c f4c5 a0be 2f19 4a3d
00000040: 27b7 033d acb1 5cba f1e9 3dbc a681 1a3b
00000050: d9ad 3539 e1c5 953b 152b 233b f090 f6b7
00000060: 30ac 66bc 2dc6 c7bc 2816 66bc 0214 f3bb
00000070: 6e1a 4aba 654a b1bb c91f d63b e93e 0fbf
00000080: 78ca 85bc 5978 fdbb a53e 233c 22c4 b03d
00000090: 0098 7ebb 87e2 2c3b 5180 3bbc b2e3 31be
000000a0: 0622 b1bc 9d0c 49bb d907 0439 0c50 b23c
000000b0: 3ad6 0dbc 08d6 223d 775e 88bb db86 01bc
000000c0: e4e6 adb9 db8a 45bc 5fdd e2bd 0139 cd3b
000000d0: 9d5a 36bd 769d a83d 82ba 1bbc 51e4 163c
000000e0: 2519 e83c 9c1a ad3c 765e 243c d26e 3abd
000000f0: 38e8 91bc fb72 4a3c 4963 39bd e10f ac3b
0.01271524 0.0049150847 0.041720573 -0.050963875 0.0025975723 0.034803428 0.0061678686 0.014321503
-0.002812285 0.005244841 0.023748972 -0.011971825 -0.009249842 0.011014131 -0.31401026 0.049340423
0.03215709 -0.0008418809 -0.0115914205 0.0023575812 0.00017326268 0.004570708 0.0024897505 -2.9392977e-05
-0.014079139 -0.02438649 -0.014043368 -0.0074181566 -0.0007709627 -0.00541048 0.006534551 -0.5595537
-0.016331896 -0.007735294 0.009963666 0.08631159 -0.0038847923 0.0026380138 -0.011444167 -0.17372015
-0.021622669 -0.0030677684 0.00012591424 0.021766685 -0.008657033 0.039754897 -0.0041616517 -0.007905687
-0.00033169158 -0.0120570315 -0.110773794 0.006262899 -0.04452001 0.08233158 -0.009504916 0.009209708
0.028332302 0.021130852 0.010032287 -0.045515843 -0.017810926 0.012356515 -0.0452607 0.0052509164
