generator_gan_ff_ts.pth (torch, 952208 bytes, 7 tensors)

fc.0.weight f4 [256, 101]
00000000: 2e10 b13d 4176 01bd 8e4f 263e e1e4 6b3d
00000010: c1fc 5fbe 985b 58be 66c2 89ba e2bf ccbd
00000020: 95d1 573d fab4 15bc 442a a53d 354b 19bd
00000030: e60a 2c3e 6ae3 483d 44c4 0cbd c97c 4ebe
00000040: 2ba7 eb3d 375b a53d 8af2 0bbc b26f 303c
00000050: dfa4 943d 8cae 9d3d 68c9 153e 0bce 14be
00000060: 4e12 0cbd c0ca e13b 9a6c 3bbe 98d4 a8bd
00000070: 3868 bbbd 00fd b9bc 4562 7dbd 498e 11bd
00000080: 9c3e fc3d fc0f a13c 965e ac3d 05e5 a3bb
00000090: 92f0 7d3c fc23 ddbd f8d8 853d 429a b3bc
000000a0: 0ba2 9e3d 904e 35bd 31d8 dfbc ce90 253d
000000b0: 9ca4 be3c 121c fd3d c6d6 e13d 9de4 363e
000000c0: 7322 203e 8a88 163e 1fd7 133e ee00 97bd
000000d0: 1173 e23d d5ce 153c 6e25 94bd 9aad 593d
000000e0: 8709 71bd a9a9 6bbd 5877 4dbe b1cd 073d
000000f0: d773 b13d bd5f fbbd 7e5b c5bd 1dbf 0ebd
00000100: bc7e 923c 8666 4fbe 5533 04be fa47 bcbd
00000110: f83f 2fbe 0a6c 433d 2408 6c3e 6b1e ae3d
00000120: b6c6 e8bd a6b9 00be 520b fdbd f47a 86bd
00000130: f495 4bbe 425b b1bd c10f 2dbd 6f38 93bd
00000140: 83b0 233c 4eb7 bbbc 3dad c33d 741a 76ba
00000150: 6eac 60bd 0841 913d c0dc 153d 89b5 113e
00000160: 4751 823c c6da 753d c790 923d b4b6 a9bc
00000170: 8c75 ffbd 7e39 623d 142e b9bd 9c74 babd
00000180: 8cec ff3d 373d f83d 679a 5f3d b019 033e
00000190: 9bf9 73bc 044b 413e f823 f4bd 39e5 34be
000001a0: 6df5 05bd d87f 2fbe c003 143e 69b8 333d
000001b0: d7b0 e23b 2e6f cbbc 7ace 753d 51ac 3c3d
000001c0: cb62 83bc 6362 293c b0d0 30bd 3481 2ebc
000001d0: 69dd 053d 6fb6 4abe 729a 113e 94f0 23bd
000001e0: 25ca c03d 2c17 173e 4d83 ac3d ae17 8e3d
000001f0: d228 3bbd c6df 4abe 14e8 b63d 5676 1bbe
00000200: 9fa8 aa3d 4668 113d 370f 363e cb85 bf3d
00000210: 22a5 48bc f1bb 2fbe 1ca2 043d 2d40 db3d
00000220: 500f 9eba 309f 8abd ce7f 5fbd 5c47 b0bd
00000230: 2231 40be 3a6e 9cbd ceb9 d4bd 73a1 1dbe
00000240: 6867 ecbc f281 e9bd a74c 143d 3549 253e
00000250: a0cb f3bd 466d a73d ecf5 88be aafa 8f3d
00000260: d49a a93d 6241 0c3d 41aa 11be 6f7b fdba
00000270: b9d2 2cbe 7af9 883d 7ddd b03b 3d64 0f3e
00000280: 761b f9bc e80d 1a3e 2729 96bd e83f 813e
00000290: 004a 55be 7d2c 52bb 081d 153e 40c2 e0bd
000002a0: 460e 6bbe 859a f13d b31f 23bd 2a7e a63d
000002b0: d84b 8439 1087 173e ebe9 33bd c849 4c3e
000002c0: a9c2 bbbd 947b fd3b f2b8 8abe dfa9 eabd
000002d0: 4f42 afbd 7b1d 3a3c 8a70 34be f6f2 b83c
000002e0: 329e e43d c7bf ee3c b9bf 6f3e f9f9 49ba
000002f0: a161 1fbb 4cbd 35be 7d78 093e 6c16 06bd
00000300: 7e1a 983e 7493 84bd b885 b9bd 7179 5e3d
00000310: 8a7a 653d e306 223e 686f 64bd cdbf b9bb
00000320: fb20 3c3e 9dda 1a3e 64e7 ee3d 36f7 893d
00000330: f9d6 d0bc 09df bd3d 768f 2f3c 08bc 5b3c
00000340: 0078 993d 0e50 ae3c c76f 09be c8d8 bdbc
00000350: bab3 fa3c 22e1 803d 141b 9cbd 0dd1 9fbd
00000360: a89f 643d 141e 80bd 8c52 893c 782c 983d
00000370: 7406 a4bc 3d34 0fbd 42d0 08bb 73d3 73bd
00000380: da0c a43c 481b 7abd 22c1 22be 97a3 92bd
00000390: 237f 7bbd ec0c 3cbd 851d e2bd 6708 d6bd
000003a0: 4451 c5bc 0ce0 923d abd2 ee3d b4a7 b8bc
000003b0: cfaf 5abd 1cb6 bfbc 4036 eb3d 7a1d 10bd
000003c0: e497 3e3d 66db 2bbe b74b 95bd 061d 863d
000003d0: bab3 1f3d d88e 13bc 69a1 d93b 7436 bcbd
000003e0: 90d4 e1bd 5dea b03c 7704 b13d e9e7 fb3d
000003f0: f442 b5bc c3dc 76bd 95ad 6a3d ec34 b4bd
0.08645664 -0.031606916 0.16241285 0.057591323 -0.21873762 -0.2112869 -0.0010510206 -0.09997536
0.052690107 -0.009137386 0.08064702 -0.03742524 0.16801032 0.049045004 -0.03436686 -0.2016479
0.11506494 0.080740385 -0.008541713 0.010768818 0.07258009 0.07699308 0.14627612 -0.14531724
-0.034197144 0.0068906248 -0.18303147 -0.08243674 -0.091507375 -0.022703648 -0.061861295 -0.035536084
0.12316629 0.019660942 0.08416478 -0.0050016665 0.015499251 -0.10797879 0.06535524 -0.021924142
0.07745751 -0.044264376 -0.027324768 0.0404213 0.023271851 0.123588696 0.11027293 0.17860647
0.15638141 0.14700523 0.14437531 -0.07373224 0.110571034 0.009143551 -0.07233702 0.053144075
-0.058846977 -0.057534847 -0.20065057 0.033155147 0.08664673 -0.1227412 -0.096365914 -0.03485023
0.017882697 -0.20253953 -0.12910207 -0.09193416 -0.17114246 0.047710456 0.2304998 0.085018955
-0.11366026 -0.1257082 -0.12355675 -0.0656642 -0.19881421 -0.08659984 -0.042251352 -0.07188498
0.009990814 -0.022914555 0.09554527 -0.0009388097 -0.05485194 0.07092482 0.036587477 0.14229406
0.015907897 0.06002309 0.0715652 -0.020717002 -0.12473592 0.05523061 -0.09041992 -0.09104273
0.124962896 0.12121051 0.05459061 0.12802768 -0.014891054 0.18876272 -0.11920923 -0.17665567
-0.03270476 -0.17138612 0.14454556 0.04387704 0.0069180536 -0.024833288 0.060011365 0.04606277
-0.01603832 0.010338399 -0.04316777 -0.010650922 0.032681856 -0.19796155 0.14219072 -0.040024355
0.09413556 0.14754933 0.08423481 0.0693811 -0.045693226 -0.19811925 0.08930984 -0.1518186
0.08332943 0.035499834 0.17779242 0.09351691 -0.012246402 -0.17161538 0.032381162 0.107056
-0.0012059007 -0.06768644 -0.054565243 -0.08607361 -0.18768743 -0.076382115 -0.10387002 -0.15393619
-0.028857902 -0.11401738 0.036205914 0.16141208 -0.11904073 0.08175139 -0.26750124 0.07030232
0.08281484 0.03424204 -0.14225103 -0.0019339154 -0.1687726 0.06688209 0.005397497 0.14003082
-0.030408602 0.15044367 -0.07332068 0.2524407 -0.2082901 -0.0032069974 0.14561856 -0.1097455
-0.22954664 0.117970504 -0.039825153 0.08129533 0.0002523351 0.14797616 -0.043924253 0.1995002
-0.09167988 0.007735679 -0.27094227 -0.114581816 -0.08557569 0.011359568 -0.17621055 0.02257679
0.11162986 0.029144181 0.2341298 -0.00077047903 -0.0024319666 -0.17747992 0.13424869 -0.032736227
0.29707712 -0.06473437 -0.09058708 0.054315034 0.056025065 0.1582294 -0.055770308 -0.0056686164
0.18371956 0.15122457 0.11665228 0.06736605 -0.025493132 0.09271056 0.010715356 0.013411529
0.07493591 0.021278407 -0.13421546 -0.023174658 0.030603278 0.06292941 -0.07622352 -0.07803545
0.055816323 -0.06255737 0.016762994 0.07430357 -0.020022608 -0.034961928 -0.0020876084 -0.059527826
0.02002566 -0.061061174 -0.15893987 -0.071601085 -0.061400544 -0.04591076 -0.11040787 -0.10450821
-0.024086602 0.0717164 0.116612755 -0.022540905 -0.05339032 -0.023402266 0.11484957 -0.03518436
0.046531573 -0.16782913 -0.07289832 0.065485045 0.03898976 -0.009006225 0.006641556 -0.091900736
-0.11026871 0.021596128 0.0864343 0.12300093 -0.022126652 -0.06026913 0.057294447 -0.087991565

fc.0.bias f4 [256]
00000000: 9647 21c0 574d ccbf 061d 03c0 0fd5 bdbf
00000010: bce3 f4bf 51f8 0ac0 e9e1 e4bf fb8b 0dc0
00000020: da02 17c0 46d4 eebf adb6 e3bf bd6e 08c0
00000030: a436 f6bf fce6 15c0 c3d1 1ac0 a9c4 01c0
00000040: 5cd5 05c0 3a70 a5bf 730d e6bf 635c 24c0
00000050: 3f82 d1bf 3c01 f5bf 7e37 03c0 94e5 1cc0
00000060: 6fa4 d4bf 725b 13c0 b39e 0ac0 916f 16c0
00000070: cd33 fbbf 15a9 18c0 5094 16c0 3887 1cc0
00000080: e79b 4740 0858 0bc0 4585 14c0 fdf1 1dc0
00000090: 76b0 09c0 49ee 21c0 9718 22c0 be75 ccbf
000000a0: 3c3a 0cc0 8ee7 403f a14f 9fbf 060d 18c0
000000b0: ab57 0cc0 4652 02c0 d1ec d5bf bf74 1dc0
000000c0: 56fd c1bf bbce 27c0 8dca 01c0 0c4c 08c0
000000d0: 508c 27c0 236b 0ec0 75f2 f0bf 0fee cebf
000000e0: 4c93 bdbf b689 debf 40b4 febf 5e31 15c0
000000f0: 2d85 0ac0 7ac5 19c0 8399 00c0 cba1 e9bf
00000100: 98e7 20c0 ca82 ecbf 6b56 1fc0 f69e 1cc0
00000110: 4ec3 c6bf ed08 18c0 0a9b 0ac0 a9a4 16c0
00000120: 7bb2 0ec0 50b6 fdbf 136c 13c0 a6de cabf
00000130: 2093 f7bf 29cc 13c0 06c6 02c0 801b 0ac0
00000140: b54a f9bf 2d8d 1ac0 68d0 27c0 369a efbf
00000150: b9e0 1cc0 20f3 abbf 51b3 e7bf d516 01c0
00000160: 0fad 15c0 fa02 14c0 e485 fabf 9af7 1bc0
00000170: 5965 f3bf e6e4 12c0 f1f9 0fc0 b9e6 f2bf
00000180: a6ce b4bf ada9 f3bf ba89 09c0 3dec 04c0
00000190: d768 19c0 04a7 fdbf 4d78 eebf 0656 1bc0
000001a0: bb9f 04c0 4661 d5bf fa99 c8bf 4cee 04c0
000001b0: 280d a6bf d9e6 dfbf d096 08c0 2a75 0bc0
000001c0: b836 e0bf fe63 f6bf c169 f5bf 8514 edbf
000001d0: 8ba3 e6bf 1a4e 1bc0 46bd e4bf 66f1 5fbf
000001e0: 87e7 fabf e842 1ec0 6de1 56bf 9214 cebf
000001f0: 593f 1bc0 1e91 07c0 5033 0ec0 9108 1fc0
00000200: 78de 1fc0 fdb1 1bc0 39e2 1dc0 7ddb c5bf
00000210: eb35 eabf 457b 1dc0 b819 11c0 534b fcbf
00000220: fc84 a7bf af7a 22c0 b24b 12c0 86eb 15c0
00000230: 651b cbbf 0537 ecbf c04a e3bf 54b3 25c0
00000240: ce32 12c0 b37c 1ec0 2f12 eebf 6d9c f7bf
00000250: aa87 f1bf af1b 21c0 be42 0cc0 46bd 04c0
00000260: 1db7 dfbf fa78 36bf f5cb 17c0 6d3b 12c0
00000270: cba7 0fc0 b139 a9bf 8eb1 a8bf c7cf 25c0
00000280: 8f89 06c0 1d68 0fc0 060f 0cc0 8c8c 0ac0
00000290: 67d8 0ec0 bf85 f8bf f067 00c0 7260 ccbf
000002a0: db38 ecbf 9413 e8bf acd1 04c0 2cb2 dbbf
000002b0: 21ab 19c0 8403 09c0 ed15 25c0 292e 27c0
000002c0: aa6c 13c0 5706 aebf cd2b dbbf 05a7 10c0
000002d0: e0e3 04c0 9b3f 07c0 c460 16c0 b88f 0cc0
000002e0: 116a 14c0 9bbe b3bf e0c6 e4bf 3c4e f8bf
000002f0: d948 d9bf b82e 5abf aaf5 01c0 fe79 f7bf
00000300: 2145 1ac0 e42d 00c0 6475 08c0 289e d7bf
00000310: 209e 09c0 c2e5 0dc0 6ebf 20c0 775c 03c0
00000320: 2d88 02c0 d9f3 11c0 8ab4 bdbf 8100 bebf
00000330: 6e2b c4bf 1d8a dfbf b564 13c0 a9e6 05c0
00000340: 4380 1ec0 0575 e0bf 0982 fabf 49fb 22c0
00000350: 3831 11c0 5907 d5bf 4abe 0ec0 5251 13c0
00000360: 3aaf 1ec0 0cae c6bf b934 01c0 64f1 02c0
00000370: 5cc4 c3bf 4fb4 0cc0 ac4f e3bf db55 09c0
00000380: 9533 a1bf b2df 15c0 0ab3 a0bf d5d3 06c0
00000390: 6318 20c0 7d3c b2bf f378 11c0 0554 1cc0
000003a0: b11d cdbf 3922 0340 0a4f 15c0 8626 0ec0
000003b0: cb59 02c0 7b51 15c0 36c5 11c0 4a57 18c0
000003c0: 7780 12c0 c871 14c0 222b 0ac0 f6b8 96bf
000003d0: b5f3 0fc0 bde2 e4bf 9133 09c0 1924 15c0
000003e0: abe0 0fc0 e012 0ec0 e172 21c0 57f6 0cc0
000003f0: a367 f4bf 3405 e1bf 5391 f7bf d32f 01c0
-2.5199943 -1.5961102 -2.0486465 -1.4830645 -1.9131999 -2.171406 -1.7881442 -2.2116687
-2.359549 -1.8658531 -1.7790123 -2.131759 -1.9235425 -2.3422232 -2.4190528 -2.0276282
-2.0911474 -1.2924874 -1.7972854 -2.5681388 -1.6367873 -1.9141002 -2.050262 -2.4515123
-1.6612681 -2.3024564 -2.1659362 -2.3505595 -1.9625183 -2.38532 -2.3528023 -2.445753
3.1188905 -2.177248 -2.3206341 -2.4678948 -2.1513953 -2.5301688 -2.5327508 -1.5973432
-2.1910543 0.75353324 -1.2446176 -2.375795 -2.1928508 -2.0362716 -1.6712896 -2.4602506
-1.5155437 -2.6219928 -2.0279877 -2.1296415 -2.617939 -2.225289 -1.8823992 -1.61664
-1.4810576 -1.7385776 -1.9898758 -2.3311381 -2.1643784 -2.402678 -2.0093696 -1.82525
-2.5141354 -1.8477414 -2.4896495 -2.4472022 -1.5528352 -2.3755448 -2.1657128 -2.3538
-2.2296436 -1.9821262 -2.3034713 -1.5849197 -1.9341774 -2.309336 -2.0433364 -2.1579285
-1.9475924 -2.4148667 -2.622095 -1.8718936 -2.451216 -1.3433571 -1.8101598 -2.0170186
-2.3386877 -2.3126817 -1.957211 -2.4369874 -1.9015304 -2.2952209 -2.2496302 -1.8976661
-1.4125564 -1.9036156 -2.1490312 -2.0769188 -2.397024 -1.9816594 -1.8630463 -2.4271255
-2.0722492 -1.667031 -1.567199 -2.0770445 -1.2972765 -1.7492324 -2.1342049 -2.1790261
-1.7516699 -1.9249265 -1.9172899 -1.8521887 -1.8018659 -2.426642 -1.7870262 -0.8747772
-1.9601907 -2.4728336 -0.8393772 -1.6100028 -2.4257414 -2.1182323 -2.2218819 -2.4848979
-2.4979534 -2.4327385 -2.4669325 -1.5457608 -1.8297704 -2.4606488 -2.2671947 -1.9710487
-1.3087459 -2.538738 -2.28587 -2.3425002 -1.5867735 -1.8454291 -1.7757187 -2.5890703
-2.2843509 -2.476361 -1.8599299 -1.9344612 -1.8869526 -2.5173147 -2.1915736 -2.0740523
-1.7477757 -0.71278346 -2.3718235 -2.284877 -2.2446163 -1.3220731 -1.3179185 -2.5908067
-2.102146 -2.2407296 -2.188417 -2.1648283 -2.2319582 -1.9415816 -2.0063438 -1.5966933
-1.8454851 -1.8130975 -2.0752974 -1.7163749 -2.4010699 -2.1408396 -2.5794632 -2.6121924
-2.3035073 -1.3595685 -1.7122742 -2.260194 -2.0764084 -2.1132572 -2.349656 -2.196272
-2.3189738 -1.4042543 -1.7873192 -1.9398875 -1.6975356 -0.8522754 -2.0306191 -1.9334104
-2.4104693 -2.002801 -2.132165 -1.684514 -2.1502762 -2.2171483 -2.511684 -2.0525186
-2.0395615 -2.2805083 -1.4820721 -1.4843904 -1.5325754 -1.7464024 -2.3030217 -2.0922034
-2.4765785 -1.7535712 -1.9570934 -2.5465872 -2.268629 -1.6642867 -2.2303643 -2.3018384
-2.479445 -1.5521865 -2.018843 -2.0459833 -1.5294299 -2.1985052 -1.7758689 -2.1458652
-1.2593867 -2.3417783 -1.2554638 -2.1066792 -2.5014884 -1.392471 -2.2730072 -2.4426281
-1.6024686 2.0489638 -2.3329492 -2.2211013 -2.0367305 -2.3330982 -2.2776618 -2.3803277
-2.2890909 -2.3194447 -2.1588826 -1.1775196 -2.2492497 -1.7881695 -2.1437724 -2.3303282
-2.2480876 -2.219902 -2.5226367 -2.2025354 -1.9094127 -1.7579713 -1.9341224 -2.018544

fc.2.weight f4 [512, 256]
00000000: 4db4 c3bb 098e 46be abf6 40be 5fda f6be
00000010: 0c1b b5bd e507 0cbf d8d5 2a3d fdcd 09be
00000020: 7d10 a8be 82fe bdbe c57b 0c3e 45e9 88bd
00000030: 53f0 04bf 7670 cabd 3771 323f 08d8 37bf
00000040: a558 87be 6488 0ebf 476e 96be c3ea edbe
00000050: 7ce8 f2be 1288 c3be 82c4 36be 0c29 0ebe
00000060: 9069 80be 6418 abbd 99d6 29bf 7ee7 06be
00000070: c25f cabe d74f a53d 5ad9 513f 557c bfbe
00000080: f550 93bf 91f6 0e3e a67f 79bf 91fe 513d
00000090: 6011 82be af5f ebbe 68d1 2ebf 58fd f5be
000000a0: ff3f 3c3e 84d4 1dbe b436 7ebe 604b ca3d
000000b0: b358 44be 3986 fcbe b76e a9be 1f7f 09bf
000000c0: 9017 98be 2f82 dabe 4a6f 96be 4241 f2bd
000000d0: ea34 33bf 2e44 3e3f 14b8 7abe 5b2e 28bf
000000e0: 886b febd 6dd0 29be bb74 8dbe 4b47 4fbe
000000f0: 622e cd3e 0ae3 9abe 90a5 1fbf 640a f0bd
00000100: b98f debe e0dd bbbd 4dae 0ebf 289a 58be
00000110: 9e30 bdbe 41fa 28be 81a1 b6be d042 0cbf
00000120: c85e 0b3e 0a2d 27bf fb05 f1be 4237 1dbf
00000130: 0d3e e5be 5c6e d03d 7432 dcbe 8f3e eebe
00000140: 6e7b 6fbe c3bd 10bc d416 2cbf 5af9 83be
00000150: 6088 e3bc e4c7 443e 37f7 583e 5552 16be
00000160: b2cb 6bbf 5d2e 2bbe e33a 013e 7fc5 2cbe
00000170: 5cbc 74be 6633 c93d 53bd 03bf 2507 1b3b
00000180: 7543 11bf 3aa2 883d d5a1 06be 506b cfbe
00000190: 1083 08bf b419 a2be 46ad f1be c586 b9be
000001a0: 1a99 623e ffa8 a23d 0b11 eabd 139e 0abf
000001b0: 574f abbd 63fa 92bf 44a1 92be d76a 3f3e
000001c0: da81 083e 8fcf 4bbf cb55 b9be 9260 85be
000001d0: 46f2 96be 440e 093e 2dbd 6c3f fc76 4b3e
000001e0: f387 4cbf 4437 d53d 679d e9be 1fb7 29be
000001f0: a515 42bf 3202 643e 5326 1cbf 3755 0cbe
00000200: f51c fdbe f5be c43e 8ec6 0bbf d145 e0be
00000210: 6d6d 50be de17 60be 45ee 12be c050 00bf
00000220: 4325 e43d 27e2 813d 7760 27bf d6ed ac3e
00000230: 9c20 96be 3127 00be 346c c4be f42f b5be
00000240: 5c9d 8cbc 9138 cdbe 2d89 bdbe 4c66 c33c
00000250: 84ed 8ebe 3238 63be 68fa eb3d ac80 49bf
00000260: 6a0a 9abe f536 a3bd 2ac8 8dbe a2c0 48bf
00000270: 5b1c dabe 455e 00bf 726c 7a3e b19b 80be
00000280: ff68 2abf d13a c1be 8e6b cfbe b179 a2be
00000290: f6cf 3fbf 32db 79b7 a998 96be fb12 9cbe
000002a0: 8462 acbe 3410 11bf 0b6d 12bf a4ee cd3d
000002b0: 90a0 853f da0e c23e d0b1 a63d e7a4 44be
000002c0: 5373 c7be 0ec9 8cbd b961 2f3e 0ac9 86be
000002d0: c32a 2abc 8614 86be 221a d6be b8c7 9fbd
000002e0: db47 00bf 1e8e e1be 196f c9bd e8dd 45be
000002f0: 8d24 efbe 58af e8be 386e 0bbf d004 d63c
00000300: 13d3 313e 133e 7bbd 2efe 47be 4d2b fbbe
00000310: 32ca a1be 2797 a0be 651b 683e 8b27 503e
00000320: 485f 303c 24ea eebd 0793 c1be a08c 06bf
00000330: f8e9 bcbe ae40 f2be 817a e7be 99d7 cfbe
00000340: fca0 4abf d637 9cbf c8cc e33e 9273 dbbe
00000350: e987 1abb 7103 3cbe c759 f6be 9778 973d
00000360: da57 813d 5f80 2bbd 28f3 fabe b50f 0e3e
00000370: 5124 f5be d024 313e 3f88 21bf 2bba 49be
00000380: c6a2 18be 65e4 00bf fa10 b5be 6806 50bc
00000390: 6d66 393f d942 86be faec 03bf 1c4c f5bd
000003a0: 6e65 debe aaa1 b8be 34c6 95be 99c0 97be
000003b0: c621 bbbe ee9f 44bf b160 86be a60d 98bd
000003c0: 97e7 4f3e a46f 583d c4be babe cab4 763c
000003d0: 24d4 91be 3685 b13c d8d6 bebe 5e68 c3be
000003e0: e36a 5bbe c192 11bf ce5c b9bd 51de e4be
000003f0: 8f3b c03b cf1b 003d d21a 24bf d849 a5be
-0.0059724213 -0.1939012 -0.18844096 -0.4821348 -0.088430494 -0.54699546 0.041707844 -0.13457485
-0.3282508 -0.37108237 0.1371909 -0.06685118 -0.51929206 -0.098847315 0.69704 -0.7181401
-0.26434818 -0.55676866 -0.2938101 -0.4646817 -0.47442997 -0.3818975 -0.178484 -0.13882846
-0.25080538 -0.083542615 -0.66343075 -0.13174245 -0.39526182 0.08071869 0.8197228 -0.37399545
-1.1509081 0.13961245 -0.974604 0.051268164 -0.2540388 -0.45971438 -0.6828828 -0.48044848
0.18383788 -0.154131 -0.24825555 0.09877658 -0.19174461 -0.49321154 -0.3309228 -0.53709596
-0.29705477 -0.42677447 -0.29381782 -0.11828853 -0.70002615 0.74322784 -0.24484283 -0.6569573
-0.12422854 -0.16583414 -0.2762812 -0.2024204 0.4007445 -0.30251342 -0.62362003 -0.11720732
-0.43469027 -0.09173179 -0.5573471 -0.21152556 -0.36951154 -0.16501714 -0.35670093 -0.5478945
0.13610375 -0.653031 -0.47074875 -0.6141244 -0.44773903 0.101772994 -0.43007243 -0.46532103
-0.23386928 -0.008834305 -0.6722233 -0.25776178 -0.02777499 0.19216877 0.21188055 -0.14679845
-0.9210769 -0.16716905 0.1262012 -0.16872214 -0.23899978 0.098242566 -0.5146076 0.0023655382
-0.56743556 0.06671567 -0.13147672 -0.4051156 -0.53324986 -0.31660235 -0.4720251 -0.36235633
0.22128716 0.0794239 -0.11429032 -0.5414745 -0.08364742 -1.1482662 -0.2863866 0.186931
0.13330784 -0.79613584 -0.36198267 -0.2605024 -0.29481715 0.13384348 0.9247616 0.19869608
-0.7989494 0.10410932 -0.456279 -0.16573761 -0.75814277 0.22266462 -0.6099598 -0.13704382
-0.49436155 0.3842694 -0.54599845 -0.43803266 -0.20354243 -0.21884105 -0.14348705 -0.50123215
0.111399196 0.06341963 -0.6538157 0.33775204 -0.29321754 -0.1251495 -0.38363802 -0.35388148
-0.017164879 -0.4008222 -0.3701872 0.02385249 -0.27915585 -0.22189406 0.115223706 -0.7871196
-0.3008607 -0.079694666 -0.27691776 -0.78418934 -0.42599759 -0.50143844 0.24455431 -0.25118783
-0.6656646 -0.37740186 -0.40511745 -0.31733468 -0.749267 -1.4892592e-05 -0.29413345 -0.3048323
-0.3366891 -0.5666535 -0.57197636 0.10055283 1.0439625 0.37901956 0.08139384 -0.1920353
-0.38955173 -0.06874286 0.17127122 -0.26325256 -0.010386172 -0.26187533 -0.41816813 -0.07801765
-0.5010964 -0.4405374 -0.09835643 -0.19322932 -0.46707574 -0.45446277 -0.54465055 0.026125342
0.17365675 -0.061338495 -0.19530556 -0.49056473 -0.31599575 -0.3136532 0.226667 0.20327584
0.010764904 -0.116657525 -0.37807485 -0.52558327 -0.36897254 -0.47314972 -0.4521065 -0.40594175
-0.7915189 -1.220454 0.44492173 -0.4286161 -0.0023579544 -0.18360688 -0.4811537 0.073960476
0.063155845 -0.04187047 -0.49013638 0.1387318 -0.4787927 0.17299199 -0.6309852 -0.19699924
-0.14905843 -0.503485 -0.35364515 -0.01269684 0.72421914 -0.26222876 -0.5153347 -0.11977407
-0.4343676 -0.3606084 -0.2925278 -0.29639128 -0.36549205 -0.76806533 -0.26245645 -0.07424478
0.20303188 0.052840844 -0.36473668 0.015057752 -0.28482163 0.021669965 -0.37273288 -0.38165563
-0.21427493 -0.56864554 -0.09050904 -0.44700864 0.005866475 0.03127652 -0.64103425 -0.322829

fc.2.bias f4 [512]
00000000: c7d4 50be 914e 61be a670 553e 87be 2abe
00000010: f09b 4f3f 73e4 a43d e1fa a5be eae4 26be
00000020: 6895 0d3c 767e 933e a964 12be 278c 36be
00000030: 1dfb 78be 18a2 2b3e 0e60 dcbe 0595 11bf
00000040: 8660 8d3e 26ef 513e eccc 93be 5fa0 65bd
00000050: 5e6f debe abbe c3be d6e9 06be c68c 6ebe
00000060: bcc3 06be 285f f23e 2a45 a5be 5d81 86be
00000070: a454 b13d 9fca e9be b15c 23be d837 f8bd
00000080: 5aff 76be 1a1e 06be 1429 b8be 9d4b 2cbe
00000090: 819b 4dbe 4958 b63d b523 c5be 9d90 243e
000000a0: df29 c23b 848a a0be bef0 aabb fcbd eebe
000000b0: aa3a 2e3d 9b9e dfbe 641a a7be 36e5 f93d
000000c0: d3aa 1cbe 282f 3abe 1737 07bf 9da0 a7be
000000d0: c404 1a3e 67b7 853d 6c7b 22bd fbbc e5be
000000e0: c6f2 15be 43c6 c3be cd57 973d 836a 26bf
000000f0: 07f0 2840 c9db 07bf d9cd 2fbe 8031 20bf
00000100: b73b bd3e 8ec9 5abe b2dc 0ebe fb74 0dbf
00000110: d001 d7be 430e 393d deb4 6ebf 8e1f bfbe
00000120: 9a39 04be 64e8 69be 08eb 113f b212 c9be
00000130: 3c77 4f3f 6f97 d1be 76ef 5abe fe76 e2be
00000140: e2c1 e3bc 7e60 05bf 63d1 adbd 9c58 fbbe
00000150: 557a 62be cb90 29bf b3a2 84be 732c f6be
00000160: 190d 523d ec4e 2f3e 05d9 0cbe 7ae4 90be
00000170: e008 2ebd 01fb a7bd c2c9 b1be 55dc 6ebe
00000180: d655 90be cee1 0abf e5f5 443f 79e1 cabe
00000190: 9615 10bf 7293 523e 28d5 34be ebcf 5cbd
000001a0: 485c 58be f61f 10bf 5f54 c4bd 9996 2abe
000001b0: 7776 02bf 4f00 313e 6f56 75be efc5 b7be
000001c0: bb6b 183e da89 babe c0f0 d03e a334 08bd
000001d0: abd2 98bd 2738 23bf bb25 b13d d3e1 7cbe
000001e0: ae47 0dbf 7612 7b3d 024b 39bf 7345 623d
000001f0: 8d51 8d3e 82fb aabe 308a dcbd 5f0f b3be
00000200: 7014 f63b cf6d 80be 5120 7c3e dcc7 0e3f
00000210: 6897 403e 62cc ec3e 1d93 493e 7574 a5be
00000220: 4f14 05bf eb1d a73e b1ca bdbd 7b42 fdbe
00000230: d017 b7be e1e5 2b40 613d 143e fa00 203f
00000240: 6cdc 963f e765 a43e a33f 8bbe d67d 7bbe
00000250: 820d 9cbe 43a9 ddbe 7bf0 06bd d136 18bf
00000260: 5538 47ba 064b 0fbf afae 073e 5884 88bc
00000270: 36f4 1f3e db08 c9be 4fd0 66be 927d 71be
00000280: d72e 91bb 87d1 083e 4e79 37be 10cf 6c3e
00000290: 1648 843e 77a8 b23d 2d0c 18bf 86c9 3bbe
000002a0: a2b7 4fbd f7f2 debe ce1d 92be 8630 0abe
000002b0: a7f5 28be 426a 9a3e d97e 633e 1f2a 8f3e
000002c0: 0047 8ebe a277 bfbe fa07 a6bd abaf bdbe
000002d0: 40c6 893e 45f7 7cbf d5af cdbd 0e0d 0c3e
000002e0: 430a a93e aba2 62bf ed26 e0be fb8a acbe
000002f0: 2dba 31bf 119b 02bf bb34 85be 88dd 403f
00000300: c14c 43bf d89c a8be 690c 21bf e0a6 603b
00000310: ab53 a13e d8c5 bebe 8f1c ccbe 3bfa 0cbf
00000320: 66f0 9fbe 7c67 44bd a66c 9f3d 4745 b1bc
00000330: 2bac 69bf c626 a73d 39f1 1cbe 1f08 7cbe
00000340: 935b 88be d794 c2bb a8f4 653e 000f 83be
00000350: 39c6 1c3f f726 84be 869a c13e e732 fbbe
00000360: d67d 03bf cd9f ae3e f06c 893d 0286 933d
00000370: 2871 7c3d 9983 bcbd e8ad 443e 81f7 4f3e
00000380: d1a8 a3be 2c00 15bf bd47 7ebd 1566 193d
00000390: 1265 a9be 0b91 c43e 685f d63d fc9f 2fbf
000003a0: b69f 223f c22a 9ebe 8d3c a13f a23d 83be
000003b0: fd24 e4be d7f0 bf3f 0890 c0be ae62 9e3e
000003c0: c072 f5bd e608 80be 975d 76be 2d19 adbe
000003d0: 8414 d7bd 74de 863c f104 ffbd 920d f23d
000003e0: 854c b3be f914 a63f b956 00bd 6e2e 473d
000003f0: bef3 10be 4521 cebe 7061 a7be 934c efbd
-0.20393668 -0.22002627 0.20843753 -0.16674243 0.81097317 0.08051386 -0.32417968 -0.16298261
0.008641578 0.2880742 -0.14296211 -0.17826901 -0.24314542 0.16761053 -0.43042034 -0.5686801
0.27612704 0.20501384 -0.2886728 -0.056061145 -0.4344434 -0.38231406 -0.13175139 -0.23295888
-0.13160604 0.47338223 -0.3227933 -0.2627057 0.08658722 -0.456624 -0.15953328 -0.12120026
-0.24120846 -0.1309742 -0.3596884 -0.16825719 -0.20078851 0.08903558 -0.38503805 0.1607079
0.0059254016 -0.3135568 -0.005216687 -0.46629322 0.042536415 -0.43675694 -0.32637322 0.12201922
-0.1529954 -0.18182051 -0.52818435 -0.32739726 0.1504088 0.06529122 -0.039668486 -0.44870743
-0.14643392 -0.382372 0.073897935 -0.65006274 2.63965 -0.5306974 -0.17168368 -0.6257553
0.3695962 -0.2136595 -0.13951376 -0.55256623 -0.4199357 0.045179617 -0.9324473 -0.37328762
-0.12912598 -0.22842556 0.56999254 -0.39272076 0.8104131 -0.40935847 -0.2138041 -0.4423141
-0.027802411 -0.5210036 -0.08487203 -0.4909104 -0.22116978 -0.6623656 -0.2590538 -0.48080787
0.051282022 0.1711995 -0.13754661 -0.28299314 -0.042488933 -0.08202172 -0.34724241 -0.23326237
-0.28190488 -0.542508 0.76937705 -0.39625147 -0.5628294 0.20564058 -0.17659438 -0.053909224
-0.21128953 -0.5629877 -0.09586405 -0.16659011 -0.50962013 0.17285274 -0.23958753 -0.358932
0.14884846 -0.36433297 0.40808678 -0.033253323 -0.07462057 -0.63757557 0.08649775 -0.2469552
-0.551875 0.061296903 -0.7238008 0.055242013 0.2760128 -0.3339501 -0.10768545 -0.34972665
0.0075097606 -0.25083777 0.24621703 0.5577371 0.18807757 0.46249682 0.19685026 -0.32315412
-0.51984113 0.32640013 -0.09267176 -0.49464783 -0.35760355 2.6859057 0.14476539 0.6250149
1.1786017 0.32108995 -0.27196988 -0.24559721 -0.30479056 -0.432932 -0.032944184 -0.59458643
-0.00075996417 -0.5597385 0.1325023 -0.016664669 0.15620503 -0.3926457 -0.22540401 -0.23583058
-0.0044306326 0.13361178 -0.17917368 0.23125863 0.25836247 0.08723538 -0.5939358 -0.18338594
-0.050712235 -0.43544742 -0.28538364 -0.13495073 -0.16499959 0.30159193 0.22216357 0.27961823
-0.27788544 -0.3739596 -0.0810699 -0.37048087 0.26909065 -0.98814803 -0.10043303 0.13676855
0.33015642 -0.8852946 -0.43779698 -0.33699784 -0.69424707 -0.5101786 -0.26016793 0.7533803
-0.7628899 -0.32932162 -0.6290956 0.0034279153 0.31509146 -0.37260318 -0.39865538 -0.5506932
-0.31238097 -0.047950253 0.07784395 -0.02163948 -0.9127833 0.08161692 -0.15326394 -0.24612473
-0.26632366 -0.0059381532 0.2245661 -0.25597382 0.61239964 -0.25810978 0.37813205 -0.49062273
-0.51363885 0.34106293 0.06710231 0.07203294 0.06163135 -0.09204788 0.19206965 0.20309259
-0.31964734 -0.5820339 -0.062080134 0.03745087 -0.33084923 0.3839191 0.10467416 -0.6860349
0.6352495 -0.30891997 1.2596604 -0.2563296 -0.4455947 1.4995373 -0.37609887 0.30934662
-0.119847775 -0.2500679 -0.24059139 -0.3380827 -0.1050196 0.016463496 -0.124521144 0.118189946
-0.35019317 1.297515 -0.031332705 0.048628263 -0.1415548 -0.40259758 -0.32691526 -0.11684527

fc.4.weight f4 [155, 512]
00000000: 2531 ed3e ae36 283e 354c 953f 2220 063e
00000010: 96da e83d 2cc0 89be a4ce 113f 51ba 42be
00000020: 34e9 12be 4f79 6cbe 1b93 0ebf a2d1 f1be
00000030: abbf 0dbf 8c7f fa3e 287a 3cbe fa24 853e
00000040: 5f40 a93e 7895 93be d24b a5bd d71e 2d3e
00000050: e509 81bf a6a0 ce3d 903d a53e cd24 0d3e
00000060: ec8f 593f 0289 383e cab4 c3bd f802 b4be
00000070: 9a7e 4f3f 07a6 6c3e 6126 1ebe 5e1a 39bd
00000080: f2dc 18bf 76dd c53e 3007 7a3f b5d5 00bf
00000090: 349a 15be 2bc9 a03f e9f8 613e c6f4 093f
000000a0: 6f8a 0b3f cbde aabe e25a 993f 381e e8bd
000000b0: f343 86bf e7fc 063f 0015 bf3d bcf5 613d
000000c0: 8a46 eebe adc8 85be bf49 a23c 7e8e 5e3f
000000d0: 2490 253f 7f24 193f 1677 403e 29cf 96be
000000e0: 0021 aabe d151 2a3f e060 b53e d215 6a3c
000000f0: 42d4 543d 4ba6 a63e 00ed 8f3e 9685 bebe
00000100: b508 86bf c271 153f 9743 97be 513b ba3c
00000110: 353c dbbd d6db 613f 8092 44bf 7c61 ab3e
00000120: 8e14 8ebf 2fb4 2cbf c62d 19be c57a d9be
00000130: 17e7 1a3d 4baf ba3d d8f2 fa3e 193c 543e
00000140: b3d0 0ebf b7ea 22be 7624 4fbe 352c debe
00000150: a8dc 173f a37b 213f 75a6 db3d b76a 373d
00000160: f7d8 543e 80a2 153e ff67 43bf 3aac c73e
00000170: a2aa 753f 8d75 cf3e f153 c8bd 67e0 d2bd
00000180: 743a ba3d a547 113e bf43 663e 4806 cf3e
00000190: d29a c4be c90d d53e d00e 1b3f 361e 88bf
000001a0: eecf 87bd 621c b73e 1ae1 13bf ca30 34be
000001b0: b518 a1bd f8d4 55be a306 e6be 9ee0 62bf
000001c0: 003d 193f a534 e8be da07 f43d 8f1f b23f
000001d0: a597 75be 69e7 c63e 1158 f3be 36a6 a23e
000001e0: dc0a 48be cddb 9cbe 22ec a13f cef2 66be
000001f0: d24f 0ebe 027c 84bd 9b50 a8be 95a2 80bf
00000200: b7bb 11bf a985 013e 4a80 933d da95 af3d
00000210: 9803 e13e 8e3a 64bf 1ef5 033e 3c95 0e3f
00000220: 99e7 03be 2ffd 0ebf e3fe 42bf f72c 373e
00000230: 33c1 f4be 9230 bbbe 5a32 f33d 698f 40bf
00000240: 812d d0bd 6c32 04bf ba32 03be d1f3 d23e
00000250: de37 a6be f484 8c3d 8971 99bd b406 edbe
00000260: 9c81 ccbe a034 2dbe f601 82be 1fa6 95be
00000270: cff1 d13c 7ba9 c7be feaf d23d d24f 8cbd
00000280: 8598 a4bd e2f9 613e 80d4 423f 58bd 063f
00000290: 1fba 16bf c50e 8bbf 7914 ad3d ab2b 18be
000002a0: 5411 793e e431 39be c5b7 da3e c3ee 9abe
000002b0: d3f2 e23e 0f93 4cbf ced6 023f 99f7 57bf
000002c0: 4404 62be 534a 7e3d 0e79 31bf 6e48 0bbf
000002d0: 331a e8bc 2962 f3be 8e55 3bbf 23dc 6ebe
000002e0: c3fb 3abe 8e8f d4bc 8a3c d03c be7b 353c
000002f0: 1045 2b3d b6b3 cbbd 0867 eabe a75f 923d
00000300: b6fb 8d3f 4132 1c3f 6f4c 11be 4e94 8b3e
00000310: 6cf4 20bf f92a b83d 43c4 84be 1f30 62bf
00000320: edf8 90be 3958 85be 47d5 bc3e 1f8a 383e
00000330: 9aa8 d1bd dac8 333f e769 3cbd 580b 723e
00000340: b0ce a23f 3a89 e5bd 53d2 9d3e a125 1a3f
00000350: e97e 66bd e972 3abf 7864 f2be 31f4 0cbf
00000360: ee21 1cbf 24ae 83be 0c16 c5be 5d17 3abe
00000370: 5b81 9e3f aa34 13bf 3316 0b3f 2ef7 923d
00000380: 6a48 eebe eb5e fd3d 44b1 923e ceea ffbe
00000390: fecb 4dbf 14fa 02bd a665 adbe aa30 4fbe
000003a0: 38a5 b1bc c947 16be d719 ca3d 6a0b da3d
000003b0: d03e 39bf 2cfc bbbd bf47 c33e 2304 023d
000003c0: bfd1 9d3f 5381 0f3f ef0c a33e 4b21 e0bd
000003d0: d7ee 38ba c908 9d3e ed1f 8ebf 62b1 fbbc
000003e0: 4578 a1bd 5e96 34bd d7ab a03e e9ad 923e
000003f0: 8c45 1c3f fd3c 88bf 3235 f1be 2fda 2f3f
0.46326557 0.16427109 1.1663882 0.13098195 0.11369817 -0.26904428 0.56955934 -0.19016387
-0.14346772 -0.2309315 -0.55693215 -0.4723025 -0.5537059 0.48925436 -0.18405974 0.26004773
0.33056924 -0.28824973 -0.08071102 0.16906296 -1.0081145 0.10089235 0.3227353 0.1378357
0.8498523 0.18021014 -0.09555967 -0.35158515 0.81052554 0.2311021 -0.15444328 -0.04519116
-0.59712136 0.38645524 0.9766722 -0.5032609 -0.14609605 1.2561392 0.22067608 0.5388912
0.5450811 -0.33373103 1.198086 -0.11333889 -1.0489486 0.5272965 0.09330177 0.05516599
-0.46538192 -0.26129666 0.019810556 0.86936176 0.64673066 0.59821314 0.18795428 -0.29454926
-0.33228302 0.6653109 0.35425472 0.014287429 0.051960237 0.32548746 0.28110504 -0.37211293
-1.0471407 0.58376706 -0.29543754 0.022733362 -0.10704843 0.8822607 -0.7678604 0.33472812
-1.1100023 -0.6746244 -0.14958867 -0.42476478 0.03781804 0.09115466 0.490134 0.2072605
-0.557872 -0.15909849 -0.20228752 -0.43393102 0.5932107 0.6307928 0.107251085 0.044779506
0.2078589 0.1461277 -0.7633056 0.38998586 0.9596349 0.40519372 -0.097816356 -0.102967076
0.0909318 0.14187486 0.2248678 0.4043448 -0.3839937 0.4161208 0.6056948 -1.063422
-0.06631456 0.35763842 -0.5776535 -0.17596737 -0.078660406 -0.20882022 -0.44926938 -0.8862399
0.59858704 -0.45352665 0.1191556 1.3915881 -0.23983629 0.38848427 -0.47528127 0.31767434
-0.19535393 -0.30636445 1.2650187 -0.2255356 -0.13897637 -0.06468965 -0.32873997 -1.0049616
-0.56927055 0.12648644 0.072022036 0.08573504 0.43948054 -0.8915185 0.12886474 0.55696464
-0.12881316 -0.5585508 -0.76170176 0.17888246 -0.4780365 -0.36560494 0.11874838 -0.75218827
-0.10164929 -0.5163944 -0.1281232 0.41201642 -0.32464498 0.06861296 -0.07492358 -0.46294177
-0.39942634 -0.16914606 -0.2539212 -0.29228303 0.025627999 -0.3899649 0.10287474 -0.06851162
-0.08036903 0.22067979 0.761055 0.52632666 -0.5887775 -1.0863882 0.084511705 -0.14860408
0.24323016 -0.18085438 0.4271833 -0.30260286 0.44325885 -0.79911894 0.51109016 -0.8436218
-0.2207194 0.0620826 -0.6932534 -0.54407394 -0.028332805 -0.47535828 -0.7317742 -0.23326163
-0.18260102 -0.025947358 0.025419492 0.011076866 0.04181391 -0.099463865 -0.45781732 0.071471505
1.1092441 0.6101418 -0.14189313 0.27261585 -0.6287296 0.089925714 -0.25930986 -0.88354677
-0.28314915 -0.2604387 0.36881468 0.18021439 -0.10237236 0.7022835 -0.045999434 0.2363714
1.2719326 -0.112078145 0.30824527 0.6021367 -0.056273375 -0.7283159 -0.47342277 -0.55060107
-0.6098927 -0.25718796 -0.38493383 -0.18172975 1.2383226 -0.57502234 0.5433075 0.07176052
-0.46539623 0.1237162 0.28650868 -0.4998383 -0.8038939 -0.031976774 -0.33866614 -0.20233408
-0.021685228 -0.14675821 0.0986821 0.10646708 -0.7236147 -0.09178957 0.38140675 0.031742226
1.2329634 0.5605671 0.31845805 -0.1094385 -0.0007054633 0.30670765 -1.1103493 -0.030724231
-0.07884268 -0.044088714 0.31381103 0.28648308 0.6104362 -1.0643612 -0.47110897 0.68692297

fc.4.bias f4 [155]
00000000: ddc7 733e 56d5 363f fd09 0f3f bea3 423f
00000010: a4b4 a33e e453 bc3e 08be 293f 3f78 0e3f
00000020: 438f 053f 48f0 0c3f c992 fe3e f0d2 f63e
00000030: 29c4 bb3e 4474 a13e def0 083f f5df 053f
00000040: 4465 df3e b3f0 ab3e 2ab1 ba3e 86da 353f
00000050: f0a7 4a3f 53bd e03e 77b5 1f3f 4a50 0c3f
00000060: 2f1f d03e 7e7b f63e 4644 aa3e 0364 293f
00000070: fddc 583f 413a bd3e 72ef 9b3e 9822 263f
00000080: 3bac 223f b79d f83e 44ad aa3d e7d2 373f
00000090: 7267 9abd 43a9 a23e aabb 8e3e 7228 c93e
000000a0: aa2b 243f dfac c73e df82 1b3f 5b93 6a3e
000000b0: 1bf0 3f3d 9e32 e13e 15f9 d33e 6938 133f
000000c0: 9af2 083f ca2b 023f bed2 333f cd89 e93e
000000d0: c152 fd3e 7f29 783f f88e cb3e 8bc0 c33e
000000e0: 2c80 c63e a7cb d13e f861 043f f210 393f
000000f0: a7e3 143f 9b90 4b3f ea0e 6d3f caa3 853f
00000100: f7e8 7e3f ed3a 1b3f f42d 983f 4c2b 003f
00000110: a01b 763e d64d 333f 2367 443f f7fd 203f
00000120: ea8e 633e b344 153f dc58 a23e 75a8 5e3f
00000130: 4a2d 313f 0c15 513f 225c 473f 2841 ad3f
00000140: 61b6 813f dc3a 1d3f 1030 383f 8a2a 813f
00000150: 4d65 f43e b5ed c53e c37e 133f 603e 273f
00000160: 985e f73e 3db6 f03e 5b85 693f 8c49 1a3f
00000170: c812 0e3f b85d 2d3f 6dcf 3a3f e7d4 643f
00000180: 7a76 273f 75de 3b3f 8684 4c3f 16c8 7b3f
00000190: bb8c 6c3f 6bfb 3f3f 10ad 703f 9740 423f
000001a0: 61c8 643f 2860 1f3f 4e39 4e3f 190a 623f
000001b0: c315 503f 493d 373f 0ac2 8d3f c7a7 513f
000001c0: 3bc1 423f 4d7a d33e 1fe9 1b3f 22de 343f
000001d0: 04c3 a63e 303e 483f 6727 773e d949 553f
000001e0: 95a1 483f a2e1 993f 5a0a 3d3f 47f0 0a3f
000001f0: dc0f 3d3f d42d 093f 9ec1 173f 543d 213f
00000200: 923f 0c3f dfef 753f b508 693f 5d18 753f
00000210: 7a3c 623f ebb7 5e3f 5c22 0f3f 1410 3a3f
00000220: 3f84 213f 4083 663f cbc5 1f3f 4bee 7c3f
00000230: a6f9 6c3f 110b a23f f6a9 2c3f fa32 343f
00000240: b963 6d3f 7b9b 353f 8128 5a3f cc90 8d3f
00000250: 0e94 563f c8b0 843f 2e07 563f 47c3 5a3f
00000260: 3713 473f f38d 923f 7521 933f
0.2380671 0.71419275 0.55874616 0.760311 0.31973755 0.36782753 0.6630559 0.5565223
0.52171725 0.5505414 0.49721363 0.48207808 0.36673096 0.31534016 0.53492534 0.52294856
0.43631947 0.33582076 0.3646329 0.71036565 0.791625 0.43894443 0.6238627 0.5481001
0.4064879 0.48141092 0.33255213 0.6616823 0.847122 0.36958507 0.3045612 0.64896536
0.6354405 0.48557827 0.08333829 0.71806186 -0.07539262 0.3176976 0.2787755 0.3928867
0.64129126 0.38999078 0.6074657 0.22907774 0.04685984 0.4398393 0.41400972 0.5750795
0.5349518 0.50848067 0.7024344 0.45612946 0.494772 0.9693832 0.39757514 0.38232836
0.38769662 0.40975687 0.5171199 0.7229148 0.5815987 0.79517525 0.9260088 1.044061
0.99574226 0.6063679 1.1889024 0.50066066 0.24033976 0.70040643 0.76719874 0.6288752
0.22222486 0.5830795 0.3170842 0.86975795 0.6920973 0.8167274 0.7787496 1.3535509
1.0133783 0.6141794 0.7194834 1.0091107 0.47733536 0.3865792 0.576153 0.6532955
0.48314357 0.47014037 0.9121911 0.60268474 0.5549741 0.6772113 0.72972757 0.89387363
0.65415156 0.7338632 0.79889715 0.9835218 0.9240224 0.7499301 0.9401407 0.75879806
0.89368254 0.622561 0.8055619 0.8829666 0.81283206 0.7157789 1.1074841 0.8189663
0.76076096 0.41304246 0.6090259 0.7065145 0.3257066 0.7821989 0.24136125 0.8331581
0.78371555 1.2021983 0.7384392 0.54272884 0.73852324 0.53585553 0.5927981 0.62984204
0.547845 0.9606914 0.9102891 0.957403 0.8837353 0.86999387 0.55911803 0.72680783
0.63092417 0.9004402 0.62411183 0.98801106 0.92568433 1.2659627 0.6744684 0.70390284
0.9273029 0.7094037 0.85218054 1.1059813 0.83819664 1.0366449 0.83604705 0.8545422
0.77763695 1.144957 1.1494585

temporal_smoother.weight f4 [1, 1, 5]
00000000: 3660 943a 31d6 3d3b d118 3b3c 3e5f ef3a
00000010: ef03 8b3a
0.0011320177 0.002896678 0.011419491 0.0018262637 0.0010606031
