generator_gan_ff_ts_128.pth (torch, 347136 bytes, 7 tensors)

fc.0.weight f4 [128, 101]
00000000: f60b 1dbc f7c4 433e 0fd1 16be 0faa b13c
00000010: 31b3 29bd ea83 673d aeae a53d 4c70 a1bd
00000020: a627 d83c fe88 15bd 0bc4 c63d 347a 1f3d
00000030: 65e8 67bc 2822 db3d a6bd 4cbd f550 ccbd
00000040: a65a 3e3d 85cf 87bd ec35 16be baf6 c23d
00000050: a974 d03d bb9b a33b 43d7 f4bc ec3f 6b3d
00000060: 2eff 843d 2cc5 4bbc 7a00 253e 505c ffbd
00000070: 31ea 0cbd ed17 4abd eb62 33bd 800b 9ebd
00000080: 666f 9abd 56a3 47bd 8722 423d 818a bd3c
00000090: 69b9 733d b4d1 fc3c ed36 a5bc 56d5 96bd
000000a0: e936 893d 5ecd 17be 89dd 49bd 6f1b e0bc
000000b0: 9363 c53c ab9e 323d 26ca 863c de92 b43b
000000c0: 9adf 06be 4721 a5bd bb57 f33d a999 fdbc
000000d0: ee7e 9a3d d9f4 b4bc 45ba efbd 3259 17be
000000e0: e535 3d3c a896 d03d 259e 9b3c c34c c23c
000000f0: 432c db3d 7a47 1bbd 540c 263e 8e97 f3bd
00000100: 4789 4abd aa4c 82bd c7c7 8c3d bc0a e13c
00000110: 74fc d63d 3f37 843d a4fd 643d 5704 9fbd
00000120: 4215 b1bc 59f7 dd3d 0716 c33b 0d7e 1fbe
00000130: e0e6 1a3d a18c 853d 4d4d 983d 929a 843c
00000140: a2e5 8bbd bdf5 f6bc 5084 e9bd 2387 873d
00000150: 98cd a73c e404 023e 77de 243d f1be ac3c
00000160: 112f 7ebc 7199 bfbc 40db 2abd 9223 28bc
00000170: 1ccc 66bd 3245 eb3d 76be 2ebd 6057 81bb
00000180: 8fa6 9bbd e659 b23d 8082 e53d 07de cc3d
00000190: 946f adbf 07ef 1abc bd25 5fbc 7d75 06bc
000001a0: cb31 83bb c06f 4fbb 1202 56bc 52aa dbbb
000001b0: 6389 433b 6525 12bb 1a61 983b 1c2e 81bc
000001c0: 9e1d bdb9 a677 07b9 855c bb3b 5101 bbba
000001d0: e111 ec3b 9f9f bf3b 94d9 c63a 2e7d ba3b
000001e0: 05c1 0a3b e88d 0e3b 56e2 be39 14d7 093c
000001f0: f520 81bb a254 cc3b 8db6 233a 470b 90bb
00000200: 85e1 e1bb bad3 9f3b be10 a5bb 0233 4aba
00000210: a08d a93b 42b3 09bc 1704 bfb9 d96d a13b
00000220: e2de 003b 6657 97bb 9b56 e53b 4d62 26bc
00000230: 61df e63a c97e 2abc c2e5 cd3a 755d 413b
00000240: 42c2 1f3c 91aa 07bb f74d de39 d0de 38bb
00000250: 724d f239 20c8 143b 4e1a 98bb 917d 04bc
00000260: 2fc9 393b ff4b 983b 0d07 34bb bf6e 5b3c
00000270: 7301 b63b 53e4 0d3a dc59 203c 33e9 db3a
00000280: c059 80ba 030f 7d3c 87b3 35bb f129 553b
00000290: 2c4d 2cbb c0df c4bb 8489 d6bb c9ce bf3b
000002a0: 9a95 613c c164 103b 1c14 94ba 1ed0 9abb
000002b0: 7303 283b a39b a8bb 9cbc 6b3b 8736 39bb
000002c0: 7caa 8f3c 8d93 38bb 38bd c639 5b6e 0dbb
000002d0: b4b9 d83b 2b60 04bb 81fe 2fba 330a 2b3c
000002e0: 2c22 fe39 ea6e ad3b 530c d23b 0fd4 323b
000002f0: 2ddd 4b3c e43b 923b fff1 e1bb e612 9abb
00000300: 01c4 8bba dc92 453b b5a7 8fb9 e068 113c
00000310: db70 ee3b 4a18 633b f272 a4bb 9698 893c
00000320: e395 63bb 120c 30c0 c33a 47bd 193f 03bd
00000330: 8cf5 4d3d 4263 103d 5605 783d 1c6d 5fbd
00000340: 1c48 633d 6b57 213c 4ff6 563d 1bc0 a43c
00000350: a152 6dbc d4aa 2d3b 52bf 9cbd b5ec 123d
00000360: e43e b93c 4111 1d3d 83ab d93c 51ef 32bc
00000370: eaa8 8ebc cd3c 863d fe1b d8bb 4917 5fbd
00000380: 1bde 363d 78f9 11be 4b3f 603c 5231 e5bd
00000390: 363e f43c 40d1 e73c 3730 44bc 459f b0bd
000003a0: 5ff0 c2bd 2a39 a33b 3c16 93bb af32 c2bd
000003b0: 2c7d 93bd 1a9f 06bd dc25 fdbd 0ee9 34bd
000003c0: 2502 75bd 485e 693c 6b72 4d3d e81b 4cbc
000003d0: 355d 8f3d c781 e8bc 6a17 19bc 8af5 f23d
000003e0: dc71 47bd 4dcc 1fbd 9279 433e de35 833d
000003f0: 4bc2 143d 8523 67bc ea9e a5bd d2ac a93d
-0.009585371 0.19118105 -0.14728187 0.021687536 -0.041430656 0.056522287 0.08089958 -0.07882747
0.026386093 -0.0365076 0.09705361 0.0389349 -0.014154528 0.10699874 -0.04998555 -0.09976379
0.046473168 -0.06631378 -0.14669007 0.095197156 0.10178501 0.0049929298 -0.029887801 0.057434008
0.06493984 -0.012437146 0.16113463 -0.12468779 -0.03440303 -0.049339224 -0.043795507 -0.07717037
-0.07540779 -0.048739754 0.04739621 0.023137333 0.059502993 0.030861713 -0.020167792 -0.07364909
0.066999264 -0.14824435 -0.049283538 -0.027356831 0.024095332 0.04360835 0.016453814 0.005510672
-0.13171235 -0.08062988 0.11881968 -0.03095706 0.07543741 -0.022089409 -0.1170545 -0.14780119
0.011548494 0.101849854 0.018996308 0.023718243 0.10701802 -0.037909962 0.1621564 -0.11894141
-0.049447324 -0.06362279 0.06874042 0.027470939 0.1049737 0.0645585 0.055905953 -0.077645
-0.021616582 0.108381934 0.0059535536 -0.15575428 0.037817836 0.065209635 0.07436619 0.016186986
-0.06830908 -0.030146474 -0.1140219 0.06617572 0.020483777 0.12697178 0.04025122 0.021087142
-0.015514151 -0.023388596 -0.041713 -0.010262387 -0.056346998 0.11487807 -0.042662106 -0.0039471835
-0.07600128 0.08708553 0.112065315 0.10003286 -1.3549676 -0.009456403 -0.013619837 -0.008206722
-0.0040037385 -0.0031652302 -0.013062017 -0.0067036534 0.0029836528 -0.002230012 0.0046502473 -0.015769057
-0.00036070956 -0.00012919176 0.0057178163 -0.001426736 0.00720428 0.0058478857 0.0015171045 0.005691192
0.0021172178 0.0021752063 0.00036408257 0.008413095 -0.0039406964 0.006235675 0.0006245159 -0.0043958756
-0.006893339 0.0048775347 -0.005037396 -0.0007713289 0.0051743537 -0.008404555 -0.00036433406 0.004926425
0.0019664099 -0.004618573 0.0069988496 -0.010155273 0.001761418 -0.0104062045 0.0015708732 0.0029505168
0.0097509045 -0.002070103 0.00042401228 -0.0028208978 0.00046215538 0.0022702292 -0.0046418076 -0.008086578
0.0028348675 0.0046477313 -0.0027470023 0.013393103 0.005554372 0.0005412746 0.009787049 0.0016777873
-0.0009792373 0.015445474 -0.0027725415 0.003252622 -0.0026291115 -0.0060081184 -0.006547155 0.005853508
0.013768578 0.002203271 -0.0011297497 -0.0047245165 0.0025636822 -0.0051455065 0.0035970574 -0.002826126
0.017537348 -0.002816412 0.00037906482 -0.002158067 0.0066139344 -0.0020198922 -0.0006713644 0.010439443
0.00048472115 0.005292763 0.0064101606 0.0027287041 0.012442869 0.004462706 -0.0068953033 -0.00470196
-0.0010663272 0.003014735 -0.00027400037 0.008875102 0.007276637 0.0034651929 -0.0050185854 0.016796391
-0.003472679 -2.7507367 -0.048640024 -0.032042596 0.050283 0.03525091 0.060551964 -0.054547414
0.05548869 0.009847502 0.052480992 0.020111134 -0.014485032 0.0026499527 -0.07653679 0.035870273
0.022612996 0.038346533 0.026571041 -0.010921315 -0.017414529 0.065545656 -0.006595134 -0.054465566
0.04464541 -0.14255321 0.013686965 -0.11191048 0.02981482 0.02829802 -0.011974386 -0.08624128
-0.095185034 0.0049811797 -0.0044887345 -0.094823234 -0.07201609 -0.032866575 -0.12360737 -0.04416757
-0.0598165 0.01424367 0.050157946 -0.012457825 0.070002 -0.028382195 -0.009343961 0.11863239
-0.04869257 -0.039013196 0.19089344 0.06406759 0.036318105 -0.01410759 -0.08086951 0.08284916

fc.0.bias f4 [128]
00000000: 2b79 0bc0 3123 4140 eb76 f5bf fa4d 0cc0
00000010: 700b edbf 8735 aabf df0f ccbf e7b3 e6bf
00000020: 7090 debf 3cf7 acbf fd07 dbbf c2ae 4c40
00000030: 5f29 f3bf 1809 04c0 3257 4bbf ee4e 03c0
00000040: 26d5 d6bf 2618 0dc0 fc01 c4bf 9c18 efbf
00000050: e97b a6bf 131c aabf dba7 b4bf 7d23 efbf
00000060: 508f d9bf af0f 0bc0 6aad dcbf e909 10c0
00000070: 62ed 02c0 e1ac 00c0 81bd b3bf 9337 b1bf
00000080: 02de 11c0 8cae f2bf 6727 f9bf b292 a8bf
00000090: 4454 c6bf 40bd 0dc0 264e ddbf 63a8 01c0
000000a0: 7759 b93f 0eb0 00c0 4a6e ce3f fc1e 8cbf
000000b0: 2596 11c0 7ca7 febf a8c1 09c0 23d4 fbbf
000000c0: 470b dfbf 9fe8 cabf 6669 0dc0 e333 01bf
000000d0: 9f33 eebf 48bf e3bf ddfe f3bf e185 a6bf
000000e0: be9d c5bf 46ac 12c0 035a adbf e539 f3bf
000000f0: 8636 e7bf d233 cfbf 0031 cebf 51bd ebbf
00000100: bfc2 07c0 195a f8bf aec7 07c0 9ac4 e2bf
00000110: 9bc2 e6bf 6d65 05c0 f13a f6bf 2212 04c0
00000120: 6aee 13c0 da65 aebf 98cc c5bf 4f1c 03c0
00000130: 853f 0fc0 6ad5 f8bf 1f9a 0ac0 3b50 d2bf
00000140: d7ac 09c0 fb28 08c0 116a e5bf 20bf abbf
00000150: 3c2b 00c0 d96a 10c0 c74e c7bf 2417 f0bf
00000160: 57ab a2bf 847c 06c0 bde9 e5bf 1600 febf
00000170: 1afb e3bf 5b2f fcbf 1b95 07c0 7a41 04c0
00000180: 10f6 03c0 c9d1 debf e15c 05c0 7f92 d2bf
00000190: 2a21 02c0 f98e cabf 2caf debf 7808 e2bf
000001a0: ae51 f5bf 344e fbbf 537a f1bf 8d36 1440
000001b0: 0968 dfbf 86a0 98bf 39b7 0bc0 c229 e8bf
000001c0: 0bb9 0ec0 a0cd debf 4429 f7bf d06a 07c0
000001d0: aa4b e0bf 04ec b2bf 1068 f3bf b5a8 cfbf
000001e0: fb79 01c0 8ce4 d3bf 0304 fcbf 267a e5bf
000001f0: 86f7 a6bf 085c 0ac0 4a58 a8bf 41de 0fc0
-2.1792705 3.017773 -1.9176916 -2.1922593 -1.8519115 -1.3297585 -1.5942343 -1.8023652
-1.7387829 -1.351295 -1.7111813 3.1981664 -1.8997 -2.063055 -0.79429924 -2.0516925
-1.6783798 -2.204599 -1.5313106 -1.8679385 -1.3006564 -1.3289818 -1.4113725 -1.8682705
-1.699686 -2.1728323 -1.7240422 -2.2506049 -2.0457387 -2.0105517 -1.4042207 -1.3845085
-2.2791753 -1.8959517 -1.946515 -1.3169768 -1.5494466 -2.214676 -1.7289474 -2.0259025
1.4480428 -2.0107455 1.6127408 -1.0946956 -2.274789 -1.9894862 -2.1524448 -1.9674114
-1.7425317 -1.585224 -2.209558 -0.504698 -1.8609504 -1.779275 -1.9062153 -1.3009607
-1.5438764 -2.2917647 -1.3543094 -1.9002043 -1.8063514 -1.6187689 -1.6108704 -1.841715
-2.1212614 -1.9402496 -2.1215625 -1.7716248 -1.8028139 -2.0843155 -1.9236737 -2.0636067
-2.3114266 -1.3624833 -1.5453062 -2.0486028 -2.238252 -1.9440129 -2.1656568 -1.6430734
-2.1511743 -2.1275012 -1.7922994 -1.3417702 -2.0026388 -2.2565215 -1.5570916 -1.8757062
-1.2708539 -2.1013498 -1.7961956 -1.9843776 -1.7811005 -1.9701952 -2.1184757 -2.0664964
-2.0618935 -1.7407771 -2.0837939 -1.6450957 -2.0332742 -1.5824882 -1.7397208 -1.7658834
-1.9165552 -1.9633241 -1.8865455 2.3158295 -1.7453624 -1.1923988 -2.183058 -1.8137743
-2.2300441 -1.7406502 -1.9309468 -2.1158943 -1.7523091 -1.3978276 -1.9016132 -1.622336
-2.02307 -1.6554122 -1.9688724 -1.7927902 -1.3044288 -2.1618671 -1.3151944 -2.2479403

fc.2.weight f4 [256, 128]
00000000: d95b 8cbb 99e2 4bc0 d80d 6d3f 1749 093e
00000010: 5147 82bd f50e 0fbf 3591 b8bd f4c7 ccbe
00000020: f501 25bf 1e53 4fbe b3d1 6abe c52c 1bc0
00000030: 4f8d aa3e 0f48 70be 221d 2ebf 6389 9f3e
00000040: f5ee d23d 8edc fcbe 5f71 303d 6376 713e
00000050: 5252 77be f56a a2bf ec01 3abd 1ae2 edbd
00000060: 4158 84bf 03c4 57bd a327 f1be 6148 47bc
00000070: 593a c2bc e61b 4b3f 45d9 81be 6e9a ee3d
00000080: 1e32 38be 7a82 debd 1543 93be f270 97be
00000090: 5023 1fbf 184d c23e e1aa 60be 645e 343e
000000a0: 1881 f7bf 5a9c 053f 17bc 49bf f8b0 52be
000000b0: 05f5 963e 65a0 763d 2944 193d f291 423f
000000c0: 86dd 8bbe 2078 e3bd a265 dc3c 59c2 193f
000000d0: 0449 f53e 70e0 5b3d 1598 2ebd 9375 273d
000000e0: b9fb babe 1e57 f73d 2a85 97be 84f2 c1be
000000f0: 6602 653f bfad ecbd 76be abbe bf35 8fbd
00000100: 8aec 63bf b87e 88bf 2101 b3be 7912 b3be
00000110: d678 033f bbf1 26bf f843 6e3e ab12 65be
00000120: 4ff4 5c3e f1ae 5dbe 74f3 b43e 3f35 073f
00000130: c7de e9be 6cf7 e83e 7419 dbbd 4c06 873d
00000140: 00ca f03e 042b 0f3f 2797 33bf 0769 553e
00000150: 7081 48bf 6253 11bf 38cd 0fbf 7cd0 e63c
00000160: 217b ed3e b6da 243e 295e 0c3e 10a5 173e
00000170: 1635 95be 00ef 8abf b1ba acbe a39d d4be
00000180: 5d4f d5be 07eb 493d 6d10 00bf 2bc7 fa3e
00000190: 42b1 823f d120 84bf 5dc1 c8be 3f93 2bbe
000001a0: fb23 a9bf c380 25bf dcb3 3cbe f71e d2be
000001b0: dd84 423e 8f3a 56be c9ae ff3d 7542 eb3e
000001c0: eea9 8fbe 1bc9 163f aeaf 0bbf 053f 843f
000001d0: d84d 67be 02ae f63e 9049 5cbe 765d cdbc
000001e0: eb4b febd 7abd f23c 320d efbe 248d 123f
000001f0: 6152 13be 773a b73e dfbd 05bf 490e 93bc
00000200: 5878 37bf 05ee b4bd 3c19 2ebe 07f3 213e
00000210: 44cd a73e c25e 6bbd b345 acbe f3fe 9cbe
00000220: 7b12 86bf 4d09 283f d716 74be ca56 babf
00000230: deef c8bd 00c1 42bf 3b0f b6bd f9ac f63c
00000240: 178a 08be f608 d03e 63ca 263f 5743 9cbf
00000250: 325f 7abe 48ef 17bf b132 5cbf 3185 5fbe
00000260: 447b 08bf 3ca0 66bc e65a 0abf 7e6d 453f
00000270: ff1a 043f 19fc 2b3e c6b5 9cbd 3008 39bf
00000280: 0db1 61bf 6dc4 063f 4b2d 74bf f0d8 d0be
00000290: bb99 e3be dcba 02bd 3e25 dfbe ebdc 9abe
000002a0: 7d2b 06bf 425c 04bf b01e ebbe 2500 8d3e
000002b0: 2f35 cdbe e569 0fbf 1810 71be 8964 73bc
000002c0: 394b 9ebe 3e05 9cbe 56b5 ecbe 41da 8a3f
000002d0: 0f78 d83e 68ed 1b3f 0cff 1b3e 4733 843f
000002e0: fa87 02bf 6649 133f 5c11 833e b7da f7be
000002f0: 6aed 403e 3cbc 013e e826 6ebf d931 bb3e
00000300: d3f6 17bf a2f8 a0be b29b f6bb 1d15 5f3f
00000310: cfa0 563e f062 803e 85df 76be 83fa fa3e
00000320: aaad acbd 2c4b 5a3e c073 0bbf 78eb 91bd
00000330: e692 b7bd 475f 32be 02ca e2be 8530 063c
00000340: a38d 9e3d 3dd0 b8be bb3e f0be 9d8e afbe
00000350: 8940 16bf 5546 863c af21 12bf a1e2 c4be
00000360: 7777 9abf ff84 43bf da95 9cbc ec53 4ebf
00000370: f453 833f b08a 643d 4cdd 81bd 36a9 0e3e
00000380: 906f 62bf c115 b4be 1616 3fbf a973 ccbe
00000390: 9436 2dbe 2737 09bc c387 12be e1fd 73bf
000003a0: 37c0 6cbf bfc6 69be aec4 4abd 9f25 adbe
000003b0: 1795 01bf 44db 20bf 9b10 98bc 824a efbe
000003c0: 2e69 5ebf e612 963e cb25 7abe 6f83 0cbe
000003d0: 9a73 68be 33a9 283e 41f0 95be 9875 9dbe
000003e0: fdb4 fcbe b106 44be 7bac 2a3d e6f6 e73e
000003f0: 95c0 29bf b588 c7be 8d4d 22bf 2f02 f73e
-0.00428341 -3.1857054 0.9259925 0.13406788 -0.06361259 -0.558822 -0.09012071 -0.39996302
-0.6445611 -0.2024655 -0.22931556 -2.4246075 0.33310935 -0.23464988 -0.68013203 0.31159505
0.10299484 -0.4938702 0.04307687 0.23580317 -0.24152496 -1.2688891 -0.04541199 -0.11615391
-1.0339433 -0.052677166 -0.47100553 -0.012163253 -0.023709463 0.79339445 -0.25361076 0.11650549
-0.17987868 -0.1086473 -0.28762117 -0.29578358 -0.6216326 0.37949443 -0.21940185 0.17614132
-1.9336271 0.521917 -0.7880263 -0.2057532 0.2948381 0.060211558 0.03741852 0.76003945
-0.27317446 -0.111068964 0.026903931 0.60062176 0.4790727 0.053680837 -0.042625505 0.040883612
-0.36520174 0.12077163 -0.29593784 -0.37880337 0.89456785 -0.11556577 -0.33543748 -0.06992673
-0.89032805 -1.0663671 -0.349618 -0.3497503 0.51356256 -0.652126 0.23268116 -0.22370403
0.21577571 -0.21648766 0.3534199 0.5281562 -0.45677778 0.45501268 -0.10698214 0.06592998
0.47029114 0.5592501 -0.70152515 0.20840846 -0.78322506 -0.5676786 -0.56172514 0.028175585
0.46383002 0.16099057 0.13707794 0.1480906 -0.29142064 -1.0854187 -0.33736184 -0.41526517
-0.41662112 0.049296405 -0.50025064 0.48980078 1.0210345 -1.0322515 -0.39210024 -0.16755389
-1.3214105 -0.646496 -0.18427986 -0.4103925 0.18995996 -0.20920776 0.124845095 0.4594914
-0.28059334 0.5890061 -0.5456494 1.0331732 -0.22588289 0.48179632 -0.21512437 -0.02506898
-0.12416824 0.029631365 -0.46689755 0.57246614 -0.14386894 0.35786793 -0.52242845 -0.017951148
-0.71668005 -0.08834461 -0.17001814 0.15815364 0.32773793 -0.057463415 -0.33646926 -0.3066326
-1.047439 0.6563919 -0.23836838 -1.4557736 -0.09811376 -0.76075745 -0.08889624 0.030111777
-0.13333927 0.40631837 0.6515257 -1.220805 -0.24450377 -0.5934949 -0.8601485 -0.21828152
-0.5331309 -0.014076289 -0.5404495 0.77120197 0.5160369 0.16795386 -0.07651858 -0.7227812
-0.88160783 0.5264347 -0.9538161 -0.4079051 -0.44453225 -0.031916484 -0.435831 -0.30246672
-0.5241011 -0.51703274 -0.4592185 0.27539173 -0.40079638 -0.5602096 -0.23541296 -0.014855512
-0.30916765 -0.3047275 -0.46232098 1.0847856 0.42279097 0.6090913 0.15234011 1.0328149
-0.50988734 0.5753387 0.25599182 -0.48409054 0.18840566 0.12669462 -0.93028116 0.36561468
-0.59361 -0.31439692 -0.0075258845 0.8714159 0.20959781 0.25075483 -0.24108703 0.4901925
-0.08431561 0.21317738 -0.54473495 -0.0712499 -0.089635655 -0.17419158 -0.44294745 0.008190279
0.07741859 -0.36096373 -0.4692286 -0.34288493 -0.5869222 0.016390959 -0.5708265 -0.38454154
-1.2067708 -0.7637481 -0.019114424 -0.80596805 1.0259995 0.055796325 -0.06341037 0.13931736
-0.8845148 -0.35172847 -0.74643075 -0.39931992 -0.16915351 -0.008374966 -0.14309601 -0.95309263
-0.92480797 -0.22829722 -0.049503975 -0.33817765 -0.5061812 -0.6283457 -0.018562606 -0.46736532
-0.8687924 0.29311293 -0.2442848 -0.13722013 -0.22700348 0.16470794 -0.29284862 -0.3075378
-0.49356833 -0.19143178 0.041668396 0.45305556 -0.6630948 -0.38971487 -0.63399583 0.48243853

fc.2.bias f4 [256]
00000000: 3146 f5be 9c9e 843c 87e1 10bd 114b 6cbf
00000010: 3316 19bf 8f1c 1cbf 0e22 7bbd 20c7 9d3e
00000020: dad9 2240 2b8e 25bf 385e a73d 4837 17bf
00000030: 9cc8 903d 0d53 7bbf fa74 0bbf 83dc 593d
00000040: 09e6 69bb f4f3 d3be f32c 5a3f f827 29bf
00000050: ed8b 80be 2df7 8bbe 1e4e 643f 8668 7abf
00000060: d7d2 d9bd b75a 17be 6d01 b93b 4373 ce3d
00000070: 8b98 2a3e 9c19 50bf a2a3 0a3e 28c7 afbe
00000080: 9295 13bf 8d1d d5be 7e2f 293f 755f 3abe
00000090: 9d06 26be c86d 03bf e152 b73c 67b4 a0bd
000000a0: 0b3a edbe b481 32bf 4c02 86bf a609 1c3e
000000b0: 3fd8 1bbe 003a 0240 c680 90bd 286d ddbd
000000c0: 0be1 213b 30b6 453d a2d7 2dbe a509 eebe
000000d0: b8f6 adbc 852c 943d 5677 93be 0539 a1be
000000e0: 4936 03bd 0621 75bf 050b 91bf bf6c a9be
000000f0: 63ae bbbe 2a06 2fbf f8f3 babe 5916 ee3e
00000100: edf4 88be 6bbf 6bbe 2498 153d d585 a43f
00000110: f57e 04bd 668d eabd 9115 11bf 2973 0ebf
00000120: ed9d e0bd 6045 29bf b7d8 4dbf 70d4 1fbf
00000130: 623a bbbd 4402 4dbd 8368 9fbd 2388 56bf
00000140: fdbc 6fbf bf71 05be 54c8 0dbf 947c 2ebf
00000150: 4221 1dbe a2c8 963e f461 16bf f74b 443e
00000160: 70df a43d f352 f7be aff0 a13e fbeb 4abf
00000170: 40b4 0ebe 614d 11bf edce f43d e489 fdbe
00000180: 9581 85be 6338 09bf cc42 3dbe 9f8d d8be
00000190: a23a 99be 4093 41bc 9703 d4be d5a9 c4be
000001a0: 18ae 0dbf 4608 83bf c2e9 5b3d f519 a3be
000001b0: 259c 63bf d3c8 c4bd 48d1 50bf ebac afbe
000001c0: 8b0e abbe da41 8b3d 7d6a 77be f101 30be
000001d0: 9497 82bd 3e0a 5fbd 5eb1 1ebe 0a2c e1be
000001e0: b347 65bf 7d88 babd 8a26 96bf 9054 23be
000001f0: 3474 1fbe 2f9e c9bf 9472 23bf 1aff 9cbf
00000200: 4e69 07be 1070 56be ed3b c53d 660b 8cbe
00000210: 160b 99be 0bce dcbd 323d d0bf b378 ecbb
00000220: 3678 3dbe 44a5 fdbe d763 76be c136 c83d
00000230: eccd bfbe e95c 2dbf f0c6 8dbd 5917 f23c
00000240: 9c5e 1abe 3da2 11be 7bb6 02be 07be 20bf
00000250: 3c0a 0ebf 9174 4d3d 6fdb 36bf 5420 ab3d
00000260: e018 4a3e 85b9 82bf b62a a1bf 124c b6bf
00000270: 2454 35bf c869 1c3e 7713 16bf f06f cabd
00000280: e431 79bd 7fd5 3bbf 2714 063e bf84 933e
00000290: 9c1a 11bf af07 68be 09c4 063e 5dc6 5ebf
000002a0: 7bff fd3d d0d1 3ebe daba 37bf b376 893d
000002b0: 107b a93c c1d9 ac3c d52f 44be a738 6bbf
000002c0: a759 143d aa4b 67bf d58e 37bf 1b39 78be
000002d0: 75ed 943f 1d1e 7ebf 4e4c ab3d 0b7b b5be
000002e0: b27f 92bd 6880 72bf 316d 9cbf 70d8 22bf
000002f0: 0047 62be 08e3 ec3d 7fcb fabd a28a 86be
00000300: 8713 bdbf ea67 97be 2962 c3be 4dd2 103c
00000310: 9744 dc3e 080f 953e b92d f9bb e1e3 9d3e
00000320: 3387 88be 1f45 e1be 0254 24be a3c1 b93d
00000330: a317 29be a2c8 afbe 9e7c d0be aa62 2dbe
00000340: ea32 79be b4c6 0e3f babe aabe 870d 5cbf
00000350: 327e 763d 0ac5 783e 4a78 03bd 31af 21bf
00000360: 25c5 7e3d 04d2 25bf 97ae f3bd f6a8 11bf
00000370: 9b6a 4ebe 23bb 9abc 1a3c c5be 9a9d 023d
00000380: e239 e4be 4836 69be 4ac9 6bbf f8d6 873e
00000390: a912 1cbe b2ef 8ebf a8b2 18bf 7df4 1cbf
000003a0: 7faf 22be 47be 8f3f 196c 45bf 5f03 3dbf
000003b0: 7d8e 42be 4fe4 3fbf 69fb 0dbf cb5e 90bb
000003c0: 4e0a 6dbe 28bf c6be 2d57 91bd 6d10 d8be
000003d0: 2a9d 3cbf 36d9 4dbc 75b9 b1bd c4e5 3abf
000003e0: b1d0 b1be b1d6 64be e14b b93d c923 acbd
000003f0: 29e5 31bf eecf a33d 9051 6140 005d f1be
-0.47905114 0.016188912 -0.03537133 -0.9230204 -0.597995 -0.60981077 -0.061311774 0.30815983
2.5445466 -0.64670056 0.08172268 -0.5906873 0.07069513 -0.981736 -0.5447537 0.053188812
-0.003569009 -0.4139706 0.8522484 -0.6607661 -0.25106755 -0.27337018 0.891817 -0.9781574
-0.10635918 -0.14780699 0.005645922 0.10080578 0.16659753 -0.81289077 0.13538983 -0.34331632
-0.576501 -0.41624108 0.6608809 -0.18200476 -0.1621346 -0.5133939 0.022378387 -0.07846909
-0.46333346 -0.6972916 -1.0469451 0.15238056 -0.1521921 2.03479 -0.070558116 -0.108118355
0.0024700786 0.04826945 -0.16976789 -0.46491733 -0.021235809 0.07235054 -0.28801984 -0.31488815
-0.032034192 -0.95753515 -1.1331488 -0.3309078 -0.36656484 -0.6836878 -0.36514258 0.46501425
-0.26749364 -0.23022239 0.036522046 1.2853342 -0.03234764 -0.11452751 -0.5667353 -0.5564447
-0.10967622 -0.6612148 -0.80408806 -0.6243353 -0.09141995 -0.05005099 -0.07783606 -0.8380148
-0.9364775 -0.13031672 -0.553838 -0.6815884 -0.15344718 0.29449946 -0.58743215 0.19169603
0.0805043 -0.48305473 0.3162894 -0.7926633 -0.13935947 -0.56758696 0.119535305 -0.49519265
-0.26075426 -0.53601664 -0.18482512 -0.42295548 -0.29927546 -0.011814892 -0.4140899 -0.38410822
-0.5534377 -1.02369 0.053689726 -0.3185574 -0.8891013 -0.09608617 -0.8156934 -0.34311613
-0.33409533 0.067996696 -0.24161716 -0.1718824 -0.063765675 -0.054453127 -0.15497348 -0.43978912
-0.8956253 -0.09108064 -1.1730511 -0.15950227 -0.15571672 -1.5751399 -0.6384671 -1.2265351
-0.13223764 -0.20941186 0.096305706 -0.27352446 -0.2989127 -0.10781487 -1.6268675 -0.007216537
-0.18502888 -0.4954015 -0.24061523 0.097760685 -0.37461793 -0.67719895 -0.0692271 0.029552149
-0.15075153 -0.14222045 -0.12764923 -0.6278996 -0.55484366 0.050159995 -0.7142858 0.083557755
0.19736052 -1.0212866 -1.2591159 -1.4241965 -0.70831513 0.15274727 -0.5862345 -0.09884632
-0.060838595 -0.73372644 0.13093625 0.28812215 -0.5668123 -0.22659181 0.13160719 -0.8702143
0.12402245 -0.18634725 -0.7176949 0.06712093 0.020688564 0.021099927 -0.19158871 -0.9188332
0.03621831 -0.9034983 -0.7170232 -0.24240534 1.1634966 -0.992647 0.08364163 -0.35445437
-0.07153262 -0.9472718 -1.2220823 -0.6361151 -0.22097397 0.1156674 -0.12245845 -0.26277643
-1.4771584 -0.29571468 -0.38160828 0.008839202 0.4302108 0.2911303 -0.0076043275 0.3083792
-0.2666565 -0.43998048 -0.16047671 0.090701364 -0.16512923 -0.34332758 -0.40720075 -0.16932169
-0.24335828 0.55771947 -0.33348638 -0.8595814 0.060178943 0.24293914 -0.03209714 -0.63157946
0.06219973 -0.64773583 -0.11898535 -0.5689844 -0.20157854 -0.018888062 -0.38522416 0.03188858
-0.4457541 -0.22774613 -0.9210402 0.26531196 -0.15241493 -1.1166899 -0.5964761 -0.6131056
-0.15887259 1.1229943 -0.7711807 -0.7383327 -0.18999667 -0.74957746 -0.55461746 -0.0044058315
-0.23148462 -0.38817716 -0.070967056 -0.42200032 -0.73677313 -0.012563994 -0.08677951 -0.73006845
-0.3472953 -0.22347523 0.09047676 -0.08405263 -0.69490296 0.07998644 3.5206032 -0.47141266

fc.4.weight f4 [155, 256]
00000000: d9fa 8b3e ea3a 34be 2879 a2be 398f 18bf
00000010: 1e08 ad3b c97d 17be 1652 b0be 3aa0 83bd
00000020: ae31 0ebe 5749 393f 6170 033e 26f6 50be
00000030: c177 bfbe 5210 4b3e 0cae 6f3e 5993 0dbd
00000040: 5cde ad3e 79dd 213f 3f56 4dbd a069 a83d
00000050: 0039 093f 387e 9bbe c2b4 193e 8b99 de3e
00000060: 2a10 2e3e 364d eebe c8f3 eebd 8027 ab3e
00000070: 734b c6bd ee40 db3e 63ef 373e ee73 13be
00000080: e8e6 9ebd 9d62 1a3f c20b c3bd d0c0 1a3e
00000090: b9ef a13c c4b6 f9be b417 4f3c b566 773c
000000a0: 9cc8 073f 7bc4 b2be 1c3f 203f d223 3e3f
000000b0: 9b20 a7bd af79 c2bd bb9d 4f3f fd77 81be
000000c0: c8f9 52bf 54e9 be3e a669 733e 35d5 b4bd
000000d0: 66fe 40be 1ae2 6cbf a5e6 243e 3d2e 163f
000000e0: 226d 073f 9288 e0be ad6d 02bc 7d45 4abf
000000f0: b34f 9e3e 06b3 ffbe 2c7c 2fbf f1c7 3bbe
00000100: 0d4f ebbe 156d e1be 1280 ce3e bdd8 a43e
00000110: c664 f33d eea7 09bf 706e 8bbe 5beb f03c
00000120: a787 b8bd 73d7 8bbe 34e6 293d ca1b 893e
00000130: e7f5 f93e 78fa e53e 70b4 333e c90a cb3e
00000140: 38c7 3abf 3c51 423f 11a2 e7be bf64 103f
00000150: c275 d9be a9be e83d 0d14 fa3d e8cc 883e
00000160: 3831 88be 43c3 323d 61cb a43f 9aad 903e
00000170: 4025 b9be db93 8bbd 46ba 9c3e 64e0 313e
00000180: b095 453f add8 c4be b7b2 c9be 9a28 57be
00000190: 5573 e7bd f57b b3be de48 c7be c6bf d1bc
000001a0: 2c40 d5be c3e4 523f 35d2 df3e 64a1 5ebc
000001b0: 8d2a b9be ebeb 01bd 97c7 67bf a7b4 28be
000001c0: b83f 3abe 5424 7ebf ca6c 983e 18b6 763f
000001d0: 4232 e73d b281 3d3e 232e 64be 8d49 153f
000001e0: 2a8f 38bf 838b 94be 4cf3 263f 7f38 2e3e
000001f0: be91 2d3d 5871 00bf cc0d c63e 4581 113e
00000200: 34ac 333e 3a63 8ebd d204 b83e b0a7 79be
00000210: 97c5 aab9 3bef 01bf e03f 303f b904 15bd
00000220: 1d2b 5d3f 4eea e23e c231 7bbe e695 be3d
00000230: b07c 6d3e 18dc cdbe 71df 83be 72ae 9d3d
00000240: aeff 1e3f 6754 21bd e6c6 9abf fb52 393d
00000250: 406c 2fbe 9f9b 2abf 1f98 123f 99a0 30bf
00000260: a5e4 093f 24a8 10bf c735 ae3f 1bfc d8bd
00000270: 7342 843e 6093 18bd 4bdc 863e aef7 1d3f
00000280: ae23 313f cac1 19bf 87ca 1e3d 0fd9 57be
00000290: 5b65 24bf 20b3 45bf 7d52 913e e7b2 bebe
000002a0: 6c55 cfbc 9b3f a3bf 977b 443f dc5f b53e
000002b0: 3d1a 0fbe b1ba a13d 4c47 f83e 1efe 6ebe
000002c0: 4c1e bfbd f36e 3f3f 0323 6b3e 04fe 66bf
000002d0: 5535 83bd ad3e 6bbf 0826 0fbe 0527 a4bd
000002e0: 1105 cfbe 544f 09be 829d 79bc f5b5 d8bd
000002f0: 5476 a53e e1dd 46be 3cd6 ac3d f509 4e3e
00000300: 6a0f 103f fb15 0f3f a110 bbbd 63d9 3abf
00000310: d575 f23d 3d46 813d 9c6a eebd aea0 793d
00000320: 0800 8a3e fe08 0abd 17d0 73be c28c a83e
00000330: 8ea9 bdbe f0c7 183e 2852 ce3e 1004 173e
00000340: 9544 a93e 2d07 1bbe b88e bfbe 6b31 f3bc
00000350: 0c77 a2bd 4d90 0c3f 27ab 493f 4689 fd3e
00000360: b975 b2bc 8cde 05bf c220 ba3e 71fc d63c
00000370: 6222 00be 245f 8dbe 5503 1bbe dac1 07be
00000380: 635c 8abe beeb aebe 5237 d23e 9f45 17bf
00000390: 987d 53bf e6f3 cc3c fa7d f7be 9880 043f
000003a0: 093f 3ebf 734a cfbd 91e5 5dbf 1372 e53f
000003b0: 9367 db3d 85a7 c2be 7f12 1fbe 271c 313e
000003c0: 2bc7 0d3e 8475 e4bc 984e 6a3d ef11 25be
000003d0: 1ea3 71be c3f0 513f 096e e03f 6ec7 82be
000003e0: 862e 133f 39e4 9b3e ce86 e23e 25e7 f3be
000003f0: bf99 6b3d 9c40 d13e 17ea 59be 0897 94be
0.2733982 -0.17600599 -0.3173306 -0.5959354 0.0052805087 -0.14794077 -0.34437627 -0.06427045
-0.13886139 0.7237753 0.12835838 -0.20406398 -0.37396052 0.19830444 0.23406237 -0.03456435
0.3395871 0.63228565 -0.05013108 0.08223271 0.536026 -0.30369735 0.1501036 0.4347652
0.16998354 -0.46543282 -0.11667591 0.33428574 -0.096823595 0.42822975 0.17962413 -0.14399692
-0.077588856 0.6030672 -0.09523727 0.15112615 0.019767629 -0.48772252 0.012639929 0.015100171
0.5304048 -0.34915528 0.625963 0.7427341 -0.08160516 -0.094958656 0.8110005 -0.25286856
-0.82412386 0.3728739 0.2377077 -0.088297285 -0.18847045 -0.92532504 0.16103609 0.58664304
0.529009 -0.43854195 -0.007960719 -0.7901228 0.3092018 -0.49941272 -0.68548846 -0.1833799
-0.45958748 -0.44028535 0.40332085 0.32196608 0.118844554 -0.53771865 -0.27232695 0.029409101
-0.09010249 -0.27312812 0.041479304 0.26779014 0.4882042 0.44917655 0.175493 0.39656666
-0.72960234 0.75905204 -0.45240834 0.56403726 -0.42472655 0.113644905 0.12210856 0.2671883
-0.2660005 0.043643247 1.2874566 0.28257447 -0.36161232 -0.068153106 0.30610865 0.17370754
0.7718153 -0.3844656 -0.3939416 -0.21011582 -0.11301295 -0.3505551 -0.3892278 -0.02560414
-0.41650522 0.8238031 0.43715063 -0.013588283 -0.36165276 -0.03171913 -0.90538925 -0.16475163
-0.1818837 -0.9927418 0.297705 0.96371603 0.11288883 0.18506506 -0.22283225 0.58315355
-0.7209345 -0.2901269 0.6521499 0.17013739 0.04237532 -0.5017295 0.386824 0.14209469
0.17546159 -0.0695252 0.35941178 -0.24380374 -0.00032572143 -0.5075566 0.68847466 -0.036381457
0.8639391 0.44319385 -0.245307 0.093059346 0.23192096 -0.4020698 -0.2575641 0.076992884
0.62108886 -0.039387133 -1.2091949 0.045245152 -0.17131138 -0.6664371 0.5726337 -0.6899505
0.5386451 -0.5650656 1.3610162 -0.1059496 0.25831947 -0.037249923 0.26339945 0.61706054
0.6919507 -0.60061324 0.038767364 -0.21078895 -0.64217156 -0.7722645 0.28383246 -0.37245867
-0.025309287 -1.2753786 0.76751083 0.35424697 -0.13974853 0.07896937 0.48491895 -0.23339126
-0.093319505 0.7477867 0.22962575 -0.9023135 -0.06406657 -0.9189251 -0.13979352 -0.08015255
-0.40433553 -0.13409168 -0.015235307 -0.105815805 0.3231684 -0.19420578 0.084392995 0.20120986
0.5627352 0.55892915 -0.09134031 -0.72987956 0.11838881 0.06312225 -0.11641428 0.06094425
0.2695315 -0.033699982 -0.23809849 0.3291989 -0.37043422 0.1492002 0.40297055 0.14747643
0.33060136 -0.15139456 -0.37413573 -0.02968665 -0.07932863 0.54907686 0.7877678 0.49518794
-0.02178465 -0.52292705 0.36353117 0.02624342 -0.12513116 -0.2761165 -0.1513799 -0.13257542
-0.2702361 -0.34164232 0.4105783 -0.5909061 -0.82613516 0.025018644 -0.483383 0.5175872
-0.74314934 -0.10121622 -0.86678416 1.7925438 0.107131146 -0.38018432 -0.155344 0.17295896
0.13845508 -0.027888067 0.05720386 -0.16120122 -0.2359738 0.82008 1.753358 -0.25542778
0.57492864 0.30447558 0.44243473 -0.47637287 0.05751967 0.40869606 -0.21280704 -0.29021478

fc.4.bias f4 [155]
00000000: dd8f 2d3d bc2b b53e efe9 173e 0d38 b13e
00000010: 27c3 8f3e 41da 6a3e a042 813e b458 103e
00000020: 50dc 3d3e 1ae9 5a3d 8876 ec3d 805b b73e
00000030: 2fb0 2d3e bcd9 a13e 9bfb 993e 662e fd3d
00000040: 1734 703e af73 603e 0f15 fe3e 4647 8b3e
00000050: f6d0 8f3e 1fa4 bc3e 5643 f63d 3b17 853e
00000060: 1189 493c 333c 123e 262a d73e 46ad 3c3e
00000070: 8305 14bd a279 a63e 336d f93e 4b11 b83d
00000080: 287f 9a3e fca9 cf3e fda2 813e 517a c53d
00000090: b580 cf3e 2df8 2e3e 7022 653e 28d0 a83e
000000a0: 4144 ee3d 19c6 f53d bdb4 ef3e 7afb 613e
000000b0: 837c ab3e 0ba7 b83b 2e2a e53d 7994 943e
000000c0: 5c92 fe3d 13d5 063f 1c42 2b3e 5d05 d03d
000000d0: e3cd 143e 70dd 323e 6e51 873e 12f9 cd3d
000000e0: d9a8 843e 94af cc3e c1cb 053e cefb 1d3d
000000f0: 501f 933e 113e b03e 958a 523e 15cb bb3e
00000100: 60cb 9a3e b3d2 8fbd 5e52 f53e b280 b23d
00000110: c4b3 ae3e 086b 563e c760 ac3b bdf5 a83e
00000120: ca1d df3e 522e 8f3e d10d cc3d b2bb 973d
00000130: 5284 4d3e 4a81 f23d 9d5d ee3e 18cc 803e
00000140: 583f 653e 4bad 0b3f fd80 023e e336 b93e
00000150: 1fd5 633d c535 e63d b9e0 9f3e 00ac 563e
00000160: 0ffe 643d 1a04 d33e 668f 353d 97b2 023e
00000170: eb1b c83e 0df4 993d 18d0 ab3e 3f41 833e
00000180: 091f fa3a b8b8 4c3e b68d 5d3e e124 8b3e
00000190: c346 073e b893 6c3e 0326 8d3e 90aa d13e
000001a0: 8c0a 853e 309d 023d 6a3e 7b3e 8c95 ca3e
000001b0: cf41 503e 64cb a33e 7e0e ab3e b26d 893e
000001c0: e338 ea3e e4c2 873e e7b6 f23e a1c9 483e
000001d0: 6a7d 3f3e a79e 5b3e dc91 9e3e bfa2 9d3e
000001e0: 63e2 c63e 9823 6d3e df51 113e 534e 773e
000001f0: 52ea 0c3e 2b56 9c3e de9f a03e 83ba 693d
00000200: 72c5 223e 70c4 e13e 788d ba3e 742c 883e
00000210: 416b 0c3f 0374 013e 1b07 023f 72a5 fe3d
00000220: e90f 763e 642c f73e 1fe2 733e a05e d23e
00000230: 6f44 813e c6e9 323e dfce 423e 5394 2c3d
00000240: 5530 c83e 41bc 813e cff4 ea3d 8ee3 8b3e
00000250: f4c5 963d ee23 b73e 0947 963e e29f df3c
00000260: 34ef 553e 726c be3e bdc8 ad3e
0.042373527 0.3538493 0.14835332 0.34613076 0.28078577 0.2293482 0.25246143 0.14096338
0.18541074 0.05344496 0.115460455 0.35811996 0.1696174 0.3161143 0.30074772 0.123623654
0.2345737 0.2191913 0.4962544 0.27202815 0.28089112 0.36843964 0.12024562 0.25994286
0.012300746 0.14280777 0.42024344 0.18425474 -0.03613807 0.32514673 0.48716125 0.08987673
0.30175138 0.40559375 0.25319663 0.09642471 0.40527883 0.17086859 0.22376418 0.3297131
0.11634112 0.12000675 0.4681758 0.22068587 0.33493432 0.0056351474 0.11189686 0.29019526
0.124302596 0.52668875 0.16724437 0.10157273 0.14531665 0.17467284 0.26429313 0.10057272
0.2591007 0.39977705 0.13066007 0.038570218 0.28734827 0.34422353 0.20560677 0.36678377
0.30233288 -0.070226096 0.47914404 0.08715953 0.34121525 0.20939267 0.00526056 0.32999983
0.43577415 0.27965027 0.09963573 0.07408847 0.20070007 0.11841066 0.46555796 0.2515571
0.22387445 0.545613 0.12744518 0.36174688 0.05562317 0.112407245 0.31226137 0.2096405
0.05590635 0.41214067 0.04432621 0.12763439 0.390838 0.07517252 0.335572 0.25635716
0.0019082736 0.1999234 0.2163609 0.27176574 0.13210587 0.23103225 0.27568063 0.4095044
0.2598461 0.031888187 0.24535528 0.3956722 0.20337604 0.31991112 0.33409494 0.26841503
0.45746526 0.26515877 0.47405168 0.19608165 0.18700185 0.2144724 0.30970657 0.30788228
0.38844594 0.23158109 0.14191388 0.24150972 0.13761261 0.3053449 0.3137197 0.057062637
0.15895632 0.44095182 0.36436057 0.26596415 0.54851156 0.12641911 0.5079209 0.124339
0.24029507 0.48276055 0.23816727 0.41087818 0.25247523 0.1747199 0.19024228 0.04213364
0.39099374 0.2533894 0.11472475 0.27322048 0.07361975 0.357696 0.2935107 0.027297918
0.2089203 0.37192112 0.33942214

temporal_smoother.weight f4 [1, 1, 5]
00000000: 1412 253c 0b6f 6d3b d6ac 793c 21dd 2d3c
00000010: 01fd 4c3a
0.010075111 0.0036229517 0.015238961 0.010611803 0.0007819683
