generator_gan_ff_lstm_es.pth (torch, 162956 bytes, 7 tensors)

input_proj.weight f4 [64, 101]
-0.029212998 -0.04396583 -0.059244756 0.10159704 0.29645175 -0.07877681 -0.017647853 -0.017475355
0.062507264 -0.060327847 -0.12862626 0.016103787 -0.081381865 -0.05840046 0.20282088 -0.07065581
-0.19439635 0.20178583 0.02965783 -0.16938281 -0.095752575 -0.104240894 0.09153534 -0.038345065
0.100176305 0.08794118 -0.17404091 -0.057687648 -0.018378437 -0.04477292 0.007321569 -0.005751554
-0.14966458 -0.11891905 -0.06119348 -0.36660394 -0.30527684 0.20766856 -0.3638467 -0.10089496
-0.06718007 0.0028250613 0.06350674 -0.006254117 0.18136765 0.15250021 -0.020874158 -0.05407719
0.19965185 0.07122318 -0.044054933 -0.1335325 -0.2901609 0.11083822 0.10769441 -0.30919936
-0.038819313 -0.20204881 -0.24884503 0.16366427 -0.2147244 -0.1138613 -0.057703193 -0.12263423
0.0005818127 0.092413224 -0.14509131 0.26578212 -0.14269838 -0.087239 0.024336545 -0.11287515
-0.04796737 0.022683838 -0.003461503 -0.020701915 0.46619692 0.10216451 -0.034989525 0.3936517
-0.012578533 0.05227619 -0.19121274 -0.025502194 0.054999087 0.14335367 -0.20877288 0.12775397
-0.044550236 0.47141552 0.18375598 0.22774203 0.009680818 0.059627216 -0.28295606 0.24316917
0.14655632 0.08640371 0.111430146 0.26055253 0.074001655 -0.123823196 -0.15038061 -0.094347686
0.084314935 -0.11985907 -0.015329388 0.07245452 -0.097087026 -0.048126835 0.1094447 0.07376547
-0.17438328 0.023320386 0.083729796 -0.052442268 -0.08352543 0.027420374 0.21430893 0.0870194
0.00439566 0.0688905 -0.0956571 -0.076998316 0.18112499 -0.047781885 0.0510336 0.085098624
-0.017658291 -0.284874 0.0068653645 0.10895796 0.15604046 0.11252391 0.049200144 -0.22316436
-0.08076978 -0.046598814 -0.05166706 0.21173115 -0.0032260653 -0.011440143 -0.03883984 0.042919047
-0.026328918 -0.09879676 0.009960486 0.030764125 0.21470393 -0.017318964 -0.11931712 -0.21885777
-0.08132079 0.09236222 0.09046956 -0.14689083 0.26704186 -0.1557438 -0.10320852 -0.15694581
-0.023014216 -0.0018471351 0.027420959 -0.11786038 0.033078983 0.19516891 -0.13303244 0.020824723
0.09044321 -0.019459467 0.0047040437 -0.22630315 0.059001707 0.12653723 0.064225055 0.15266661
-0.033131428 -0.046881728 -0.1630463 0.22285795 -0.066508666 -0.14873411 0.062073153 -0.013981853
-0.009792883 0.17145681 0.19580846 -0.012218151 0.07336035 -0.035581276 0.007642229 0.054872304
0.0035933177 -0.13777857 -0.065094724 -0.057770558 0.1196868 -0.114309914 0.22284754 -0.12836167
0.011675304 -0.06627449 -0.073204294 0.09230981 0.17235437 0.026220089 -0.29173696 -0.019558745
0.061264865 -0.16337663 0.053608026 -0.14839217 -0.095452845 -0.028334659 0.107601255 -0.15651593
-0.10015401 0.11565876 -0.07820334 -0.028513893 0.10459522 -0.048832618 -0.030569963 0.08958283
0.2858424 0.10121256 0.0072294422 0.019026417 0.009851138 0.0988362 0.07147032 -0.039384075
0.041537553 -0.00017089606 -0.18140937 0.20986779 0.043755308 0.039615825 0.12797095 0.020735005
0.1857748 0.012293495 -0.2719394 -0.073369496 -0.04927658 -0.14209577 -0.05290042 -0.024412872
0.028714184 -0.104084216 -0.013648533 -0.015927378 0.003108463 -0.016489435 -0.0077869953 0.108252354
00000000: 1950 efbc 8415 34bd a1aa 72bd 1c12 d03d
00000010: 86c8 973e bc55 a1bd 3b92 90bc 7a28 8fbc
00000020: cf03 803d 551a 77bd 9ab6 03be 17ec 833c
00000030: 89ab a6bd 5235 6fbd 47b0 4f3e feb3 90bd
00000040: d60f 47be f2a0 4e3e faf4 f23c b072 2dbe
00000050: ed19 c4bd 407c d5bd e176 bb3d b70f 1dbd
00000060: 3c29 cd3d 811a b43d c837 32be e249 6cbd
00000070: 608e 96bc cf63 37bd c6e9 ef3b 8877 bcbb
00000080: ac41 19be d58b f3bd 04a6 7abd 83b3 bbbe
00000090: 3f4d 9cbe 11a7 543e 1d4a babe 04a2 cebd
000000a0: b495 89bd aa24 393b d20f 823d 56ef ccbb
000000b0: 71b8 393e 0429 1c3e 4800 abbc 0b80 5dbd
000000c0: 8971 4c3e 75dd 913d f272 34bd bebc 08be
000000d0: f88f 94be 26ff e23d e38e dc3d 614f 9ebe
000000e0: 0001 1fbd e2e5 4ebe 3bd1 7ebe 9b97 273e
000000f0: b7e0 5bbe 1d30 e9bd 2f5a 6cbd a827 fbbd
00000100: ca84 183a 2543 bd3d d192 14be 9814 883e
00000110: 861f 12be 5caa b2bd 6f5d c73c 162b e7bd
00000120: 6f79 44bd 75d3 b93c 62da 62bb 1097 a9bc
00000130: 5db1 ee3e a03b d13d 2d51 0fbd b78c c93e
00000140: 3116 4ebc 8f1f 563d 46cd 43be fae9 d0bc
00000150: b946 613d 4ecb 123e 8fc8 55be f0d1 023e
00000160: 4f7a 36bd 605d f13e 872a 3c3e 3535 693e
00000170: 4b9c 1e3c ab3b 743d 9edf 90be 5701 793e
00000180: dc12 163e 6ef4 b03d 7d35 e43d 2467 853e
00000190: 2e8e 973d 0497 fdbd 60fd 19be 5c39 c1bd
000001a0: 4fad ac3d ac78 f5bd 1d28 7bbc 0963 943d
000001b0: 90d5 c6bd a520 45bd 8b24 e03d 5a12 973d
000001c0: 8891 32be 650a bf3c 877a ab3d b4cd 56bd
000001d0: 610f abbd b1a0 e03c cd73 5b3e 3a37 b23d
000001e0: 7809 903b 7616 8d3d dfe7 c3bd 4bb1 9dbd
000001f0: d478 393e f0b6 43bd 9c08 513d 3048 ae3d
00000200: 1fa8 90bc 01db 91be daf6 e03b 5a25 df3d
00000210: 12c9 1f3e f072 e63d 1786 493d 3385 64be
00000220: a06a a5bd 66de 3ebd d7a0 53bd 0dd0 583e
00000230: 656c 53bb 706f 3bbc 8616 1fbd e2cb 2f3d
00000240: beaf d7bc f555 cabd 4e31 233c 0c05 fc3c
00000250: 59db 5b3e 80e0 8dbc 895c f4bd 401c 60be
00000260: 848b a6bd 6728 bd3d 1b48 b93d 8d6a 16be
00000270: b6b9 883e 4d7b 1fbe fd5e d3bd 67b6 20be
00000280: 4f88 bcbc 921b f2ba eba1 e03c c860 f1bd
00000290: d47d 073d 5cda 473e a839 08be 9c98 aa3c
000002a0: 4a3a b93d 7669 9fbc 6124 9a3b 03bc 67be
000002b0: c6ab 713d fa92 013e 6d88 833d a354 1c3e
000002c0: d2b4 07bd 0e07 40bd 9cf5 26be e034 643e
000002d0: b235 88bd c14d 18be 6b40 7e3d 2414 65bc
000002e0: 5472 20bc 6092 2f3e 0382 483e a42e 48bc
000002f0: f43d 963d acbd 11bd aa6b fa3b c8c1 603d
00000300: de7d 6b3b d315 0dbe 6250 85bd d2a0 6cbd
00000310: 5a1e f53d 511b eabd 2532 643e 3e71 03be
00000320: c649 3f3c ebba 87bd 22ec 95bd ed0c bd3d
00000330: aa7d 303e 83cb d63c 8c5e 95be a939 a0bc
00000340: def0 7a3d 344c 27be 1794 5b3d 1ef4 17be
00000350: c87c c3bd 161e e8bc 0c5e dc3d b645 20be
00000360: 8c1d cdbd 80de ec3d 1329 a0bd f895 e9bc
00000370: 0536 d63d b604 48bd dc6d fabc 3477 b73d
00000380: ef59 923e 8848 cf3d f5e4 ec3b 4add 9b3c
00000390: ab66 213c a26a ca3d 085f 923d 3251 21bd
000003a0: 4823 2a3d 9032 33b9 61c3 39be 95e7 563e
000003b0: c438 333d 3444 223d d10a 033e 75dc a93c
000003c0: c03b 3e3e a86a 493c a43b 8bbe bf42 96bd
000003d0: 3dd6 49bd 8e81 11be 1cae 58bd 81fd c7bc
000003e0: 023a eb3c 1b2a d5bd 199e 5fbc 227a 82bc
000003f0: 5bb7 4b3b da14 87bc 0d2a ffbb 69b3 dd3d

input_proj.bias f4 [64]
0.69725096 0.0068278154 -0.2905026 -0.41438654 0.3350759 -0.7258661 -0.7340359 -0.5872537
-0.009905531 0.33129108 -0.7004929 0.57473755 0.4485374 0.32275167 0.7395462 -1.0692936
-0.16153957 -0.17060533 -0.32417756 0.24742429 0.47687095 0.7615095 0.2540239 -0.8701723
-0.8214419 -0.027067596 0.27774858 -0.10744822 -0.70033455 -0.134108 0.69835424 0.24969505
0.6139889 0.06507747 -0.3225512 -0.6412239 -0.8739738 0.16146429 0.36411446 -0.5963899
0.0060662255 -0.6893637 0.80638397 0.026820226 0.33082107 -0.4394506 -0.2789664 -0.7244509
0.45192367 -0.59708196 -0.4155417 -0.09734347 -0.29873505 0.57087266 -0.8362234 0.40892863
-0.5540279 0.23184921 -0.5722696 -0.237083 0.40984267 -0.6105177 -0.322755 -0.62504363
00000000: 0a7f 323f debb df3b c2bc 94be 792a d4be
00000010: 128f ab3e 5cd2 39bf c7e9 3bbf 4256 16bf
00000020: cf4a 22bc fc9e a93e 8153 33bf 0022 133f
00000030: b2a6 e53e b53f a53e e652 3d3f 9dde 88bf
00000040: a16a 25be 2ab3 2ebe 9afa a5be cb5c 7d3e
00000050: 6e28 f43e 49f2 423f 6c0f 823e 9dc3 5ebf
00000060: 044a 52bf ddbc ddbc 1035 8e3e d00d dcbd
00000070: 2049 33bf 9c53 09be 58c7 323f 0fb0 7f3e
00000080: 602e 1d3f 5647 853d 6e25 a5be 4027 24bf
00000090: bfbc 5fbf e556 253e 366d ba3e 02ad 18bf
000000a0: 30c7 c63b 247a 30bf 2e6f 4e3f 17b6 db3c
000000b0: 6161 a93e abff e0be afd4 8ebe 9d75 39bf
000000c0: 8a62 e73e 5dda 18bf e2c1 d4be 035c c7bd
000000d0: cdf3 98be b624 123f bd12 56bf 185f d13e
000000e0: c6d4 0dbf e169 6d3e 4380 12bf e3c5 72be
000000f0: e6d6 d13e e34a 1cbf 2540 a5be dc02 20bf

lstm.weight_ih_l0 f4 [256, 64]
0.13195698 0.1453083 -0.31547847 0.15687355 0.12938091 -0.08950008 -0.06186314 -0.04026931
0.107125156 -0.16273135 -0.0809458 -0.26230362 0.013927938 0.19528541 0.18126234 -0.18206608
-0.1580914 -0.10768969 -0.12923448 0.08575051 0.11267928 0.14035752 -0.13550507 -0.069509715
-0.1496778 0.059078448 0.15979691 0.023327826 0.034502357 0.117324315 0.03748627 0.2584998
0.16985644 0.32800734 -0.15470417 -0.05646907 0.23945759 0.011319084 0.1932645 -0.026478628
-0.23313808 0.035676774 0.1766548 -0.023291776 -0.12974429 -0.038185704 0.083703235 -0.38062644
0.070604846 0.03795754 0.29481682 -0.20038791 -0.27242482 0.009676504 -0.021050638 0.08143446
0.40085897 0.22727612 0.16900314 -0.27658436 0.30154237 -0.011631429 0.27482277 -0.17578
-0.1257885 0.07023032 -0.058539223 -0.0387418 0.045476325 0.052983515 -0.08922015 0.12402677
0.03194919 -0.060364325 -0.05798403 0.068550505 0.10716304 -0.10090867 -0.16321488 0.06186471
0.0028594886 0.082859434 -0.030256517 -0.083130926 -0.07313571 -0.12072675 -0.050867375 0.122109845
-0.048363443 -0.032314703 -0.054252993 -0.13983677 0.107371524 -0.1755919 -0.08538527 -0.14775982
0.036083568 -0.010029533 -0.101159304 0.016207311 0.0044278344 -0.016213948 -0.042954218 0.16732441
0.07049995 0.10898955 0.07448971 0.017113801 -0.09263887 -0.013994522 -0.0678076 -0.017069623
0.05045512 -0.031249454 0.059386674 0.021950092 0.027407976 -0.13121249 0.05536178 -0.053299576
-0.0024636951 -0.08031208 0.057501234 0.036624525 -0.079573005 -0.03906231 0.028332587 0.24270801
0.049376983 -0.086205885 0.08745784 0.16616069 -0.09640016 -0.14135861 0.094775625 0.17971815
0.10278706 -0.2880176 0.062558435 -0.23711878 -0.28247207 -0.08736069 -0.042691417 0.12763187
0.13550484 0.10602075 0.047358315 0.037544686 -0.058157675 -0.060352027 -0.023337588 0.059511285
-0.04094102 -0.062433016 0.052557454 0.09793992 0.20920469 0.2671624 -0.29743508 0.17451444
-0.4352896 0.0052558114 0.10338698 0.27976185 0.26761258 0.0005480189 -0.010650876 0.12311982
0.15563707 -0.075569645 -0.011347596 -0.039161086 -0.08525248 0.21480899 0.0018979422 0.106424175
0.036605783 0.14504804 -0.031043759 -0.12751727 -0.0977626 0.03161858 -0.09035232 -0.17025605
0.027461922 0.13913009 -0.008821736 0.08881701 0.07378667 0.06295203 0.10115112 0.11941036
0.42294493 -0.05325425 0.09494535 -0.08660292 0.058164135 0.02814449 -0.325789 -0.20480159
-0.016690798 -0.094118945 -0.41322702 0.11223999 0.11341738 -0.18507373 0.10610772 -0.11565777
0.23450376 0.21991658 -0.23930842 0.23053887 0.19081615 0.21243805 0.07501362 -0.43329713
-0.1425533 0.04786326 -0.037960727 0.17666224 -0.25597247 -0.3217752 -0.21496034 0.045992084
0.33693692 0.19525999 -0.028139604 0.17200907 -0.120223075 0.11553158 0.05646023 0.12232679
-0.05548924 -0.26960874 0.27244788 0.17606692 -0.11971144 -0.11254156 0.23989277 -0.08484157
0.107570134 0.10003143 -0.29043165 -0.103808016 -0.06890162 0.47565973 -0.13898723 0.1821899
-0.14792943 0.037750646 -0.1427134 0.20971371 -0.059652288 0.056333598 0.050774068 -0.02682829
00000000: bb1f 073e b3cb 143e 6586 a1be 76a3 203e
00000010: 6e7c 043e d14b b7bd 3464 7dbd 6ff1 24bd
00000020: 6f64 db3d 0ca3 26be e9c6 a5bd a94c 86be
00000030: 0232 643c e6f8 473e d69c 393e 886f 3abe
00000040: b6e2 21be 6a8c dcbd 0b56 04be f79d af3d
00000050: 65c4 e63d e2b9 0f3e d7c1 0abe 1c5b 8ebd
00000060: 2345 19be 3efc 713d cda1 233e ff19 bf3c
00000070: 5852 0d3d bb47 f03d 348b 193d 165a 843e
00000080: d9ee 2d3e 94f0 a73e c56a 1ebe 1d4c 67bd
00000090: 5f34 753e ae73 393c 21e7 453e b5e9 d8bc
000000a0: c0bb 6ebe cf21 123d ffe4 343e 65ce bebc
000000b0: b0db 04be 9d68 1cbd 9a6c ab3d 78e1 c2be
000000c0: 4699 903d 5e79 1b3d 3bf2 963e 7d32 4dbe
000000d0: 447b 8bbe 338a 1e3c 6372 acbc 1cc7 a63d
000000e0: 633d cd3e 12bb 683e 290f 2d3e 779c 8dbe
000000f0: c363 9a3e c091 3ebc 92b5 8c3e acff 33be
00000100: b3ce 00be ead4 8f3d d3c6 6fbd b9af 1ebd
00000110: 6245 3a3d 3e05 593d 0eb9 b6bd bf01 fe3d
00000120: 27dd 023d 9540 77bd aa80 6dbd 3564 8c3d
00000130: 4c78 db3d 34a9 cebd cd21 27be da65 7d3d
00000140: 4266 3b3b 35b2 a93d 84dc f7bc 8c40 aabd
00000150: 2dc8 95bd 963f f7bd 4f5a 50bd ba14 fa3d
00000160: bf18 46bd 6c5c 04bd 6338 5ebd 5f31 0fbe
00000170: 9ae5 db3d 5dce 33be 79de aebd 5a4e 17be
00000180: 5dcc 133d e952 24bc 9c2c cfbd 32c5 843c
00000190: 5e17 913b 1dd3 84bc c3f0 2fbd 1757 2b3e
000001a0: 4762 903d ea35 df3d 108e 983d 3e32 8c3c
000001b0: 73b9 bdbd 4849 65bc b6de 8abd 98d5 8bbc
000001c0: 07aa 4e3d dbfe ffbc 713f 733d aed0 b33c
000001d0: b186 e03c 915c 06be 09c3 623d a850 5abd
000001e0: f275 21bb a97a a4bd 6a86 6b3d 9903 163d
000001f0: 2cf7 a2bd cdff 1fbd be19 e83c 7388 783e
00000200: 853f 4a3d b68c b0bd 191d b33d 0726 2a3e
00000210: 726d c5bd 50c0 10be b919 c23d 0908 383e
00000220: 0682 d23d 0b77 93be a31e 803d 44cf 72be
00000230: 2ea0 90be 29ea b2bd 32dd 2ebd eeb1 023e
00000240: c8c1 0a3e 6821 d93d cbfa 413d 75c8 193d
00000250: be36 6ebd b033 77bd 782e bfbc 1bc2 733d
00000260: c5b1 27bd c3b9 7fbd 7c46 573d ba94 c83d
00000270: c139 563e 83c9 883e 6949 98be eab3 323e
00000280: 47de debe f138 ac3b 8ebc d33d f23c 8f3e
00000290: 8404 893e eda8 0f3a 0381 2ebc 3f26 fc3d
000002a0: 535f 1f3e 42c4 9abd 44eb 39bc 6067 20bd
000002b0: da98 aebd e3f6 5b3e 5fc4 f83a ebf4 d93d
000002c0: f2ef 153d 7987 143e 7b4f febc e393 02be
000002d0: c237 c8bd 7c82 013d a30a b9bd 9a57 2ebe
000002e0: d3f7 e03c 1e78 0e3e 0b89 10bc b1e5 b53d
000002f0: 771d 973d feec 803d 5228 cf3d 6b8d f43d
00000300: 3d8c d83e 2121 5abd b572 c23d df5c b1bd
00000310: 843d 6e3d 468f e63c d1cd a6be 82b7 51be
00000320: 24bb 88bc 6fc1 c0bd 7e92 d3be 14de e53d
00000330: 5f47 e83d f883 3dbe 014f d93d fbdd ecbd
00000340: c121 703e d031 613e 440d 75be 6212 6c3e
00000350: 4f65 433e 5c89 593e bea0 993d 1fd9 ddbe
00000360: 7ef9 11be 440c 443d b57c 1bbd f2e6 343e
00000370: d30e 83be b8bf a4be 901e 5cbe 3262 3c3d
00000380: ff82 ac3e 3cf2 473e 0785 e6bc 2523 303e
00000390: 8437 f6bd d29b ec3d d842 673d 7886 fa3d
000003a0: af48 63bd 280a 8abe 4a7e 8b3e e34a 343e
000003b0: 452b f5bd 307c e6bd 73a6 753e 6bc1 adbd
000003c0: bb4d dc3d 47dd cc3d 75b3 94be 4c99 d4bd
000003d0: 4b1c 8dbd ac89 f33e ab52 0ebe fd8f 3a3e
000003e0: d07a 17be 6ca0 1a3d 7623 12be 31bf 563e
000003f0: f555 74bd 0fbe 663d 78f8 4f3d 01c7 dbbc

lstm.weight_hh_l0 f4 [256, 64]
-0.2930223 -0.16815639 -0.14329602 0.48077396 0.31114426 0.52150494 0.40016234 0.09546096
-0.013138639 -0.10013638 0.114304215 0.1644793 -0.109134786 -0.19455196 -0.7200674 -0.3563472
-0.17228393 -0.26788414 -0.0771423 0.16078214 0.6280193 0.16987392 0.27439693 0.4126791
-0.19024624 0.09476952 -0.068382435 0.5056881 0.6282294 -0.74718016 0.058668304 0.39049718
0.46131697 0.77924114 -0.6044294 0.29759094 0.033518285 0.45576358 0.5158133 0.4316989
0.050101873 0.1417987 -0.16352764 -0.012203852 -0.14888935 -0.42053312 0.12929252 0.16003698
-0.065379255 0.3351137 -0.3719923 -0.1970449 0.042620607 0.17993122 0.04621493 -0.031133654
-0.0042850124 0.009603232 0.21149006 0.46847332 0.21386352 0.31345806 0.20852856 -0.2846165
-0.9556958 0.22342199 0.9578699 0.796828 0.32292596 0.18940109 0.40046856 0.09086158
0.22009213 0.41485083 0.38921103 0.11086137 0.6241913 -0.09278286 0.07488214 1.3511355
-0.69676906 -0.5704823 -0.28449646 -0.39854798 0.9094657 -0.17574336 0.11007679 0.20816872
-0.1540989 0.17222138 -1.5900555 1.0945448 0.6108495 -0.98747784 -0.31527656 0.2702157
0.2696034 0.69677687 0.015462505 -0.8047707 0.22056404 0.7747572 -1.0661745 0.6619265
0.6308344 1.1113924 -0.7479592 0.16072652 0.18806198 -0.059641503 -1.9285747 1.0434306
0.3593225 0.21803989 0.43573192 0.9161828 -0.11120373 0.24797335 0.12241897 -1.2376235
-0.4184008 -0.47895953 -0.7757379 -0.006330758 0.9308686 -0.111823924 -0.22217761 0.18289557
-0.09713812 -1.057002 -0.31965587 0.1206555 0.19965126 0.21208417 0.04705311 -0.7127756
0.14973101 1.1601157 -0.5842276 0.29821548 -0.0029303343 0.07984757 -0.4293595 0.23646314
-0.5923605 -0.16639228 -0.40343022 -1.3841541 0.19842947 0.33805683 0.7751565 -0.3177276
-0.34955156 1.6351221 0.23466948 0.27140117 0.1097252 -0.35700932 -1.5272574 -0.8487089
0.4847916 0.038556904 0.20784889 -0.28888062 1.8511635 -0.38489282 -0.25335613 1.2397524
0.8273046 -1.1377859 0.81352997 -0.5566552 -0.31500086 0.012628967 0.084098026 -0.017358592
-0.35337013 -0.35096738 0.09841824 -0.20967023 1.0742047 -0.05770334 0.16323775 0.030808054
-0.93222886 0.43495634 0.47157592 -0.05057486 -0.08410129 0.19510527 -0.0020583791 -0.09316818
-0.18416734 -0.053309344 0.33322886 0.31190196 -0.28303757 0.15229519 -0.23295395 0.47007972
-0.0042777713 -0.2433062 0.39901692 0.25662547 0.23641896 -0.07268177 0.012162209 -0.12298044
-0.24500923 -0.784493 0.44953042 0.42705584 0.6581789 0.05085726 -0.373877 -0.32565957
-0.13571592 -0.23185864 -0.3407052 -0.50922316 0.42803308 -0.29214796 0.037689906 0.6496039
0.80396134 0.30143034 0.09218768 0.063858256 -0.3887221 -0.09100362 0.38560888 -0.0690053
-0.031260476 -0.82582885 -0.26557222 0.24054524 -0.61916643 -0.34609926 -0.09619309 1.2138898
0.3460737 0.16584593 0.5203387 0.36147666 -0.3724946 0.21216093 -0.060751263 0.044007074
0.060247786 0.21073908 0.34964198 0.28248605 0.11684421 0.40309018 0.53263897 -0.28395724
00000000: 0507 96be 3031 2cbe 31bc 12be 0128 f63e
00000010: 4d4e 9f3e 5981 053f 14e2 cc3e 0981 c33d
00000020: 7243 57bc 4d14 cdbd 5418 ea3d 436d 283e
00000030: 0f82 dfbd a138 47be 5656 38bf 2473 b6be
00000040: 336b 30be 1c28 89be c8fc 9dbd 13a4 243e
00000050: dfc5 203f 6ef3 2d3e c17d 8c3e ad4a d33e
00000060: e9cf 42be 8616 c23d 170c 8cbd c674 013f
00000070: a4d3 203f 3347 3fbf 2d4e 703d 3fef c73e
00000080: bd31 ec3e 597c 473f e3bb 1abf d75d 983e
00000090: 784a 093d d859 e93e 570c 043f a307 dd3e
000000a0: 9f37 4d3d ae33 113e ca73 27be aaf2 47bc
000000b0: 7376 18be 1e50 d7be 4265 043e bce0 233e
000000c0: 8fe5 85bd 0694 ab3e c675 bebe 23c6 49be
000000d0: f292 2e3d e43f 383e de4b 3d3d 010c ffbc
000000e0: 4a69 8cbb e056 1d3c da90 583e bcdb ef3e
000000f0: 0aff 5a3e 937d a03e 8388 553e 41b9 91be
00000100: 7ba8 74bf bcc8 643e f636 753f ebfc 4b3f
00000110: 8d56 a53e 5cf2 413e 370a cd3e a315 ba3d
00000120: d55f 613e 5467 d43e ab46 c73e 490b e33d
00000130: 00cb 1f3f f104 bebd cf5b 993d 02f2 ac3f
00000140: 755f 32bf 210b 12bf 85a9 91be 7b0e ccbe
00000150: bed2 683f 11f6 33be f16f e13d 2e2a 553e
00000160: 1acc 1dbe cd5a 303e f086 cbbf 0b1a 8c3f
00000170: a260 1c3f 59cb 7cbf ee6b a1be b659 8a3e
00000180: 7509 8a3e f85f 323f 7256 7d3c 7405 4ebf
00000190: 8adb 613e 7d56 463f 6878 88bf 0474 293f
000001a0: 5d7e 213f 1b42 8e3f 417a 3fbf 7e95 243e
000001b0: 5293 403e a64a 74bd 89db f6bf 228f 853f
000001c0: 1ef9 b73e d945 5f3e 4118 df3e f58a 6a3f
000001d0: c8be e3bd baec 7d3e ccb6 fa3d 726a 9ebf
000001e0: a138 d6be 2f3a f5be c296 46bf 3f72 cfbb
000001f0: 684d 6e3f f103 e5bd 8782 63be fa48 3b3e
00000200: 5af0 c6bd d74b 87bf efa9 a3be 3b1a f73d
00000210: 6171 4c3e 982c 593e c3ba 403d 7678 36bf
00000220: 1653 193e ac7e 943f f18f 15bf b3af 983e
00000230: da0a 40bb 1f87 a33d 02d5 dbbe 6523 723e
00000240: f0a4 17bf bd62 2abe 688e cebe f62b b1bf
00000250: 1831 4b3e c915 ad3e a870 463f 31ad a2be
00000260: 6cf8 b2be ae4b d13f 324d 703e 18f5 8a3e
00000270: 9bb7 e03d edc9 b6be 2c7d c3bf fd44 59bf
00000280: 9b36 f83e d8ed 1d3d 57d6 543e 29e8 93be
00000290: edf2 ec3f ac10 c5be e5b7 81be 35b0 9e3f
000002a0: 3cca 533f f8a2 91bf 8043 503f f580 0ebf
000002b0: cb47 a1be bae9 4e3c 963b ac3d 9b33 8ebc
000002c0: eeec b4be ffb1 b3be 818f c93d cbb3 56be
000002d0: 8a7f 893f 565a 6cbd cc27 273e 2c61 fc3c
000002e0: 8da6 6ebf 99b2 de3e 6672 f13e 9627 4fbd
000002f0: 4c3d acbd adc9 473e dfe5 06bb f5ce bebd
00000300: 5d96 3cbe e65a 5abd f99c aa3e 9db1 9f3e
00000310: 4dea 90be 45f3 1b3e 7b8b 6ebe 4aae f03e
00000320: 8c2c 8cbb 4325 79be f24b cc3e 6a64 833e
00000330: d017 723e 2eda 94bd 0044 473c 2bdd fbbd
00000340: b3e3 7abe 89d4 48bf da28 e63e 10a7 da3e
00000350: 6a7e 283f b44f 503d ce6c bfbe dabc a6be
00000360: 1df9 0abe 5a6c 6dbe e970 aebe 735c 02bf
00000370: 2727 db3e 6b94 95be bb60 1a3d 714c 263f
00000380: 69d0 4d3f 1455 9a3e e5cc bc3d 1ec8 823d
00000390: 9506 c7be 1b60 babd 876e c53e a752 8dbd
000003a0: fc0a 00bd 8569 53bf 15f9 87be 7e51 763e
000003b0: b181 1ebf ec33 b1be e200 c5bd be60 9b3f
000003c0: 9230 b13e 84d3 293e eb34 053f 7813 b93e
000003d0: 9db7 bebe b740 593e 51d6 78bd c340 343d
000003e0: 62c6 763d fccb 573e 4604 b33e 03a2 903e
000003f0: 044c ef3d d661 ce3e 075b 083f d862 91be

lstm.bias_ih_l0 f4 [256]
-0.102031976 0.04529674 -0.44880322 0.05798741 -0.47888133 -0.45177305 -1.113686 0.4708051
0.16257724 0.016490981 -0.41117543 -0.38619843 -0.28770655 -0.61276925 -0.5275517 -0.37641314
-0.5070988 0.013906235 -0.40573704 0.1478029 0.0029200981 0.17074272 -0.6706973 -0.47893494
-0.30736881 0.12652119 0.085481875 -0.2884683 0.2812084 0.30168656 0.058709018 0.61697644
-0.62827003 0.5390336 -0.34367624 -0.87863076 -0.49876615 -1.1231575 -0.58687496 0.12279952
-0.5290488 0.6209321 0.70468616 -0.3101631 0.3857197 -1.0749636 0.25563893 -0.90590215
-0.47720173 -0.82240385 -0.46341977 -0.4176553 -0.36157265 -0.49084502 -0.5125032 -0.33530325
0.19997339 -1.1396018 -0.71640855 0.35692227 -0.5808381 0.15148653 -0.21631356 0.3411533
0.15844756 0.2590133 0.042676978 0.16286759 -0.2276752 -0.28146237 0.080646195 0.44754204
-0.27974442 -0.034703173 -0.4494516 -0.4259317 -0.1332766 -0.1863167 -0.2845343 0.8861851
-0.17832512 -0.18912408 -0.35666236 -0.33769503 0.039171036 0.33219996 -0.5281497 -0.42165175
-0.14423113 0.05298179 -0.075488396 0.09872967 0.027186373 0.001158805 0.4016081 0.45874205
0.21878195 -0.23494795 -0.500756 -0.29341862 -0.1293106 0.35621768 0.066779725 -0.0115979
0.39403808 0.49633136 -0.4417914 -0.18096337 0.6355109 -0.43451908 0.7855985 -0.20339896
0.3370459 0.13058957 -0.53426135 -0.2839877 -0.41157007 -0.53274876 -0.4335266 0.47218782
-0.33735207 0.86677754 -0.06309832 0.91148347 -0.26363564 -0.10580328 -0.28223592 -0.55682975
-0.32771245 0.8943133 0.68254805 0.9704658 0.2041894 0.021053126 0.18656622 0.7344845
0.14866453 -0.27291977 0.1286539 -0.006596532 0.51888305 -0.5317357 -0.4027253 0.4344512
-0.6508873 -0.37527314 -0.038199697 0.56273466 0.39462063 -0.20443478 0.122445 0.2625547
-0.28427017 -0.7121282 -0.6635263 0.20434947 0.32291004 -0.6629034 0.26654357 0.7816719
0.09259164 0.8938935 0.24254766 0.2562579 -0.4734214 0.6385206 0.033588503 0.253131
-0.20298819 0.549517 -0.8857784 0.71830904 -0.70553327 -0.1284298 -0.7931609 0.48759413
0.44088215 0.27953592 0.16119519 0.48635063 -0.79393816 0.34448153 0.34921145 -0.7248505
-0.49090692 0.4684037 -0.012902757 0.17299129 0.26020303 0.13888396 0.29648256 0.058072545
-0.56683743 0.06901376 0.15351078 -0.3770609 -0.5291143 -0.13148285 -0.1748334 0.5332667
-0.4769453 -0.16959597 -0.27374163 -0.6768445 -0.31084734 -0.018984273 -0.23852314 0.50213104
0.08248742 -0.44063163 -0.5127718 0.3765951 -0.47033757 -0.6155083 -0.27184853 -0.19341455
-0.3171589 -0.56557745 -0.43559545 -0.1877484 0.33315718 -0.21890622 -0.056766145 0.8050851
-0.9242923 0.40037745 -0.027324984 -0.2583436 0.031567357 0.014934676 0.44387245 -0.10520387
-0.26687327 0.8524672 0.6569199 -0.39040938 -0.55112547 0.28135404 0.25247565 0.033501223
-0.4718306 -0.6751976 -0.09198291 -0.4887936 -0.053297106 -0.4417608 -0.5517341 -0.43243596
-0.020410948 0.35989013 -0.48599544 -0.18006362 -0.40971613 -0.5497284 -0.58466935 0.40580785
00000000: 24f6 d0bd 1389 393d 89c9 e5be 3584 6d3d
00000010: ef2f f5be cc4e e7be 438d 8ebf 5e0d f13e
00000020: a67a 263e 1818 873c 9685 d2be cdbb c5be
00000030: 464e 93be 72de 1cbf a10d 07bf 39b9 c0be
00000040: 3ad1 01bf fad6 633c c4bc cfbe a559 173e
00000050: 1e5f 3f3b 2ed7 2e3e d1b2 2bbf f636 f5be
00000060: 725f 9dbe c58e 013e 1f11 af3d 1eb2 93be
00000070: 8cfa 8f3e a976 9a3e de78 703d 2bf2 1d3f
00000080: 4ed6 20bf 1bfe 093f 55f6 afbe f2ed 60bf
00000090: 475e ffbe a0c3 8fbf 703d 16bf 517e fb3d
000000a0: be6f 07bf 68f5 1e3f 5066 343f b3cd 9ebe
000000b0: 0d7d c53e 6898 89bf 1be3 823e 34e9 67bf
000000c0: c953 f4be 0f89 52bf 5b45 edbe ead6 d5be
000000d0: 0d20 b9be 0a50 fbbe 6933 03bf deac abbe
000000e0: d3c5 4c3e 79de 91bf 8d66 37bf 84be b63e
000000f0: ceb1 14bf 491f 1b3e 4d81 5dbe a5ab ae3e
00000100: 1440 223e 649d 843e 0ece 2e3d c3c6 263e
00000110: b023 69be d61b 90be d529 a53d 3b24 e53e
00000120: a93a 8fbe ea24 0ebd 851e e6be b813 dabe
00000130: a979 08be cec9 3ebe 7bae 91be 07dd 623f
00000140: dc9a 36be bea9 41be 739c b6be 5de6 acbe
00000150: cf71 203d 1d16 aa3e d234 07bf bde2 d7be
00000160: 53b1 13be 6f03 593d a999 9abd c832 ca3d
00000170: f5b5 de3c 0be3 973a 949f cd3e 3de0 ea3e
00000180: 6008 603e 3296 70be 8c31 00bf f73a 96be
00000190: ff69 04be 2a62 b63e cfc3 883d 1e05 3ebc
000001a0: 5cbf c93e 251f fe3e 7b32 e2be 764e 39be
000001b0: d8b0 223f 4979 debe fc1c 493f d147 50be
000001c0: 4891 ac3e 46b9 053e 5ac5 08bf d666 91be
000001d0: 50b9 d2be 3962 08bf 33f7 ddbe 9ac2 f13e
000001e0: 69b9 acbe 22e5 5d3f b139 81bd fb56 693f
000001f0: 40fb 86be 64af d8bd 3a81 90be 658c 0ebf
00000200: edc9 a7be b7f1 643f 78bb 2e3f 7270 783f
00000210: 0717 513e 9b77 ac3c 370b 3f3e 2d07 3c3f
00000220: 843b 183e 24bc 8bbe d9bd 033e b927 d8bb
00000230: 85d5 043f d51f 08bf 0332 cebe 6370 de3e
00000240: 8da0 26bf cd23 c0be 4977 1cbd 610f 103f
00000250: b70b ca3e 5a57 51be 72c4 fa3d 926d 863e
00000260: dc8b 91be 094e 36bf dcdc 29bf fd40 513e
00000270: 7754 a53e 0ab4 29bf 6678 883e a61b 483f
00000280: b0a0 bd3d 34d6 643f 6a5e 783e 3c34 833e
00000290: 4a64 f2be 1676 233f 1994 093d 639a 813e
000002a0: 23dc 4fbe 25ad 0c3f 60c2 62bf 1ae3 373f
000002b0: d49d 34bf 1a83 03be 980c 4bbf f0a5 f93e
000002c0: 4ebb e13e 551f 8f3e 5a10 253e f302 f93e
000002d0: 883f 4bbf e25f b03e d8cb b23e cd8f 39bf
000002e0: 2758 fbbe 9cd2 ef3e 1666 53bc a124 313e
000002f0: 5539 853e 9937 0e3e 90cc 973e 7add 6d3d
00000300: 421c 11bf 1657 8d3d ee31 1d3e 200e c1be
00000310: 0974 07bf 71a3 06be 8707 33be 2b84 083f
00000320: 2d32 f4be 91aa 2dbe dd27 8cbe ae45 2dbf
00000330: 6227 9fbe e884 9bbc 693f 74be a98b 003f
00000340: 2aef a83d 789a e1be 0345 03bf 13d1 c03e
00000350: 16d0 f0be f491 1dbf bb2f 8bbe 770e 46be
00000360: a762 a2be afc9 10bf 5e06 dfbe 1e41 40be
00000370: 9493 aa3e f428 60be 9e83 68bd 0f1a 4e3f
00000380: 6c9e 6cbf 46fe cc3e a5d8 dfbc 9d45 84be
00000390: c64c 013d 92b0 743c 4043 e33e 2075 d7bd
000003a0: 9da3 88be 4a3b 5a3f e72b 283f bde3 c7be
000003b0: 8f16 0dbf a30d 903e 7d44 813e 9438 093d
000003c0: c893 f1be c0d9 2cbf 8961 bcbd 2843 fabe
000003d0: 114e 5abd 792e e2be 723e 0dbf 3f68 ddbe
000003e0: dc34 a7bc 8543 b83e 65d4 f8be 9962 38be
000003f0: 50c6 d1be 00bb 0cbf e4ac 15bf 0cc6 cf3e

lstm.bias_hh_l0 f4 [256]
-0.029412951 0.17313404 -0.31424758 0.058609914 -0.52817595 -0.55250525 -1.3000602 0.48669714
0.16109258 0.06892937 -0.44366032 -0.5075695 -0.24915037 -0.5805276 -0.6281034 -0.24420117
-0.4834707 0.007284613 -0.30069882 0.14552408 -0.08757957 0.33323064 -0.6363216 -0.31735027
-0.4211886 0.12091036 0.04779538 -0.36122823 0.34025717 0.3051946 0.075548925 0.60150486
-0.75868785 0.34346664 -0.32268867 -0.9072242 -0.4127394 -1.1494783 -0.4795418 0.12946372
-0.7273989 0.564667 0.773751 -0.33161023 0.27509722 -0.91274196 0.027513918 -0.8237281
-0.2850511 -0.7978093 -0.57778084 -0.43764967 -0.3495446 -0.6837229 -0.3842628 -0.33086044
0.16728674 -1.1509751 -0.8196203 0.3369516 -0.6967946 0.21475016 -0.22406627 0.21156986
0.06667337 0.23090355 -0.0009442528 0.2013688 -0.25820392 -0.22303131 -0.029631257 0.3562747
-0.16684861 -0.0230527 -0.38439706 -0.521246 -0.22564968 -0.113166645 -0.25365984 0.8451955
-0.3466586 -0.22428569 -0.26734474 -0.20814642 -0.08172546 0.2664948 -0.3161738 -0.23366961
-0.2345154 -0.096368805 -0.06706344 0.09032072 -0.0585858 0.08227483 0.4027658 0.39244837
0.22066104 -0.03766511 -0.6794233 -0.4407067 0.027104544 0.41215265 0.22252305 -0.13919874
0.33960867 0.41666746 -0.44029126 -0.0114072375 0.67296666 -0.42765197 0.7808672 -0.21186747
0.2317102 0.066625424 -0.47698468 -0.42996633 -0.49991864 -0.43339136 -0.43951055 0.60735804
-0.5194997 0.8829508 -0.23191148 0.79404515 -0.3847724 -0.07880661 -0.43175995 -0.63846
-0.12846416 1.0254718 0.64522624 0.9452009 0.22844242 0.21259542 0.091176525 0.68596905
0.1993491 -0.27707022 0.08086049 0.12183572 0.6013326 -0.5271802 -0.3089092 0.54215986
-0.7212661 -0.3948792 -0.17115372 0.4065197 0.3937051 -0.26128775 0.0012313282 0.22328104
-0.3778804 -0.66236323 -0.66015816 0.2910248 0.24221854 -0.60082906 0.18716693 0.8050902
0.1892481 0.8243668 0.11111124 0.18089801 -0.24429011 0.6930202 -0.044072475 0.31958625
-0.34705815 0.7949531 -1.0548756 0.5434367 -0.8730718 -0.028776111 -0.8073008 0.6167594
0.29153115 0.13117161 0.0413665 0.45936152 -0.69925904 0.24623904 0.26126307 -0.6420631
-0.54186046 0.5585681 0.022938091 -0.0060962425 0.18067473 0.1288425 0.16936713 -0.090647325
-0.50472474 0.041601148 0.13334557 -0.43307748 -0.35857815 0.005632522 -0.14776354 0.4261104
-0.45187226 -0.23464285 -0.13097794 -0.6652119 -0.15772615 0.0625196 -0.27145547 0.48354104
-0.015776686 -0.5104864 -0.6568367 0.23251097 -0.33104062 -0.76507545 -0.24174389 -0.26000854
-0.17212231 -0.47502416 -0.30978498 -0.23356335 0.29678482 -0.033266794 0.10856412 0.7445465
-0.90539765 0.3267948 -0.16254154 -0.11818295 0.12937987 -0.06315213 0.3191991 0.022670362
-0.22244616 0.76329887 0.57252073 -0.42288324 -0.716141 0.17607076 0.24661054 -0.022186631
-0.35066694 -0.4889702 -0.22257796 -0.31145194 -0.15002055 -0.57056826 -0.5096193 -0.28240684
-0.07915871 0.2545651 -0.5367591 -0.17800935 -0.45348066 -0.7328681 -0.47176892 0.48216963
00000000: 6ef3 f0bc 0d4a 313e 0fe5 a0be f310 703d
00000010: 8a36 07bf fc70 0dbf 5f68 a6bf 5e30 f93e
00000020: 74f5 243e d72a 8d3d 7227 e3be 13f0 01bf
00000030: 4621 7fbe 759d 14bf 62cb 20bf df0f 7abe
00000040: 7989 f7be c3b3 ee3b 32f5 99be 4404 153e
00000050: eb5c b3bd 359d aa3e f9e5 22bf bc7b a2be
00000060: 08a6 d7be da9f f73d 17c5 433d e8f2 b8be
00000070: 3036 ae3e 7742 9c3e 65b9 9a3d 39fc 193f
00000080: 5e39 42bf dcda af3e 7337 a5be d83f 68bf
00000090: 9452 d3be 1b22 93bf 8186 f5be 2392 043e
000000a0: d036 3abf 048e 103f 8c14 463f d1c8 a9be
000000b0: 8bd9 8c3e 75a9 69bf de64 e13c d8df 52bf
000000c0: 38f2 91be 3b3d 4cbf 72e9 13bf 9e13 e0be
000000d0: 83f7 b2be 7708 2fbf 18be c4be 8a66 a9be
000000e0: 374d 2b3e 2753 93bf a3d2 51bf ec84 ac3e
000000f0: 2261 32bf 77e7 5b3e a171 65be c5a5 583e
00000100: 0c8c 883d fb71 6c3e bc87 77ba 9f33 4e3e
00000110: 4e33 84be 5262 64be 40bd f2bc a369 b63e
00000120: 5dda 2abe 04d9 bcbc b1cf c4be 6170 05bf
00000130: b610 67be eac3 e7bd b4df 81be bb5e 583f
00000140: 3c7d b1be 26ab 65be 69e1 88be 5624 55be
00000150: ae5f a7bd 0272 883e 88e1 a1be 1647 6fbe
00000160: ce24 70be 025d c5bd 8f58 89bd 12fa b83d
00000170: aaf7 6fbd b57f a83d 5237 ce3e feee c83e
00000180: f8f4 613e bb46 1abd afee 2dbf 4fa4 e1be
00000190: 590a de3c ac05 d33e 15dd 633e 1d8a 0ebe
000001a0: 30e1 ad3e 7055 d53e db6d e1be 6ce5 3abc
000001b0: 8b47 2c3f 33f5 dabe eae6 473f c9f3 58be
000001c0: 7045 6d3e e972 883d 5637 f4be 8c24 dcbe
000001d0: 56f5 ffbe 79e5 ddbe 8707 e1be d17b 1b3f
000001e0: effd 04bf 1009 623f 347a 6dbe 8b46 4b3f
000001f0: e300 c5be 5c65 a1bd a40f ddbe 1d72 23bf
00000200: 1c8c 03be a942 833f 8c2d 253f b0f8 713f
00000210: cfec 693e 9db2 593e c2ba ba3d ab9b 2f3f
00000220: 2c22 4c3e 26dc 8dbe 2f9a a53d 0285 f93d
00000230: eff0 193f 48f5 06bf 5929 9ebe fdca 0a3f
00000240: e5a4 38bf 9b2d cabe ec42 2fbe 5a23 d03e
00000250: b793 c93e 82c7 85be 8564 a13a c9a3 643e
00000260: 8a79 c1be a390 29bf 2000 29bf 3401 953e
00000270: 2308 783e efcf 19bf b0a8 3f3e 641a 4e3f
00000280: 41ca 413e b409 533f 4a8e e33d 543d 393e
00000290: 3027 7abe c669 313f 5785 34bd cfa0 a33e
000002a0: 9bb1 b1be 0c82 4b3f 2a06 87bf ab1e 0b3f
000002b0: a281 5fbf e1bb ebbc 44ab 4ebf f2e3 1d3f
000002c0: 9243 953e da51 063e eb6f 293d 6f31 eb3e
000002d0: a402 33bf 1626 7c3e 46c4 853e 3f5e 24bf
000002e0: 5eb7 0abf 52fe 0e3f aae8 bb3c fdc2 c7bb
000002f0: cc02 393e 4aef 033e 946e 2d3e 4ea5 b9bd
00000300: a435 01bf f765 2a3d be8b 083e 55bc ddbe
00000310: 8e97 b7be 0591 b83b 534f 17be 242b da3e
00000320: cd5b e7be 3746 70be 151f 06be 544b 2abf
00000330: f782 21be 470a 803d 36fc 8abe b192 f73e
00000340: 1c3e 81bc 3daf 02bf 7326 28bf 5b17 6e3e
00000350: 287e a9be fcdb 43bf b68b 77be d71f 85be
00000360: d540 30be 5e36 f3be 239c 9ebe 3b2b 6fbe
00000370: 2ef4 973e c342 08bd de56 de3d 999a 3e3f
00000380: 24c8 67bf a651 a73e 4a71 26be e709 f2bd
00000390: 287c 043e e755 81bd 106e a33e 32b7 b93c
000003a0: edc8 63be 8e67 433f b890 123f 2784 d8be
000003b0: 0455 37bf e54b 343e 7987 7c3e bdc0 b5bc
000003c0: 9e8a b3be 4d5a fabe 7aeb 63be a176 9fbe
000003d0: fd9e 19be c310 12bf 6976 02bf a197 90be
000003e0: f61d a2bd 5b56 823e 0b69 09bf 1548 36be
000003f0: 9e2e e8be 3e9d 3bbf b28b f1be f0de f63e

output_proj.weight f4 [1, 64]
0.0015718971 -0.0031401962 0.0005111869 0.00022764469 -0.00444152 0.0013775161 0.116258964 0.009066889
0.024408631 0.0019078834 -0.06348796 -0.31349614 -0.04113926 -0.0020831279 -0.12391999 0.0013915984
-0.00066780887 -0.0004678276 -0.0037052154 0.00036745056 -0.0041041304 -0.052075543 0.1167996 -0.18262999
-0.00310328 0.0028720407 0.01355816 -0.0010438835 0.0015362463 0.004840506 0.0008747256 -0.00021710113
-0.08197582 -0.015985835 -0.1215841 0.18603724 -0.027836036 0.37220678 0.010085317 -0.00055854087
-0.53298384 0.05666945 0.0021692344 0.14452252 -0.016356226 -0.092954405 6.104415e-05 -0.028596582
-0.0017206105 -0.008011726 0.0034195562 -0.18882455 -0.24467525 0.13979612 0.019545374 0.0010381617
-0.0030280943 0.035366286 0.10349995 -0.002788466 -0.09646979 -0.12550499 0.0008163187 -0.050223365
00000000: 1d08 ce3a c0cb 4dbb 2c01 063a e8b3 6e39
00000010: 2c8a 91bb c58d b43a 2e19 ee3d 4a8d 143c
00000020: 9cf4 c73c f211 fa3a fa05 82bd 9182 a0be
00000030: a481 28bd 1685 08bb c4c9 fdbd 4b66 b63a
00000040: e50f 2fba c246 f5b9 33d3 72bb 61a6 c039
00000050: f17b 86bb 2a4d 55bd a134 ef3d 5b03 3bbe
00000060: 6660 4bbb d938 3c3b 0b23 5e3c ebd2 88ba
00000070: df5b c93a 1b9d 9e3b d74d 653a a4a5 63b9
00000080: f0e2 a7bd baf4 82bc 1601 f9bd 8c80 3e3e
00000090: 6608 e4bc e391 be3e e33c 253c 0b6b 12ba
000000a0: a171 08bf 3a1e 683d b729 0e3b b6fd 133e
000000b0: 7efd 85bc e15e bebd d404 8038 6143 eabc
000000c0: 1c86 e1ba 9d43 03bc a21a 603b 395b 41be
000000d0: 268c 7abe b726 0f3e 9f1d a03c ed12 883a
000000e0: fe72 46bb 3ddc 103d c8f7 d33d b2be 36bb
000000f0: f491 c5bd 6184 00be 38fe 553a 04b7 4dbd
