generator_gan_ecv_ts_128_13.pth (torch, 448048 bytes, 7 tensors)

fc.0.weight f4 [128, 103]
00000000: dd74 553c 5a8a 22bd 2fd9 62bd 5aef d4bc
00000010: d7fe 96bd e5a8 a8bc fed7 423c 77e0 2e3e
00000020: 4834 1abd 1f21 8f3d 6fe0 a439 bf70 ad3c
00000030: ef41 2f3d 463e 0cbc 8d41 583c 2f8e 033d
00000040: ca5c 58bc 218e 183d 5b90 c33d b4a5 50bc
00000050: 7ee5 8fbb 2ae9 a1bd 7344 9c3d 022d 3f3d
00000060: e003 f53c e2a2 d7bd feed eabd e874 883d
00000070: 1c59 ab3d f16d f73b cebe dabd efdb 09be
00000080: 4371 8b3c c012 acbd d6e2 92bc 1d0c b4bd
00000090: c24d cf3c f049 893b 3e23 4a3c c0b0 a8bc
000000a0: f63d a73c 64af a83d 790a 84bd f3b2 903d
000000b0: f18e a83d 13f1 ddbc 1b17 b23d 33b5 553d
000000c0: b315 b7bb 05a1 1c3d 62de 8a3d 6dea a9bd
000000d0: ad29 953d b2dd aebd 62aa 903d 6e0d 9fbc
000000e0: 7e3e 97bd 27bb 51bd 9d57 4fbb e94f b83c
000000f0: debb 3b3d 0bd3 ae3d 70c2 67bc 9286 c0bd
00000100: 1b1c ebbc 70c2 b73d e194 bc3b c655 febd
00000110: 323d 263e 37a7 3dbd 7db4 23bc 04e6 613b
00000120: c079 2a3e 79bb 61bd 313f f13c bfe4 6cbb
00000130: 7e40 84bd 00c7 e13d 2281 5d3d bf9f a43c
00000140: 4420 b03b 06d0 d53c 13a7 70bd a3a7 aa3c
00000150: 8929 44bc cf41 11bd 669a 09bd a15c da3c
00000160: ad29 f6bc 8a10 71bb fed3 d0bc 8393 1e3e
00000170: 19a8 18bc cff9 623c 1075 83bc ccfb dd3c
00000180: 2665 9bbd a948 013e 6980 b8bd 8649 30bd
00000190: 63b4 cdbf 2036 9fbf 3b8b cdbf d685 05bd
000001a0: 363e b53d 3cd5 8b3b 9e32 d9bc 188c 843d
000001b0: a71d 993d 2088 743b 5a4b 903c 2857 8a3b
000001c0: 4511 10bc 1b94 0bbc b3a7 f33c 615d 543d
000001d0: 5c07 903d a67b 973d 9ebf 1d3d 6ecf 8bbc
000001e0: 69dd a43d 2e48 ac3c a6a6 a9bc db6c 88bc
000001f0: efa5 26bb 7894 833a ac8b 4ebd 5aab cabc
00000200: 4346 9b3d 2f84 2dbd 50e3 bd3c fcde a03d
00000210: 0779 30bc 2a60 63bc 9759 e1bc 94e4 4ebd
00000220: 5fbb 01bd 76df a53c 69a1 093d 590d b03c
00000230: c69f 343d b14a cb3c 2b35 7fbd db93 78bd
00000240: c9cd 7bbd 43e9 24bd 1394 bc3c 6a39 9c3c
00000250: 8834 1fbc 7c01 27bd db45 c1bd ae5a 9b3d
00000260: 26ee 9a3c d121 043d 5277 8cbc d3dd 933d
00000270: 0f2f ebbc ba22 bbbd 2783 6c3d 82bb 733c
00000280: 4029 03bd 24e3 6737 68ff 573d 1dbb 15bc
00000290: ab11 133d 2e2c 1d3d 9bec ad3c 51b6 d23c
000002a0: 3ab6 55bd 1a7d 40bc edf2 68bc 0c6a d93b
000002b0: 5b49 a2bc d29c acbc c8e0 86bd 8c4f 08bc
000002c0: 7779 853c 6add a7bd 575d f7bb d12e ebbc
000002d0: aadd 803c 3333 36bb d479 c03c 8178 123c
000002e0: 775b 08be 579f 0dbd e69d 83bd 3b25 4a3d
000002f0: a63e f13c c07a d33b e8b4 bebc db24 063d
00000300: de3c 6a3d 2efe eabb e6e8 1e3d 3c20 05bd
00000310: 1db1 25bd a813 3c3d 4491 f93b 1e72 303b
00000320: bc65 773c 560e 273c 4923 f13c dbbb 84bf
00000330: 47c4 b1bf 9ffe 95bf 8f9c 68bd 13f6 f83d
00000340: 0d23 53bd 20cf 4abc 253c c83d 49a6 b93c
00000350: acb0 a1bd 3293 bb3d 90b6 e23c 1b02 693d
00000360: 1466 9e3d eb66 9c3d cffc d63c fe28 033d
00000370: 6ec9 533c 7426 313c 4d42 c1bc 71cb c8b7
00000380: deb0 f8bd c4e1 20bd 639b b2bd 460e a1bd
00000390: 9efe 35bd dfdf e33c 1ed5 143d c306 5c3d
000003a0: 249c 233c 5344 3a3c f1d1 89bc bfa1 333e
000003b0: fb49 cf3d fd73 123d 7101 4cbd 0b3e ab3d
000003c0: 1025 b9bd aff2 8dbd b7cc 5cbb 13f6 c5bd
000003d0: a7fb b63c b861 3f3e 4029 b93c 00ee 2ebd
000003e0: 46f4 48bd de12 87bd 6255 b73d 9b1d 0c3e
000003f0: 7fc4 a93d b8ba d23d 32c9 1abe 7310 423c
0.013028351 -0.039682724 -0.055382904 -0.025993038 -0.073728256 -0.020588348 0.011892317 0.17077814
-0.037647516 0.06988739 0.00031447734 0.021171926 0.04278749 -0.008559769 0.013199222 0.03211802
-0.013205716 0.03724492 0.09549018 -0.012734819 -0.0043913713 -0.07905801 0.07630243 0.046673782
0.029909074 -0.10529114 -0.11471175 0.06662923 0.08366606 0.007550948 -0.10680924 -0.13462804
0.01702178 -0.08402014 -0.01793043 -0.08791373 0.025305633 0.0041897222 0.012337504 -0.020592093
0.020415287 0.08236578 -0.0644731 0.07065382 0.08230389 -0.027092492 0.08695813 0.05217476
-0.0055873035 0.038239498 0.067806974 -0.08296666 0.0728334 -0.08538379 0.07063748 -0.019415583
-0.07384966 -0.051203873 -0.0031637915 0.022499042 0.04583346 0.08536347 -0.014145479 -0.09400667
-0.028699925 0.08972633 0.0057550524 -0.12418704 0.16234282 -0.046302047 -0.009991762 0.0034469375
0.16648006 -0.05511043 0.029449077 -0.0036147085 -0.064576134 0.11024284 0.05407823 0.020095704
0.00537494 0.02610017 -0.058753084 0.020831889 -0.011972793 -0.03546315 -0.03359451 0.026655497
-0.03004917 -0.003678354 -0.02549171 0.15485959 -0.009317421 0.013853504 -0.01604703 0.027097605
-0.07587652 0.12625374 -0.09008867 -0.043038867 -1.6070675 -1.2438393 -1.6058115 -0.03259834
0.088497564 0.004267363 -0.026513394 0.06472033 0.07476359 0.0037312582 0.017614055 0.0042218156
-0.00879318 -0.008519198 0.029743051 0.051846866 0.07032654 0.07396631 0.03851282 -0.017066684
0.08050043 0.021030512 -0.020709347 -0.016653469 -0.0025428494 0.0010038754 -0.05042617 -0.02473991
0.07581761 -0.04236239 0.02317968 0.07855031 -0.010771043 -0.013877908 -0.02750854 -0.050510958
-0.03167283 0.020248156 0.0336012 0.02149074 0.044097684 0.02481589 -0.062306564 -0.06068788
-0.06147555 -0.04026152 0.023019826 0.019070346 -0.009717114 -0.0407729 -0.09437152 0.07585655
0.018912386 0.032258812 -0.01714674 0.07220044 -0.028708963 -0.09137483 0.057742264 0.014876248
-0.03202176 1.3821558e-05 0.05273381 -0.00913885 0.03590552 0.03837221 0.021230986 0.0257217
-0.052175738 -0.011748577 -0.014218074 0.006634956 -0.01981037 -0.021070872 -0.06585842 -0.008319747
0.01629327 -0.08196528 -0.007548969 -0.028708847 0.015730698 -0.0027801513 0.023495592 0.008939863
-0.13316141 -0.034575786 -0.06426601 0.049351912 0.029448818 0.006453842 -0.023279622 0.032749992
0.057186954 -0.007171414 0.038796328 -0.032501444 -0.04045211 0.045917183 0.007616194 0.0026923488
0.015099939 0.010196289 0.02943577 -1.0369829 -1.3888024 -1.1718329 -0.05678993 0.1215631
-0.0515471 -0.012378484 0.09777097 0.022662299 -0.078950256 0.09158935 0.027674943 0.056886774
0.077343136 0.076368175 0.026243595 0.032021515 0.012926443 0.010812391 -0.023591185 -2.3936593e-05
-0.1214311 -0.039277807 -0.08721044 -0.078640506 -0.044432275 0.027816711 0.036336057 0.053717386
0.009985957 0.011368829 -0.01682374 0.1754217 0.101215325 0.035755146 -0.049806062 0.08361443
-0.09040272 -0.06931054 -0.0033691355 -0.096660756 0.022336794 0.1868962 0.022602677 -0.042707443
-0.049061082 -0.065953955 0.08951832 0.13683169 0.08289432 0.1028952 -0.15115812 0.011844742

fc.0.bias f4 [128]
00000000: 6cff c5bf 0287 8bbf d6e4 adbf 313a 7bbf
00000010: 47b7 91bf 2e8a 793d 1ce8 b1bf 14be 98bf
00000020: 3487 b5bf 82b2 8cbf 914d a5bf 3df9 8dbf
00000030: 429e 9bbf 5345 b8bf 8c5b 8bbf ba7b a2bf
00000040: c00f 853f 6130 8fbf 89b5 aabf 6aba 8abf
00000050: ef7f adbf e0da a0bf cc0b cabf a1ae 68bf
00000060: 5179 aabf d787 8abf ae1b 393f e4d4 ccbf
00000070: cfc3 c3bf 95b9 b3bf 6c44 8ebf ccc6 bbbf
00000080: 8573 43bf 7a42 62bf c427 8abf 776f a0bf
00000090: e347 89bf d7ce acbf 5e2a b2bf f129 bcbf
000000a0: c371 a9bf 232c e1bf 9502 b8bf 41df afbf
000000b0: 90aa acbf fb9d 89bf f5db 93bf ada7 8bbf
000000c0: 9ea1 bebf 53c2 84bf f02f acbf 9aa0 b1bf
000000d0: b07e 99bf 71ef b8bf 8cfe 84bf be0c 68bf
000000e0: 1d3e c2bf 3134 c0bf b325 98bf dabe b8bf
000000f0: 7b5e a1bf 1408 c9bf 0e6b b3bf 39ab b7bf
00000100: 04cc b4bf bb76 92bf 13c1 b7bf f142 9ebf
00000110: e52b b5bf 7497 72bf 37ad a1bf 7c60 d0bf
00000120: 3c71 c6bf 8099 b7bf 1326 243e 0c07 b0bf
00000130: 041e b8bf e9a8 a9bf 7492 bdbf 1a5d c5bf
00000140: 26a8 8abf c3a9 98bf f9c2 bbbf 79b8 8ebf
00000150: a8ae bbbf fb20 afbf c64d 93bf f495 b6bf
00000160: 0ac5 9abf d4e6 8ebf 89ee 9bbf e718 c5bf
00000170: 697a 9cbf 677c 85bf 7388 92bf e7f2 b1bf
00000180: 9434 abbf 1012 cdbf 1ed5 b2bf 5089 c7bf
00000190: 9b76 cabf 685b c0bf 1838 e2bf 99fa cabf
000001a0: 3708 8bbf 749c bcbf 531a a4bf 46e2 8a3f
000001b0: ccb3 b9bf 1562 d3bf 345f bdbf 9db6 cabf
000001c0: f07f b2bf df95 b1bf 7b12 babf 9c3c d6bf
000001d0: 10c9 bebf 2886 d6bf 7e2d c9bf b61e 93bf
000001e0: 389a b6bf faf2 a8bf 04b6 b2bf 47bb 9ebf
000001f0: 90d3 9fbf 4ca3 82bf a144 afbf 11d7 49bf
-1.5468574 -1.0900576 -1.358546 -0.9813567 -1.1384057 0.060922794 -1.3898959 -1.1933007
-1.4181886 -1.0991976 -1.2914296 -1.1091686 -1.2157671 -1.4396156 -1.0887313 -1.2694008
1.0395432 -1.1186639 -1.333665 -1.0838139 -1.3554667 -1.2566795 -1.578485 -0.9089146
-1.3318273 -1.0822705 0.7230786 -1.6002469 -1.5294131 -1.404101 -1.1114631 -1.4670043
-0.76348144 -0.88382685 -1.0793386 -1.2534016 -1.0725063 -1.3500623 -1.391918 -1.47003
-1.3237842 -1.7591594 -1.4375788 -1.3740007 -1.3489552 -1.0751337 -1.15515 -1.0910546
-1.4893072 -1.0371803 -1.3452129 -1.3877137 -1.1991787 -1.4448072 -1.0390182 -0.90644443
-1.5175205 -1.5015928 -1.1886505 -1.4433243 -1.2606958 -1.570559 -1.4017045 -1.4349128
-1.4124761 -1.1442484 -1.4355797 -1.2364179 -1.415402 -0.9476235 -1.2630986 -1.6279445
-1.5503306 -1.434372 0.16030149 -1.375215 -1.438416 -1.3254672 -1.4810319 -1.5419037
-1.0832565 -1.1926807 -1.4668876 -1.1150047 -1.4662676 -1.368194 -1.150811 -1.4264512
-1.2091382 -1.1164193 -1.218217 -1.5398225 -1.2224857 -1.042859 -1.1447891 -1.3902253
-1.337542 -1.6021137 -1.3971288 -1.558878 -1.5817446 -1.5027895 -1.7673368 -1.5857726
-1.0861882 -1.4735246 -1.2820534 1.0850303 -1.4507995 -1.6514307 -1.4794679 -1.5836979
-1.3945293 -1.3873862 -1.453689 -1.6737247 -1.490511 -1.6759691 -1.5717008 -1.1493747
-1.4265814 -1.319915 -1.3961797 -1.2400903 -1.2486439 -1.0206084 -1.3692819 -0.7884379

fc.2.weight f4 [256, 128]
00000000: 3e61 71be 242a c2bd b27b 2ebe 1112 833e
00000010: 2788 76bd c583 e8bd 79aa f5bd 0b92 1dbe
00000020: 664d 14be 2812 c8bd 8750 dc3d d7c8 34bd
00000030: b6fa 4ebe bd3e 92be 81d5 bbbc aafc cc3d
00000040: 8a04 27be 6c5c 7abd 9bbe 06be 9b32 26be
00000050: d008 a9be 77d0 82bd d00d e4be 6541 1cbd
00000060: 4fd7 29be 07b2 483d cb5b 14be 05a7 68be
00000070: c54a d0ba ff10 67bd 5203 4a3d 5217 6dbe
00000080: f057 5dbe 4e12 583d 1af2 c2bd 0854 69be
00000090: 4789 80ba c4da 9d3b c205 92bd f3cb 4fbd
000000a0: b3a2 d13d a442 1ebe 4cca bfbc 7220 47be
000000b0: b1bb 01be 3d87 d9bd 04f4 4c3d 2330 cdbe
000000c0: 238a e1bd 4493 abbd 9618 09bd c8d1 d1bd
000000d0: 4f27 7b3c aad1 213d bd2d adbd 244b 31be
000000e0: 98a8 6b3c da91 0b3d 493a afbd 190a 1f3e
000000f0: bc08 a9be 81ce eabb 82ed 8ebe f24d c5bd
00000100: 3259 c8bd 433b 80bd 417c 54bd 2fe8 cfbd
00000110: f1a7 99be 5055 07be 22cb f9bd 3346 5ebe
00000120: 61ce fdbd 5815 2abc 5623 a5bb 4675 88be
00000130: 7437 c1bd 1b26 87be 8f9d 073e 2eb1 29be
00000140: 1512 ecbd ee09 07be e27e 323e 94f4 bf3d
00000150: 18fd 91bd 457b 8bbd b4bb abbe b8c3 ccbd
00000160: 133e abbd f7d6 63bd 46d3 e13d 69c6 b0bd
00000170: 7b4d 87bc 938e 2fbe 6e42 a93d 23ae f4bd
00000180: f7a4 b5bd 8ddb dfbd 5562 d53b 1fbf babe
00000190: 2217 73be 7023 d8bd ef4f 763c c800 e2bd
000001a0: 2e96 1bbe 7fda 48be 19b6 89be 579f a2be
000001b0: 481a 19be f440 6bbe b0b7 09be 50c6 95bd
000001c0: 4654 8dbe 5159 babe c013 96bd 96cb dabe
000001d0: 2053 d6bb 843f fabd 29d1 a53d cd8e 02be
000001e0: aa36 9abe e11a 67bc 4f8a 1ebe 1d0e d8bc
000001f0: 26c2 233c f58d 11be b3cf 6abc 49c9 cebd
00000200: 7a55 50ba 1ca6 2bbe 5f96 57be 25f9 23be
00000210: 0c6a 54bc c233 0b3e c795 413c 0c9b 27be
00000220: ca69 013e dbb1 1abe ebca 58be 1747 32be
00000230: 1117 6ebe f727 dcbd ef52 90bd b3fe 50be
00000240: 9f78 a63c 2929 09bd 7165 60be 5b21 44be
00000250: c903 1dbe 2331 63be e998 a3be 42b6 08bd
00000260: 3d18 8c3d a12e 30be 9055 8fbe 9669 ff3d
00000270: 2405 22bd 686e 2cbe 556e 49be 2cd7 ffbb
00000280: 8224 1abd 71ea 603d e2c7 56be 350a af3d
00000290: cd26 d9bc 7383 2fbe 9c9c 36be 279f 85be
000002a0: 1423 86be c4b4 7e3d f6d2 2abe faa2 8cbe
000002b0: fbda 28be f944 4ebe e734 24be 763f bb3e
000002c0: e831 91bd bb1a a4bc 128d 80be 4729 8ebd
000002d0: 2599 aa3d 11ab 90be 1d00 8dbe 69ee 013e
000002e0: 91b6 62bc 3629 1cbe 77ee 8e3d cd77 a53d
000002f0: 8b6e 7d3b 2a99 31be 4d4e 073d 345d b5bd
00000300: 7512 c4bd cd2a 2abe c84d 413e 931a 15be
00000310: 9a60 31bd f1c5 2cbe 26cd cabe 319b b1bb
00000320: 7480 67be 949e ca3d 095b 49be 9799 89be
00000330: c214 c93d 860f 88bd 20e3 62be 9d9f bbbe
00000340: 8b3d 81be 1aca 12be 979c 3dbe 056b c4be
00000350: ea51 a83b c0d6 15be d356 66be a881 edbd
00000360: cd8d b7bd 1858 b8bd 60c3 6bbe b2c1 813d
00000370: 0fdb 73be d1f3 7cbe 90b3 c7bd 488f 75be
00000380: a826 88be 1ff0 68be 0a99 9abd 3138 b33d
00000390: 7dd4 11be 444b 29be 1aa3 39bd 8871 01be
000003a0: 0b68 5bbd e89e e5bb 9697 613e c6d5 69be
000003b0: a93c e1bd 741c d3bd 167a 23bd 2cf7 dcbd
000003c0: d7cc ddbe 3bc4 45be 53e9 3f3d 3910 30be
000003d0: 21dd 65be a5c5 58be 2a04 84be 5061 1c3d
000003e0: b900 41be 2460 2abe feb4 95be e150 b9bd
000003f0: 8fac 6fbe 1036 a93d 0757 e53d 41cd e53d
-0.23572251 -0.09480694 -0.17039374 0.2559972 -0.06018844 -0.11353258 -0.11995406 -0.15387742
-0.1448265 -0.09769088 0.10757547 -0.04413685 -0.20212826 -0.2856349 -0.022928955 0.10009129
-0.16310325 -0.061123297 -0.13158648 -0.16230242 -0.33014536 -0.06387418 -0.44541788 -0.038148303
-0.1658604 0.048997905 -0.14488141 -0.22719963 -0.0015891424 -0.056412693 0.049319573 -0.23153427
-0.21615577 0.05275183 -0.095188335 -0.22785962 -0.0009806537 0.0048173387 -0.071300045 -0.05073161
0.102361105 -0.15455109 -0.023411892 -0.1944597 -0.12669255 -0.10621498 0.0500374 -0.40075788
-0.110126756 -0.08377698 -0.033470713 -0.10245091 0.015329196 0.03950659 -0.084559895 -0.1731382
0.014383458 0.03407464 -0.08556039 0.15531196 -0.33014476 -0.0071657305 -0.2791558 -0.096340075
-0.09782638 -0.06261303 -0.05187631 -0.101517074 -0.30010942 -0.13216138 -0.12196948 -0.21706466
-0.12392879 -0.010381065 -0.0050396128 -0.26651973 -0.09434405 -0.2639626 0.13243698 -0.16571495
-0.115268864 -0.13187382 0.17431214 0.093728215 -0.07128352 -0.06810621 -0.33541644 -0.09998268
-0.08361449 -0.05562493 0.11026625 -0.08631594 -0.016516438 -0.17144231 0.082646236 -0.119472764
-0.08869355 -0.10930548 0.006511966 -0.3647394 -0.23739293 -0.10553634 0.015033706 -0.11035305
-0.15194008 -0.196146 -0.26896742 -0.31762192 -0.14951432 -0.22973996 -0.13448977 -0.07313216
-0.27603358 -0.36396268 -0.07327986 -0.4273345 -0.006540671 -0.12219146 0.08096535 -0.12749787
-0.3011983 -0.0141055295 -0.15482448 -0.026373917 0.009995019 -0.14214309 -0.014331746 -0.10096986
-0.00079473073 -0.16762584 -0.21053456 -0.1601301 -0.012964737 0.13593963 0.011815495 -0.1636774
0.12638012 -0.15106909 -0.21171157 -0.17409931 -0.23250987 -0.1074981 -0.07047068 -0.2040966
0.020321188 -0.03348652 -0.21913697 -0.19153349 -0.15333475 -0.22186713 -0.319526 -0.03337694
0.068405606 -0.17205288 -0.27994967 0.12471311 -0.039555684 -0.16838992 -0.19670995 -0.007807633
-0.037632473 0.05491108 -0.20974687 0.08546869 -0.02650776 -0.17139988 -0.17833179 -0.26097986
-0.26198637 0.06218411 -0.16682038 -0.2746809 -0.16489784 -0.20143498 -0.16035806 0.36571854
-0.07089597 -0.020032277 -0.25107628 -0.06941467 0.08329991 -0.28255513 -0.2753915 0.12688603
-0.013837473 -0.15250096 0.06979077 0.08079491 0.0038670625 -0.17343584 0.033033658 -0.08855668
-0.09573833 -0.1661789 0.18877327 -0.14560919 -0.043305017 -0.16872384 -0.3960964 -0.0054201116
-0.22607595 0.098935276 -0.19663633 -0.26874992 0.09818412 -0.06643586 -0.22156954 -0.36645213
-0.25242266 -0.14334908 -0.18516766 -0.383629 0.005136718 -0.14632702 -0.22494058 -0.115969956
-0.08962593 -0.090011775 -0.23023748 0.063357726 -0.23814033 -0.24702384 -0.09751046 -0.23980439
-0.26591992 -0.22747849 -0.07548721 0.08750952 -0.14241214 -0.16532618 -0.04532156 -0.12640965
-0.05356602 -0.0070074685 0.22030482 -0.22835454 -0.10997898 -0.103081614 -0.039911352 -0.10789332
-0.43320343 -0.19313137 0.046853375 -0.17193688 -0.22447635 -0.21169145 -0.25784427 0.038178742
-0.18847932 -0.16638237 -0.2923965 -0.090486296 -0.2340567 0.08262265 0.1119824 0.1122079

fc.2.bias f4 [256]
00000000: b144 5cbe 5228 8cbe c4da 7ebe 4209 13bf
00000010: 117e bebe 062b 5fbe c243 d7be 5950 27be
00000020: c4f5 32bf 3772 4dbd b161 75be 096f b9be
00000030: 1754 31be 531a 63bd 8ccc 9dbe 4280 a7be
00000040: 07a8 88be f2dd aabe 5406 d6bd 6922 45bf
00000050: 27d9 d1be 2be1 a5bd 19ad e9bd 8beb f7bd
00000060: ea3e 6fbe 3dd3 febd cc74 18be 5f9c e0bd
00000070: 7af7 05bf 4795 54be f73c f1be 0cbb f1be
00000080: 73f6 cabe 60ad bebe bb0a 86be 3c3f 26be
00000090: 0b8d acbe 24e3 89be 81e4 7fbe 192d 01bf
000000a0: 77f8 e1bd 86fe edbd e15e a9be a12a dfbe
000000b0: b315 c3be 1305 91be 110f 73be 57ae c1be
000000c0: 0e83 84bd c345 cfbe 0635 89be 9ae5 32be
000000d0: 9aa5 95be 96d9 d2bd 3300 d6be d180 98be
000000e0: ec56 20bf 2410 b0be 2601 e0be 22b3 85be
000000f0: a8e7 9ebe 4b0e 0ebe b093 dfbe 17a8 19bf
00000100: 5996 66be 8686 b2be ae36 47be b303 8cbd
00000110: a5c8 1dbf 6973 aebe 322a 6fbe b55d 69be
00000120: 0432 9bbe 9fad 34bf c105 a6be 7637 93be
00000130: 823c d5bd 1f4e 41be b403 5bbe 5763 44bf
00000140: 1816 e8be 25c9 f2be 68a7 35be ba36 70be
00000150: ebe5 53be 1af2 10bf b690 17be e129 bbbe
00000160: edc1 98bd 62d4 3cbe f3d2 94be f4be bdbe
00000170: b9c8 febd 75ae bdbe f4f3 9dbe dd75 a0be
00000180: 9bf4 2fbe 8e0c c6be 6d16 52be 730c 2dbf
00000190: 12d3 bfbd 645a 07be 6011 dfbe 88f7 f0be
000001a0: 31ee 2ebc 4b72 63be ee52 babe a5ec c3be
000001b0: 1001 93be 4545 0abf 9de1 31bd c8c8 cabe
000001c0: 5ec6 80be 9e4b 23be 4675 09bf 631e f4be
000001d0: 0b2d 1dbe 288d 16be aa3b 9bbd a28a 49be
000001e0: b1cb b4be f24d 72be 1c3f d5be 35cb e8be
000001f0: 4426 a3be 61bd 05be 5355 e1be 7828 a6be
00000200: f978 84be 3f8c 6ebe 8615 afbc 1099 51be
00000210: e8ba bebe f599 88be 3beb c6be dc81 2ebe
00000220: c2c7 83be ef53 25be ba3e 30be 2493 95be
00000230: e9e6 75be bb2f 83be 842f 98be dbbb 97bd
00000240: 30f5 c4be 773f 93be 3147 13be b4f2 f5be
00000250: 9fea 0abe fda7 60be 5494 47bf 8e41 3bbe
00000260: 8a91 59be 07bc 3abe dd8a cbbd ccaf 4abf
00000270: c292 a0be 9f44 42bf 1977 8bbe b926 9fbe
00000280: 71f8 08be 8e42 a4be e8b8 82bf a9b8 ccbe
00000290: 14e2 8ebe 4147 a9be bc25 3fbe 3780 bdbe
000002a0: f783 30be 5833 f5bd 7196 b2be 8694 d7bd
000002b0: 4ae0 b7be 9682 bebe a8a4 b3be fb8f b33d
000002c0: e2b6 f6bd 09e7 b8be 7f01 80be 8551 0ebf
000002d0: 10ec 99be 4ce8 a7be 9e9f 21be dc7b 55be
000002e0: 6efc 5fbe 529b 96be 8fce b4be 2f6c 61be
000002f0: 1522 dfbe 6ac7 5cbf 53f1 96be 7e4f 9abe
00000300: 6f20 7abe 213b f6be 77f2 b8be 2476 c4be
00000310: eb23 5cbf ffd5 90be 888c fcbe 2136 25bf
00000320: e924 8ebe db5c 05bf 8b5c 81be 7a44 bcbe
00000330: 9304 92be 91b2 b3be 39e6 30be 389f 8fbe
00000340: 985d ebbe 1f01 3dbf a699 9fbe a0af e1be
00000350: 34e6 7fbf 59a1 32bf e6b6 e6be 5286 24be
00000360: 32c5 06bf 8d3a b3be 3257 bebe d289 cbbe
00000370: 9cb3 06bf 2d05 b0be 5c76 54be 0e6d f3bd
00000380: 7d33 febd 44ad 7bbe 03f1 0bbf 1594 24be
00000390: f113 06be c0b1 99be 7337 b7be 1721 cdbe
000003a0: 5550 b2bd 56b8 a5be c41b ffbd d8b0 c2be
000003b0: e80b fdbe 4acd 2dbe 8de1 04bf 6470 81be
000003c0: 810a f8be 46f0 b3be 8965 bdbe 9967 18bf
000003d0: 100c d6be 6f6c 22bf 6de4 d0bd 9485 c4be
000003e0: d7e9 01bf cbe8 ecbe 8329 a3be d14a a9be
000003f0: 8979 12bf 5090 2dbe ae43 0ebf 3528 d7be
-0.21510579 -0.27374512 -0.2488814 -0.57436 -0.37205556 -0.21793756 -0.42043883 -0.16339244
-0.6990626 -0.050157752 -0.23963048 -0.36217526 -0.17317234 -0.055445027 -0.3082012 -0.3271504
-0.26690695 -0.33372456 -0.10450426 -0.7700563 -0.40985987 -0.08099588 -0.11409969 -0.12105473
-0.23363844 -0.12442634 -0.14888304 -0.109673254 -0.52330744 -0.2076007 -0.47116825 -0.47213018
-0.3964115 -0.3724165 -0.26180062 -0.1623506 -0.33701357 -0.26931107 -0.24989511 -0.5045944
-0.11033719 -0.11620812 -0.330802 -0.4358721 -0.38102493 -0.28324184 -0.23736216 -0.37828323
-0.06470309 -0.4048291 -0.26798266 -0.17470399 -0.29227906 -0.102954075 -0.41797027 -0.2978578
-0.6263263 -0.34387314 -0.43750876 -0.2611323 -0.31036115 -0.1387264 -0.43667364 -0.6002211
-0.2251829 -0.34868258 -0.19454452 -0.06836643 -0.61634284 -0.34072426 -0.2335594 -0.22789653
-0.30311596 -0.70577425 -0.32426265 -0.2875325 -0.104119316 -0.18877457 -0.21388131 -0.7671408
-0.45329356 -0.47419086 -0.17739642 -0.23458377 -0.20693175 -0.5661942 -0.14801297 -0.3655539
-0.074588634 -0.18440393 -0.2906719 -0.37059748 -0.124406286 -0.37047163 -0.30850184 -0.31339923
-0.17183153 -0.38681453 -0.20516367 -0.6759712 -0.0936643 -0.13218075 -0.43567944 -0.4706385
-0.010676906 -0.22211568 -0.36391395 -0.38266483 -0.28711748 -0.54011947 -0.043428052 -0.3960631
-0.25151342 -0.15946814 -0.5369457 -0.47679433 -0.15349214 -0.14702284 -0.075797394 -0.1968179
-0.35311654 -0.23662546 -0.4164971 -0.45467535 -0.31865132 -0.13060524 -0.4401041 -0.3245275
-0.25873545 -0.23295687 -0.021372568 -0.20468545 -0.37251973 -0.2667996 -0.38851342 -0.17041725
-0.2573834 -0.161453 -0.17211428 -0.29213822 -0.24013866 -0.25622353 -0.29723752 -0.074088775
-0.38468313 -0.28759357 -0.14382626 -0.4803673 -0.13566063 -0.21939082 -0.77960706 -0.18286726
-0.21246925 -0.18235789 -0.099385954 -0.79174495 -0.31361967 -0.7588596 -0.27239302 -0.3108423
-0.13376023 -0.32082027 -1.0212679 -0.39984635 -0.2790686 -0.33062175 -0.18666738 -0.37011883
-0.1723784 -0.11972684 -0.34880403 -0.105263755 -0.35913306 -0.37209004 -0.3508656 0.087676965
-0.12046601 -0.36113766 -0.2500114 -0.5559314 -0.30062914 -0.32794416 -0.15783545 -0.2084803
-0.21873638 -0.29415375 -0.35313842 -0.22013925 -0.4358069 -0.8624178 -0.2948099 -0.30138773
-0.24426435 -0.48091987 -0.36122486 -0.38371384 -0.85992306 -0.28288266 -0.49325967 -0.6453572
-0.27762535 -0.5209481 -0.25265917 -0.36770993 -0.28519115 -0.35097173 -0.17275323 -0.28051162
-0.45969844 -0.73829836 -0.31171912 -0.44079304 -0.9996064 -0.69777447 -0.45061415 -0.16066864
-0.52644646 -0.35005608 -0.371759 -0.39753586 -0.5261781 -0.3437895 -0.20748276 -0.11886035
-0.12412164 -0.24577814 -0.5466463 -0.16072114 -0.13093545 -0.30018425 -0.35784492 -0.40064308
-0.08706728 -0.323672 -0.12456468 -0.38025546 -0.49423146 -0.16972843 -0.51906663 -0.2528106
-0.48445514 -0.35144252 -0.36991528 -0.5953308 -0.41806078 -0.63446707 -0.10199819 -0.38383162
-0.50747436 -0.46271357 -0.31867608 -0.33064893 -0.572167 -0.16949582 -0.5557202 -0.42022863

fc.4.weight f4 [252, 256]
00000000: c3cb ea3e 8d8e 6abe aa20 023f c719 9740
00000010: d01d eebe d13c a73e 458d 043f 59ec 0c40
00000020: c002 323f 1841 0d3f e342 f53f 776b 553e
00000030: f650 2bbe 111f debf e098 913f 62ad a13f
00000040: 2e2a ba3d 18b1 5b3e 33ed ab3f 1748 45bf
00000050: 9027 d13f 4753 8a3f 93de 2b3f 7d27 16bf
00000060: 5c95 1040 8aa2 51bf 5a6f 413f 3088 6fbf
00000070: fd03 913f fab5 123e b79a cdbe 7951 d53f
00000080: 9237 c6bd bcdb 9b3d 887a 6d3f cea4 cabe
00000090: 8599 463e d628 3a3e 2ad1 f93e 9030 9bbf
000000a0: 37a8 9440 93ae 0d3e be94 bcbf d742 d23e
000000b0: 9484 fb3e 74c1 28be 6570 153e f34c 9cbe
000000c0: 53ad d83e 9fb3 f0be 1728 0d3f 1665 ddbd
000000d0: 7997 83bd 8bc1 073f 4dcd cdbe 543c 82be
000000e0: 1e0e 24bf 5b00 153f 7968 cb3e 1235 1c3e
000000f0: e1d4 c13e ffed 1b3f a657 d1bf 424f bebe
00000100: a5d6 b8ba 6413 733f 520a cd3f 3940 8a3f
00000110: afd0 51bf 7f3f 163f 524f a03f 4ca7 68bf
00000120: 0f37 7f3f 6a4e 6b3d 5b6e 2d3f 8cef 1ebf
00000130: 4a44 173f fe0f f8bd 3012 d0bd bab0 dbbc
00000140: 824d c3be ec85 42bf 1040 1bbf 48e9 1fbf
00000150: 1d3d a13d c131 803e b10a 1140 da74 8f3f
00000160: 7d90 4c3e cb82 3d3f 57f7 1c3e 4fd2 04bf
00000170: a780 ddbe a4a4 d2bf 111e bd3f 10b9 a83f
00000180: 0f6a ed3e ab87 55be a5f4 b8be 3964 493f
00000190: 2463 4a3d a4d5 933f 6e7d 10c0 0574 b63f
000001a0: 5b75 77c0 110a 2f3f 28c5 e9be 7a3d ac3f
000001b0: 9d80 47bf f85a d13f 34c7 abbf 68c8 263f
000001c0: 504f 9e3e e13d 12bf 935f 653f f837 1ebf
000001d0: 88ea 87be b78e 843e bf76 403f d619 48bd
000001e0: 184c 923d 6dff 753f 2e5b 003f 06b3 c8be
000001f0: 5e9b c2bd c6bf 813e 77c1 2e3f b593 9fbe
00000200: b8b3 e43e 60c1 fa3f 1d47 0ebf add5 16bf
00000210: b81a 523f 585e 223f e37e 0f3f 3d82 3e3f
00000220: c5de f93e dc6a ce40 8571 883c 963c c2be
00000230: ddfa 263f 90ff 163f 8b22 62bd 8e8c 6040
00000240: 76f1 46bf f971 20be 0173 7c3f 21ec 9bbe
00000250: 9826 07bf 6304 583f 288e a43e 1292 923e
00000260: 211a 47be 36d4 783f 6e00 9b3f bbf8 14bd
00000270: 347f 493f d8b2 d0be 5a85 5c3f f2ea e0be
00000280: 0baa 4a40 922c 01bf 1d84 733f 9bb6 fe3f
00000290: 2281 253c 75b2 3cbf 700a 47be 0426 f4bf
000002a0: 7b5c b33d b1e2 a240 90a1 52be a633 653f
000002b0: d1b1 723f f682 2fbe 5f4a df3e f0b2 d4c0
000002c0: 3b5e 5b3f d4ee a73f 1f40 c9be af71 11be
000002d0: 744e 623f 2277 8d3f 1d90 623e 8bbb 183f
000002e0: 4fba 32bd 00c8 4f40 d0a8 94be 3f94 b03e
000002f0: dd65 7a3e fbaf 6bbf 98a3 ab3e 996a aa3e
00000300: ee7a 823f 402a 2fbe c958 2b3e 1b06 8c3f
00000310: 0aa8 553f 6336 2fbe de2d 5a3f ef9c fe3e
00000320: 1ad5 793e c8b2 edbd 9c51 293f 3e2c 383f
00000330: 1045 d6be 6edf 833e e322 003e dd17 6f40
00000340: ca11 203e 0d5a 07bf 85e3 7fbf a99e 323f
00000350: 3179 163f 793c 92be 996e afbe b5c2 f13f
00000360: 9282 8940 ca6d 843f 03e1 9bbe d4c6 e23f
00000370: 0570 b03e 0d4b 3b3f 5851 533f 691e 853f
00000380: 32dc aa3e 13d6 a43d d1f9 4940 a2a7 4ebf
00000390: 9927 a3be f108 e43e 2bdf 06bf d5a7 c6bf
000003a0: 99b1 1fbf 56ad e4be 8f4b 413f 4ac7 8a3f
000003b0: ef76 643d 54a1 1e3f 1c9c 9d3f 7993 e03f
000003c0: 8e6e b63f 17d9 bf3e a960 bf3e 8e42 4f3f
000003d0: 7c13 8bbf a981 5f3f 3b6d c0be 4eff a8bf
000003e0: 1616 0a3e ecc1 453f 41e8 033f a785 a93e
000003f0: 2834 893e ae39 7e3f 9832 843d c753 8c3f
0.45858583 -0.22905941 0.5083109 4.7218966 -0.4650712 0.32663587 0.5177806 2.2019255
0.69535446 0.5517745 1.9161037 0.20841776 -0.16730103 -1.7353231 1.1374779 1.2631037
0.090900764 0.21454275 1.3431762 -0.77063125 1.6340199 1.0806664 0.67136496 -0.58654004
2.2591162 -0.8188864 0.75560534 -0.9356718 1.1329342 0.14327231 -0.401571 1.6665488
-0.09678568 0.076102704 0.9276509 -0.3957886 0.193945 0.1817964 0.48792392 -1.2124195
4.645534 0.13836126 -1.4732893 0.4106662 0.49124587 -0.16480047 0.14593656 -0.30527458
0.42319736 -0.4701204 0.551393 -0.10810296 -0.064253755 0.530297 -0.40195695 -0.25436652
-0.6408404 0.5820367 0.39728144 0.1525462 0.37857726 0.6091003 -1.6354873 -0.37169844
-0.0014102055 0.9495146 1.6018775 1.0800849 -0.8195905 0.5869064 1.2524207 -0.90880275
0.9969339 0.05744783 0.67746514 -0.6208427 0.59088576 -0.12112425 -0.10159719 -0.026817668
-0.3814507 -0.759856 -0.60644627 -0.62465334 0.078729846 0.2503796 2.2662776 1.1207535
0.19976993 0.740277 0.15328728 -0.51883405 -0.43262216 -1.6456494 1.47748 1.3181477
0.4636998 -0.20852534 -0.3612415 0.7866855 0.049410954 1.1549573 -2.2576556 1.4254156
-3.8665378 0.68374735 -0.4565823 1.3456261 -0.77930623 1.6355886 -1.3420167 0.65149546
0.30919886 -0.5712567 0.8959896 -0.6180415 -0.2654612 0.25890133 0.7518119 -0.048852764
0.0714342 0.96092874 0.5013913 -0.39199084 -0.0950229 0.25341624 0.68263954 -0.3116738
0.44668365 1.9590263 -0.5557726 -0.58919793 0.8207202 0.6342521 0.5605299 0.7441748
0.48802772 6.4505444 0.016655693 -0.37936848 0.65226537 0.5898371 -0.055208724 3.5085788
-0.7771219 -0.15668477 0.9861298 -0.3045359 -0.52793264 0.84381694 0.32139707 0.28627068
-0.19443561 0.9719881 1.2109506 -0.03637002 0.7870972 -0.40761447 0.8614098 -0.4392925
3.1666286 -0.50458634 0.95123464 1.9899477 0.010101588 -0.73709804 -0.19437575 -1.9074101
0.087578736 5.0901723 -0.20569444 0.89531934 0.94802576 -0.17139801 0.43611428 -6.646843
0.8569066 1.311976 -0.39306733 -0.14203523 0.8840096 1.1051981 0.22125287 0.5966117
-0.04363471 3.246582 -0.29035044 0.34488103 0.2445292 -0.920654 0.3352325 0.33284453
1.0193765 -0.17105961 0.16733088 1.0939363 0.8345953 -0.1711059 0.8522624 0.49729106
0.24397698 -0.116063654 0.6614015 0.7194251 -0.41849566 0.257564 0.12513308 3.7358315
0.15631786 -0.5287178 -0.9995654 0.69773346 0.58778673 -0.28561762 -0.34264067 1.8887545
4.2971888 1.0346005 -0.30445108 1.7716928 0.34460464 0.73161393 0.82545996 1.0399905
0.3337112 0.08048644 3.1558726 -0.8072454 -0.31866148 0.44538072 -0.5268428 -1.5519968
-0.6238037 -0.44663495 0.7550592 1.0842068 0.055777486 0.6196492 1.2313266 1.7545005
1.4252489 0.37470314 0.37378433 0.8096093 -1.0865321 0.8730722 -0.37583336 -1.3202913
0.13484988 0.77249026 0.51526266 0.3310978 0.26797605 0.9930676 0.064549625 1.0963067

fc.4.bias f4 [252]
00000000: d847 063f a8f6 9bbe e079 73be b146 fb3b
00000010: 91d7 0b3d 3cbf c43d 678e b4ba 3dd3 a3bd
00000020: 8776 4abc a245 063d 8ff9 8c3d 66eb 2fba
00000030: 2d9b 41bd 0f5b 3abd 7278 16bc b272 933c
00000040: 60b7 243d 5b53 053d 6824 6d39 89fc 0ebd
00000050: a143 0b3c 80ba bebc 500b 433d c9c3 39bd
00000060: babf b73c 3abd 043d 410e f9bc ef35 7a3c
00000070: c47e 50bb 14b1 b2bc 1497 5d3a 38b9 b3bc
00000080: e9d5 cbba df0f d43b d3d4 893c ccce 1a3a
00000090: f42d c6bb d48e 8abc 448d 2cbc b7ea 26bc
000000a0: be43 bcbb 442b 00bc 55ad 85bb bbf7 273c
000000b0: 34ab b738 f296 213c 9a61 efb9 a052 29bd
000000c0: da7a 4f3c f6a2 8abc 7e85 1c3d d426 5ebb
000000d0: 829d 21bc 73db 31bc ccf2 c63c 5183 b1bc
000000e0: 1c60 d53b b78b d63b f7f5 ccbc 258d 2dbd
000000f0: 1d8b ce3c a836 0bbc 6afc 85bb 0301 6e3c
00000100: 13ce 053c 66e7 d3ba 6053 013a 063b 413b
00000110: f150 8abc f10f 4a3d f8e8 42bc d644 5b3c
00000120: 4d40 44bd 32f9 c73c d22e e9bb 6c24 0539
00000130: 0f5f 5c3c fc99 853c c444 f6bc 4be4 9e3b
00000140: e7f1 683c e76d 0abd cec2 f23c eaeb c7bc
00000150: 3390 053c b768 c43c 3aba abbb 60ba bdbc
00000160: 379f 2f3c a4d8 2abc 3e69 40bc 7006 343d
00000170: 2c20 cbbc da2c 983c cc5d 18bd a77a 123d
00000180: fcbe 783c 86ea 9fbc dd08 e239 77d6 aebb
00000190: 960e ecbb f5d1 2e3c 625e 783b 9b44 b13c
000001a0: 690a 083d 9b25 6d3c 55aa 52bd 9b46 0fbd
000001b0: 6828 aabc 6dd7 063d 1c3a d4ba 3da3 b8bc
000001c0: 053a dc3c 361c 12bd fa35 243c a0e2 b93c
000001d0: 5863 75bc 5341 debb 61f1 52b9 f4e4 3a3b
000001e0: d810 54bc 0e8e 323d fffc dfbc 1d64 393c
000001f0: e06a 103b 5290 873c 8ad3 1ebb f873 abbc
00000200: c172 fe3c b965 e1bc b66f d83a f31e dfbc
00000210: bf06 193d 9849 dabc 0ecf e13c af78 6cbc
00000220: 2869 26bd 11aa 2f3d f15a 87bc 7a04 5c3d
00000230: 55c6 923c 8bb3 1fbd 5bca 8c3c c25c 353b
00000240: c5df 0ebd 840c 95bb 4efb 6ebc 5499 633c
00000250: 81b1 203b 438a d23c 2eda c3ba 8f50 29bd
00000260: f436 533d cd38 28bc 6879 eabc 00a8 5b3d
00000270: 1630 15bc 1d48 25bc 1a02 083c dcd2 56bb
00000280: 875f 433c f98b 833c 15e3 f93b 1208 0ebd
00000290: 5083 853c 0047 d43a 04d8 8abb c433 613b
000002a0: 2062 07bc 09ac 81bc 2e58 cfbb cead a23c
000002b0: 2660 a0bc f5b1 e23b 51d6 15bc 512f e53c
000002c0: 5af5 c7bc 6995 283d 4b59 873b cb6d 423c
000002d0: 58a8 9d3a 458f 11bc 8594 a7bc 0d3b 15bc
000002e0: 9e20 9b3c 8017 bfbc fab8 073c 74d7 033d
000002f0: c02a 6ebd 8d80 b6bb d3af 013d e807 ebbc
00000300: ca3a b83c 2687 30bc a52c 08bc b2be 69bb
00000310: 045d 4d3c f35e 19bc 6750 19bc ba66 d53b
00000320: 19a4 923b 2c69 19bc fa9f 463a 2db9 8f3c
00000330: 8854 41bc c118 02bb e02c e53c 5b37 1fbd
00000340: c35a 3d3c dfb8 01bd 9bfa a73b aa8a dc3c
00000350: 64f7 0e3c 4a6c 19bd da58 e43c 590a 12bb
00000360: f06c a33b 761d 33bb 47a2 f83c bd04 f5bc
00000370: 093c ba3c 2333 8ebc 683b 6038 9ad7 acbc
00000380: 209f df3c b5c9 1fbc bc9e 60bc 739d 493d
00000390: 4af3 13bd f46b f03b ad81 0abd 20c1 983c
000003a0: fb2e 61bb c8d2 8d3c 1dc5 45bd d107 e13c
000003b0: 04e8 41bc e719 acbc 402f 24ba 4655 ec3c
000003c0: 2992 23ba 4b41 16bc 58ac 8a3b a792 ecbc
000003d0: 4303 a43c 89c5 273c 3d7c c6bc 0b2c 423c
000003e0: e008 a838 20c3 0abc a256 babb 2cbe d33c
0.52453375 -0.3046162 -0.2377696 0.007668339 0.034141127 0.096067876 -0.0013775349 -0.07999275
-0.012357361 0.03278125 0.06883537 -0.00067107973 -0.047267128 -0.045496996 -0.00918399 0.017999027
0.040213943 0.032550197 0.00022615644 -0.034908805 0.008500011 -0.02328229 0.04761821 -0.04535273
0.02243029 0.032407023 -0.030402305 0.015271648 -0.003181384 -0.021812953 0.00084529934 -0.021938905
-0.0015551421 0.0064716185 0.016825115 0.0005905449 -0.0060479585 -0.016913809 -0.010531727 -0.010187796
-0.00574538 -0.007822815 -0.0040795007 0.010251935 8.758009e-05 0.009862648 -0.0004565835 -0.041338563
0.012663567 -0.016923409 0.038213246 -0.0033897655 -0.009864213 -0.010855543 0.024285696 -0.021669062
0.0065117013 0.006547417 -0.025019629 -0.042370934 0.025212819 -0.008496918 -0.004088928 0.014526608
0.008166808 -0.0016166985 0.00049333833 0.0029484644 -0.016884299 0.04933161 -0.011896364 0.013383111
-0.047912885 0.024410818 -0.007116177 0.00012697437 0.013450398 0.016308777 -0.030062087 0.004848992
0.01421783 -0.033796217 0.029633906 -0.024404485 0.008152056 0.023975713 -0.005240706 -0.02316016
0.010719112 -0.010427628 -0.011743842 0.04395145 -0.024795614 0.018576074 -0.037198827 0.0357615
0.015182253 -0.01952101 0.00043112683 -0.005335625 -0.007203887 0.010670175 0.0037898053 0.021639159
0.033213053 0.014474298 -0.051431973 -0.034979444 -0.02077122 0.03292029 -0.0016191634 -0.022538776
0.026883135 -0.035671435 0.010022635 0.022691071 -0.014977299 -0.0067826896 -0.00020117081 0.0028517814
-0.012943469 0.043592505 -0.027342318 0.011315373 0.0022036359 0.01654831 -0.0024234974 -0.020929322
0.031060578 -0.027514325 0.0016512785 -0.027236437 0.03735995 -0.02664642 0.027564552 -0.01443307
-0.04062763 0.042886797 -0.016522856 0.053715207 0.017916838 -0.038989585 0.017186334 0.0027673696
-0.034881372 -0.004548611 -0.014586283 0.013891537 0.0024519863 0.025700694 -0.0014942342 -0.041336592
0.05156608 -0.010267449 -0.028622344 0.053627014 -0.009105703 -0.010087994 0.008301282 -0.003277949
0.011924631 0.016057955 0.0076259472 -0.034675665 0.016297966 0.0016195476 -0.004237177 0.003436313
-0.008263141 -0.015829103 -0.0063276505 0.019858267 -0.019577097 0.006918187 -0.009145335 0.027976664
-0.024408985 0.041158114 0.0041305176 0.011866997 0.001202832 -0.008884256 -0.020456562 -0.009108317
0.018936452 -0.023326635 0.008283848 0.032187894 -0.05814624 -0.0055695237 0.03166182 -0.028690293
0.02248897 -0.010774409 -0.008311425 -0.0035666642 0.012534384 -0.009361017 -0.009357548 0.00651249
0.0044751284 -0.009363454 0.0007576939 0.017544353 -0.011799939 -0.001985118 0.0279755 -0.03887115
0.011557284 -0.031670447 0.00512631 0.026921589 0.008725975 -0.037456788 0.027874399 -0.0022284
0.0049873516 -0.0027330793 0.030350817 -0.029909486 0.022733705 -0.017358368 5.3461088e-05 -0.0210989
0.027297556 -0.009752681 -0.01370972 0.04922242 -0.03612069 0.0073370878 -0.033815075 0.018646777
-0.0034360278 0.017312422 -0.048283685 0.027469547 -0.011835102 -0.021008445 -0.00062631443 0.028849255
-0.0006239736 -0.0091708405 0.0042319708 -0.028878523 0.020021087 0.010239967 -0.024229163 0.011851321
8.012517e-05 -0.008469373 -0.005686597 0.025847517

temporal_smoother.weight f4 [1, 1, 13]
00000000: 0018 0dbb 558d 95bb c8c4 143c ef3f bdbc
00000010: 1623 25bd 3a82 fc3a 2876 80bd 60d6 a7bd
00000020: 2e2b 35bd bc6e 143b b617 84bc 5eb5 fabc
00000030: bf1c 81bc
-0.0021529198 -0.004563967 0.009080119 -0.023101775 -0.040316664 0.0019264885 -0.062725365 -0.08195186
-0.044230632 0.002264901 -0.016124588 -0.03060406 -0.015760778
