generator_gan_ecv_lstm.pth (torch, 163444 bytes, 7 tensors)

input_proj.weight f4 [64, 103]
-0.012269983 -0.062143017 -0.11423819 -0.119719006 0.018126233 -0.09882296 0.13754159 -0.12744394
0.07935945 -0.15472117 -0.18556267 -0.14997187 0.03901812 -0.25894868 -0.02915426 0.23061478
-0.1310369 0.06040876 0.009061531 -0.04374037 -0.21858598 -0.06904767 0.36528614 0.023019692
0.1129551 -0.071993865 -0.01872706 -0.13449578 0.22060539 0.04771003 -0.17196104 0.036377847
0.07908446 -0.035645574 0.18224256 -0.20017678 -0.10333466 -0.11914933 0.14298573 0.11600342
-0.20999788 0.0921061 -0.16114832 0.34053698 0.032003723 0.06472101 -0.2174871 0.104369946
-0.06670687 -0.15716101 0.101979144 -0.027043419 0.001566494 0.18406379 0.16338095 0.10228161
-0.14236999 -0.1121901 -0.15250811 -0.16692054 -0.12223664 0.0016783926 -0.06406147 0.305635
-0.36853775 0.19673444 0.392738 -0.29634473 0.20921975 -0.17095353 -0.1431709 0.3107602
-0.23106617 0.14337565 0.16572128 -0.24855764 0.28653544 -0.031469047 0.07745525 0.037991814
0.31656608 -0.18193807 0.29597378 -0.28520837 -0.14755428 -0.15836178 -0.18486282 0.3627098
0.28448945 -0.05206854 0.031077519 -0.077887155 0.21395133 -0.031504042 0.021582317 -0.2206539
0.16778731 0.028855786 0.07641973 0.011074882 -0.6415146 7.467722 -0.7849455 0.042762432
-0.09553726 0.11098269 -0.06644666 0.0630416 -0.063696966 0.22850138 0.08834755 0.015675193
0.42850548 -0.24414472 -0.26076767 0.30308124 0.094687104 0.077163786 0.23451525 0.023973124
0.20668069 0.37506828 -0.10052813 -0.35743412 -0.11308741 0.096780226 0.14919844 0.09897534
-0.05521548 -0.19705929 0.1650699 0.35615644 0.027150432 0.2422046 -0.26612633 0.00988478
0.20922673 0.20560797 -0.2444162 -0.08933258 -0.08724953 0.06682881 0.017631205 0.16055496
0.18854015 -0.18000367 0.10846753 -0.14802785 -0.38105103 0.021829309 0.30782402 -0.12220656
-0.09406115 0.112539865 -0.0076616546 -0.08385667 0.30606583 -0.05296071 0.058457904 -0.095461234
-0.2674964 -0.26274016 0.13800953 -0.07578856 -0.012286949 0.26925668 0.029258635 -0.19276266
-0.111345045 -0.007609986 -0.14525102 -0.34491536 -0.22447689 0.17869262 0.18100919 -0.26085788
0.24373816 -0.12470223 0.01078781 -0.12893344 -0.19651291 -0.042376544 0.16044082 -0.13875599
0.060570057 -0.0060588885 -0.14541166 -0.40375522 -0.038166087 -0.3523713 0.048544705 -0.09178312
0.11836918 -0.29008055 0.40269518 0.23385337 0.09145836 0.096666254 -0.024381034 0.33139488
0.13036568 -0.08336933 -0.06991164 0.74711317 -1.0303236 0.96984637 0.24265294 0.016143827
0.22248226 -0.020040309 0.032507975 -0.019773737 0.048282888 -0.20218705 -0.18568324 -0.050595812
-0.16710351 0.06502492 -0.10067068 -0.018173965 0.13987584 0.08303202 -0.20085739 0.104177065
0.19197163 -0.0927293 0.02576302 0.0017349988 0.033668593 -0.04328145 0.18774185 0.1838141
0.17134759 0.01003427 -0.018275488 -0.050312214 0.2013039 -0.055479303 0.16100559 0.029714053
0.11077674 0.24099463 0.058510657 0.1465314 -0.27751455 0.0076500536 0.020516984 0.17004953
0.04428058 0.09277092 0.071572565 -0.014535892 -0.08325071 0.011438562 0.007554932 -0.31045505
00000000: 0a08 49bc ad89 7ebd b6f5 e9bd 3d2f f5bd
00000010: 777d 943c b163 cabd b4d7 0c3e aa80 02be
00000020: 3587 a23d 3a6f 1ebe 2404 3ebe 3a92 19be
00000030: 77d1 1f3d ec94 84be ead4 eebc 4826 6c3e
00000040: 8a2e 06be 2d6f 773d d176 143c 1a29 33bd
00000050: 01d5 5fbe dd68 8dbd c906 bb3e cb93 bc3c
00000060: 0155 e73d 8571 93bd 7e69 99bc 43b9 09be
00000070: 61e6 613e 986b 433d 8e16 30be f000 153d
00000080: 09f7 a13d 1801 12bd cb9d 3a3e 24fb 4cbe
00000090: 1fa1 d3bd 9004 f4bd da6a 123e 3393 ed3d
000000a0: af09 57be 1fa2 bc3d 1104 25be dd5a ae3e
000000b0: 5616 033d 738c 843d f0b4 5ebe e9bf d53d
000000c0: 9d9d 88bd d1ee 20be 71da d03d 298a ddbc
000000d0: d152 cd3a 387b 3c3e 564d 273e 0579 d13d
000000e0: 70c9 11be ecc3 e5bd 162b 1cbe 38ed 2abe
000000f0: 3457 fabd 83fd db3a a932 83bd 317c 9c3e
00000100: fbb0 bcbe c174 493e f514 c93e 7fba 97be
00000110: b43d 563e 710e 2fbe 649b 12be f61b 9f3e
00000120: 9c9c 6cbe 11d1 123e d7b2 293e e585 7ebe
00000130: c6b4 923e b0e5 00bd dca0 9e3d 4e9d 1b3d
00000140: f314 a23e f94d 3abe e089 973e d506 92be
00000150: 7818 17be 9729 22be ae4c 3dbe 19b5 b93e
00000160: 9aa8 913e d245 55bd 4896 fe3c 4d83 9fbd
00000170: 0f16 5b3e 620a 01bd 66cd b03c 19f3 61be
00000180: 70d0 2b3e f862 ec3c f381 9c3d 6c73 353c
00000190: 4d3a 24bf 94f7 ee40 30f2 48bf a927 2f3d
000001a0: 0aa9 c3bd e44a e33d 3015 88bd f41b 813d
000001b0: 8e73 82bd 44fc 693e 8fef b43d 4369 803c
000001c0: 1265 db3e 1301 7abe 5783 85be 772d 9b3e
000001d0: 50eb c13d 0c08 9e3d c424 703e 4963 c43c
000001e0: 1aa4 533e f308 c03e b1e1 cdbd 9b01 b7be
000001f0: 5f9a e7bd b634 c63d 7ac7 183e 95b3 ca3d
00000200: a129 62bd e9c9 49be 1508 293e 235a b63e
00000210: 956a de3c 7c04 783e b641 88be c6f3 213c
00000220: 883f 563e e58a 523e 3e48 7abe 00f4 b6bd
00000230: e2af b2bd 8bdd 883d 516f 903c 8568 243e
00000240: ab10 413e e252 38be 3924 de3d 9d94 17be
00000250: 1f19 c3be 61d3 b23c 1c9b 9d3e 6f47 fabd
00000260: 22a3 c0bd 4d7b e63d 9e0e fbbb 0cbd abbd
00000270: a9b4 9c3e 54ed 58bd 8e71 6f3d 2e81 c3bd
00000280: 4af5 88be e185 86be 5f52 0d3e 0837 9bbd
00000290: 334f 49bc 03dc 893e ceaf ef3c 9363 45be
000002a0: df08 e4bd 305d f9bb afbc 14be bf98 b0be
000002b0: 45dd 65be 33fb 363e 795a 393e 2a8f 85be
000002c0: 7f96 793e e263 ffbd 5bbf 303c 2107 04be
000002d0: ae3a 49be 0793 2dbd 994a 243e 0d16 0ebe
000002e0: 4f18 783d a489 c6bb cbe6 14be 01b9 cebe
000002f0: 0b54 1cbd 036a b4be d0d6 463d caf8 bbbd
00000300: 8a6b f23d 7085 94be 102e ce3e 4277 6f3e
00000310: 854e bb3d f5f8 c53d bcba c7bc 97ac a93e
00000320: 957e 053e 8abd aabd d52d 8fbd cf42 3f3f
00000330: a5e1 83bf da47 783f 037a 783e 0f40 843c
00000340: 64d2 633e 932b a4bc 1527 053d 88fc a1bc
00000350: 47c4 453d 1f0a 4fbe bf23 3ebe 8e3d 4fbd
00000360: 2f1d 2bbe c92b 853d 6e2c cebd 91e1 94bc
00000370: 9d3b 0f3e b10c aa3d 8fad 4dbe c95a d53d
00000380: 3694 443e dce8 bdbd f80c d33c e668 e33a
00000390: 14e8 093d e447 31bd 663f 403e c339 3c3e
000003a0: be75 2f3e c766 243c 7ab6 95bc 2e14 4ebd
000003b0: 9c22 4e3e 443e 63bd a6de 243e e36a f33c
000003c0: eade e23d 4cc7 763e dfa8 6f3d 540c 163e
000003d0: 6316 8ebe 4dad fa3b 3c13 a83c 7721 2e3e
000003e0: 8e5f 353d aefe bd3d a394 923d f327 6ebc
000003f0: 597f aabd ce68 3b3c 5d8f f73b f7f3 9ebe

input_proj.bias f4 [64]
-0.37972897 1.0130284 -1.3793052 0.19427238 -0.11665974 -0.027847398 -0.28299582 -0.077426456
1.0427136 0.6010913 -0.5101121 -0.747728 -0.51467603 -0.5665 -0.5950215 -0.23437524
0.7591562 -0.5757627 -0.17110081 0.3193876 0.49452916 0.10725961 -0.34943303 -0.2567104
-0.3719302 0.060798045 -0.26904577 0.68102163 0.12235401 -0.8721799 0.30429533 0.20240255
0.59704727 -0.18788388 0.40222353 -0.5245538 0.049140386 -0.059409726 -0.8547579 0.005755545
-0.26387718 0.16873954 0.2557881 0.9753119 0.31407306 0.2868394 -0.44717115 -0.5536483
-0.18215117 -0.79147786 -0.6094257 -0.055418424 0.14935695 -0.7084793 0.1289964 0.5625458
-0.3531374 0.08605569 -0.39666015 -1.3212126 -0.18247885 0.6161947 -0.31827214 0.6897802
00000000: d66b c2be eaaa 813f 138d b0bf 57ef 463e
00000010: 4deb eebd 3a20 e4bc d4e4 90be c391 9ebd
00000020: a477 853f 1fe1 193f b596 02bf 1a6b 3fbf
00000030: cfc1 03bf 2506 11bf 5453 18bf 1000 70be
00000040: 1058 423f 2f65 13bf 0d35 2fbe c686 a33e
00000050: ed32 fd3e edaa db3d e3e8 b2be 8c6f 83be
00000060: a36d bebe 5f07 793d 5ec0 89be 6f57 2e3f
00000070: bd94 fa3d 2f47 5fbf 99cc 9b3e 9d42 4f3e
00000080: 17d8 183f a264 40be 3ef0 cd3e 2849 06bf
00000090: 6e47 493d 9d57 73bd 6ad1 5abf 0399 bc3b
000000a0: e91a 87be 0fca 2c3e a8f6 823e 0aae 793f
000000b0: 2fce a03e 9ddc 923e 9ef3 e4be e5bb 0dbf
000000c0: d685 3abe 4b9e 4abf 5303 1cbf 6efe 62bd
000000d0: 07f1 183e e65e 35bf a217 043e 0003 103f
000000e0: 6dce b4be f73d b03d 0a17 cbbe 7f1d a9bf
000000f0: bcdb 3abe f0be 1d3f 91f4 a2be 6f95 303f

lstm.weight_ih_l0 f4 [256, 64]
0.33435532 -0.44600064 0.48919877 0.041388646 -0.2751605 -0.106620535 0.3456153 -0.1342211
0.051322546 -0.09897362 0.8510384 0.18387935 0.32594 0.12234676 0.50992185 -0.05241277
-0.09238631 -0.198035 0.24001534 -0.1604188 -0.43418247 -0.39678103 0.16639037 0.13877733
0.16000849 -0.2576378 0.02421092 -0.13105461 -0.06996134 0.6478409 0.08879491 -0.0799994
-0.24262208 -0.12959817 0.4138128 0.09041977 -0.25621322 0.28966317 0.0009446723 0.29390723
0.2483077 -0.06301474 0.09262457 -0.6464014 0.0142910015 -0.1029773 -0.06268132 0.1273549
0.013325774 0.2433641 -0.00453161 0.35550568 0.062659405 0.2980228 -0.13570084 -0.3014828
0.40132234 -0.6403416 0.2066153 0.60813093 0.17365226 0.0050062076 0.16146973 -0.4185725
0.34648964 -0.088381775 0.5356762 -0.044009943 0.026024902 -0.19466363 0.25213233 0.094486326
-0.23799922 0.11627225 0.34717867 0.20260713 0.033668615 -0.009503152 0.18951367 0.003726269
-0.090681896 0.028714878 -0.21587285 -0.19586365 0.1702288 0.1617753 -0.051881887 0.24435428
0.19590843 0.06264629 0.1550346 -0.14240111 0.07052337 0.23608573 0.01265623 0.026327578
0.25436324 -0.06771899 -0.27901596 0.15257451 -0.33947414 0.065170035 0.15431888 -0.07462665
0.37113732 -0.12798919 0.42716438 -0.28516972 -0.49298716 0.113737255 -0.010586567 -0.39345893
0.18717243 0.16246964 -0.12329028 -0.47353172 -0.16163366 -0.19712494 0.006661573 -0.15365577
-0.035087205 0.16489564 0.21862131 0.75589377 0.017207127 -0.1397797 0.16433337 -0.12588228
0.2450097 -0.32194543 0.6479588 -0.42312175 0.4500319 -0.08043086 0.36241403 -0.38514736
-0.54319346 0.03170215 0.12342878 0.32085505 0.087821536 -0.12978159 0.39699966 0.01509039
-0.14588074 -0.0160271 0.19322486 -0.49878734 -0.31698132 0.07175572 0.034658883 0.17834872
0.53144926 -0.06867789 0.33096904 -0.20780194 0.06288481 0.8591603 0.43845832 0.014703305
-0.24742545 -0.018761776 0.20673978 -0.0894134 -0.22362904 0.18837179 0.33268794 0.40241703
-0.0019798705 -0.15724972 0.10315332 -0.5154717 -0.29801464 -0.028642856 -0.44639146 0.08256433
0.2125235 -0.008621306 0.20694779 0.029045962 0.2610348 0.12998848 -0.10848863 -0.4161782
0.14485243 -0.49465105 0.032768678 0.718576 -0.0031134447 -0.30391887 -0.054862585 0.14731586
0.79045624 -0.06401526 0.1948635 -0.05423718 0.05826751 -0.13366999 -0.06952601 0.15962636
-0.07549056 0.1906513 0.1444759 0.29811776 0.04776659 -0.096633166 0.029834276 0.15162839
0.26156387 0.05449662 0.08726004 -0.11905921 0.24711075 0.07042695 -0.008450624 -0.00854723
0.22639218 -0.015776224 -0.22723162 -0.48763385 -0.008266289 0.3856249 0.12297257 -0.1419971
-0.030326203 0.41978523 0.0626201 0.25874907 -0.27697623 0.2025513 0.22695878 0.08792198
0.008707698 -0.06671463 0.28328058 0.23621039 -0.3004244 0.11500197 -0.08598908 -0.18240006
-0.079742335 0.08345543 0.12429347 0.15113361 -0.095580764 2.4553625e-05 -0.124905445 0.03171837
-0.0020795125 -0.34148785 0.011104415 0.49638584 -0.02557471 0.05543726 -0.18445611 0.24747062
00000000: 9f30 ab3e 325a e4be 4378 fa3e 2487 293d
00000010: d6e1 8cbe de5b dabd 7df4 b03e 4271 09be
00000020: 9737 523d aeb2 cabd a7dd 593f de4a 3c3e
00000030: 9ce1 a63e f090 fa3d 3d8a 023f c6ae 56bd
00000040: 0935 bdbd b0c9 4abe 95c6 753e d344 24be
00000050: 2a4d debe e226 cbbe 3d62 2a3e a51b 0e3e
00000060: 44d9 233e 1ae9 83be fb55 c63c 2e33 06be
00000070: e447 8fbd e7d8 253f 1bda b53d bad6 a3bd
00000080: ec71 78be 62b5 04be 45df d33e 002e b93d
00000090: 612e 83be bb4e 943e e3a3 773a 027b 963e
000000a0: 6044 7e3e df0d 81bd f3b1 bd3d 907a 25bf
000000b0: ce24 6a3c c3e5 d2bd 105f 80bd 5369 023e
000000c0: 5954 5a3c 7034 793e e67d 94bb d704 b63e
000000d0: 9353 803d 7296 983e 29f5 0abe f45b 9abe
000000e0: 1f7a cd3e 6ded 23bf f692 533e 78ae 1b3f
000000f0: e6d1 313e 1d0b a43b 5258 253e 224f d6be
00000100: 1767 b13e 8101 b5bd 1322 093f c543 34bd
00000110: 2d32 d53c e755 47be 7d17 813e 0c82 c13d
00000120: 11b6 73be 2520 ee3d 67c1 b13e 3e78 4f3e
00000130: 1ae8 093d 1cb3 1bbc df0f 423e 6b34 743b
00000140: 6eb7 b9bd 773b eb3c c60d 5dbe 7b90 48be
00000150: 7550 2e3e 6da8 253e 1a82 54bd 0238 7a3e
00000160: 389c 483e b34c 803d 64c1 1e3e 99d1 11be
00000170: 8e6e 903d 75c0 713e 135c 4f3c efac d73c
00000180: e63b 823e 41b0 8abd 2edb 8ebe 7e3c 1c3e
00000190: 8ecf adbe de77 853d c505 1e3e dbd5 98bd
000001a0: b605 be3e 990f 03be 4ab5 da3e c401 92be
000001b0: d068 fcbe 14ef e83d 4873 2dbc 7373 c9be
000001c0: 21aa 3f3e 715e 263e 9d7f fcbd c072 f2be
000001d0: 4b83 25be 1fdb 49be 5349 da3b f057 1dbe
000001e0: 9ab7 0fbd 67da 283e 44de 5f3e 4182 413f
000001f0: f6f5 8c3c 6922 0fbe 0247 283e 49e7 00be
00000200: d3e3 7a3e 08d6 a4be a1e0 253f 6aa3 d8be
00000210: 956a e63e efb8 a4bd 558e b93e 0932 c5be
00000220: ba0e 0bbf 1dda 013d 3ac8 fc3d 1d47 a43e
00000230: c7db b33d 77e5 04be 8a43 cb3e af3d 773c
00000240: c361 15be 444b 83bc bddc 453e 0e61 ffbe
00000250: 604b a2be aaf4 923d 79f6 0d3d 0ca1 363e
00000260: 0f0d 083f fea6 8cbd c674 a93e 08ca 54be
00000270: c0c9 803d eef1 5b3f 9c7d e03e 22e6 703c
00000280: 195d 7dbe 4cb2 99bc 98b3 533e 5f1e b7bd
00000290: 03ff 64be 89e4 403e 1356 aa3e 9b09 ce3e
000002a0: b7c0 01bb 1206 21be 0c42 d33d f4f5 03bf
000002b0: 6095 98be 6ca4 eabc 6c8d e4be 7d17 a93d
000002c0: c39f 593e 6140 0dbc 1fea 533e ccf1 ed3c
000002d0: 5aa6 853e b31b 053e 492f debd 4f15 d5be
000002e0: 3254 143e e742 fdbe 7338 063d 99f4 373f
000002f0: ef0a 4cbb 419b 9bbe 97b7 60bd f8d9 163e
00000300: 575b 4a3f 6f1a 83bd 4c8a 473e ce27 5ebd
00000310: eaa9 6e3d c9e0 08be a763 8ebd 1875 233e
00000320: cb9a 9abd 183a 433e 7ef1 133e e4a2 983e
00000330: e6a6 433d 9ce7 c5bd 0367 f43c 7944 1b3e
00000340: b3eb 853e d937 5f3d 64b5 b23d 51d5 f3bd
00000350: 9a0a 7d3e 013c 903d 7c74 0abc ae09 0cbc
00000360: 5ad3 673e 243d 81bc 68af 68be 25ab f9be
00000370: 546f 07bc a070 c53e 0bd9 fb3d b067 11be
00000380: a86e f8bc 17ee d63e f83e 803d c27a 843e
00000390: d4cf 8dbe 9c69 4f3e e267 683e 7010 b43d
000003a0: bcaa 0e3c aea1 88bd 270a 913e 23e1 713e
000003b0: 3ad1 99be 2786 eb3d 0b1b b0bd 15c7 3abe
000003c0: f34f a3bd aeea aa3d 938d fe3d c5c2 1a3e
000003d0: d9bf c3bd 82f8 cd37 6dce ffbd 1feb 013d
000003e0: 6e48 08bb 7fd7 aebe 4bef 353c 4926 fe3e
000003f0: 0e82 d1bc 2e12 633d 10e2 3cbe f068 7d3e

lstm.weight_hh_l0 f4 [256, 64]
0.035426565 -0.018547164 0.33940583 0.21739407 -0.26553524 -0.42349714 -0.51796496 -0.39965686
0.08276478 -0.35342062 0.34668887 -0.07998138 -0.08614491 -0.18208788 0.15203103 0.5725493
-0.22476752 0.48000664 0.42926317 -0.2714077 -0.24430194 0.26507643 0.42472526 -0.241424
0.22367273 1.0290244 0.42194554 0.038429543 -0.18414013 -0.23880923 -0.25902995 0.27029333
0.1963409 0.19340517 0.27222443 0.1927852 0.15313256 0.29535496 0.07792398 -0.07256064
0.42125952 0.47380877 0.40638357 0.8457479 -0.17794499 -0.37665266 0.01918808 0.039156403
0.1946265 -0.2313156 0.022446636 0.07435796 -0.12874086 -0.2546299 0.013933114 -0.10918544
0.06727654 -0.21757902 -0.07091256 0.03343522 -0.86559314 -0.67881733 -0.11292596 0.33491132
-0.38007373 -0.04222449 -0.74700683 -0.092501685 -1.3348219 0.058219388 -0.4756918 0.9449565
1.0215006 0.012257057 -0.115935534 0.36495548 0.4781987 -0.81851184 -0.03669142 0.31678757
0.2800115 0.13169383 0.095921226 -0.99248475 0.89349484 0.31758168 1.476433 0.48095268
-0.7310654 0.4308847 0.2426058 -0.39229038 -0.8146319 -0.6386359 1.538454 -1.1860982
0.37217557 -0.501817 0.41930434 -0.75294757 -0.8899727 0.57859784 -0.027420726 0.13078482
-0.36393678 1.0466132 0.9233591 0.90724957 -0.120865285 -0.28728184 -0.29426372 0.23671296
-0.16030642 0.58298886 0.22714296 -0.0009370438 -0.013510247 0.33553228 -0.77295953 0.871231
-0.52779114 -0.2744761 -0.40719342 -0.4802849 0.33331254 -0.6292785 0.22439702 -0.053276256
0.17110199 0.7770985 -0.06624092 0.7002785 -0.79819566 -0.514829 0.5213131 -1.0299863
0.6653705 -0.6016461 -1.8126509 -0.27842343 -0.4061527 -0.5398962 -0.5437187 0.6324181
0.22131638 0.8549451 2.1182084 -0.7545784 -0.009440416 0.5874591 0.52192116 1.3269004
0.40559927 1.7172722 0.5030242 -0.7537554 -0.9178557 -0.82498556 0.42806542 0.14004603
0.4692739 0.1758124 0.77559334 0.021113615 -0.77364546 0.22599612 -0.3759605 -0.30358377
-0.41688287 1.2256272 1.2403756 0.6460337 -0.69066805 -0.18421651 -0.78018576 -0.3436752
-0.71814847 -0.12560882 0.036893383 0.66647476 0.33997673 0.13899893 -0.7325194 0.92555916
-0.67890835 -0.5387541 -0.15995324 1.1772039 -0.5817262 -0.89837414 1.3087718 0.5142114
0.662435 -0.57781696 0.6205536 -0.58721036 -1.6693115 -0.6548871 0.6377352 0.053759195
1.4019747 -0.24566528 -0.116186514 0.024293948 -1.7717438 -0.6315859 -0.99518996 0.0673181
0.7937373 0.40572378 2.7509782 -0.90661204 0.7416365 -0.33822268 0.97514063 0.5568766
-0.6367999 1.3821692 0.5524059 -0.425438 -0.8429764 -0.51622087 1.5711524 -0.5234478
1.1310129 0.2447262 0.53868055 0.23184478 -1.6104907 0.6530574 0.33912656 0.4242873
-0.7814552 1.6690899 2.2498348 0.8474423 0.22937064 -0.15669084 0.23767792 1.5108047
-1.1562687 0.37955403 0.4829526 0.19199692 -0.6423998 -0.37965205 -0.5413488 0.7700475
0.29975665 -0.3033328 -0.63086486 0.3692888 -0.3833352 -1.5031589 -0.06746868 0.49564898
00000000: 721b 113d 39f0 97bc 9ac6 ad3e 8d9c 5e3e
00000010: 3cf4 87be 9ed4 d8be 5a99 04bf d39f ccbe
00000020: 9580 a93d 8cf3 b4be 3481 b13e 47cd a3bd
00000030: be6c b0bd 3f75 3abe 06ae 1b3e 9792 123f
00000040: 7529 66be 6ec3 f53e 62c8 db3e f3f5 8abe
00000050: 4a2a 7abe 19b8 873e 9775 d93e da37 77be
00000060: 770a 653e 12b7 833f 3f09 d83e 4c68 1d3d
00000070: 3b8f 3cbe 688a 74be 939f 84be e363 8a3e
00000080: 970d 493e 010c 463e 0061 8b3e 7c69 453e
00000090: c8ce 1c3e c438 973e 9c96 9f3d ac9a 94bd
000000a0: 54af d73e 1097 f23e 8211 d03e ef82 583f
000000b0: 3637 36be 9ed8 c0be 5230 9d3c 7762 203d
000000c0: 2b4c 473e ffdd 6cbe 02e2 b73c fc48 983d
000000d0: a5d4 03be da5e 82be b747 643c 9e9c dfbd
000000e0: 48c8 893d 09cd 5ebe 9b3a 91bd 5ff3 083d
000000f0: 8397 5dbf f9c6 2dbf ba45 e7bd 7f79 ab3e
00000100: 0699 c2be 96f3 2cbd d73b 3fbf 8671 bdbd
00000110: 72db aabf 7477 6e3d e08d f3be abe8 713f
00000120: 88c0 823f d3d1 483c 9c6f edbd 72db ba3e
00000130: 76d6 f43e fe89 51bf be49 16bd fb31 a23e
00000140: ab5d 8f3e bfda 063e 5972 c43d 7b13 7ebf
00000150: 14bc 643f 119a a23e c2fb bc3f 6e3f f63e
00000160: 1a27 3bbf eb9c dc3e a86d 783e 49da c8be
00000170: b78b 50bf a47d 23bf 10ec c43f 11d2 97bf
00000180: cc8d be3e 1477 00bf 0faf d63e 2cc1 40bf
00000190: 40d5 63bf fd1e 143f 6ea1 e0bc 75ec 053e
000001a0: ec55 babe 6cf7 853f 4361 6c3f 8241 683f
000001b0: 3888 f7bd 9b16 93be bca9 96be e264 723e
000001c0: 5e27 24be c23e 153f 2a98 683e f2a3 75ba
000001d0: 155a 5dbc e3ca ab3e ade0 45bf ff08 5f3f
000001e0: 521d 07bf 2288 8cbe a87b d0be e7e7 f5be
000001f0: f1a7 aa3e 6518 21bf 55c8 653e 3438 5abd
00000200: 5c35 2f3e edef 463f 52a9 87bd 7445 333f
00000210: 8d56 4cbf d5cb 03bf c674 053f 97d6 83bf
00000220: b955 2a3f 7b05 1abf f204 e8bf 848d 8ebe
00000230: 3ff3 cfbe a336 0abf 2631 0bbf 27e6 213f
00000240: c3a0 623e afdd 5a3f ba90 0740 0d2c 41bf
00000250: f9ab 1abc b863 163f a09c 053f dfd7 a93f
00000260: b5aa cf3e 93cf db3f 32c6 003f 1df6 40bf
00000270: 97f8 6abf 4132 53bf 642b db3e 3a68 0f3e
00000280: ab44 f03e 2a08 343e 498d 463f 76f6 ac3c
00000290: a10d 46bf 876b 673e e57d c0be 556f 9bbe
000002a0: ac71 d5be 5ae1 9c3f a1c4 9e3f 7762 253f
000002b0: 9fcf 30bf 41a3 3cbe 41ba 47bf 32f6 afbe
000002c0: 94d8 37bf 999f 00be 841d 173d 179e 2a3f
000002d0: 6e11 ae3e bc55 0e3e 6486 3bbf 72f1 6c3f
000002e0: f0cc 2dbf caeb 09bf c8ca 23be 9eae 963f
000002f0: 02ec 14bf d9fb 65bf d685 a73f 5ca3 033f
00000300: 5795 293f d0eb 13bf 9adc 1e3f 6b53 16bf
00000310: 00ac d5bf aea6 27bf 9d42 233f 9a32 5c3d
00000320: e873 b33f ae8f 7bbe 32f3 edbd 1a04 c73c
00000330: 80c8 e2bf 9daf 21bf c5c4 7ebf 12de 893d
00000340: 5e32 4b3f 07bb cf3e 0710 3040 ba17 68bf
00000350: e4db 3d3f 862b adbe d1a2 793f 778f 0e3f
00000360: 5105 23bf ecea b03f 796a 0d3f 02d3 d9be
00000370: 4dcd 57bf 0d27 04bf 861b c93f ad00 06bf
00000380: 08c5 903f 8199 7a3e f8e6 093f b868 6d3e
00000390: 8f24 cebf c52e 273f ffa1 ad3e 2f3c d93e
000003a0: 730d 48bf bda4 d53f 4bfd 0f40 fbf1 583f
000003b0: 23e0 6a3e 9073 20be d761 733e 0c62 c13f
000003c0: 9d00 94bf e854 c23e 9045 f73e d79a 443e
000003d0: 5074 24bf c161 c2be d695 0abf d521 453f
000003e0: b479 993e 704e 9bbe 5c80 21bf 6c13 bd3e
000003f0: 8344 c4be 8367 c0bf 052d 8abd b4c5 fd3e

lstm.bias_ih_l0 f4 [256]
-0.8040362 -0.7169899 -1.0155836 -0.52215946 -0.20533675 -0.9462641 -1.1995758 -0.63270235
-0.13939585 -0.7216262 -0.9499764 -0.6904393 -0.9084523 -0.7723937 -0.91481274 -0.88770384
-0.69516337 -0.76038915 -0.48607028 0.11625121 -0.37664855 -0.6873545 -0.1634473 -1.0541803
-0.8019285 -0.2961549 -0.65266395 -0.9328283 0.029190466 -0.3617211 -0.32748082 -0.3939483
-0.48855966 -0.99584115 -0.5063563 -0.9162029 -0.6508005 -0.6643215 -0.783948 -0.5873634
-0.78511 -0.11579459 0.39599112 -0.42475146 0.9965675 -1.0725366 -0.93907255 -1.1351933
-0.8691036 -0.9728272 -0.6615029 -0.48092866 -1.0949676 -1.0135225 -0.38842723 -0.46805105
-0.9404534 -0.33011523 -0.5771325 -0.6940701 -0.8258296 0.20204078 -0.63996744 -0.375226
-0.37941143 -0.4366535 -0.09836265 0.15928632 -0.13785297 -0.37072575 -0.2154081 0.103521354
0.20709711 -0.65626156 -0.5189503 -0.308304 -0.90570605 -0.060366772 0.24452579 -0.5400838
0.09601447 0.72571665 -0.2571744 0.06337895 0.034351856 -0.30993906 -0.10991387 -0.19532235
-0.4135122 -0.33735028 -0.04110734 -0.25909868 0.20166822 -0.44240904 0.15701693 0.5421036
-0.40922067 -0.25691965 -0.25743186 -0.084832825 -0.18348111 -0.34075385 -0.20349455 -0.50277096
-0.19352494 -0.15032777 0.34739313 0.38892293 -0.57224685 -0.18998553 -0.3038978 -0.34769064
-0.22036088 -0.35250205 -0.5509528 0.15116517 -0.32939184 0.023889087 0.18938407 -0.4618545
-0.71769315 -0.87711054 -0.37995902 -0.26592743 -0.5935368 -0.26405257 0.12514733 0.06829163
0.315352 -0.14273791 0.2794236 -0.34984878 -0.6478288 -0.60098004 0.11506518 0.6450516
0.50489485 -0.19538805 -0.029585075 0.026860379 -0.21689954 -0.08402082 0.2746566 0.074461035
0.18957826 -0.66929996 0.52664053 -0.43884623 -0.057999562 -0.06766053 0.38899586 0.2181359
-0.43810478 0.38255137 0.18518083 -0.14053336 0.40716884 0.12298322 0.26718217 -0.31141213
0.46005592 0.1554969 0.2550431 -0.3646483 -0.20170058 -0.02632512 0.24927707 0.25872374
-0.027557176 0.5376768 0.54125357 0.20223123 1.195835 0.08331009 0.17154042 0.12209136
-0.30190817 0.13945773 0.15694042 -0.08482452 0.006073351 0.05839038 0.13534412 -0.24219014
-0.16042623 0.14258756 -0.065623134 0.64490247 0.3573867 -0.8624647 -0.048421804 -0.38266277
-0.66724426 -0.6394139 -0.42362502 -0.36840984 0.6486676 -0.58227575 -0.8475381 0.08860665
-0.11417152 -0.8300587 -1.231902 -0.9928067 -0.9337208 -0.38430494 -0.38438126 -1.1732005
-0.42300713 0.48771232 -0.5658803 0.05116319 0.06381567 -0.68276614 -0.2113106 -0.50903875
-0.6435282 -0.7925192 -0.50545686 -0.82477033 -0.118895724 -0.41916552 -0.5185196 -1.394825
-0.3221492 -0.2012195 -0.6027108 0.06328635 -0.5351313 -0.43586218 -0.90114146 -0.7370517
-0.7490721 0.06776762 0.22642879 -0.49033713 0.45125234 -0.6288018 -0.8724265 -0.8564876
-0.86840713 -1.2133346 -0.67874724 -0.4598238 -1.3634635 -0.45396966 -0.3058525 -0.6331736
-0.73127514 -0.43133634 -0.18524422 -0.6367836 -0.72128177 -0.11146657 -0.16512819 -0.12885487
00000000: 51d5 4dbf a68c 37bf a5fe 81bf 3eac 05bf
00000010: cc43 52be 5d3e 72bf b38b 99bf c8f8 21bf
00000020: c9bd 0ebe 7fbc 38bf a731 73bf a1c0 30bf
00000030: 5490 68bf 98bb 45bf 2b31 6abf 8f40 63bf
00000040: 3af6 31bf dda8 42bf 34de f8be 1d15 ee3d
00000050: 14d8 c0be 77f6 2fbf bb5e 27be 61ef 86bf
00000060: 304b 4dbf 9da1 97be fc14 27bf d6cd 6ebf
00000070: d820 ef3c 8233 b9be 91ab a7be 97b3 c9be
00000080: 7e24 fabe 72ef 7ebf 91a0 01bf 468c 6abf
00000090: dd9a 26bf f910 2abf d1b0 48bf 735d 16bf
000000a0: f8fc 48bf b725 edbd 59bf ca3e 0679 d9be
000000b0: 0c1f 7f3f e148 89bf 0f67 70bf 044e 91bf
000000c0: 937d 5ebf 340b 79bf 4158 29bf 483c f6be
000000d0: e627 8cbf 1bbb 81bf efdf c6be 63a4 efbe
000000e0: 8ec1 70bf dd04 a9be f5be 13bf 94ae 31bf
000000f0: 9269 53bf c7e3 4e3e e8d4 23bf 9f1d c0be
00000100: 3742 c2be 0c91 dfbe 5b72 c9bd f41b 233e
00000110: 5429 0dbe c4cf bdbe f193 5cbe 0103 d43d
00000120: 4411 543e c200 28bf edd9 04bf 06da 9dbe
00000130: 5adc 67bf 2643 77bd f864 7a3e ef42 0abf
00000140: 3ca3 c43d 91c8 393f 5dac 83be d3cc 813d
00000150: 88b4 0c3d 55b0 9ebe 861a e1bd 9502 48be
00000160: dfb7 d3be 2db9 acbe 2c60 28bd 95a8 84be
00000170: 1d82 4e3e 7083 e2be 0cc9 203e 4dc7 0a3f
00000180: 5f85 d1be f98a 83be 1cce 83be d5bc adbd
00000190: 79e2 3bbe 4a77 aebe e060 50be 99b5 00bf
000001a0: 672b 46be 86ef 19be 83dd b13e e820 c73e
000001b0: c57e 12bf 918b 42be 7e98 9bbe 8204 b2be
000001c0: 48a6 61be 267b b4be 3e0b 0dbf 0bcb 1a3e
000001d0: 0ca6 a8be 0cb3 c33c e6ed 413e 3178 ecbe
000001e0: bdba 37bf 518a 60bf fd89 c2be a427 88be
000001f0: 07f2 17bf e631 87be 9f26 003e 7bdc 8b3d
00000200: d175 a13e e329 12be 9c10 8f3e 611f b3be
00000210: 1cd8 25bf d4d9 19bf 4ba7 eb3d 1a22 253f
00000220: ca40 013f ce13 48be 665c f2bc 4c0a dc3c
00000230: ea1a 5ebe 1c13 acbd ca9f 8c3e 077f 983d
00000240: ce20 423e 3e57 2bbf ead1 063f 74b0 e0be
00000250: f390 6dbd 9b91 8abd 772a c73e 045f 5f3e
00000260: 454f e0be c6dd c33e 0ba0 3d3e fae7 0fbe
00000270: 6f78 d03e a0de fb3d 1acc 883e 6971 9fbe
00000280: 738c eb3e 943a 1f3e 0295 823e 2fb3 babe
00000290: 998a 4ebe c7a7 d7bc 7d42 7f3e 7077 843e
000002a0: 96bf e1bc 30a5 093f 988f 0a3f b415 4f3e
000002b0: 1f11 993f 7b9e aa3d 4ba8 2f3e 090b fa3d
000002c0: b593 9abe 02ce 0e3e fdb4 203e 7ab8 adbd
000002d0: f602 c73b c02a 6f3d a697 0a3e b100 78be
000002e0: c646 24be 7902 123e 6c65 86bd 5418 253f
000002f0: 64fb b63e 7dca 5cbf f155 46bd 60ec c3be
00000300: 85d0 2abf a1b0 23bf 61e5 d8be 37a0 bcbe
00000310: 140f 263f 0610 15bf 42f8 58bf 6777 b53d
00000320: c2d2 e9bd ba7e 54bf f7ae 9dbf 9428 7ebf
00000330: 5408 6fbf 9ec3 c4be 9fcd c4be 6f2b 96bf
00000340: 6494 d8be 6eb5 f93e 88dd 10bf 7e90 513d
00000350: cab1 823d c3c9 2ebf ce61 58be 5d50 02bf
00000360: 44be 24bf 8ae2 4abf 9f65 01bf 2624 53bf
00000370: 9a7f f3bd dd9c d6be b3bd 04bf a089 b2bf
00000380: bdf0 a4be 7c0c 4ebe 414b 1abf 469c 813d
00000390: 5dfe 08bf 5429 dfbe 35b1 66bf 6caf 3cbf
000003a0: 30c3 3fbf c0c9 8a3d f3dc 673e 780d fbbe
000003b0: 8c0a e73e 28f9 20bf 5857 5fbf c542 5bbf
000003c0: ee4f 5ebf 8c4e 9bbf 61c2 2dbf 066e ebbe
000003d0: f985 aebf b66e e8be b398 9cbe aa17 22bf
000003e0: d934 3bbf 1ed8 dcbe a9b0 3dbe 4004 23bf
000003f0: eca5 38bf 9648 e4bd 5d17 29be 88f2 03be

lstm.bias_hh_l0 f4 [256]
-0.7022535 -0.8364332 -1.0350384 -0.49008772 -0.15742967 -1.0136942 -1.0374559 -0.67845297
-0.12015527 -0.9013439 -0.94587475 -0.91215634 -0.92211556 -0.5580573 -0.6851416 -0.87611157
-0.717793 -0.68009835 -0.27415836 0.03820312 -0.43220854 -0.5308618 -0.23197384 -0.8612425
-0.78402424 -0.36168572 -0.63225305 -0.73763466 -0.12929723 -0.3277473 -0.47238594 -0.48822314
-0.6931143 -1.0570884 -0.49705303 -0.8041472 -0.6026543 -0.514687 -0.7850087 -0.66383857
-0.97016376 -0.07908602 0.43142688 -0.5074349 0.8695588 -0.9014744 -1.005881 -0.93976206
-0.8176251 -0.93340695 -0.83935064 -0.5477483 -1.12692 -0.8412913 -0.46086627 -0.34261954
-0.9319478 -0.45321843 -0.58760244 -0.8238616 -0.68513644 0.06985007 -0.6926775 -0.51681733
-0.2935309 -0.6559086 -0.1245147 0.20963366 -0.27182934 -0.3735581 -0.23714198 0.107413284
0.21358864 -0.60634553 -0.50789076 -0.28365785 -0.69293004 -0.036022987 0.22407705 -0.6645691
0.13171358 0.7495999 -0.25132698 0.20633209 0.16850516 -0.22035399 -0.23955508 -0.3137087
-0.34907445 -0.32310185 -0.16731483 -0.123197295 0.05130096 -0.6515056 0.22287111 0.5328086
-0.3268102 -0.34187666 -0.35698235 -0.16519591 -0.1912723 -0.35802528 -0.17406465 -0.39657047
-0.32803875 -0.2827856 0.35456577 0.55142933 -0.5563292 -0.4068164 -0.17472911 -0.35178143
-0.30700845 -0.4022913 -0.6812032 0.17702147 -0.35866272 -0.17536354 0.22049996 -0.28255567
-0.5611774 -0.779597 -0.16374567 -0.19422917 -0.5835656 -0.3339913 0.09198726 -0.14837594
0.40903792 -0.31421703 0.33445698 -0.42289594 -0.4734084 -0.6290127 0.20624836 0.63382316
0.50161946 -0.21732552 0.10623793 0.03777866 -0.14244613 -0.038020745 0.17212859 -0.02184342
0.054052364 -0.4805999 0.5411617 -0.50092804 0.04029655 -0.26766512 0.17981239 0.23804727
-0.4107662 0.17911561 0.18849774 -0.019643929 0.2432251 -0.057284568 0.16737315 -0.30508655
0.45932445 0.1174809 0.2518241 -0.5259364 -0.23499027 -0.049820907 0.23472463 0.16478786
0.14398937 0.4488124 0.52254665 0.057572566 1.1197425 0.085442744 0.03851069 0.100151196
-0.51225615 0.26583788 0.061522365 -0.14931244 -0.19169348 0.08573775 0.080034986 -0.123022325
-0.071981795 0.087954596 0.0049114935 0.42903697 0.2526699 -0.7845672 0.03431092 -0.43839732
-0.75433093 -0.76543456 -0.6169357 -0.39860806 0.50198483 -0.7155781 -0.86353815 0.22703785
-0.302116 -0.9448768 -1.1090895 -0.95861757 -1.0360829 -0.35156208 -0.5605833 -1.2073988
-0.3314948 0.60259616 -0.6303704 0.10830273 0.07199909 -0.77247113 -0.2568237 -0.39540118
-0.6283305 -0.6854156 -0.49731395 -0.8513156 -0.33797184 -0.4702308 -0.45915234 -1.3738532
-0.20570914 -0.17645639 -0.50274515 -0.050948933 -0.65328485 -0.4064979 -0.8110097 -0.654153
-0.65298235 0.15899755 0.36359513 -0.5304497 0.40433925 -0.53302795 -0.9923466 -0.7320563
-1.017939 -1.077831 -0.6600525 -0.4403198 -1.3190027 -0.4243981 -0.24708518 -0.74236107
-0.72474676 -0.4611337 -0.26054665 -0.5991256 -0.816448 -0.18465112 -0.21279939 -0.14012615
00000000: e3c6 33bf 7c20 56bf 237c 84bf c7ec fabe
00000010: 3e35 21be bbc0 81bf 5bcb 84bf 18af 2dbf
00000020: f713 f6bd 79be 66bf d924 72bf 1483 69bf
00000030: c40f 6cbf d8dc 0ebf 7165 2fbf d948 60bf
00000040: 48c1 37bf ed1a 2ebf 7c5e 8cbe e07a 1c3d
00000050: 704a ddbe 8fe6 07bf 8d8a 6dbe 637a 5cbf
00000060: d0b5 48bf df2e b9be 56db 21bf a0d5 3cbf
00000070: 7e66 04be 7ece a7be 92dc f1be 62f8 f9be
00000080: f06f 31bf ac4e 87bf bc7d febe 97dc 4dbf
00000090: 8d47 1abf 87c2 03bf 55f6 48bf 53f1 29bf
000000a0: a75c 78bf daf7 a1bd fce3 dc3e 41e7 01bf
000000b0: 689b 5e3f 07c7 66bf b5c0 80bf 3f94 70bf
000000c0: e14f 51bf c2f3 6ebf afdf 56bf 3c39 0cbf
000000d0: ea3e 90bf de5e 57bf aaf6 ebbe d46b afbe
000000e0: 2294 6ebf 3f0c e8be 1d6d 16bf 98e8 52bf
000000f0: 1a65 2fbf 8e0d 8f3d 5053 31bf 244e 04bf
00000100: af49 96be a0e9 27bf 9001 ffbd 35aa 563e
00000110: 372d 8bbe 0243 bfbe 59d5 72be 7ffb db3d
00000120: fbb6 5a3e 7639 1bbf 2105 02bf 9a3b 91be
00000130: dd63 31bf d78c 13bd 7474 653e 3321 2abf
00000140: eddf 063e c7e5 3f3f eead 80be b848 533e
00000150: 9e8c 2c3e 7aa4 61be ed4d 75be 6d9e a0be
00000160: e3b9 b2be 9b6d a5be 9454 2bbe dd4e fcbd
00000170: f520 523d 12c9 26bf 5338 643e 2566 083f
00000180: ab53 a7be 750a afbe 64c6 b6be 1e29 29be
00000190: e3dc 43be 174f b7be 013e 32be 490b cbbe
000001a0: b2f4 a7be 46c9 90be a589 b53e 792a 0d3f
000001b0: 976b 0ebf 3d4a d0be 30ec 32be b21c b4be
000001c0: 3630 9dbe 20f9 cdbe 5563 2ebf 1e45 353e
000001d0: a4a2 b7be 8092 33be beca 613e 23ab 90be
000001e0: 52a9 0fbf ab93 47bf f2ac 27be 03e4 46be
000001f0: 8e64 15bf e800 abbe d163 bc3d ddef 17be
00000200: 6b6d d13e 0ee1 a0be f23d ab3e d185 d8be
00000210: 9662 f2be fa06 21bf c532 533e 3c42 223f
00000220: 226a 003f 958a 5ebe 4693 d93d ccbd 1a3d
00000230: 66dd 11be a4bb 1bbd 7a42 303e f9f0 b2bc
00000240: 0366 5d3d 3111 f6be 9389 0a3f d23c 00bf
00000250: ff0d 253d 670b 89be bd20 383e aac2 733e
00000260: f34f d2be 156a 373e 8d05 413e 4eec a0bc
00000270: 0010 793e 39a3 6abd de63 2b3e 4e34 9cbe
00000280: 932c eb3e d399 f03d 17ef 803e c5a3 06bf
00000290: 4aa1 70be 0211 4cbd a75b 703e 26be 283e
000002a0: f371 133e bdca e53e 9ec5 053f 36d1 6b3d
000002b0: b953 8f3f 9bfc ae3d 63bd 1d3d 121c cd3d
000002c0: 3823 03bf e71b 883e e0fe 7b3d 5ce5 18be
000002d0: 4c4b 44be 4697 af3d 62e9 a33d 21f3 fbbd
000002e0: 316b 93bd 8a21 b43d 98f0 a03b bcaa db3e
000002f0: f35d 813e 65d9 48bf 9b89 0c3d 9d75 e0be
00000300: d51b 41bf 85f3 43bf 7fef 1dbf 5b16 ccbe
00000310: 1482 003f 2030 37bf d610 5dbf 9c7c 683e
00000320: f3ae 9abe 72e3 71bf a5f6 8dbf f667 75bf
00000330: 5d9e 84bf f2ff b3be 6382 0fbf 0b8c 9abf
00000340: b0b9 a9be be43 1a3f f45f 21bf d2cd dd3d
00000350: 4274 933d abc0 45bf 657e 83be 0672 cabe
00000360: 45da 20bf 6677 2fbf ef9f febe d2ef 59bf
00000370: a50a adbe 17c2 f0be 0416 ebbe 6cda afbf
00000380: 6ba5 52be fcb0 34be e8b3 00bf d4af 50bd
00000390: ad3d 27bf 7e20 d0be 559e 4fbf 9276 27bf
000003a0: da29 27bf 41d0 223e 2429 ba3e 8dcb 07bf
000003b0: 8e05 cf3e 8574 08bf 6d0a 7ebf 0b68 3bbf
000003c0: d34b 82bf 5ef6 89bf 33f9 28bf 9971 e1be
000003d0: 15d5 a8bf b54a d9be e603 7dbe 600b 3ebf
000003e0: 0189 39bf b719 ecbe 5f66 85be 4c60 19bf
000003f0: bc02 51bf 2f15 3dbe 15e8 59be 3b7d 0fbe

output_proj.weight f4 [1, 64]
-0.009791162 -0.003513951 0.027114691 -0.00027286814 -0.0298653 0.039037712 0.017755782 0.0034618168
-0.0102805775 0.008858956 -0.07828292 0.015310471 0.12784982 -0.08259991 -0.12302125 -0.17415713
0.012490035 8.087603e-05 -0.03209512 -0.00059156166 -0.00039301254 -0.025510075 -0.004887844 -0.067270815
0.038660698 -0.029594708 0.05054143 0.004158678 -0.01925352 -0.007895287 0.0023151792 -0.45434433
-0.0011698847 0.17952108 -0.05552803 0.0021339774 0.03900535 -0.029208487 0.058106136 0.020181585
0.020833945 0.00079341774 0.000161787 -0.01748125 -0.0003263997 -0.07854563 0.0034303553 -0.014288038
-0.07258417 -0.0064290846 0.0070886337 0.0015847569 -0.03028786 0.65534693 0.004645461 -0.0037066594
0.14992338 0.00825164 -0.06460012 -0.0013778484 -0.09128093 0.04453706 -5.7703764e-05 -0.033601094
00000000: 1c6b 20bc 514a 66bb a11f de3c be0f 8fb9
00000010: 13a8 f4bc 02e6 1f3d 9374 913c a6df 623b
00000020: de6f 28bc 2825 113c cc52 a0bd c5d8 7a3c
00000030: 10eb 023e 242a a9bd 91f2 fbbd 3f56 32be
00000040: 01a3 4c3c fd9b a938 2c76 03bd 0813 1bba
00000050: 400d ceb9 81fa d0bc 352a a0bb 48c5 89bd
00000060: ae5a 1e3d 9a70 f2bc 8804 4f3d 8545 883b
00000070: 8fb9 9dbc 3c5b 01bc 43ba 173b d29f e8be
00000080: d156 99ba 60d4 373e 5c71 63bd 33da 0b3b
00000090: 13c4 1f3d a346 efbc b300 6e3d da53 a53c
000000a0: f3ab aa3c 5dfd 4f3a 5ea5 2939 d734 8fbc
000000b0: a020 abb9 88dc a0bd d0cf 603b 6018 6abc
000000c0: 02a7 94bd 12ab d2bb c547 e83b 9eb7 cf3a
000000d0: 3f1e f8bc d1c4 273f f438 983b 6deb 72bb
000000e0: 8485 193e e331 073c 114d 84bd ec98 b4ba
000000f0: 7ff1 babd 7e6c 363d f206 72b8 4da1 09bd
